Q1/ckpt/actor_ep50.pth (torch, 21540 bytes, 6 tensors)

net.0.weight f4 [64, 3]
-0.027251955 -0.52903116 -0.25734138 -0.4704454 0.40397453 -0.54320824 0.64186424 0.47439605
0.387108 0.59920746 -0.2633847 5.995365e-06 0.6174255 0.4251277 0.30372885 0.19478315
0.49369487 0.42300496 0.49509954 0.20746106 0.116098344 -0.5936186 0.10976798 -0.26837492
0.48070365 -0.16702583 -0.36035714 0.8357878 0.043319028 -0.015775971 0.47011706 -0.09389878
-0.41160324 -0.17619619 -0.1519213 -0.2379603 -0.042214748 -0.054549657 0.0062738587 0.3616637
-0.7288119 -0.09561257 -0.19371131 -0.48429778 -0.42430887 -0.35570246 -0.46614012 -0.36957327
-0.30421528 -0.4131322 -0.3808349 -0.5732408 0.60321414 0.48634475 -0.42549857 0.3521937
-0.43284568 -0.33245704 0.30290607 -0.08090078 0.10356514 0.56368524 -0.23120078 -0.15270719
0.22283459 0.16775858 0.35335827 0.4064997 -0.03289857 -0.35043707 0.26525342 -0.30437922
-0.051238928 -0.22041398 0.119941376 0.61141324 0.3994705 -0.08079835 0.3535361 -0.09882731
-0.4167977 -0.19902813 -0.61532336 0.027136743 0.46111935 -0.58154553 -0.2992235 -0.59115833
-0.15707421 -0.11482228 0.5154237 0.17975885 -0.08117321 -0.5265088 0.4428445 -0.06446433
0.14851703 0.23538038 -0.37575498 -0.46350953 -0.72640395 0.09419739 0.7628015 0.40805092
0.013998403 -0.121191144 0.119857915 0.1584012 -0.7127 -0.3714934 0.52586716 -0.23237948
0.46926144 0.3428289 0.054087937 0.69885814 0.25002363 0.042736836 0.32846242 -0.03890551
-0.4662146 -0.6115809 -0.45802256 0.41487455 -0.25664777 0.3267046 0.41541725 -0.4489718
-0.07135871 -0.14513129 -0.6155549 -0.0061079673 0.6032494 -0.6542682 -0.21462329 -0.20123586
-0.5507014 -0.2417619 0.04167484 0.2874583 -0.5481305 -0.42989013 0.004136964 -0.47895807
0.53079087 -0.6047112 -0.43930492 -0.10986814 0.44597843 -0.15303463 -0.0831115 0.20271432
0.2257705 0.003052673 -0.44031447 0.45770797 0.534652 0.2261317 0.33421156 -0.13602626
0.2310161 -0.19492032 0.021377718 -0.3933498 0.46919155 0.6283291 0.39631596 0.39865237
0.5284399 -0.70067793 -0.18626347 0.31493855 0.30891618 -0.46280435 0.10658376 -0.3115429
0.19194567 -0.38716283 0.6859097 -0.16245909 0.21377957 -0.59762186 -0.07751722 0.17630395
-0.13601258 -0.44911185 -0.16555074 0.6469214 0.23736098 -0.5669676 0.28262496 -0.15768892
00000000: 7e3f dfbc 966e 07bf 40c2 83be 38de f0be
00000010: c0d5 ce3e b20f 0bbf 3751 243f 0ae4 f23e
00000020: 0533 c63e a965 193f 5cda 86be cb2b c936
00000030: 990f 1e3f 57aa d93e 5982 9b3e 3c75 473e
00000040: 93c5 fc3e 1b94 d83e b07d fd3e ac70 543e
00000050: f8c4 ed3d 63f7 17bf 09ce e03d 7068 89be
00000060: ca1e f63e d208 2bbe bb80 b8be 30f6 553f
00000070: 4b6f 313d 9c3c 81bc 2fb3 f03e 014e c0bd
00000080: a9bd d2be c66c 34be 4291 1bbe ddab 73be
00000090: 5fe9 2cbd 766f 5fbd f194 cd3b fc2b b93e
000000a0: 6b93 3abf 86d0 c3bd 425c 46be e1f5 f7be
000000b0: 033f d9be a21e b6be eba9 eebe b538 bdbe
000000c0: 1bc2 9bbe 1086 d3be cbfc c2be e9bf 12bf
000000d0: 3e6c 1a3f 2e02 f93e f3da d9be bc52 b43e
000000e0: f39d ddbe cf37 aabe 8116 9b3e 4faf a5bd
000000f0: f619 d43d ad4d 103f e6bf 6cbe 465f 1cbe
00000100: c02e 643e e8c8 2b3e 60eb b43e bb20 d03e
00000110: a7c0 06bd 7d6c b3be 4ccf 873e 98d7 9bbe
00000120: e9df 51bd 34b4 61be d3a3 f53d 9485 1c3f
00000130: 6687 cc3e 9b79 a5bd af02 b53e f965 cabd
00000140: 8266 d5be 08ce 4bbe d585 1dbf e04d de3c
00000150: d617 ec3e 2be0 14bf d333 99be 2756 17bf
00000160: 10d8 20be f227 ebbd cff2 033f b412 383e
00000170: 243e a6bd 48c9 06bf 84bc e23e e005 84bd
00000180: d914 183e 8e07 713e f562 c0be 1f51 edbe
00000190: 9cf5 39bf 90ea c03d f646 433f 0dec d03e
000001a0: 8f59 653c 1033 f8bd 1178 f53d ed33 223e
000001b0: 8273 36bf 6234 bebe 3b9f 063f e3f4 6dbe
000001c0: 0943 f03e 4587 af3e 508b 5d3d 5ee8 323f
000001d0: 1903 803e d20c 2f3d 3a2c a83e 625b 1fbd
000001e0: aeb3 eebe 9190 1cbf ef81 eabe 706a d43e
000001f0: 5667 83be d345 a73e 92b1 d43e a2df e5be
00000200: 8424 92bd 4c9d 14be 0295 1dbf 5825 c8bb
00000210: 8d6e 1a3f 1f7e 27bf 35c6 5bbe c610 4ebe
00000220: c4fa 0cbf 6e90 77be 3db3 2a3d bc2d 933e
00000230: 4852 0cbf 8f1a dcbe 5f8f 873b fe39 f5be
00000240: e9e1 073f 5ace 1abf 93ec e0be 8c02 e1bd
00000250: 4957 e43e 1cb5 1cbe 5d36 aabd 5894 4f3e
00000260: 6230 673e 5b0f 483b e670 e1be b358 ea3e
00000270: f4de 083f 128f 673e c71d ab3e 784a 0bbe
00000280: 7c8f 6c3e 3199 47be 5320 af3c 2565 c9be
00000290: e039 f03e 2dda 203f ede9 ca3e 2a1c cc3e
000002a0: d647 073f a15f 33bf dabb 3ebe a03f a13e
000002b0: 432a 9e3e b1f4 ecbe 9648 da3d 8d82 9fbe
000002c0: 688d 443e 353a c6be c797 2f3f ad5b 26be
000002d0: 08e9 5a3e bffd 18bf 59c1 9ebd 0689 343e
000002e0: e246 0bbe fdf1 e5be 2286 29be a49c 253f
000002f0: c20e 733e ca24 11bf 38b4 903e 3479 21be

net.0.bias f4 [64]
-0.43755183 0.3348859 0.20955612 -0.18999021 -0.01626136 -0.13632102 0.36918363 0.17406285
-0.3093906 0.14150886 -0.22552845 -0.34342924 -0.5552991 0.18850267 -0.1676084 -0.6370608
0.37258795 -0.3551459 0.36132684 0.26475123 0.5448295 -0.38729447 0.15794788 -0.5596987
-0.22771215 0.22007982 0.5140533 0.050475117 -0.22288172 0.5823993 0.11353101 0.5492392
0.37338525 -0.010479294 -0.06835794 -0.3909126 -0.3887385 -0.10269009 -0.16480263 0.20977503
-0.21787463 0.25554058 -0.29762754 0.3613618 0.3805278 -0.66864824 0.5330171 -0.46201468
0.5661919 -0.49551153 -0.33991382 -0.53481936 0.2044353 -0.64746964 -0.054435335 -0.57519174
0.32658654 -0.01700807 0.1644282 0.3618771 0.19594379 0.4595682 0.22600862 -0.38641182
00000000: cb06 e0be 2a76 ab3e e195 563e cb8c 42be
00000010: 8b36 85bc bd97 0bbe a305 bd3e 883d 323e
00000020: 7268 9ebe b3e7 103e eef0 66be f5d5 afbe
00000030: 1528 0ebf d806 413e 89a1 2bbe 6b16 23bf
00000040: d9c3 be3e afd5 b5be d5ff b83e 798d 873e
00000050: f279 0b3f 764b c6be 17bd 213e 6a48 0fbf
00000060: 602d 69be 9b5c 613e ff98 033f ffbe 4e3d
00000070: 1b3b 64be 1f18 153f f282 e83d f19a 0c3f
00000080: 5a2c bf3e 58b1 2bbc 3fff 8bbd b225 c8be
00000090: bc08 c7be 2f4f d2bd 05c2 28be 44cf 563e
000000a0: 871a 5fbe 37d6 823e a362 98be 6a04 b93e
000000b0: 8ad4 c23e 882c 2bbf cf73 083f 308d ecbe
000000c0: f4f1 103f b0b3 fdbe 2f09 aebe ece9 08bf
000000d0: 7d57 513e 92c0 25bf 96f7 5ebd c43f 13bf
000000e0: 5a36 a73e 8254 8bbc de5f 283e f547 b93e
000000f0: 7da5 483e 864c eb3e ce6e 673e c5d7 c5be

net.2.weight f4 [64, 64]
0.10960104 -0.00035095043 -0.07427032 -0.012513857 0.04268705 0.029573055 -0.04235104 0.08584168
-0.055110436 0.011963577 0.07621314 -0.12169368 0.041224405 0.10643726 -0.011062628 0.05601252
-0.14717332 -0.11661566 -0.15920351 -0.2323521 0.08819073 -0.13943598 -0.07060405 -0.013320589
-0.031988822 0.0258122 -0.10719195 -0.036856968 -0.040393937 -0.14212078 0.026208421 0.015798531
-0.10913357 0.027757758 -0.07303167 0.099424295 0.004372231 0.041110855 0.061389074 -0.053264763
-0.076486684 0.12972203 -0.03140732 0.12888907 -0.03606154 -0.100181 -0.037430987 -0.016320935
-0.10920281 -0.053218763 0.07455644 0.07192352 -0.056668222 0.009998469 0.101936355 0.06184022
0.022145936 -0.037794117 -0.056970526 -0.04957259 0.042342898 -0.07109058 0.0031879437 -0.14910066
0.06708568 -0.078927845 0.09631868 0.114904545 0.05830619 0.112718195 -0.057851303 -0.09606387
0.066304214 -0.0032694878 -0.04007813 0.012436546 0.05722028 0.019626833 0.045503307 -0.13452004
0.05910205 -0.012210256 0.054626267 -0.076523796 -0.11511349 -0.085971914 -0.06742352 -0.036018085
-0.008461722 -0.18079337 0.051855445 0.15214525 -0.12054228 0.09791387 -0.15809195 0.002612303
-0.15911539 0.11491243 -0.05701457 0.09392277 0.1388058 0.04065216 0.0007986942 0.020023786
-0.058264464 0.075961925 0.23479302 0.03630499 -0.00019614665 -0.12429374 -0.07390546 0.061899323
0.04548533 0.06641222 0.03938444 0.08970851 0.10525695 -0.083423525 0.029309647 0.1004607
0.10632529 0.03361714 0.07339166 -0.120083556 0.019332767 0.056907248 -0.048509352 -0.17099164
-0.037936993 0.08578354 0.067766294 -0.015470117 0.06357542 0.059347287 -0.0323859 -0.03427402
0.02051276 -0.0757468 -0.060008742 0.049657766 -0.11926532 0.016008073 0.11855701 -0.013091387
-0.08283655 -0.11732246 0.102773726 -0.07760054 -0.086193904 -0.072734445 0.052437495 0.118759245
-0.12179649 -0.10687049 -0.06399944 0.0018679553 0.09090307 -0.085554 0.008806762 -0.10816137
-0.118755355 0.03563854 0.087552205 0.10246572 0.10230298 -0.08904685 0.11687656 -0.07849893
0.03499446 -0.120496124 0.05812618 -0.075513914 0.062234014 0.02835763 0.09569165 -0.07473299
-0.08087976 -0.068823375 -0.049977496 -0.066819474 -0.09597911 -0.11758993 -0.11891897 -0.11050245
0.00633636 0.055601586 -0.08338487 0.11479348 -0.0082332445 -0.108069606 -0.11663623 -0.0058896043
0.10646448 0.09754545 -0.067943364 0.0387302 0.098937355 -0.10265273 -0.07337835 -0.0071552144
-0.08490572 0.20040388 -0.09495031 -0.10663437 0.10912545 0.11893647 0.07703331 0.042172566
0.101240754 0.076572746 0.02972393 0.06108597 0.04335987 -0.02796891 -0.06474013 0.043419458
-0.020575518 -0.033350203 0.03631174 -0.040480085 -0.033828184 0.057863746 -0.1251493 0.121844396
0.069261625 0.11991905 0.116281144 -0.018801006 -0.033205554 0.0920643 0.010603039 0.0982054
-0.023911197 0.096220456 -0.09217252 0.09801407 -0.020598965 -0.07823402 0.010041754 -0.006163022
0.13967009 -0.2063205 -0.04968052 -0.09533367 0.070154905 -0.12639827 0.06692606 -0.081177376
0.018584512 0.031699423 0.14523469 -0.09459504 -0.055294268 0.04172611 -0.06333664 -0.054036524
00000000: 8376 e03d c5ff b7b9 0a1b 98bd ec06 4dbc
00000010: 9ed8 2e3d 3143 f23c 4978 2dbd c3cd af3d
00000020: 7bbb 61bd e102 443c a215 9c3d 893a f9bd
00000030: ecda 283d c7fb d93d 0640 35bc 626d 653d
00000040: 9ab4 16be 31d4 eebd 3f06 23be b5ed 6dbe
00000050: 579d b43d 4ec8 0ebe db98 90bd 9a3e 5abc
00000060: b606 03bd 1b74 d33c 7487 dbbd 55f7 16bd
00000070: 1d74 25bd 1c88 11be 0bb3 d63c ec6b 813c
00000080: 6c81 dfbd 3d64 e33c a191 95bd f79e cb3d
00000090: ef44 8f3b db63 283d 1c73 7b3d 272c 5abd
000000a0: 0da5 9cbd dad5 043e f6a4 00bd 7ffb 033e
000000b0: 44b5 13bd b22b cdbd 3c51 19bd 7bb3 85bc
000000c0: b9a5 dfbd ebfb 59bd 0cb1 983d a34c 933d
000000d0: f01c 68bd 9ed0 233c 02c4 d03d 2c4c 7d3d
000000e0: 656b b53c 01ce 1abd ed59 69bd a10c 4bbd
000000f0: bf6f 2d3d f097 91bd d2ec 503b d8ad 18be
00000100: 3864 893d eca4 a1bd ba42 c53d 1353 eb3d
00000110: 79d2 6e3d ccd8 e63d 7df5 6cbd 22bd c4bd
00000120: 81ca 873d e744 56bb f728 24bd a8c2 4b3c
00000130: d05f 6a3d 74c8 a03c ad61 3a3d 9fbf 09be
00000140: fe14 723d 870d 48bc cbbf 5f3d 82b8 9cbd
00000150: 9fc0 ebbd 0b12 b0bd 5815 8abd b387 13bd
00000160: 09a3 0abc e621 39be 6066 543d f7cb 1b3e
00000170: dfde f6bd 1187 c83d dbe2 21be 2c33 2b3b
00000180: 25ef 22be 3557 eb3d 1c88 69bd 955a c03d
00000190: 1c23 0e3e e182 263d 765f 513a ec08 a43c
000001a0: b8a6 6ebd ed91 9b3d 956d 703e 8bb4 143d
000001b0: b7ac 4db9 b78d febd bf5b 97bd 258a 7d3d
000001c0: d34e 3a3d 2103 883d 9451 213d 18b9 b73d
000001d0: f590 d73d f4d9 aabd c91a f03c 57be cd3d
000001e0: 13c1 d93d 20b2 093d 5e4e 963d 5eee f5bd
000001f0: c05f 9e3c 9317 693d beb1 46bd 6f18 2fbe
00000200: d263 1bbd 48af af3d 0ec9 8a3d 6076 7dbc
00000210: d433 823d 2416 733d 14a7 04bd ea62 0cbd
00000220: 600a a83c 2321 9bbd bacb 75bd f165 4b3d
00000230: 6041 f4bd 5d23 833c 05ce f23d 427d 56bc
00000240: 36a6 a9bd c246 f0bd 087b d23d 08ed 9ebd
00000250: 6e86 b0bd ccf5 94bd b3c8 563d 0c38 f33d
00000260: 7070 f9bd eade dabd 2312 83bd 2ed6 f43a
00000270: 642b ba3d f036 afbd 3d4a 103c b583 ddbd
00000280: 0236 f3bd b8f9 113d 924e b33d 8cd9 d13d
00000290: 3a84 d13d 325e b6bd fa5c ef3d 0cc4 a0bd
000002a0: 5a56 0f3d acc6 f6bd b815 6e3d 0aa7 9abd
000002b0: 18e9 7e3d 434e e83c fcf9 c33d 9c0d 99bd
000002c0: 4aa4 a5bd 45f3 8cbd 34b5 4cbd a6d8 88bd
000002d0: b290 c4bd fdd2 f0bd ca8b f3bd 1c4f e2bd
000002e0: 3da1 cf3b 7dbe 633d b0c5 aabd d818 eb3d
000002f0: bbe4 06bc 9953 ddbd fade eebd 95fd c0bb
00000300: 0d0a da3d e9c5 c73d e425 8bbd 8fa3 1e3d
00000310: ab9f ca3d 983b d2bd 6347 96bd 4a76 eabb
00000320: 0de3 adbd ad36 4d3e 4f75 c2bd 1f63 dabd
00000330: 2a7d df3d f794 f33d a4c3 9d3d 24bd 2c3d
00000340: 5057 cf3d 2cd2 9c3d 997f f33c 4835 7a3d
00000350: 1e9a 313d 0e1f e5bc 7996 84bd 9ad8 313d
00000360: fd8d a8bc 399a 08bd 9ebb 143d 72ce 25bd
00000370: 6c8f 0abd 8902 6d3d 2327 00be 8e89 f93d
00000380: 0ad9 8d3d 1e98 f53d cf24 ee3d 9104 9abc
00000390: 8c02 08bd 358c bc3d 5eb8 2d3c ea1f c93d
000003a0: 6ae1 c3bc 3b0f c53d f2c4 bcbd 9abb c83d
000003b0: 29bf a8bc 2839 a0bd 2b86 243c 2df3 c9bb
000003c0: ad05 0f3e ae45 53be cd7d 4bbd 4d3e c3bd
000003d0: 60ad 8f3d 8c6e 01be 8810 893d 5340 a6bd
000003e0: 8c3e 983c 41d7 013d 67b8 143e 0bbb c1bd
000003f0: 3e7c 62bd ffe8 2a3d a4b6 81bd 6755 5dbd

net.2.bias f4 [64]
-0.045703426 0.123944275 -0.025754599 0.037570335 0.018105349 0.012632981 0.16960703 0.062744536
0.007949242 0.11013655 0.08624417 -0.034795288 0.18106413 0.093563996 -0.121303216 0.08759375
0.046184916 0.15925346 -0.02403134 0.053375226 0.025424585 0.012122478 0.044598017 0.1988182
0.13049054 0.09798931 -0.124106154 0.01242384 0.002409326 -0.057961643 0.03705372 -0.030055242
0.08527681 0.17428142 0.10619314 0.11031538 -0.021335715 0.07540214 0.124521755 0.024129242
0.0227427 0.09006118 -0.01251555 0.09679026 0.0065573184 0.16112047 0.09408667 0.03085254
-0.017951481 -0.026040528 0.038081612 -0.089105204 -0.041526914 -0.05176094 -0.0806262 -0.066704206
0.07967334 -0.01871993 0.060604617 0.123955056 0.010927575 0.10526404 0.05011214 -0.093029484
00000000: 8433 3bbd 7fd6 fd3d 4ffb d2bc 5ae3 193d
00000010: ab51 943c 90fa 4e3c 77ad 2d3e 3580 803d
00000020: 8a3d 023c 468f e13d c9a0 b03d 8185 0ebd
00000030: e068 393e 7b9e bf3d d26d f8bd 5a64 b33d
00000040: 652c 3d3d 5713 233e 5fdd c4bc fb9f 5a3d
00000050: 3847 d03c 5c9d 463c 69ac 363d 0097 4b3e
00000060: 509f 053e 9fae c83d 5e2b febd 5d8d 4b3c
00000070: c8e5 1d3b 3069 6dbd a4c5 173d 6936 f6bc
00000080: 9ca5 ae3d d476 323e ca7b d93d 08ed e13d
00000090: 3dc8 aebc 706c 9a3d 4305 ff3d b0aa c53c
000000a0: e64e ba3c ff71 b83d 050e 4dbc f939 c63d
000000b0: c6de d63b c4fc 243e 83b0 c03d 77be fc3c
000000c0: fc0e 93bc f252 d5bc 77fb 1b3d ca7c b6bd
000000d0: 2018 2abd 4803 54bd 591f a5bd 379c 88bd
000000e0: c72b a33d 8a5a 99bc 8c3c 783d 26dc fd3d
000000f0: 9209 333c ac94 d73d 6342 4d3d 3e86 bebd

mu_head.weight f4 [1, 64]
-0.053166382 0.112076156 -0.019821431 -0.027809683 -0.22263947 0.2627279 -0.19136089 -0.08319282
-0.18374689 0.09605934 -0.17752765 0.08057175 -0.19000463 -0.119102105 0.01789637 -0.15907001
0.033814047 0.090544395 0.06816457 -0.0026241639 0.052850563 -0.07924656 0.06952141 -0.014205409
-0.15579413 0.05641276 -0.049259137 0.10746345 -0.0043170094 0.16803506 -0.009020977 -0.118217945
0.077633105 -0.17957322 -0.057715543 -0.022767544 0.048091955 0.25070557 0.21159768 -0.1033467
0.16784035 0.17310742 0.058650725 0.27232245 0.03461192 0.12935908 -0.10357241 -0.055548947
-0.011826486 0.17013097 0.3223949 -0.08113775 0.102368176 0.016111702 0.16316271 0.081652425
-0.005746867 0.2645793 -0.1244749 -0.2033068 -0.27141923 -0.05594151 -0.33765808 -0.012761623
00000000: fec4 59bd 2f88 e53d 8e60 a2bc 22d1 e3bc
00000010: 9afb 63be 4584 863e 1cf4 43be ff60 aabd
00000020: 2528 3cbe c2ba c43d cfc9 35be cd02 a53d
00000030: 9390 42be ceeb f3bd 689b 923c 40e3 22be
00000040: 9980 0a3d 576f b93d de99 8b3d 2afa 2bbb
00000050: d579 583d 054c a2bd 3e61 8e3d cebd 68bc
00000060: 7f88 1fbe 1111 673d f3c3 49bd cc15 dc3d
00000070: b375 8dbb 6211 2c3e b8cc 13bc 401c f2bd
00000080: 1bfe 9e3d 0be2 37be 2267 6cbd 0083 babc
00000090: 12fc 443d 7b5c 803e 10ad 583e 6fa7 d3bd
000000a0: 57de 2b3e 1243 313e be3b 703d d96d 8b3e
000000b0: 3bc5 0d3d b576 043e c61d d4bd 4b87 63bd
000000c0: e1c3 41bc d036 2e3e f210 a53e 8c2b a6bd
000000d0: 68a6 d13d b0fc 833c 2014 273e 6339 a73d
000000e0: 3750 bcbb f076 873e b2ec febd a82f 50be
000000f0: 76f7 8abe ed22 65bd 85e1 acbe 2016 51bc

log_std_head.weight f4 [1, 64]
0.05662531 -0.04685106 -0.018763846 -0.07721032 -0.008417127 -0.12864047 -0.069146775 -0.05453235
0.14785501 -0.14712973 -0.123514175 0.033236798 -0.20081294 -0.05869376 0.015626922 0.00440682
-0.13466817 -0.027018227 0.08532317 -0.11083412 -0.123734035 -0.04663545 -0.21713032 -0.17202649
-0.0542826 -0.07495104 -0.0030280896 -0.032238666 -0.092469096 0.04615027 0.047367465 -0.17209059
-0.063083276 -0.043759666 0.10119064 -0.040382043 -0.09751732 0.054040536 -0.026131358 -0.07344814
-0.112259805 -0.06396537 0.036669403 0.029236244 -0.015271279 -0.08698581 0.10811164 -0.25511548
-0.052130654 0.030341696 -0.060762197 -0.058881003 -0.073806085 -0.03968727 0.15334624 0.045773447
-0.09424677 0.070729114 0.02449456 -0.062124122 -0.100930974 -0.08125633 -0.038932525 0.081538744
00000000: f1ef 673d e6e6 3fbd a3b6 99bc 7220 9ebd
00000010: fde7 09bc 54ba 03be d39c 8dbd 505d 5fbd
00000020: 4e67 173e 2da9 16be 00f5 fcbd 4f23 083d
00000030: e8a1 4dbe de68 70bd 0804 803c 1667 903b
00000040: 74e6 09be 5455 ddbc eabd ae3d 00fd e2bd
00000050: 4568 fdbd d004 3fbd 6957 5ebe b627 30be
00000060: 6e57 5ebd ee7f 99bd ea72 46bb b10c 04bd
00000070: 7060 bdbd 1108 3d3d 6304 423d 8438 30be
00000080: ce31 81bd 563d 33bd 0a3d cf3d a467 25bd
00000090: 29b7 c7bd 9c59 5d3d 6e11 d6bc fa6b 96bd
000000a0: 78e8 e5bd 4700 83bd a832 163d d980 ef3c
000000b0: 6334 7abc 9e25 b2bd a369 dd3d 7f9e 82be
000000c0: f486 55bd 268f f83c c8e1 78bd 352d 71bd
000000d0: a527 97bd 1e8f 22bd cc06 1d3e f07c 3b3d
000000e0: 7304 c1bd 6dda 903d d1a8 c83c dd75 7ebd
000000f0: e6b4 cebd b869 a6bd b677 1fbd c9fd a63d
