Q1/ckpt/actor_ep350.pth (torch, 21552 bytes, 6 tensors)

net.0.weight f4 [64, 3]
000000 ca 36 a4 3e 14 c8 ba bf e6 47 9c be b3 e8 c3 be
       0.3207305 -1.4592309 -0.30523604 -0.38263473
000010 c4 28 c2 3e b6 31 e1 be f2 32 47 3f 39 17 39 3f
       0.37921727 -0.4398324 0.7781211 0.7230106
000020 83 b0 5c 3e f7 2e 38 3f 73 95 c1 be dd 64 31 be
       0.21551709 0.7194666 -0.37809333 -0.17323633
000030 8f 1e 12 3f fb 83 79 3f cb 6e 4b 3e 7e f3 9f 3e
       0.5707788 0.9746701 0.19866483 0.31240457
000040 b6 a7 9f 3f aa f6 7a 3e 7c e9 8a 3f 21 bf 8a 3e
       1.2473056 0.24508157 1.0852504 0.27098945
000050 41 a2 cd bc b5 93 83 bf 65 d7 4e be 4c 52 d5 bb
       -0.025101783 -1.0279452 -0.20199354 -0.0065100547
000060 f2 42 33 3f 41 93 82 bf 80 29 b5 be 4a 84 85 3f
       0.70024025 -1.0201188 -0.35383224 1.0430996
000070 d8 ae 0e 3e 12 2c 1c be 13 ec 31 3f 6a 9e 18 bf
       0.13933885 -0.15251186 0.69500846 -0.5961672
000080 a0 03 af be e0 3e bd be 33 2c 7d bf 63 4b 36 be
       -0.34182453 -0.36962032 -0.9889557 -0.17802195
000090 5f e9 2c bd 76 6f 5f bd f1 94 cd 3b 6c f6 8e 3e
       -0.042214748 -0.054549657 0.0062738587 0.2792238
0000a0 a9 3f 81 bf 20 3b 64 be db 0f b9 3b 86 83 d9 bf
       -1.0097553 -0.2228818 0.005647642 -1.6993263
0000b0 b3 67 a3 be dc 12 84 be 95 8a 61 bf 6f 9a cf be
       -0.31915054 -0.2579564 -0.88102084 -0.4054751
0000c0 cd 5a c6 be a6 51 7e bf ac ec 47 be 2b a3 be be
       -0.3874115 -0.99343336 -0.19523877 -0.37233862
0000d0 87 65 88 3f 82 0f e4 3e b4 65 2c bf 4e 42 58 3e
       1.0655984 0.44543082 -0.67342687 0.21119043
0000e0 1d a7 5f be a7 66 0e bf ad 17 f6 3e 2a e6 82 bd
       -0.21841092 -0.55625385 0.48064938 -0.063915566
0000f0 24 a0 3a 3e 23 8a 40 3f d5 d6 20 be 69 48 87 bf
       0.18225151 0.7521078 -0.15706952 -1.0568973
000100 8d fc fc 3e 67 c2 15 3c 69 0d b1 3b 1d 15 37 3f
       0.4941143 0.009140587 0.00540321 0.7151659
000110 f1 95 9d bc 73 c0 b3 be 61 65 19 3e 6f ea 98 be
       -0.019236537 -0.35107765 0.14980079 -0.2986636
000120 99 0e 5c be f6 47 87 be 82 23 1b 3e 89 44 75 3f
       -0.21489944 -0.2642209 0.15150264 0.958077
000130 bc d7 e4 3e e2 0e 2f bd 8e b6 8b 3e 0f f1 fe be
       0.44695842 -0.042738803 0.27287716 -0.49793288
000140 34 63 b9 be c3 db fb be a8 0b 3a bf b0 90 75 bd
       -0.36208498 -0.49191102 -0.72674036 -0.059952438
000150 98 fd dc 3e 8c 7b b8 bf 77 89 a8 be 27 49 6b bf
       0.43162227 -1.4412704 -0.32917377 -0.91908497
000160 b2 1e 99 be 41 dc 66 bd a0 77 6b 3f e6 eb 36 3e
       -0.2990623 -0.056362394 0.9197941 0.17863426
000170 60 c8 b4 bd f1 0d 44 bf cf bc e8 3e 95 a8 a6 3d
       -0.08827281 -0.7658377 0.4545655 0.08137623
000180 f3 4e 47 3e 49 c3 52 3f 7f 09 16 be 17 c1 45 bf
       0.1946371 0.8232923 -0.1465206 -0.77247757
000190 5c 86 4f bf 83 27 f4 3d 04 8c 68 3f 0d 84 0f 3f
       -0.8106439 0.11921599 0.90838647 0.5606087
0001a0 6c 6c 41 bc 88 1a 4a bf 79 4b 76 3e c2 72 4b 3e
       -0.011805635 -0.78946733 0.24052228 0.19867995
0001b0 e5 5e 44 bf 1e 96 a2 3d 3c 2c 15 3f c3 41 c5 3d
       -0.767073 0.07938789 0.5827062 0.09631684
0001c0 26 8c 9a 3f dc fe 6f 3e 18 3e 25 3e cc 1a ad 3f
       1.207402 0.23437065 0.16136968 1.3523803
0001d0 ec 08 87 3e 95 1f 9e 3e bc 59 3e 3f 78 4a b9 3d
       0.26373994 0.3088347 0.74355674 0.09047407
0001e0 53 e4 3f be ec 00 c6 bf cd 7a 94 be 90 49 0d 3f
       -0.18739443 -1.5469031 -0.2899994 0.5519037
0001f0 18 51 61 be 92 02 06 3e 1d d3 e2 3e 48 3d 88 bf
       -0.22003591 0.13086918 0.44301692 -1.0643702
000200 c4 59 7e be 18 a2 6d be e8 66 88 bf 0e f6 06 be
       -0.2483893 -0.23206365 -1.0656404 -0.131798
000210 90 f9 ed 3e 75 01 9d bf 53 72 43 be fa a3 fd 3c
       0.46479464 -1.226607 -0.1908658 0.03096198
000220 70 91 69 bf 0d 6f a7 be 9a b8 56 3e 3a eb b3 3e
       -0.91237545 -0.32701913 0.20968857 0.351404
000230 51 59 09 bf 72 92 b5 be 28 f5 f1 be cf d7 df be
       -0.5365191 -0.3546329 -0.47257352 -0.43719336
000240 19 bc 3d 3f 5e 8f 4d bf f7 50 b3 be be ae c7 bc
       0.7411514 -0.80296886 -0.3502271 -0.024375316
000250 2a e1 32 3f 36 37 4d be 6a 48 37 bf c6 64 c1 3d
       0.69874823 -0.20040593 -0.7159487 0.09443049
000260 9c a3 6c 3e d3 e5 53 3d c2 81 fe 3d 03 93 7e 3e
       0.23109287 0.05173285 0.12427093 0.24860768
000270 ad 0e f7 3e 50 29 be 3e 38 e4 31 3e fb 1a 49 bc
       0.48253384 0.37140894 0.17372215 -0.012274499
000280 26 56 20 3f 9d ad cc bd ac b3 bc bc 30 e6 72 be
       0.6263145 -0.099940516 -0.023034893 -0.23720622
000290 67 a0 f0 3e 2d 60 85 3f d2 de 4a 3f 71 30 53 3e
       0.46997377 1.0419976 0.79246247 0.20623948
0002a0 4c 7c c5 3e a0 4b 9b bf 6e b8 7c be d1 18 cb bc
       0.38571393 -1.2132454 -0.2467973 -0.024792107
0002b0 cd b5 ae 3e 7e cd d7 be 07 ae bf 3d cf fb c5 bd
       0.34123078 -0.42148966 0.09359365 -0.09667169
0002c0 29 2e 80 3e 81 48 54 bf d9 b3 4b 3f f5 47 94 bb
       0.25035217 -0.8292313 0.795713 -0.0045251795
0002d0 25 7b 08 3e e1 54 76 bf 3b 00 2d be ff 03 5c 3e
       0.13328226 -0.96223265 -0.16894619 0.214859
0002e0 74 48 44 bf 5b b6 62 be 8a ec cb bd e1 ec 9b 3f
       -0.76673055 -0.22139876 -0.099572256 1.2181665
0002f0 8d 03 76 3e 95 86 be be 84 b5 b4 3e 8f b8 bb be
       0.24024792 -0.37212053 0.35294735 -0.36664245

net.0.bias f4 [64]
000000 61 d3 b5 be 1f 33 d8 3e b9 d0 40 3e 70 4a 9b be
       -0.35512832 0.42226502 0.18829621 -0.3033023
000010 37 c8 d6 be ee e0 6b be 7c b1 a6 3e 55 35 ad 3e
       -0.41949627 -0.23035023 0.32557285 0.33829752
000020 af d2 36 bf 22 07 11 bc 8a 77 3f bf eb b0 4a 3c
       -0.7141523 -0.008851798 -0.7479178 0.012371282
000030 15 28 0e bf f7 82 14 3e e6 cb 4e bd 25 33 40 bf
       -0.5552991 0.14503084 -0.05048742 -0.7507804
000040 c4 8a b6 3e 7b 33 ba be 64 56 0b 3f d4 1a 8a 3e
       0.35652745 -0.363674 0.54428697 0.26973593
000050 fc a5 e1 3e e8 fc 07 bf f7 32 a2 3e 82 ee 42 bf
       0.4407195 -0.5312028 0.31679508 -0.76145184
000060 e4 2b a0 bb 0d 0c 15 3e 17 94 22 3e 40 61 c6 3e
       -0.0048880447 0.14555378 0.15876804 0.3874607
000070 82 70 ea be d4 d4 1d 3f d6 cc 00 bc 71 06 13 3f
       -0.45788962 0.61652875 -0.007861337 0.57431704
000080 89 ca 00 be a0 8e 3a 3e 8d 1c ed bc 84 e1 0f bf
       -0.12577261 0.1821847 -0.028944278 -0.56203485
000090 b8 e7 31 bf 90 a6 a5 bc 99 cc 99 bd ea 2b 45 3d
       -0.694942 -0.020221025 -0.07509727 0.048137583
0000a0 95 76 bb 3d 05 92 5b 3e 26 18 7a be fa b9 ab 3e
       0.09153477 0.21442421 -0.24423274 0.33540326
0000b0 c2 82 aa 3e 9e 63 48 bf db 3a 8f bb b5 00 30 bf
       0.33302885 -0.78277004 -0.00437103 -0.6875108
0000c0 54 08 e9 3e 0d 27 ca be aa fb fa be 16 58 43 bf
       0.45514166 -0.39482918 -0.4902013 -0.76306283
0000d0 ef 9b 98 3d 9b 66 85 bf 8a 7a 93 bd e1 c9 5b bf
       0.07451617 -1.0421938 -0.07201107 -0.8585492
0000e0 ce 35 5e 3e 98 6f 15 be a8 2b 38 3e 6e 92 e6 3e
       0.21700212 -0.14593351 0.17985404 0.45033592
0000f0 18 6e 36 3e 42 5a 3d 3e 3c 7d 33 3e 68 ad 15 bf
       0.17815435 0.18491462 0.17528242 -0.5846772

net.2.weight f4 [64, 64]
000000 6e b8 44 c0 40 9d df bd e0 8e df bc 5c df 06 be
       -3.0737567 -0.10918665 -0.027289808 -0.13171142
000010 54 24 c6 3d 9e 19 94 3d cf 0c d1 3c d8 cc d8 be
       0.09674898 0.072314486 0.025518803 -0.42343783
000020 0e 15 66 bf 8f 84 99 3d 25 5f 24 3f eb 93 ea bd
       -0.89875877 0.07495987 0.6420768 -0.11453994
000030 ec da 28 3d 6a 64 ab 3d 0e 5c 65 c0 45 f0 d7 3c
       0.041224405 0.08368762 -3.5837436 0.026359687
000040 60 6c 0c c0 b0 2c af bd ba 30 d9 be ce 60 99 be
       -2.1941147 -0.08553445 -0.42419988 -0.2995667
000050 99 b6 a7 3e 6a 66 90 bf d1 9e 98 3d 70 e0 ab 3d
       0.32756498 -1.1281254 0.07452167 0.083924174
000060 13 26 d9 bd 4e 74 69 3e d8 83 12 3d 48 7c 87 bd
       -0.10602965 0.22798273 0.035770267 -0.06615502
000070 1d 64 b1 bf d9 49 d7 be 50 49 5d 3e 1a a9 24 bd
       -1.3858677 -0.4204853 0.21609998 -0.04020033
000080 3d 82 32 be 54 0d 18 3d e5 fe 96 3d 6b d2 5e bf
       -0.17432494 0.037122086 0.07372836 -0.8703982
000090 e5 48 17 3c 06 fa 92 3d a0 c5 a6 3d 06 e8 1c 3e
       0.009233688 0.071765944 0.08143163 0.15322885
0000a0 fd 9b ae bf 94 8d 20 3e 18 e3 7f bf 47 3d 7b 3d
       -1.3641354 0.15679008 -0.9995589 0.061337736
0000b0 20 25 be bd 51 01 fb bd 1f a4 5e bd 43 6c 8a 3e
       -0.09284425 -0.122561105 -0.054355737 0.27035722
0000c0 5a a4 74 bd ba f3 2a 3d 06 e3 e3 be b9 70 77 3d
       -0.05972705 0.041736342 -0.44509143 0.060410235
0000d0 98 73 37 bc 1c dd 4a 3e 33 7b f0 3d 64 a1 03 3e
       -0.011196993 0.19810909 0.117422484 0.12854534
0000e0 aa 92 5e bb 35 02 fa bc cc 69 26 bd 01 78 0f be
       -0.003396193 -0.03051863 -0.04062824 -0.14010622
0000f0 9f e1 a0 3c ce f7 1b bc af e5 01 3d 56 9c 40 bb
       0.019638835 -0.00951953 0.031713184 -0.0029390058
000100 14 c9 01 be 96 cd 9d be 5a 98 45 3d f2 e5 a2 3e
       -0.12674361 -0.30820912 0.048240997 0.3181606
000110 24 7d a8 be da fb c1 bf 14 c3 c5 bd 42 69 34 bf
       -0.32907975 -1.5154984 -0.09656349 -0.7047311
000120 9d 60 0f 3e 41 c3 13 3d 2d e2 ad be 59 64 12 bf
       0.14001699 0.03607488 -0.3396162 -0.5718437
000130 d0 5f 6a 3d bf 7f 22 bc d2 84 4a bc 61 ed 0c bf
       0.05722028 -0.009918152 -0.012360768 -0.5504971
000140 f5 a0 16 3d 5f 5e 5d bd 58 a0 16 be 1b f8 24 3d
       0.036774594 -0.054045077 -0.14709604 0.040275674
000150 e9 04 da bc cf 27 8e bd 55 60 91 bd c7 ee 22 bf
       -0.02661367 -0.06941187 -0.07098452 -0.63645595
000160 d7 bc 63 bc ba 86 14 be 23 9b b8 3d 1f 7c ad bc
       -0.013900003 -0.14504519 0.09013965 -0.02117735
000170 77 c0 15 bd 74 84 ca bd d1 de 07 be 35 31 e3 be
       -0.036560502 -0.09888545 -0.13268591 -0.4437348
000180 3b ec 51 be 7d c3 cf 3c f0 45 10 bd 53 6f cd 3d
       -0.20500271 0.02536177 -0.035222948 0.10030999
000190 9f 14 ed 3d 6a 9a ad bf 5f bd ce bf f6 93 ac bd
       0.11576199 -1.3562748 -1.6151541 -0.08426659
0001a0 8f d0 3a bf fc b6 24 3d e7 e4 ff 3e 85 5c 83 ba
       -0.72974485 0.04021357 0.49979326 -0.001002208
0001b0 c5 2a f2 3c a7 54 26 bf cf bf 6d bd b1 f3 e2 be
       0.02956141 -0.6497292 -0.05804425 -0.44326547
0001c0 99 07 b6 3d 2a 1e 92 bd 2b ad a1 be 3c 1a 7a 3d
       0.08888168 -0.071346596 -0.3157743 0.061060175
0001d0 83 98 63 3d 4d c1 aa bd 05 44 06 3d cd 9f 80 be
       0.05556537 -0.083376504 0.032779712 -0.25121918
0001e0 9f 6c d7 3d a1 24 8c 3d 83 0b 7b 3d 0b cf c7 bc
       0.10518765 0.06842924 0.061290275 -0.024390718
0001f0 74 96 9f bb 9b eb c2 3d 30 85 8a bf 03 f8 1f bf
       -0.0048702303 0.095175944 -1.0821896 -0.6248781
000200 f4 5f 42 bd 60 2e 9c 3d 0e c9 8a 3d 5b 35 c9 bc
       -0.04745479 0.07626033 0.067766294 -0.024561575
000210 d4 33 82 3d 24 16 73 3d 14 a7 04 bd fd 5d 33 bd
       0.06357542 0.059347287 -0.0323859 -0.043790806
000220 d8 28 34 3c 77 51 ad bd ba 64 8e bd 23 77 24 3d
       0.010996066 -0.08462804 -0.06952806 0.04015268
000230 60 41 f4 bd ae dc d4 3b 22 4e df 3d 8c 3b b9 bc
       -0.11926532 0.0064960336 0.109035745 -0.022611402
000240 82 25 bd bd c2 46 f0 bd 07 fb be 3d 2b 60 b2 bd
       -0.0923567 -0.11732246 0.093252234 -0.08709749
000250 92 01 c4 bd cc f5 94 bd b3 c8 56 3d 63 ba df 3d
       -0.09570612 -0.072734445 0.052437495 0.10924222
000260 70 70 f9 bd 7e 9b ed bd 41 92 96 bd 68 12 f9 bb
       -0.12179649 -0.116019234 -0.073521145 -0.007601071
000270 7f ac a6 3d 5c b3 c2 bd 51 2f 18 ba 5e fb f0 bd
       0.0813837 -0.09506866 -0.00058053905 -0.117666945
000280 49 5a 03 be c9 2c d6 3c 92 4e b3 3d 8c d9 d1 3d
       -0.1282741 0.026144402 0.087552205 0.10246572
000290 3a 84 d1 3d 32 5e b6 bd fa 5c ef 3d 28 23 b4 bd
       0.10230298 -0.08904685 0.11687656 -0.08795768
0002a0 88 a9 d0 3c ac c6 f6 bd d3 6f 47 3d 2b 1f ae bd
       0.025471464 -0.120496124 0.04869063 -0.085020386
0002b0 2a ee 57 3d c5 58 9a 3c 1f 79 b0 3d c7 8d ac bd
       0.052717365 0.018841157 0.08616852 -0.084254794
0002c0 ac 24 b9 bd 1b 65 a0 bd 34 b5 4c bd a6 d8 88 bd
       -0.09040198 -0.07831784 -0.049977496 -0.066819474
0002d0 b2 90 c4 bd ba 20 02 be ca 8b f3 bd 1c 4f e2 bd
       -0.09597911 -0.12707797 -0.11891897 -0.11050245
0002e0 27 67 50 bb 70 be 3c 3d b0 c5 aa bd ac a0 d7 3d
       -0.0031799765 0.046080053 -0.08338487 0.105286926
0002f0 91 58 91 bc b9 d3 f0 bd fa de ee bd fc 6b 7c bc
       -0.017742427 -0.11759133 -0.11663623 -0.015406605
000300 34 90 76 3d 9d d2 a1 3d 4c 98 08 be 22 ab f8 3d
       0.060196117 0.079014994 -0.13339347 0.12142016
000310 87 e7 eb be fd 91 21 c0 57 ff f8 bd 11 c8 df bc
       -0.4607508 -2.5245354 -0.12158077 -0.027317079
000320 09 48 d2 bd ee f5 93 3e ca 32 02 be 02 09 87 be
       -0.10267646 0.28898567 -0.12714687 -0.2637406
000330 2a 7d df 3d 08 58 14 3e bc dc 69 3d 60 58 22 bc
       0.10912545 0.14486706 0.057095274 -0.009908766
000340 24 3a 9c 3d 96 61 3c be 72 87 92 bc 12 7c 46 be
       0.07628277 -0.18396601 -0.017886851 -0.19383267
000350 6b ee 67 bb e4 38 c7 be 19 b5 8f be 3a a8 99 bd
       -0.003538991 -0.38910592 -0.28067854 -0.0750279
000360 7b 13 02 3d 6a b5 20 bd d1 e9 df 3c ba 84 b1 bd
       0.03175686 -0.03923551 0.027333172 -0.08667894
000370 3c c1 1d bd af 99 d1 bc b1 82 c1 bd 9d 56 0a bd
       -0.03851436 -0.025585977 -0.094487555 -0.033774007
000380 ac d2 80 bc 06 23 d2 3d c6 84 64 3e 31 7c a4 be
       -0.015725456 0.102605864 0.22316274 -0.32126
000390 93 ef 57 bd 37 4d 07 c0 54 a9 35 c0 c2 d0 ed bd
       -0.05271871 -2.1140878 -2.83846 -0.11612083
0003a0 d1 cf cc bd 89 11 ef 3d 0a 70 27 be c7 36 9b 3d
       -0.10000575 0.116732664 -0.16351333 0.07578807
0003b0 ea 0e a8 3c 30 a5 4d be 46 87 80 bb 8f 93 53 bd
       0.020514924 -0.20082545 -0.003922376 -0.051654395
0003c0 f3 f7 08 3e 67 f2 fc be 02 53 98 be 02 e3 35 be
       0.13375835 -0.49403688 -0.2975083 -0.17762378
0003d0 11 bf 2f 3c 87 01 ad be c7 6b 74 3d 64 f1 02 bf
       0.010726706 -0.33790228 0.059673097 -0.5114958
0003e0 47 39 76 3d 2b 2a fc 3a d6 2b f0 3d 99 c7 f6 be
       0.060113218 0.0019238641 0.11727111 -0.48199156
0003f0 96 80 25 bd a4 a0 09 3d a0 b2 28 c0 37 42 75 be
       -0.040405832 0.033600464 -2.6359024 -0.2395104

net.2.bias f4 [64]
000000 97 24 95 bc 2f 5b eb 3d b5 69 10 bd 75 0b 31 bc
       -0.018205924 0.11492001 -0.03525706 -0.010805954
000010 81 8e 10 3e 8e be 91 bc 97 ac 29 3e 3c 74 55 3d
       0.14116861 -0.017791059 0.16569744 0.052112803
000020 b8 37 38 3c 3b 18 0d 3e 6a 4c 87 3d 62 6c 86 3b
       0.011243753 0.13778774 0.06606372 0.0041022757
000030 df e2 37 3e 4e cb 61 3e 7c e8 8e bd 48 ab 05 3e
       0.17957638 0.22050211 -0.069779366 0.1305362
000040 a0 3b e1 3d 31 af 52 3e 6e 4b 5a 3b 15 b5 a8 3d
       0.10997701 0.20574643 0.003330912 0.08237664
000050 91 e8 65 3d f9 4a a2 3d 42 e0 18 3d de 0b 4d 3e
       0.056129996 0.07924456 0.037323244 0.20024058
000060 74 c7 01 3e 98 85 20 3e dc 98 01 be ad 8b a7 3c
       0.12673742 0.15675962 -0.12655967 0.020452345
000070 14 e2 de bc 62 2b f6 bd 27 38 8f bc 87 d0 89 bc
       -0.027207412 -0.12019993 -0.01748283 -0.016823066
000080 aa 9c d8 3d 56 44 69 3e f6 a9 d9 3d 4a a6 1d 3e
       0.10576756 0.22779974 0.106281206 0.15395465
000090 3d c8 ae bc 2b 06 1f 3e 1c 0f 03 3e db fb e2 3c
       -0.021335715 0.15529697 0.12798733 0.027707985
0000a0 1d 8d 0f 3e f6 bd 42 3e c5 65 ec 3d 3e 56 20 3e
       0.14018674 0.19017777 0.115428485 0.15657899
0000b0 74 f6 ba 3d 39 81 35 3e e9 e1 28 3e e8 34 90 3d
       0.091290385 0.17725076 0.16492428 0.07041341
0000c0 9d fa 95 3d 36 60 05 bd 0d 67 61 3c d7 2d cc bd
       0.07323191 -0.032562457 0.013757479 -0.09969681
0000d0 1b d4 e4 bd 56 3e d3 bd ba c0 65 bd fe 73 a6 ba
       -0.111732684 -0.10314624 -0.056092 -0.0012699363
0000e0 c7 2b a3 3d 2c ed e5 3c 5c 0c dd 3c f4 4e 8d 3e
       0.07967334 0.028067194 0.026983432 0.275993
0000f0 51 e0 e2 bc 74 87 23 3e 29 6b c8 3d 59 31 24 3e
       -0.027694853 0.1596964 0.09786064 0.1603445

mu_head.weight f4 [1, 64]
000000 31 fa 4c bf bb 23 a2 3f 29 40 37 bc b1 2e 1a 3f
       -0.8006926 1.2667154 -0.011184731 0.60227495
000010 d4 b5 fe be 2f c4 04 40 12 43 1d bf 4b 10 ac bd
       -0.497481 2.074474 -0.61430466 -0.08401545
000020 74 6d 98 bf 3d 64 13 3f 8f 62 dc be c8 b6 ae 3f
       -1.1908402 0.57574826 -0.43043944 1.364953
000030 30 86 02 bf 65 bf 02 bf 9d 96 00 40 7a 40 d0 be
       -0.50986004 -0.51073295 2.0091927 -0.40674192
000040 d4 53 76 3e 1c 68 4a 3e 28 01 e8 3e e4 d8 2c be
       0.24055415 0.19766277 0.45313382 -0.16879612
000050 3f bd 59 3e 88 17 1f bf 91 b1 cd bd 70 5c 10 bd
       0.21263598 -0.6214528 -0.10043634 -0.035244405
000060 a8 9e 08 bf e6 d0 80 bc 0c 76 dc be 73 f1 db 3e
       -0.5336709 -0.01572461 -0.43058813 0.4295765
000070 32 11 23 be b5 7d 23 3f 21 08 70 bf 69 12 63 be
       -0.15924528 0.6386369 -0.93762404 -0.22174992
000080 f5 2f 21 3e 15 01 4a bf d2 97 82 bd 7b b5 46 bf
       0.1574095 -0.789079 -0.06376614 -0.7762067
000090 12 fc 44 3d 01 91 72 3f 72 1c 67 3e a4 ac 86 be
       0.048091955 0.9475251 0.22569445 -0.2630359
0000a0 c2 d3 46 3e 25 ac c4 3e 25 7d 72 3f 5d d4 a6 3f
       0.19416717 0.38412586 0.94722205 1.3033558
0000b0 9a cd ed 3e c4 ba dd 3d 54 a8 77 bf 60 74 92 be
       0.46445924 0.10826638 -0.96741223 -0.28604412
0000c0 69 e5 34 bf 66 4a a3 3e 12 41 4f 3f f2 aa a1 bd
       -0.7066255 0.318927 0.80958664 -0.07893933
0000d0 c5 30 cb 3e bd a3 01 bf 8c c5 e4 3e 1c 8b e3 3e
       0.39685646 -0.5064047 0.44681966 0.4444207
0000e0 37 50 bc bb 0e 03 98 3f f8 09 be be e9 ad 4d bf
       -0.005746867 1.1875932 -0.3711698 -0.8034349
0000f0 79 0a 77 bf 60 12 9f 3e c6 f8 66 bf b3 f2 56 be
       -0.96500355 0.31068707 -0.9022335 -0.2099102

log_std_head.weight f4 [1, 64]
000000 5b cd 4c 3d e8 cf 95 be 19 f1 a5 bc 59 66 59 bf
       0.05000053 -0.29260182 -0.020256566 -0.84921795
000010 6d 70 b7 bc f1 a2 af bc 14 71 5d be 2e 14 ae bd
       -0.022392476 -0.021440001 -0.21625167 -0.08499943
000020 0a 77 cc bc 9a a8 97 be cd f3 e6 3d af b7 af 3c
       -0.024959106 -0.2962082 0.1127697 0.021449892
000030 3c bb 09 bf a4 c2 8c 3e da 16 02 be be 45 bf bd
       -0.5380132 0.2749225 -0.1270403 -0.09339474
000040 d2 9a b6 bd 07 34 59 3e b5 33 f9 3d a9 4a 2c be
       -0.089162484 0.21211253 0.121680655 -0.16825356
000050 dc 86 b2 bd 64 d3 e4 bc c1 0c 9b be bc 83 17 be
       -0.08717129 -0.02793283 -0.30283168 -0.14796346
000060 35 39 3d 3d 21 3c 5b be d5 0f 32 be 08 14 06 be
       0.046197135 -0.21409656 -0.17388852 -0.13093579
000070 61 8d 65 be b3 54 65 3d a9 dc 21 be ed ac ca be
       -0.22417213 0.05598898 -0.15806831 -0.39585057
000080 b2 09 19 3d f5 3a f0 3d 80 36 ba 3d 91 ba b9 3d
       0.03736276 0.11729995 0.09092426 0.09068788
000090 29 b7 c7 bd 46 b6 81 3e cd d8 cb 3d bd 03 85 3b
       -0.09751732 0.25334376 0.09953461 0.0040592835
0000a0 b4 40 33 ba 72 06 2a 3e 8f 60 c0 be e8 d8 76 3d
       -0.00068379496 0.16604021 -0.37573668 0.06026545
0000b0 b7 57 76 3e b5 80 89 bc 90 fd c9 bd 89 92 03 3a
       0.24056898 -0.016785005 -0.09862816 0.0005019089
0000c0 87 24 c1 3d fd f7 f8 3d 45 f0 c5 bc 9d 6c 75 bd
       0.09430795 0.12156675 -0.024162421 -0.059918035
0000d0 35 6b c9 bd 1f eb d0 bd ce be 12 3e b6 2c b8 3e
       -0.09834901 -0.10201096 0.14330599 0.35971612
0000e0 73 04 c1 bd c5 b8 79 3e 58 6f f3 bd 4f e1 74 bd
       -0.09424677 0.2438689 -0.118864715 -0.059785184
0000f0 96 5f 9f be 34 ae 22 bc 87 c8 b5 bd 81 44 dc 3e
       -0.31127614 -0.009929229 -0.08876138 0.43021014
