Q1/ckpt/actor_ep200.pth (torch, 21552 bytes, 6 tensors)

net.0.weight f4 [64, 3]
000000 c2 81 ca 3e b3 03 80 bf b7 29 9a be b3 95 0e bf
       0.39552122 -1.0001129 -0.3010995 -0.5569717
000010 ff 69 c7 3e 39 9f 0c bf 04 8e 36 3f 0b 0b 21 3f
       0.38948056 -0.54930454 0.7131045 0.62907475
000020 6c 76 9e 3e 6c d0 3c 3f e6 2b dc be e1 d3 15 be
       0.30949724 0.73755527 -0.43002242 -0.14631607
000030 35 f5 16 3f 63 14 2b 3f b6 52 86 3e 71 c4 15 3e
       0.58967906 0.6682798 0.26234978 0.14625718
000040 8d 37 72 3f 5d 9e 99 3e 1b 05 5c 3f ff f1 49 3e
       0.94616014 0.30003634 0.8594529 0.1972122
000050 7c 6a 5c 3d 26 22 6f bf 2f 78 7b bd 53 88 1f be
       0.05381249 -0.9341148 -0.061393913 -0.15579347
000060 2a 5b 42 3f 31 54 1a bf 8e 04 a1 be dc d1 85 3f
       0.75920355 -0.60284716 -0.31448787 1.0454669
000070 70 49 64 3d c4 57 79 bd ab d9 27 3f 2b 42 89 be
       0.055734098 -0.060874715 0.6556651 -0.26808295
000080 52 20 bb be 92 79 be be a6 ee 2d bf 8c 06 64 be
       -0.36548096 -0.37202126 -0.67942274 -0.22268122
000090 5f e9 2c bd 76 6f 5f bd f1 94 cd 3b bf 56 ba 3e
       -0.042214748 -0.054549657 0.0062738587 0.36394307
0000a0 8a 1a 7c bf 1a 17 10 be 1b e6 22 3e 9f d6 8e bf
       -0.98477995 -0.14071313 0.15908091 -1.1159247
0000b0 f5 31 af be 65 83 a5 be 26 5b 7a bf 66 f4 b0 be
       -0.34217802 -0.3232681 -0.9779533 -0.3456146
0000c0 e8 67 9a be bc 62 4b bf 13 3e 73 be 2e da e2 be
       -0.301574 -0.7944753 -0.23754148 -0.44307083
0000d0 a5 7e 57 3f fa 5f f9 3e 51 95 02 bf 3b 41 d5 3e
       0.8417762 0.48706037 -0.5100909 0.4165133
0000e0 c2 b3 ba be d6 97 05 bf 7c 8e 0d 3f 50 5f 88 bd
       -0.3646527 -0.5218481 0.5529554 -0.066588044
0000f0 ec 05 3f 3e 28 36 58 3f 16 36 0a be 28 8b 60 bf
       0.18654603 0.84457636 -0.13497195 -0.87712336
000100 45 c7 d3 3e 6e ad d6 3d 09 97 dc 3d ce a8 17 3f
       0.41362968 0.10482298 0.10770995 0.5924195
000110 39 9d 42 3b 24 3e 21 bf bb 32 93 3e ed a5 a9 be
       0.0029695763 -0.62985444 0.28749642 -0.33134404
000120 b9 d7 45 be 85 3d 76 be 71 05 0d 3e 95 df 6c 3f
       -0.19320573 -0.24046905 0.13771607 0.9252866
000130 47 a7 c4 3e 62 1b 83 bd 42 35 79 3e 0b a1 92 be
       0.38408872 -0.06401707 0.24336722 -0.2863849
000140 80 67 bb be 2a 2a b5 be 80 68 4f bf cc 4a d0 bc
       -0.36602402 -0.3538373 -0.8101883 -0.02542629
000150 16 9c 2a 3f be 68 78 bf e0 bd 93 be 4d d9 23 bf
       0.6664442 -0.97034824 -0.288558 -0.6400345
000160 e1 73 42 be 80 59 fe bd 2e b8 74 3f 95 38 e7 3d
       -0.18989517 -0.124194145 0.95593536 0.11290089
000170 f4 6d 6c bd ce 73 2e bf f0 a7 0b 3f 59 42 7e 3c
       -0.057722047 -0.68145454 0.5455313 0.015518748
000180 ca d1 8a 3e 3d 00 08 3f e8 7e d0 be d1 76 12 bf
       0.2711318 0.53125364 -0.40721822 -0.5721255
000190 6f f2 67 bf bc e2 02 3d ef e9 54 3f 04 6a f9 3e
       -0.906043 0.031954512 0.83169454 0.48713696
0001a0 4c 81 77 bc 54 04 38 bf 9f fe b6 3e d8 de d2 3d
       -0.01510651 -0.71881604 0.35741135 0.1029641
0001b0 e8 12 28 bf 2d 84 3e bd 74 4d 1e 3f 1e 45 54 be
       -0.6565385 -0.04651277 0.61836934 -0.20729491
0001c0 f7 cf 38 3f 81 c2 a0 3e 30 ce 1a 3e c8 c8 88 3f
       0.7219233 0.31398395 0.15117717 1.0686274
0001d0 69 cd 60 3e 23 28 40 3e eb 40 06 3f bb 47 5d bc
       0.21953358 0.18765311 0.52442807 -0.013505871
0001e0 76 bf 8b be 1a 26 a1 bf 3f 36 b2 be fc 70 02 3f
       -0.2729451 -1.2589753 -0.3480701 0.5095365
0001f0 24 f7 96 be 9c 97 66 3e 39 d0 07 3f db b2 28 bf
       -0.29485428 0.22518772 0.530521 -0.6589791
000200 9f 4b 2d be 7f 42 bc bd 20 43 81 bf a1 8e da bd
       -0.16923378 -0.091923706 -1.009861 -0.106717356
000210 43 43 2f 3f b0 f8 87 bf f3 f0 1d be 44 39 46 be
       0.6846201 -1.0622768 -0.15423946 -0.19357783
000220 ac 40 6d bf 75 fd 8c be 70 19 a3 3d 4c 14 d1 3e
       -0.92676806 -0.27537122 0.07963836 0.40835798
000230 26 74 17 bf de 00 48 bf 95 0f 80 be 8f 52 da be
       -0.59161603 -0.78126323 -0.25011888 -0.42641112
000240 08 f0 57 3f 58 96 40 bf 0c 78 80 be 1f eb e3 bd
       0.84350634 -0.75229406 -0.25091588 -0.1112883
000250 be db 25 3f b3 73 4d be 06 3f 1b bf e5 c4 9a 3e
       0.64788425 -0.20063667 -0.6064304 0.30228344
000260 df d7 03 3e e6 0d 5c 3d f3 dc 48 bd 22 f5 c4 3e
       0.12875317 0.053724192 -0.04903884 0.38468271
000270 34 88 10 3f 48 fd ba 3e 18 2d 39 3e 90 5b 38 be
       0.5645783 0.36521363 0.18083608 -0.18003678
000280 f1 05 e2 3e 4d 75 5c be 1b 97 84 bd d6 c1 92 be
       0.44145158 -0.21529122 -0.064741336 -0.2866351
000290 31 f8 09 3f b4 a8 77 3f c6 d7 c5 3e 58 16 bb 3e
       0.53894335 0.96741796 0.38641185 0.36540484
0002a0 6a 66 01 3f 0d 76 8d bf f4 ce 33 be f6 15 86 3d
       0.50546896 -1.1051651 -0.17559415 0.065471575
0002b0 03 5a cf 3e 4e a9 f7 be d1 9a 18 3e 90 85 75 be
       0.4049836 -0.48371357 0.14902808 -0.23976731
0002c0 7d 0d a0 3e 15 c6 33 bf 06 8a 7d 3f 58 5b 99 bd
       0.3126029 -0.70224124 0.9903873 -0.074881256
0002d0 8d e9 a7 3e 30 f0 64 bf 5d 3d 02 be 6e 49 90 3d
       0.32795373 -0.89429 -0.1271872 0.070452556
0002e0 e2 7e fc be 6a bf 95 be 6b 56 b6 bd c9 cc 6b 3f
       -0.49315554 -0.292476 -0.08903202 0.9210935
0002f0 11 8e 44 3e 4b d2 13 bf f4 15 ee 3e e2 29 b2 be
       0.19194819 -0.57742757 0.46501124 -0.3479758

net.0.bias f4 [64]
000000 20 22 78 be 8d a0 87 3e 3e d6 2b 3e b8 5a 26 be
       -0.24231768 0.26489678 0.16780946 -0.16245544
000010 56 37 74 be bd 3e 26 be 4d 13 d3 3e 9f 3a 19 3e
       -0.23849234 -0.1623487 0.41225663 0.14963768
000020 f8 6f 05 bf 8a 90 44 3e f8 27 e0 be a3 73 5f be
       -0.52123976 0.19195762 -0.43780494 -0.21821456
000030 15 28 0e bf 6f 0d 86 3e a6 e5 a9 3d 80 df 33 bf
       -0.5552991 0.26182124 0.08295755 -0.7026291
000040 1d 63 b5 3e 19 d7 bd be 86 cf b8 3e 7a 95 64 3e
       0.3542718 -0.3707817 0.36095828 0.22322646
000050 95 10 e9 3e 6f 70 07 bf eb dc 93 3e bc 68 ee be
       0.45520464 -0.52905935 0.28879485 -0.4656428
000060 9d 52 9a bd d5 3c 36 3e dc 19 fe 3e ec 80 f4 3d
       -0.075352885 0.17796643 0.49629104 0.119386524
000070 fb 4b 57 be 18 7b 22 3f 18 f6 e3 3d 49 d4 0f 3f
       -0.21025078 0.63469076 0.11130923 0.56183296
000080 45 c4 d2 3d cb 8d fb 3c eb bf 22 bd 46 e1 03 bf
       0.10291342 0.03070726 -0.03973381 -0.51515615
000090 19 94 21 bf 25 84 11 be 14 f5 86 bd 4d c6 7f 3d
       -0.63116604 -0.14210565 -0.06589714 0.062444974
0000a0 a7 60 74 bd 2d a7 76 3e df 01 83 be 58 ba c2 3e
       -0.059662487 0.2408721 -0.25587365 0.38032794
0000b0 46 29 c6 3e 7c fc 3c bf cf 69 9a 3e 94 2a a7 be
       0.38703364 -0.7382276 0.3015885 -0.32649672
0000c0 85 47 1c 3f 3b 8b df be 35 9a 0d bf e1 0a 1d bf
       0.6104663 -0.43660912 -0.55313426 -0.61344725
0000d0 53 de 25 3e e5 dc 5c bf 8e 4a d4 bd ce e3 36 bf
       0.16198091 -0.8627456 -0.10365783 -0.7144135
0000e0 e1 cb b6 3e 7e bd f3 3d b1 79 05 3e 6b 43 c9 3e
       0.35702422 0.11901377 0.13034703 0.39309248
0000f0 a9 f7 45 3e 5b 2c cf 3e bb 77 7b 3e 46 1a d9 be
       0.19332756 0.40463528 0.24557392 -0.42402858

net.2.weight f4 [64, 64]
000000 aa ec 1b bf 05 01 78 be 16 f4 6d bd 5e 17 1f be
       -0.60907996 -0.24219139 -0.058094107 -0.15536258
000010 a1 50 73 3d fc 47 70 3d 21 59 7a bc 4e 66 d9 bc
       0.059403066 0.0586624 -0.015280039 -0.02653804
000020 0d c8 76 3d ad 80 36 3d 8a cf 17 3e eb 93 ea bd
       0.060249377 0.04455631 0.14825264 -0.11453994
000030 ec da 28 3d fa 49 a0 3d 62 81 40 bf 45 f0 d7 3c
       0.041224405 0.0782661 -0.7519742 0.026359687
000040 51 7c 44 bf 76 a8 b6 bd 70 39 fd be f7 26 a3 be
       -0.7675219 -0.0891885 -0.49457884 -0.31865665
000050 d0 40 a2 3e ee a2 52 bf 2f 46 af 3d 9a 3e 5a bc
       0.31690073 -0.8227986 0.08558308 -0.013320589
000060 2e 4b b6 bd 41 f1 53 3e 00 de 0c be 98 9f 05 3b
       -0.08901058 0.206975 -0.13756561 0.0020389315
000070 fc f8 a7 be 9b d9 cf bd 3e 69 47 3e bb 16 11 3b
       -0.32807148 -0.10148927 0.1947374 0.0022138793
000080 d0 4c 88 be 58 18 8a 3d 89 8e a3 3d 6a c3 e0 be
       -0.26621103 0.067429245 0.07986171 -0.4389909
000090 e8 9a 8b 38 fb de 8b 3d c2 0f a6 3d cd 1e 22 3e
       6.65689e-05 0.068296395 0.08108474 0.15832062
0000a0 13 47 34 be 87 19 02 3e ef 92 cf be 2a e7 0d 3e
       -0.17605238 0.1270505 -0.4054179 0.13857713
0000b0 86 22 f1 bd 51 01 fb bd 25 c0 3d be 7b b3 85 bc
       -0.11774163 -0.122561105 -0.18530329 -0.016320935
0000c0 16 82 f2 bd d7 01 a5 bd b0 f7 e2 be 41 4d 74 3d
       -0.11841218 -0.080569915 -0.44329596 0.059643988
0000d0 bb b9 2e bd 9e d0 23 3c 4f e0 ba 3d 58 77 72 3d
       -0.042657595 0.009998469 0.09124815 0.059195846
0000e0 b8 c7 a0 bc 3c 55 4e be 26 0a 8d bd 43 8d 0e be
       -0.019626483 -0.20149702 -0.06886701 -0.13921075
0000f0 4d 2e d6 3c 50 a1 1c be 39 8b f4 3c b5 83 1c be
       0.026145125 -0.15295911 0.029851543 -0.15284617
000100 ee 96 fa bd a5 70 3c be 59 0a 37 3d cc 3f 8b 3e
       -0.12235819 -0.18402345 0.044687603 0.2719711
000110 85 d2 51 bc bd 97 cc 3c 6a 41 90 bd 86 20 7e be
       -0.012806539 0.024974698 -0.07043727 -0.24817094
000120 5d fa d1 3d cc 84 a8 3c 70 75 e0 3c ab 40 9f be
       0.10252831 0.020571135 0.027399749 -0.31104025
000130 d0 5f 6a 3d 3e 8c b7 3b 88 da 9f bd e0 11 d1 be
       0.05722028 0.005601435 -0.078053534 -0.4083395
000140 e0 b4 3a 3d 8c 88 b0 bd 2a 54 87 bc 56 27 ee 3b
       0.045582652 -0.08619794 -0.016519625 0.007267873
000150 e6 9f 44 3c 65 21 8e bd da bb 3b bd c7 ee 22 bf
       0.012001013 -0.06939963 -0.045833446 -0.63645595
000160 1a 25 11 bd 74 30 41 be 5f c0 d0 3d 51 b9 c7 3d
       -0.035435773 -0.1886614 0.10192942 0.09752143
000170 69 a2 0b be 4e c8 a4 3d e0 38 2d be c8 90 97 bc
       -0.13636173 0.080460176 -0.16916227 -0.018501654
000180 69 d9 08 be 8e b0 89 3d 41 20 a3 bd 4b 59 c2 3d
       -0.13364185 0.06723128 -0.07965136 0.094896875
000190 f6 c9 d0 3d de 43 f0 bc 94 d3 cf bd 0d da d8 bc
       0.10194771 -0.029329237 -0.10147777 -0.026471162
0001a0 61 c5 8c be bc 4c 37 3d e5 a1 c3 3e 72 1c ea 3c
       -0.27494338 0.044750914 0.38209453 0.028578017
0001b0 a1 11 53 3d 69 ca d5 be 7e 15 41 bd 84 1f dd be
       0.051530484 -0.4175599 -0.047139637 -0.43188107
0001c0 9c ae a8 3d 0a 48 88 bd 72 70 81 3c f1 bd e6 3c
       0.08236429 -0.06654365 0.015800688 0.028166743
0001d0 73 cb 56 3d 4d c1 aa bd dc cf 30 bc b8 1f 2b 3c
       0.052440118 -0.083376504 -0.010791745 0.010444574
0001e0 67 79 ff 3d 3f 2f ec 3d 6a ff 36 3d e0 a9 c4 bc
       0.124743275 0.11532449 0.044677176 -0.024006784
0001f0 b9 7f 1f 3c cb 24 4a 3d ae ed ee bd 92 85 1d bf
       0.009735041 0.049351495 -0.116664276 -0.6153194
000200 f4 5f 42 bd 60 2e 9c 3d 0e c9 8a 3d 5b 35 c9 bc
       -0.04745479 0.07626033 0.067766294 -0.024561575
000210 d4 33 82 3d 24 16 73 3d 14 a7 04 bd fd 5d 33 bd
       0.06357542 0.059347287 -0.0323859 -0.043790806
000220 d8 28 34 3c 77 51 ad bd ba 64 8e bd 23 77 24 3d
       0.010996066 -0.08462804 -0.06952806 0.04015268
000230 60 41 f4 bd ae dc d4 3b 22 4e df 3d 8c 3b b9 bc
       -0.11926532 0.0064960336 0.109035745 -0.022611402
000240 82 25 bd bd c2 46 f0 bd 07 fb be 3d 2b 60 b2 bd
       -0.0923567 -0.11732246 0.093252234 -0.08709749
000250 92 01 c4 bd cc f5 94 bd b3 c8 56 3d 63 ba df 3d
       -0.09570612 -0.072734445 0.052437495 0.10924222
000260 70 70 f9 bd 7e 9b ed bd 41 92 96 bd 68 12 f9 bb
       -0.12179649 -0.116019234 -0.073521145 -0.007601071
000270 7f ac a6 3d 5c b3 c2 bd 51 2f 18 ba 5e fb f0 bd
       0.0813837 -0.09506866 -0.00058053905 -0.117666945
000280 49 5a 03 be c9 2c d6 3c 92 4e b3 3d 8c d9 d1 3d
       -0.1282741 0.026144402 0.087552205 0.10246572
000290 3a 84 d1 3d 32 5e b6 bd fa 5c ef 3d 28 23 b4 bd
       0.10230298 -0.08904685 0.11687656 -0.08795768
0002a0 88 a9 d0 3c ac c6 f6 bd d3 6f 47 3d 2b 1f ae bd
       0.025471464 -0.120496124 0.04869063 -0.085020386
0002b0 2a ee 57 3d c5 58 9a 3c 1f 79 b0 3d c7 8d ac bd
       0.052717365 0.018841157 0.08616852 -0.084254794
0002c0 ac 24 b9 bd 1b 65 a0 bd 34 b5 4c bd a6 d8 88 bd
       -0.09040198 -0.07831784 -0.049977496 -0.066819474
0002d0 b2 90 c4 bd ba 20 02 be ca 8b f3 bd 1c 4f e2 bd
       -0.09597911 -0.12707797 -0.11891897 -0.11050245
0002e0 27 67 50 bb 70 be 3c 3d b0 c5 aa bd ac a0 d7 3d
       -0.0031799765 0.046080053 -0.08338487 0.105286926
0002f0 91 58 91 bc b9 d3 f0 bd fa de ee bd fc 6b 7c bc
       -0.017742427 -0.11759133 -0.11663623 -0.015406605
000300 59 88 92 3d 8e 5d 99 3d c6 95 f9 bd a8 65 dd 3d
       0.071549125 0.07488547 -0.1218677 0.10810405
000310 5b eb 9a 3d f0 9a 82 be 90 96 e4 bd d6 71 2a bd
       0.07564422 -0.25508833 -0.1116153 -0.04161247
000320 ca ac eb bd 0b 9e 84 3e d3 14 ca bd c9 09 4c be
       -0.11507566 0.25901827 -0.09867253 -0.19925608
000330 2a 7d df 3d da 42 08 3e 0a c2 84 3d 46 7b 54 bc
       0.10912545 0.13306752 0.064823225 -0.012968844
000340 3a 08 ba 3d b9 18 84 bc 00 ec 81 3a 1e 67 55 bb
       0.090836 -0.01612507 0.0009912252 -0.0032562683
000350 14 44 32 3d 7a be b0 be 73 11 9b bd 10 8b 5a 3d
       0.043521956 -0.34520322 -0.075716875 0.053355277
000360 10 1c 32 bd 84 68 68 bd b6 4b 67 3d 8f 2a 0b bd
       -0.043483794 -0.0567403 0.056468688 -0.033976134
000370 40 2b 4c bd c8 ce 14 3d df d4 04 be f6 55 24 3d
       -0.049845934 0.036330014 -0.12971829 0.04012104
000380 31 ae 95 3d 6d 05 1f 3e 8b 3b 62 3e 9f d0 a1 be
       0.07308615 0.15529414 0.22093026 -0.31604478
000390 e2 28 7e bd 35 c1 0d bd d9 3d f7 be 52 81 9a 3d
       -0.062050708 -0.034608085 -0.48289374 0.07544197
0003a0 85 2d e6 bc a3 8e ed 3d 59 3a 2b be 5c 52 95 3d
       -0.028097877 0.115994714 -0.16721477 0.072910994
0003b0 6b 08 18 3c 07 45 38 be c0 3c 4f 3c af 9b 52 bc
       0.009279351 -0.17995082 0.012648761 -0.012854501
0003c0 c5 e8 0f 3e c9 0b 88 be 1d 6b 8d be ff 89 da bd
       0.14053638 -0.2657149 -0.27620783 -0.10670852
0003d0 b3 60 c9 3c 10 fb 8c be 6f 92 72 3c 0f a9 dc bd
       0.024582243 -0.27535295 0.01480542 -0.10774433
0003e0 1f 95 48 3d cd ad af 3c 52 0d bd 3d 33 ca 32 be
       0.048970338 0.02144518 0.09231056 -0.17459945
0003f0 9b 6e 45 bd db 55 66 3d 49 e8 08 bf 83 50 39 bd
       -0.048201185 0.056234222 -0.5347944 -0.045242798

net.2.bias f4 [64]
000000 c6 92 e2 bc d3 1a 05 3e b5 69 10 bd 4b 09 30 3c
       -0.027657878 0.12998514 -0.03525706 0.010744403
000010 be 15 c5 3d ac 82 24 bb 24 14 15 3e d9 8a 3b bc
       0.096232876 -0.00251023 0.14558464 -0.011446678
000020 b1 81 9b bc 0b 3b e0 3d dc 5d b8 3c 7f a9 24 3d
       -0.01898274 0.109487616 0.022505693 0.040200707
000030 af 75 30 3e 4f 11 61 3e e3 f9 3c bd 55 e3 ea 3d
       0.17232393 0.21979259 -0.046136748 0.114691414
000040 6e a0 ff 3d a0 91 6c 3e df 9c 06 3a 8b 5c 58 3d
       0.124817714 0.23102427 0.000513507 0.05282263
000050 be b3 2b 3d ce 44 a3 3d 2d fc 84 39 9b cc 5a 3e
       0.041919462 0.07972108 0.00025364888 0.21367113
000060 96 db 02 3e 85 44 f7 3d e8 44 1b be e3 06 dd 3c
       0.12779078 0.12073616 -0.15163004 0.026980823
000070 93 fd ef bc 1f 74 b0 bd 1e 2e c7 3b 0e 89 f2 3b
       -0.029295718 -0.08615898 0.0060784956 0.007401592
000080 a7 fa f1 3d 44 e7 61 3e ca 7b d9 3d bf 75 10 3e
       0.11815386 0.22060877 0.10619314 0.14107417
000090 3d c8 ae bc c1 68 39 3e ca c6 13 3e 5a 18 1f 3c
       -0.021335715 0.18106367 0.14431301 0.009710396
0000a0 9c ec 8e 3d 3c 6e 48 3e b0 e2 67 3c ca f1 fc 3d
       0.069787234 0.19573301 0.014153168 0.12350805
0000b0 aa 0d ba 3d 34 87 41 3e 5d 57 b4 3d d6 61 00 3d
       0.090846375 0.18899232 0.08805726 0.031343304
0000c0 75 88 b7 3d 56 4e 8d bb ff 0a 12 3d d7 2d cc bd
       0.08961574 -0.004312317 0.035655018 -0.09969681
0000d0 02 65 5f bd e9 43 dd bd 92 06 19 bd 74 be 94 bc
       -0.054539688 -0.108039685 -0.03735978 -0.018157221
0000e0 c7 2b a3 3d 4e a2 69 3d d9 22 b0 3c 01 69 71 3e
       0.07967334 0.05703955 0.021500992 0.23575212
0000f0 ac 46 8d bc 9b 5a d0 3d 61 fc c8 3d b9 ef be 3d
       -0.017245613 0.101735316 0.098137625 0.09323067

mu_head.weight f4 [1, 64]
000000 d9 50 3c be 26 95 ad 3d 29 40 37 bc 09 e6 47 3d
       -0.18390216 0.084757134 -0.011184731 0.048803363
000010 28 b9 c8 be 04 5b 6e 3f 23 59 cd be 98 75 96 bd
       -0.39203763 0.9310763 -0.40107068 -0.07346648
000020 be 1d 07 bf d4 29 d6 3e fa fd 86 be a8 7b 12 3f
       -0.5277976 0.41828787 -0.26365644 0.57219934
000030 d3 05 9f be e5 fc 14 bf cf 4a 64 3f 7a 83 3b be
       -0.3105913 -0.58198386 0.8917665 -0.18311873
000040 e7 b0 83 3d f3 52 1d 3e 0b 6b 8d 3e 62 49 06 be
       0.06430226 0.15363674 0.2762073 -0.13113931
000050 a4 f4 e3 3d 68 d9 04 bf 43 b8 80 bd b5 cc e6 3c
       0.11130646 -0.51894236 -0.06285145 0.028173784
000060 36 85 be be 2c 99 ac 3d 68 fe 0c be c5 a5 98 3e
       -0.37211007 0.08427653 -0.13768923 0.29813972
000070 d6 31 fe bd 72 9c 02 3f f6 fb 71 bf cb f4 3c be
       -0.12411849 0.51019967 -0.94525087 -0.18452756
000080 2b d2 d0 3d 08 22 f6 be 22 67 6c bd 55 91 af be
       0.10196336 -0.4807284 -0.057715543 -0.34290567
000090 12 fc 44 3d df 8c 33 3f e0 ae 85 3e a5 9e 46 be
       0.048091955 0.7013683 0.26109982 -0.19396456
0000a0 a9 25 92 3e 90 89 a6 3e 9b 5d 2b 3f 06 71 7e 3f
       0.28544357 0.32526827 0.66939706 0.9939121
0000b0 d2 d1 da 3e 5c 30 ff 3d 3e 6b 54 be 80 27 63 be
       0.42738205 0.12460396 -0.20744035 -0.22183037
0000c0 20 e8 a9 be cb d4 91 3e 74 65 48 3f f2 aa a1 bd
       -0.3318491 0.2848266 0.78279805 -0.07893933
0000d0 25 a5 9a 3e 5d 66 dc be ad 3d a9 3e fb 5f d6 3e
       0.3020412 -0.43046847 0.33054867 0.41870102
0000e0 37 50 bc bb d4 bd 12 3f 39 c6 83 be 05 78 2b bf
       -0.005746867 0.57320905 -0.2573717 -0.6698001
0000f0 6f 88 00 bf 3e f7 a4 3d e8 95 00 bf e2 7a 27 be
       -0.5020818 0.0805497 -0.5022874 -0.1635547

log_std_head.weight f4 [1, 64]
000000 00 a0 3f bd 33 ef 9e bd 19 f1 a5 bc 4c fa 65 be
       -0.046783447 -0.077604674 -0.020256566 -0.22458762
000010 42 8c c9 bd af d9 5d bd 1a cb 33 be 82 ea 9e bd
       -0.09841205 -0.054162677 -0.17557946 -0.077595726
000020 a1 7b 33 3e c2 f0 3d be 47 21 e5 bd a1 a2 ef 3d
       0.1752763 -0.18548873 -0.11187988 0.11700941
000030 c7 76 ae be fd 33 72 3d 29 01 30 3e b2 c3 5a bd
       -0.34074995 0.05913161 0.17187943 -0.053409286
000040 53 6e 5b be 81 c1 1d 3e 3a 2e bd 3d 9e c6 2a be
       -0.21428804 0.15405847 0.09237333 -0.16677329
000050 cb 7c 0d bd 48 68 1a be db e3 93 be 37 fe 4f be
       -0.03454284 -0.15078843 -0.28884777 -0.20311819
000060 d6 23 f3 bd bd 32 08 be 1c 60 54 be 57 8b 19 3b
       -0.118720695 -0.13300605 -0.20739788 0.0023429
000070 8e 80 46 be 69 7d 99 3d 68 66 46 be 0f 52 e9 be
       -0.19384977 0.07494623 -0.19375002 -0.45570418
000080 20 f4 3f 3d e3 e6 d3 3b 0a 3d cf 3d 1f 98 21 3c
       0.046863675 0.006466733 0.10119064 0.009862929
000090 29 b7 c7 bd 31 30 9f 3e 43 c0 3e 3d b6 ca c2 bd
       -0.09751732 0.31091455 0.046570074 -0.0951132
0000a0 1b f0 0c 3d 3d db e7 3d 42 e4 82 bd 3d 22 2d 3e
       0.03440867 0.11321113 -0.06391193 0.16907592
0000b0 b8 e5 36 3e dc bf da bd a0 cc d1 bc 5a f3 5d be
       0.17861068 -0.106811255 -0.025610268 -0.21674863
0000c0 0e 19 03 3e 80 dd b1 3d 37 d8 04 be 9d 6c 75 bd
       0.12802526 0.08684826 -0.12973104 -0.059918035
0000d0 f3 79 6a bd d3 72 e2 bd 77 fc 44 3e 41 51 c3 3e
       -0.057245206 -0.11057057 0.19236933 0.3814793
0000e0 73 04 c1 bd 2f d7 31 3e 95 f8 85 bd 90 c2 02 be
       -0.09424677 0.17367242 -0.06541554 -0.12769532
0000f0 0d ac 17 be 9b bc 61 be ed 12 94 bd 15 e6 cb 3e
       -0.14811726 -0.22044604 -0.07230172 0.39823976
