Q1/ckpt/actor_ep250.pth (torch, 21552 bytes, 6 tensors)

net.0.weight f4 [64, 3]
0	0x3eccd324	0.40004838
1	0xbf8e4dfa	-1.1117547
2	0xbe98fee7	-0.29881975
3	0xbef06327	-0.46950647
4	0x3ebe4c76	0.3716771
5	0xbf095276	-0.5364145
6	0x3f3ffe90	0.74997807
7	0x3f255102	0.64576733
8	0x3e980bfd	0.29696646
9	0x3f3b38a1	0.73133284
10	0xbef37515	-0.47550264
11	0xbdf90e18	-0.12160891
12	0x3f1be3ac	0.60894275
13	0x3f4671d5	0.77517444
14	0x3e7cba28	0.24680388
15	0x3e84508f	0.2584271
16	0x3f8832f1	1.0640546
17	0x3e9467b5	0.28985372
18	0x3f83fd8c	1.0311751
19	0x3e42753f	0.18990038
20	0x3d77065a	0.06030879
21	0xbf6c8c37	-0.9240145
22	0xbd2af035	-0.041732986
23	0xbe0ca9b4	-0.13736612
24	0x3f43ffc8	0.76562166
25	0xbf381b61	-0.71916777
26	0xbea2f1e4	-0.31825173
27	0x3f8b2a43	1.0872272
28	0x3d6c3e40	0.057676554
29	0xbde6a138	-0.11261219
30	0x3f1fae42	0.6237527
31	0xbeace2b8	-0.33766723
32	0xbecebeed	-0.4038004
33	0xbe9ed81e	-0.3102426
34	0xbf3e57bc	-0.7435262
35	0xbe76af68	-0.2409035
36	0xbd2ce95f	-0.042214748
37	0xbd5f6f76	-0.054549657
38	0x3bcd94f1	0.0062738587
39	0x3eac00c2	0.33594328
40	0xbf8237ad	-1.0173241
41	0xbe099ba8	-0.13438284
42	0x3deb2ed0	0.11483538
43	0xbf9c2f74	-1.2201982
44	0xbeb2a18b	-0.34888873
45	0xbea188f1	-0.3154979
46	0xbf6a7eb2	-0.9159957
47	0xbec3dd14	-0.38254607
48	0xbe989a43	-0.29805192
49	0xbf58c20f	-0.8467111
50	0xbe5d0db3	-0.21587257
51	0xbecf929d	-0.40541545
52	0x3f65863c	0.8965795
53	0x3f04b72f	0.51842016
54	0xbf01f13f	-0.5075874
55	0x3ebd27f8	0.36944556
56	0xbebe35d5	-0.37150446
57	0xbefb32fc	-0.49062335
58	0x3f127340	0.5720711
59	0xbda1a54b	-0.07892855
60	0x3e54356f	0.20723508
61	0x3f44a0d6	0.76807916
62	0xbe31bfc4	-0.17358309
63	0xbf55411b	-0.8330247
64	0x3f0a287d	0.5396803
65	0x3ddf258a	0.10895832
66	0x3d795fca	0.060882367
67	0x3f1a5e28	0.6029992
68	0x3d26ea0d	0.040750552
69	0xbefc9e00	-0.49339294
70	0x3e57b267	0.21064149
71	0xbec57c9e	-0.38571638
72	0xbe546da8	-0.20744956
73	0xbe7c4895	-0.24637063
74	0x3e229405	0.15876777
75	0x3f7ab76b	0.97936124
76	0x3eb42f33	0.3519226
77	0xbdb7831a	-0.089605525
78	0x3e92fa6f	0.2870669
79	0xbed10bb8	-0.40829253
80	0xbec4e26c	-0.38453996
81	0xbef015d9	-0.46891668
82	0xbf4b6325	-0.7944816
83	0xbd08c2b6	-0.033388816
84	0x3f0b3a56	0.5438589
85	0xbf919173	-1.1372513
86	0xbe92c3bd	-0.2866496
87	0xbf37e09d	-0.7182711
88	0xbe6cf580	-0.23140526
89	0xbdf6764a	-0.120342806
90	0x3f7700d7	0.96485656
91	0x3dbf6c66	0.09346847
92	0xbe03f1ba	-0.1288518
93	0xbf44dd3d	-0.7690008
94	0x3effb406	0.49942034
95	0x3cb4c5d9	0.022066997
96	0x3e34c7ff	0.17654417
97	0x3f20fa27	0.628817
98	0xbebabf20	-0.36473942
99	0xbf121619	-0.5706497
100	0xbf72e943	-0.9488718
101	0x3da5d536	0.080973074
102	0x3f67ff5e	0.90624034
103	0x3ede6c27	0.4344189
104	0xbd66cc34	-0.056347087
105	0xbf27289b	-0.65296334
106	0x3eedfa9f	0.4648027
107	0x3dde661a	0.10859318
108	0xbf474707	-0.77842754
109	0x3d31529e	0.04329168
110	0x3f26d645	0.651707
111	0x3bdda26c	0.006763747
112	0x3f5c1b01	0.85978705
113	0x3e9eb4d6	0.30997342
114	0x3e185c4f	0.14878963
115	0x3f8c74bc	1.0973125
116	0x3e929f2f	0.28637072
117	0x3e7d3d99	0.24730529
118	0x3f1d546a	0.6145693
119	0xbc1b8b80	-0.009493709
120	0xbe489753	-0.19588976
121	0xbfb01ed4	-1.3759408
122	0xbeb25336	-0.3482911
123	0x3f0f0f07	0.55882305
124	0xbe89a0c9	-0.26880482
125	0x3e63ffde	0.22265574
126	0x3ee66578	0.4499929
127	0xbf5d6e0a	-0.8649603
128	0xbe5b264b	-0.21401326
129	0xbdec1bec	-0.11528763
130	0xbf85f1ba	-1.0464394
131	0xbddfa5a6	-0.10920267
132	0x3f20845e	0.62701976
133	0xbf8e9ab5	-1.1140963
134	0xbe1ae371	-0.15125825
135	0xbe22dc5d	-0.15904374
136	0xbf67f344	-0.9060557
137	0xbe98ce93	-0.29845104
138	0x3e11bbb9	0.14231767
139	0x3eaf5aef	0.34249064
140	0xbf18283a	-0.5943638
141	0xbf1ead38	-0.6198306
142	0xbeb4e16d	-0.35328236
143	0xbee2a718	-0.44268107
144	0x3f4b0544	0.7930491
145	0xbf41d2e3	-0.7571241
146	0xbe8c960a	-0.2745822
147	0xbd777288	-0.06041196
148	0x3f21cf82	0.63207257
149	0xbe5ede05	-0.21764381
150	0xbf2775cc	-0.6541412
151	0x3eb0aeca	0.34508353
152	0x3e195e90	0.14977479
153	0x3d182062	0.037140258
154	0x3621dbab	2.4118733e-06
155	0x3ebb02c1	0.3652554
156	0x3f07a889	0.5299154
157	0x3ec3431a	0.38137132
158	0x3e42d0de	0.19024989
159	0xbdfab724	-0.122419626
160	0x3ef853ed	0.4850153
161	0xbe43ee75	-0.19133933
162	0xbe204e20	-0.15654802
163	0xbe3c45aa	-0.1838595
164	0x3f0c0b8b	0.54705113
165	0x3f81a69c	1.012897
166	0x3f09848b	0.5371787
167	0x3ea70421	0.32620338
168	0x3f092b9e	0.5358218
169	0xbf909354	-1.1294961
170	0xbe1c9f71	-0.15295197
171	0x3dd0ad98	0.101893604
172	0x3ebc6d77	0.36802265
173	0xbef577f7	-0.47943088
174	0x3db74d4a	0.089502886
175	0xbe38f605	-0.18062599
176	0x3ea38168	0.31934667
177	0xbf2eee79	-0.6833263
178	0x3f7ba102	0.98292553
179	0xbd99706f	-0.07492148
180	0x3e70684b	0.23477285
181	0xbf70ea0d	-0.94107133
182	0xbe008003	-0.12548833
183	0x3e359679	0.17733182
184	0xbf1853ed	-0.5950306
185	0xbea0b552	-0.31388336
186	0xbe095c71	-0.1341417
187	0x3f7a6ec0	0.9782524
188	0x3e77e43c	0.24208158
189	0xbee97b31	-0.456018
190	0x3ecb8f5f	0.3975782
191	0xbeca5a10	-0.39521837

net.0.bias f4 [64]
0	0xbe8bbb6c	-0.2729143
1	0x3e9f5ac1	0.31123927
2	0x3e4b2367	0.19837724
3	0xbe7deae6	-0.24796638
4	0xbea51df6	-0.3224942
5	0xbe305a67	-0.17221986
6	0x3ebbca56	0.36677808
7	0x3e44cc2d	0.19218512
8	0xbf1b9196	-0.6076902
9	0x3de78600	0.11304855
10	0xbf0d41f8	-0.55178785
11	0xbe4246ab	-0.1897227
12	0xbf0e2815	-0.5552991
13	0x3e8a5de5	0.2702476
14	0x3d0dc93c	0.03461574
15	0xbf3912b4	-0.72294164
16	0x3ecb425c	0.39699066
17	0xbeae47e7	-0.34039232
18	0x3ed8d3fc	0.4234923
19	0x3e6880e9	0.22705425
20	0x3ef96c16	0.48715276
21	0xbf080bc0	-0.5314293
22	0x3e9a0db4	0.3008858
23	0xbf096d56	-0.5368246
24	0xbdb85b99	-0.09001846
25	0x3e247a35	0.16062243
26	0x3e9cdfe5	0.30639568
27	0x3e6d77de	0.23190257
28	0xbea756df	-0.32683465
29	0x3f25c136	0.6474794
30	0x3dd4d129	0.10391457
31	0x3f0d01c4	0.5508082
32	0xbc2b7829	-0.01046566
33	0x3db91c41	0.09038592
34	0xbd02a41f	-0.0318948
35	0xbf0919a5	-0.53554755
36	0xbf11b719	-0.5692001
37	0xbcf1141a	-0.02942853
38	0xbd713053	-0.058883976
39	0x3da1740a	0.07883461
40	0x3d81951f	0.06327271
41	0x3e68046d	0.22657938
42	0xbe7ff88d	-0.24997158
43	0x3ec237b3	0.3793312
44	0x3ed26acc	0.41097105
45	0xbf4192c8	-0.75614595
46	0x3e36e8f1	0.17862298
47	0xbefb4ec2	-0.49083525
48	0x3f0a41f7	0.54006904
49	0xbef57327	-0.47939417
50	0xbf06951c	-0.5257127
51	0xbf23cbbb	-0.63982743
52	0x3e1cffce	0.15331957
53	0xbf6cf0ba	-0.9255482
54	0xbb48c72f	-0.00306363
55	0xbf4f9aa4	-0.8109534
56	0x3ec843d0	0.39114237
57	0x3d0cd6c9	0.034384523
58	0x3e3fab1c	0.18717617
59	0x3edd9c98	0.43283534
60	0x3e5009d0	0.20316243
61	0x3e7adb41	0.24497701
62	0x3e2f1d00	0.17100906
63	0xbef034ab	-0.46915182

net.2.weight f4 [64, 64]
0	0xbfc9f72b	-1.5778555
1	0xbdbf0a51	-0.093281396
2	0xbd4b8ffe	-0.04969787
3	0xbde131ba	-0.10995813
4	0x3d517bbe	0.0511434
5	0x3cec4cb2	0.028845165
6	0x3c9dfd6b	0.019285878
7	0xbe5718cd	-0.21005554
8	0xbe499051	-0.19683959
9	0x3dcc2ab2	0.09969081
10	0x3ed377d4	0.4130236
11	0xbdea93eb	-0.11453994
12	0x3d28daec	0.041224405
13	0x3e06c8b9	0.13162507
14	0xbffe03d3	-1.9844917
15	0x3cd7f045	0.026359687
16	0xbf9d90a8	-1.230977
17	0xbdce5638	-0.10075039
18	0xbecb9443	-0.39761552
19	0xbebff622	-0.37492472
20	0x3ea9051f	0.3301172
21	0xbf966918	-1.1750822
22	0x3d67eeb2	0.056624122
23	0x3d6c886b	0.057747286
24	0xbdb1f2ce	-0.086888894
25	0x3e6ad8eb	0.2293431
26	0x3d89e1e1	0.06732536
27	0x3c678da0	0.014132887
28	0xbf2d319e	-0.67653835
29	0xbe7a16c3	-0.24422745
30	0x3e76067f	0.24025916
31	0xbd902976	-0.07039158
32	0xbe2a735c	-0.16645569
33	0x3dd12885	0.102128066
34	0x3db51f9b	0.08843919
35	0xbf492a48	-0.7858014
36	0x3c3c6f03	0.011501077
37	0x3d08ba6e	0.03338092
38	0x3d217703	0.03942014
39	0x3e128037	0.14306723
40	0xbf218e8a	-0.6310812
41	0x3e23d8da	0.16000691
42	0xbf49bc22	-0.7880269
43	0x3e28b296	0.16474375
44	0xbd5fed37	-0.054669585
45	0xbdfb0151	-0.122561105
46	0xbd10fcd7	-0.035397377
47	0xbc85b37b	-0.016320935
48	0xbd07f9fc	-0.033197388
49	0x3ce046a8	0.027377442
50	0xbf00109d	-0.5002535
51	0x3da45e2b	0.080257736
52	0xbcf91d7d	-0.030409569
53	0x3c23d09e	0.009998469
54	0x3de337cf	0.11094629
55	0x3da06f94	0.07833782
56	0x3d0cff97	0.034423437
57	0xbd0efd10	-0.034909308
58	0xbd41948c	-0.047260806
59	0xbe32f50e	-0.17476293
60	0x3daa788a	0.08323772
61	0xb9aaf802	-0.00032609707
62	0xbba3ce05	-0.0049989247
63	0x3c9a33b5	0.018823484
64	0xbe399432	-0.18122938
65	0xbe95fcda	-0.29294473
66	0x3c8b2ee1	0.016990127
67	0x3e968f93	0.29406413
68	0xbdb1f39f	-0.08689045
69	0xbb2a107b	-0.0025949765
70	0xbddfdb8a	-0.10930546
71	0xbe44baa5	-0.19211824
72	0x3d849abb	0.06474825
73	0x3d15ba78	0.036554784
74	0xbd9a4406	-0.07532506
75	0xbe915c23	-0.28390607
76	0x3d6a5fd0	0.05722028
77	0xbd00afcb	-0.03141765
78	0xbd4dd36c	-0.050250456
79	0xbeff3fd4	-0.49853384
80	0x3d940303	0.07227137
81	0xbdc86f20	-0.097868204
82	0xbdc4570a	-0.09586914
83	0x3d479937	0.0487301
84	0x3cf78de7	0.030219031
85	0xbd57a565	-0.052647967
86	0xbba3d618	-0.004999887
87	0xbf22eec7	-0.63645595
88	0xbd59dcb5	-0.053189
89	0xbe11b2bf	-0.14228342
90	0x3de43d26	0.11144476
91	0x3d8403be	0.06446026
92	0xbdb4b4cc	-0.08823547
93	0x3ddaca40	0.106831074
94	0xbe08cee3	-0.13360171
95	0x3c2df2a0	0.010616928
96	0xbd8fa6aa	-0.070142105
97	0x3d313644	0.043264642
98	0xbcd5ae9f	-0.026084242
99	0x3dec36f5	0.1153392
100	0x3da2f979	0.079577394
101	0xbd3f6174	-0.046723798
102	0xbde212d0	-0.110387444
103	0xbc6853b0	-0.014180109
104	0xbea9ccbd	-0.33164015
105	0x3a7ed93b	0.0009721701
106	0x3edea0e6	0.4348213
107	0xbccad61d	-0.0247603
108	0x3c0bb301	0.008526565
109	0xbf01fd9d	-0.5077761
110	0xbd79d36a	-0.060992636
111	0xbee2f3b1	-0.44326547
112	0x3daa93a3	0.08328941
113	0xbd921e2a	-0.071346596
114	0x3d021bae	0.03176468
115	0xbb026167	-0.0019894482
116	0x3c9fd2fb	0.019509783
117	0xbdaac14d	-0.083376504
118	0xbd4111cc	-0.047136113
119	0xbdd18d8a	-0.102320746
120	0x3daedd15	0.08538262
121	0x3d40bbfa	0.04705427
122	0x3c224694	0.009904522
123	0x3930eaf2	0.00016872192
124	0xbcecf66b	-0.028926095
125	0x3db674b2	0.089089766
126	0xbe07b3e2	-0.13252214
127	0xbf1ff803	-0.6248781
128	0xbd425ff4	-0.04745479
129	0x3d9c2e60	0.07626033
130	0x3d8ac90e	0.067766294
131	0xbcc9355b	-0.024561575
132	0x3d8233d4	0.06357542
133	0x3d731624	0.059347287
134	0xbd04a714	-0.0323859
135	0xbd335dfd	-0.043790806
136	0x3c3428d8	0.010996066
137	0xbdad5177	-0.08462804
138	0xbd8e64ba	-0.06952806
139	0x3d247723	0.04015268
140	0xbdf44160	-0.11926532
141	0x3bd4dcae	0.0064960336
142	0x3ddf4e22	0.109035745
143	0xbcb93b8c	-0.022611402
144	0xbdbd2582	-0.0923567
145	0xbdf046c2	-0.11732246
146	0x3dbefb07	0.093252234
147	0xbdb2602b	-0.08709749
148	0xbdc40192	-0.09570612
149	0xbd94f5cc	-0.072734445
150	0x3d56c8b3	0.052437495
151	0x3ddfba63	0.10924222
152	0xbdf97070	-0.12179649
153	0xbded9b7e	-0.116019234
154	0xbd969241	-0.073521145
155	0xbbf91268	-0.007601071
156	0x3da6ac7f	0.0813837
157	0xbdc2b35c	-0.09506866
158	0xba182f51	-0.00058053905
159	0xbdf0fb5e	-0.117666945
160	0xbe035a49	-0.1282741
161	0x3cd62cc9	0.026144402
162	0x3db34e92	0.087552205
163	0x3dd1d98c	0.10246572
164	0x3dd1843a	0.10230298
165	0xbdb65e32	-0.08904685
166	0x3def5cfa	0.11687656
167	0xbdb42328	-0.08795768
168	0x3cd0a988	0.025471464
169	0xbdf6c6ac	-0.120496124
170	0x3d476fd3	0.04869063
171	0xbdae1f2b	-0.085020386
172	0x3d57ee2a	0.052717365
173	0x3c9a58c5	0.018841157
174	0x3db0791f	0.08616852
175	0xbdac8dc7	-0.084254794
176	0xbdb924ac	-0.09040198
177	0xbda0651b	-0.07831784
178	0xbd4cb534	-0.049977496
179	0xbd88d8a6	-0.066819474
180	0xbdc490b2	-0.09597911
181	0xbe0220ba	-0.12707797
182	0xbdf38bca	-0.11891897
183	0xbde24f1c	-0.11050245
184	0xbb506727	-0.0031799765
185	0x3d3cbe70	0.046080053
186	0xbdaac5b0	-0.08338487
187	0x3dd7a0ac	0.105286926
188	0xbc915891	-0.017742427
189	0xbdf0d3b9	-0.11759133
190	0xbdeedefa	-0.11663623
191	0xbc7c6bfc	-0.015406605
192	0x3d8d298a	0.068926886
193	0x3d4dc9cb	0.050241273
194	0xbe0d7e69	-0.13817753
195	0x3e17b249	0.14814104
196	0xbdbe8738	-0.09303135
197	0xbf3a26b0	-0.7271528
198	0xbde44959	-0.111468025
199	0xbd581e3a	-0.0527632
200	0xbdb742b6	-0.08948271
201	0x3e9f8148	0.3115332
202	0xbdb63597	-0.0889694
203	0xbe504057	-0.20337044
204	0x3ddf7d2a	0.10912545
205	0x3e1ae351	0.15125777
206	0x3d93a302	0.07208826
207	0xbc6a777e	-0.014310716
208	0x3dcb45a1	0.0992539
209	0xbe3684fd	-0.17824169
210	0xbce639dc	-0.028103761
211	0xbd7aff44	-0.061278597
212	0x3c367bca	0.011137912
213	0xbeafc585	-0.34330383
214	0xbe4ae087	-0.19812213
215	0x3cf890e2	0.030342523
216	0xbc1a4f4a	-0.009418318
217	0xbcf50a16	-0.029912036
218	0x3d1a0ba9	0.037608776
219	0xbcc2bbcb	-0.023771187
220	0xbcf4c9b8	-0.029881343
221	0x3cf882e6	0.030335855
222	0xbd99937a	-0.07498832
223	0x3d1f463c	0.03888534
224	0x3d4c1a25	0.04982962
225	0x3e0f6acb	0.14005582
226	0x3e707077	0.23480402
227	0xbeb471b2	-0.35242993
228	0xbded3ac5	-0.11583475
229	0xbe954b2c	-0.29158914
230	0xbf539cf8	-0.8266139
231	0xbd411041	-0.04713464
232	0xbd065e16	-0.03280457
233	0x3deddf35	0.11614839
234	0xbe219320	-0.1577878
235	0x3db527c3	0.088454746
236	0x3ce15603	0.027506834
237	0xbe3e79c2	-0.18601134
238	0xbc7a15fe	-0.015264032
239	0xbcbd1eef	-0.02308604
240	0x3e161e9a	0.14660111
241	0xbead0127	-0.33789942
242	0xbea2f530	-0.31827688
243	0xbe7305a6	-0.23732623
244	0x3be8051f	0.0070806886
245	0xbea17b8c	-0.3153957
246	0xbc1c05ab	-0.009522836
247	0xbe94b03f	-0.29040715
248	0x3d894c54	0.067040116
249	0xbbcd45f1	-0.006264441
250	0x3dd2d217	0.10293978
251	0xbe6f0a6d	-0.23343821
252	0xbd06f21a	-0.03294573
253	0x3d4bb87c	0.049736485
254	0xbf61e769	-0.8824373
255	0xbd90fe7c	-0.07079789

net.2.bias f4 [64]
0	0xbc3841d0	-0.01124616
1	0x3df0184b	0.117233835
2	0xbd1069b5	-0.03525706
3	0x3c171ffd	0.009223935
4	0x3dd295a0	0.10282445
5	0x3c17b1fd	0.009258744
6	0x3e265241	0.16242315
7	0x3bf81f9e	0.0075721284
8	0x3bfcf3ea	0.0077195065
9	0x3e0a6858	0.13516366
10	0x3d18346f	0.03715938
11	0x3caa5097	0.020790381
12	0x3e3e2273	0.18567829
13	0x3e6582e2	0.22413209
14	0xbd43fe82	-0.04785014
15	0x3e0ef3af	0.13960145
16	0x3df3f6e2	0.119123235
17	0x3e6318ce	0.22177431
18	0x3c46edf1	0.012141691
19	0x3d3e0a6c	0.046396658
20	0x3d30324d	0.04301672
21	0x3dc46c27	0.09590941
22	0x3c21cfae	0.009876175
23	0x3e5ead1a	0.2174572
24	0x3e05e97a	0.13077345
25	0x3dc8a26b	0.09796604
26	0xbe1bf1d3	-0.15228967
27	0x3cc55a67	0.024090959
28	0xbd05e9ce	-0.032693677
29	0xbdd09798	-0.10185164
30	0xbc1b7845	-0.009489124
31	0xbb08e98b	-0.0020891156
32	0x3dfcdd94	0.1234695
33	0x3e75f5cd	0.24019547
34	0x3dd97bca	0.10619314
35	0x3e2fbf0c	0.17162722
36	0xbcaec83d	-0.021335715
37	0x3e3aaf68	0.18230975
38	0x3e035730	0.12826228
39	0xba06fd6e	-0.00051494583
40	0x3dd79a9d	0.10527537
41	0x3e3dee7b	0.18548004
42	0x3d6edc17	0.058315363
43	0x3e219567	0.15779649
44	0x3de565ed	0.112010814
45	0x3e46e803	0.19424443
46	0x3dd3d2aa	0.10342915
47	0x3d5408d9	0.05176625
48	0x3da831b9	0.08212609
49	0xbc16da95	-0.009207387
50	0x3d3608d3	0.04444201
51	0xbdcc2dd7	-0.09969681
52	0xbd93ed18	-0.072229564
53	0xbdc4e63c	-0.09614226
54	0xbd207e03	-0.039182674
55	0xbc438a0e	-0.01193477
56	0x3da32bc7	0.07967334
57	0x3d4ccf93	0.050002646
58	0x3ce1a144	0.027542718
59	0x3e711692	0.23543766
60	0xbc386256	-0.011253914
61	0x3e13f94d	0.1445057
62	0x3dd732fe	0.10507773
63	0x3df5e3eb	0.120063625

mu_head.weight f4 [1, 64]
0	0xbeb0d17c	-0.34534824
1	0x3d8efe07	0.069820456
2	0xbc374029	-0.011184731
3	0x3da41bfe	0.080131516
4	0xbee0b6b2	-0.43889385
5	0x3fb9d523	1.4518169
6	0xbee35080	-0.44397354
7	0xbdb22aa7	-0.086995415
8	0xbf3c9900	-0.7367096
9	0x3f072fcb	0.528073
10	0xbea40ade	-0.3203954
11	0x3f3bffef	0.734374
12	0xbebad19f	-0.36488053
13	0xbf12667d	-0.57187635
14	0x3faeb500	1.3648987
15	0xbe4e2102	-0.20129779
16	0x3e1a3639	0.15059747
17	0x3e410117	0.18848072
18	0x3eb9f4ee	0.3631968
19	0xbe1ae2b8	-0.15125549
20	0x3e10a01f	0.14123581
21	0xbf10381e	-0.5633563
22	0xbda5dd0b	-0.08098801
23	0x3b5f01a9	0.003402809
24	0xbed75d01	-0.42063144
25	0x3ce2f1a4	0.027703114
26	0xbe70a7a8	-0.23501456
27	0x3eb91316	0.36147374
28	0xbe0f9fbb	-0.14025776
29	0x3f16c5c6	0.5889553
30	0xbf6f011c	-0.9336107
31	0xbe53e330	-0.20692134
32	0x3dfee03e	0.124451146
33	0xbf17010d	-0.5898598
34	0xbd6c6722	-0.057715543
35	0xbef3e889	-0.47638348
36	0x3d44fc12	0.048091955
37	0x3f498795	0.78722507
38	0x3e801a08	0.2501986
39	0xbe680f24	-0.22662026
40	0x3e96245f	0.29324624
41	0x3eb25f67	0.3483841
42	0x3f40d06f	0.75318044
43	0x3f973bcc	1.1815124
44	0x3ee5102d	0.44738904
45	0x3e089427	0.13337766
46	0xbeb5f5b9	-0.35539034
47	0xbe989a8a	-0.29805404
48	0xbed249d7	-0.4107196
49	0x3e9df7df	0.30853173
50	0x3f52b3c1	0.8230553
51	0xbda1aaf2	-0.07893933
52	0x3eaeb796	0.3412444
53	0xbefaf735	-0.4901673
54	0x3ed4575e	0.41472906
55	0x3ed611f6	0.41810578
56	0xbbbc5037	-0.005746867
57	0x3f438c19	0.7638565
58	0xbe9a01af	-0.3007941
59	0xbf38e2dc	-0.7222116
60	0xbf1e9724	-0.6194937
61	0x3e5765e9	0.2103497
62	0xbf1a74bd	-0.6033438
63	0xbe2a4a83	-0.16629986

log_std_head.weight f4 [1, 64]
0	0x3d88e231	0.066837676
1	0xbd6ce300	-0.05783367
2	0xbca5f119	-0.020256566
3	0xbea39c35	-0.31955114
4	0xbd54b971	-0.051934663
5	0xbd8345aa	-0.06409772
6	0xbe15f27c	-0.14643282
7	0xbd8f70e4	-0.07003954
8	0x3d4bd2c6	0.049761556
9	0xbe9728e8	-0.29523396
10	0xbd901704	-0.0703564
11	0x3d07c5fc	0.033147797
12	0xbeaa65b4	-0.33280718
13	0x3d907ddc	0.07055256
14	0xbc606125	-0.013695036
15	0xbd3152a0	-0.043291688
16	0xbe113c74	-0.14183217
17	0x3e291283	0.16510968
18	0x3d9d80c5	0.076905765
19	0xbe31aa48	-0.17350113
20	0xbd3e37a3	-0.046439778
21	0xbdebe33e	-0.115179524
22	0xbe99afc3	-0.30016908
23	0xbe4b9df5	-0.19884475
24	0xbd256dad	-0.040387798
25	0xbe09f17e	-0.13471028
26	0xbdf4a932	-0.11946334
27	0xbd3b0e14	-0.045667723
28	0xbe66574c	-0.22494239
29	0x3d8da9b5	0.06917135
30	0xbe3dd3ba	-0.18537799
31	0xbed61798	-0.41814876
32	0x3d5dbfcf	0.054138
33	0x3dfd8e16	0.12380616
34	0x3dcf3d0a	0.10119064
35	0x3d85fd30	0.06542432
36	0xbdc7b729	-0.09751732
37	0x3e8d49eb	0.27595457
38	0x3d52dd07	0.05148032
39	0xbd6376d9	-0.055533264
40	0x3d78a8c9	0.06070784
41	0x3def5f8d	0.11688147
42	0xbe73448d	-0.23756619
43	0x3e29d9e4	0.16587025
44	0x3e59c0bd	0.2126493
45	0xbd40be1d	-0.047056306
46	0xbd099d98	-0.03359756
47	0xbe0c50c2	-0.13702682
48	0x3df5237c	0.11969659
49	0x3da6012b	0.081056915
50	0xbe1619bc	-0.14658254
51	0xbd756c9d	-0.059918035
52	0xbd7e2ca0	-0.062054276
53	0xbda900aa	-0.0825208
54	0x3e0a5586	0.13509187
55	0x3ed5f5aa	0.4178899
56	0xbdc10473	-0.09424677
57	0x3e01474d	0.12624855
58	0xbd4b2ec6	-0.049605154
59	0xbe060032	-0.13086012
60	0xbe1b362c	-0.15157384
61	0xbd05db7f	-0.03268003
62	0xbd07095f	-0.03296792
63	0x3ecd07e7	0.40045092
