Q1/ckpt/actor_ep100.pth (torch, 21552 bytes, 6 tensors)

net.0.weight f4 [64, 3]
000000 ec 20 7b 3d 55 b2 54 bf a0 ba 85 be 3b 63 bb be
       0.061310694 -0.83084613 -0.26118946 -0.36599144
000010 38 f2 12 3f e6 12 0b bf 77 c8 23 3f 6d e8 0e 3f
       0.57400846 -0.5432571 0.6397776 0.55823404
000020 42 39 ac 3e e4 5f 32 3f 15 c4 a7 be 57 b6 91 bd
       0.33637434 0.6967757 -0.32766786 -0.07114857
000030 e2 bb 28 3f ad 06 09 3f 77 58 73 3e 99 1b 6c 3e
       0.65911686 0.5352581 0.23764215 0.23057403
000040 6c 48 3c 3f cd e4 aa 3e 5e f0 12 3f 34 dc 4e 3e
       0.73548007 0.33377686 0.5739802 0.20201188
000050 21 4f 66 3d 80 e2 25 bf 85 83 0d 3e 02 73 5c be
       0.056227807 -0.64798737 0.13819702 -0.21528247
000060 f7 c4 f3 3e 8d 1b c7 be ed 97 9d be 7b 84 62 3f
       0.4761121 -0.38888207 -0.30779973 0.884834
000070 92 34 a9 3d 6a 6f 8c bd 94 ff ca 3e 58 ea 81 be
       0.0826198 -0.06857188 0.39648116 -0.25374103
000080 8a 88 c9 be 26 54 bf be 53 df ec be bf 27 0c be
       -0.39361984 -0.37368888 -0.46264133 -0.13687037
000090 5f e9 2c bd 76 6f 5f bd f1 94 cd 3b 60 c7 9c 3e
       -0.042214748 -0.054549657 0.0062738587 0.3062086
0000a0 b0 36 67 bf 81 3a cc bd ed c3 46 bd 50 df 6e bf
       -0.9031782 -0.09972096 -0.048526693 -0.933095
0000b0 43 87 a9 be 78 5c 95 be 39 a1 34 bf 88 a7 b4 be
       -0.3311101 -0.2917211 -0.70558506 -0.35284066
0000c0 cc 45 bb be 66 a1 25 bf 56 e8 74 be c0 ee 23 bf
       -0.36576688 -0.646994 -0.23916754 -0.6403618
0000d0 6e 2d 31 3f e0 7a e9 3e fb ba c2 be d9 ce d8 3e
       0.69209945 0.4560156 -0.3803328 0.42345312
0000e0 9f a3 d0 be 69 db b6 be 36 7b d6 3e 3a 9a ca bd
       -0.40749833 -0.35714272 0.41890877 -0.09892698
0000f0 d8 bc 6f 3e 53 32 3a 3f cc 3d 6c be 6d 59 e4 be
       0.23411882 0.7273304 -0.23070449 -0.44599476
000100 60 4a b1 3e be 85 05 3e 89 26 80 3e ad 1f f6 3e
       0.34627056 0.130393 0.250294 0.48071042
000110 f8 df 63 bc a1 7e d2 be 76 56 9f 3e 8c 52 bd be
       -0.013908379 -0.41112235 0.31120652 -0.3697704
000120 b7 fd 2e be 5e 0f 77 be e6 e4 0c 3e fd 2b 2e 3f
       -0.17088972 -0.24126956 0.13759193 0.6803587
000130 ed 27 dc 3e e4 bf 91 bd 5b e7 df 3e df de 3f bd
       0.4299921 -0.07116678 0.43731198 -0.046843406
000140 f8 ff d0 be c2 3e a0 be 51 61 37 bf ea a5 8a 3b
       -0.4082029 -0.3129788 -0.7163287 0.0042312043
000150 ab 44 f1 3e a7 61 40 bf 74 4f a1 be 94 41 19 bf
       0.47122702 -0.75149006 -0.3150593 -0.5986569
000160 50 1c f5 bd 34 e6 ca bd a6 2a 24 3f e9 84 6f 3e
       -0.11968291 -0.09907189 0.64127576 0.23390545
000170 58 bd 95 bd e1 11 f9 be 62 20 11 3f 3a 25 af bd
       -0.07311505 -0.48646453 0.5669004 -0.08552022
000180 91 18 9d 3e 90 d4 15 3f 16 d2 b6 be 96 fb 0f bf
       0.30682805 0.5852747 -0.35707158 -0.56243265
000190 61 f1 50 bf e3 c7 7d 3c a7 d9 47 3f 40 ba 08 3f
       -0.81618315 0.015489551 0.78066486 0.53409195
0001a0 5d 36 f6 bc f7 c8 ee be 64 a6 92 3e af ef 0c 3e
       -0.03005522 -0.466377 0.2864257 0.13763307
0001b0 f8 81 5b bf 6f 64 c6 be a4 4b f3 3e c3 8b 98 be
       -0.8574519 -0.387485 0.47518647 -0.2979413
0001c0 e2 ac 09 3f 4f 96 9b 3e 9e 94 00 3d 3a 14 72 3f
       0.53779423 0.30388114 0.031391732 0.94562113
0001d0 fb 33 40 3e fb 56 d9 3d fa 03 eb 3e db 23 5b bd
       0.18769829 0.10612293 0.4590147 -0.05350099
0001e0 59 b5 a7 be 16 ab 6f bf 5b 7c e4 be 38 68 d6 3e
       -0.32755545 -0.9362043 -0.44626126 0.41876388
0001f0 24 93 ac be 5b 90 9a 3e ab e5 04 3f 48 58 00 bf
       -0.3370601 0.3018826 0.51912946 -0.50134706
000200 fb 8d a2 bd 7f 14 14 be 1d 53 61 bf a5 29 2f bb
       -0.07937237 -0.14460944 -0.88017446 -0.0026727703
000210 f2 70 05 3f d2 ff 78 bf 00 c1 24 be c6 e3 6f be
       0.52125466 -0.9726535 -0.16089249 -0.23426732
000220 48 98 60 bf a0 a6 4b be c6 c7 41 3e d9 b0 0c 3f
       -0.8773236 -0.19887781 0.18923864 0.5495735
000230 23 bc 0c bf ec 3a cd be 16 69 ed bd 94 05 f2 be
       -0.54974574 -0.40084016 -0.11592309 -0.4726988
000240 4b 26 32 3f 02 75 0e bf 0a bc bd be d8 98 04 be
       0.6958968 -0.5564729 -0.37057525 -0.1294893
000250 77 75 10 3f ac 3b 42 be c7 6e a1 be e6 7b 8b 3e
       0.5642924 -0.18968076 -0.3152983 0.27242965
000260 ac 10 f8 3d cd d9 83 bd 70 24 61 be f4 7f d1 3e
       0.12112555 -0.064380266 -0.21986556 0.40917933
000270 a1 ab 01 3f 7a e7 91 3e 0d 68 8d 3e 87 6a 44 be
       0.5065251 0.28496915 0.27618447 -0.19181262
000280 88 7a 6f 3e b8 98 39 be b8 0b 8a be 4d cc 10 bf
       0.23386586 -0.18124664 -0.26962066 -0.5656174
000290 62 43 c7 3e d8 40 6b 3f 49 18 b9 3e 52 ff aa 3e
       0.38918597 0.9189582 0.3615134 0.3339792
0002a0 21 26 d8 3e e0 fa 85 bf d2 9f fa bd 8f b5 42 3e
       0.4221659 -1.0467186 -0.122375146 0.19014572
0002b0 d3 e8 be 3e 02 fc f5 be e4 a1 97 bc 79 9d ea be
       0.37287006 -0.4804383 -0.018509813 -0.45823267
0002c0 58 87 5a 3e b5 58 c4 be a8 37 5d 3f 09 01 1e be
       0.21340692 -0.38348928 0.8641305 -0.15430082
0002d0 8b 97 86 3e 8d 11 4b bf b0 ee b5 bd bc b6 a6 3e
       0.26287493 -0.79323655 -0.08883417 0.3256129
0002e0 b4 3a 4a be 03 1a c7 be aa ab 46 be ae 48 42 3f
       -0.19748956 -0.38887033 -0.19401422 0.7589215
0002f0 d3 5a 49 3e da bf d7 be bf b3 fa 3e a0 d0 bd be
       0.19663553 -0.4213856 0.4896526 -0.3707323

net.0.bias f4 [64]
000000 98 a5 b7 be 32 08 4d 3e aa 2d 38 3e ca 8c 2b be
       -0.35868526 0.20022658 0.1798617 -0.16752926
000010 66 e1 0d be d5 bd 20 bd 4c b1 c5 3e ae 65 00 3e
       -0.13855514 -0.039243538 0.3861183 0.12538788
000020 fc 00 be be a0 3d 37 3e 17 74 66 be e4 ae d9 be
       -0.37110126 0.17894602 -0.22505222 -0.42516243
000030 15 28 0e bf 4e 7a 52 3e 57 e5 da bd 48 e3 2d bf
       -0.5552991 0.20554468 -0.10688274 -0.6792493
000040 3f 57 a3 3e 6e db bb be 83 ee 97 3e 76 3f 8a 3e
       0.319025 -0.3669085 0.29674158 0.27001542
000050 98 08 db 3e c1 13 f3 be 3c c7 69 3e b4 cf 06 bf
       0.42779994 -0.4747601 0.22829908 -0.5266068
000060 91 82 de bd bb 53 23 3e 12 f7 c0 3e 74 3c c2 3d
       -0.10864747 0.1594991 0.376885 0.09484187
000070 13 27 2a be 72 e2 1b 3f f0 d9 7b 3d 9b a7 0d 3f
       -0.16616468 0.60892403 0.06148714 0.5533387
000080 3b 82 52 3e dc 2d 83 3c 25 ad 66 bd 9c 4e e6 be
       0.20557491 0.016013078 -0.056317467 -0.4498185
000090 e4 9a e3 be e9 ce 94 bd 56 05 be bd a5 25 09 3e
       -0.4445411 -0.072660275 -0.092783615 0.13393266
0000a0 71 13 9b be 00 a9 84 3e 29 a1 98 be ac 32 b7 3e
       -0.3028827 0.25910187 -0.29810455 0.35780847
0000b0 70 81 97 3e 66 2a 38 bf 82 86 c0 3e 0d 2d fd be
       0.2959094 -0.71939695 0.3760262 -0.49448434
0000c0 27 fc 12 3f 6a b9 d6 be 9e 26 ed be 9b 88 08 bf
       0.57416004 -0.41938335 -0.46318525 -0.53333443
0000d0 59 77 2c 3e c1 90 3b bf 7d c8 a4 3d 11 63 1c bf
       0.16842403 -0.7326775 0.080460526 -0.61088663
0000e0 f7 3c 97 3e 24 72 66 3b 7c 2b 65 3e d9 bb af 3e
       0.295387 0.0035163248 0.22379869 0.34323004
0000f0 62 0c 32 3e 6d 43 71 3e b8 9a 6e 3e cf f0 dd be
       0.17387536 0.23560877 0.23301208 -0.43347785

net.2.weight f4 [64, 64]
000000 b6 4e 8f bb 99 da b7 3c 61 3e 9d bd 57 1c db bd
       -0.0043733967 0.022443103 -0.076779135 -0.10698765
000010 a8 66 48 3d 77 87 de 3c 24 fe f8 bc 3c 2f 5f 3e
       0.048926026 0.027164204 -0.030394621 0.21795362
000020 20 0e 5a bd 4c 76 f0 3c 9c 0f a3 3d 89 3a f9 bd
       -0.053236127 0.029353283 0.079619616 -0.12169368
000030 ec da 28 3d cb 31 d5 3d 75 de 3e be 45 f0 d7 3c
       0.041224405 0.10409888 -0.18639548 0.026359687
000040 f7 37 2b be 87 6f ff bd de bf 14 be 2e e0 b7 be
       -0.16720568 -0.12472444 -0.14526317 -0.35913223
000050 a0 a1 32 3e a6 27 30 be 2b f7 38 ba 9a 3e 5a bc
       0.17444468 -0.17202625 -0.0007055874 -0.013320589
000060 93 b0 b6 bd fa 0a 06 3e ed cf 28 be c5 12 2d bd
       -0.089203976 0.13090125 -0.16485567 -0.04225423
000070 dc de dd bd e6 08 0c be 63 37 fb 3d 63 89 bc bc
       -0.10833523 -0.1367527 0.122664236 -0.02301473
000080 bd c7 73 be 00 98 33 3c e2 71 a9 3b 15 b6 78 3d
       -0.23806663 0.010961533 0.0051710466 0.060720522
000090 29 78 c4 bc 20 c2 0a 3d f7 25 b7 3d 54 78 a5 3c
       -0.023983078 0.03387654 0.08942788 0.020198978
0000a0 35 0c 2f be 50 61 ee 3d db f4 0c be ea 77 dd 3d
       -0.170945 0.11639655 -0.1376528 0.108138874
0000b0 a9 ad 8f bd 51 01 fb bd 93 91 ad bd 7b b3 85 bc
       -0.07015545 -0.122561105 -0.08475032 -0.016320935
0000c0 f0 ac fd bd eb fb 59 bd a3 fc 8f 3d 6e ea 50 3d
       -0.12386501 -0.053218763 0.070306085 0.05100482
0000d0 bc 43 70 bd 9e d0 23 3c 97 c0 a5 3d dc 71 82 3d
       -0.058658347 0.009998469 0.08093374 0.06369373
0000e0 ac f3 17 3c 01 ce 1a bd 7f 83 aa bd 32 1a 45 be
       0.0092744045 -0.037794117 -0.08325862 -0.19248274
0000f0 05 b1 61 3d ca 73 23 be 36 1a 16 3c b5 83 1c be
       0.05510046 -0.15962139 0.009161523 -0.15284617
000100 91 dc 22 bd ab 6e e4 bd c6 5f d0 3d 1e f8 76 3e
       -0.03976113 -0.11153921 0.10174517 0.24118087
000110 59 14 52 3d ee 47 e1 3d ef 78 21 bd 86 ef d5 bd
       0.051288936 0.110000476 -0.039421972 -0.10446076
000120 cf 8c b3 3d 8f 33 b8 3c 7d 6d 29 bd dd a9 a7 bd
       0.087670915 0.022485523 -0.04136418 -0.08186696
000130 d0 5f 6a 3d 1d 50 33 3c 30 5a c7 3b 8e 4a 55 be
       0.05722028 0.010944393 0.0060837492 -0.20829222
000140 4c ae ab 3d ff 3f 66 bc 10 9e 1d 3d 6a 1d 03 3d
       0.08382854 -0.014053344 0.03848082 0.032010473
000150 d8 44 b6 bd ad 94 84 bd 31 23 41 bd 34 81 b7 be
       -0.0889985 -0.0647367 -0.0471527 -0.35840762
000160 9e f0 60 bc c8 b6 35 be 0f 49 8d 3d b4 d1 13 3e
       -0.013729243 -0.17745507 0.068987004 0.14435464
000170 51 f3 fe bd ea 8a dc 3d 15 5c 22 be c9 5c 69 3d
       -0.12448753 0.10768683 -0.15855439 0.056973252
000180 cc a5 54 be f4 42 db 3d aa b8 93 bd 24 35 f2 3d
       -0.20766371 0.1070613 -0.07212956 0.11826542
000190 0a 2a 13 3e c9 88 1a 3d 3b 1e 61 bc 00 4b 23 3d
       0.14371505 0.037728105 -0.013740118 0.039866447
0001a0 f1 51 23 be a2 e0 92 3d 35 73 a6 3e 07 24 60 3d
       -0.15949227 0.071717516 0.3250977 0.05472186
0001b0 ec 61 0d 3d 64 d2 64 be d9 ea df bd 15 0e 0d bd
       0.034517214 -0.22345883 -0.109334655 -0.034437258
0001c0 eb 98 b5 3d 47 2a e4 3c 8c a1 e9 3c 4e a3 97 3d
       0.088670574 0.02785219 0.028519414 0.07404195
0001d0 f7 e4 db 3d 4d c1 aa bd 10 8c d7 3c 26 2f ac 3d
       0.10737031 -0.083376504 0.026311904 0.0840743
0001e0 6d 6c f8 3d 43 9d 0f 3d 59 63 a3 3d 85 13 1d bd
       0.121300556 0.035062086 0.079779334 -0.038348693
0001f0 31 fd 9a 3b d7 96 52 3d a4 e7 3e bd 44 e6 14 bf
       0.00472989 0.051413383 -0.04660763 -0.5816386
000200 f4 5f 42 bd 60 2e 9c 3d 0e c9 8a 3d 5b 35 c9 bc
       -0.04745479 0.07626033 0.067766294 -0.024561575
000210 d4 33 82 3d 24 16 73 3d 14 a7 04 bd fd 5d 33 bd
       0.06357542 0.059347287 -0.0323859 -0.043790806
000220 d8 28 34 3c 77 51 ad bd ba 64 8e bd 23 77 24 3d
       0.010996066 -0.08462804 -0.06952806 0.04015268
000230 60 41 f4 bd ae dc d4 3b 22 4e df 3d 8c 3b b9 bc
       -0.11926532 0.0064960336 0.109035745 -0.022611402
000240 82 25 bd bd c2 46 f0 bd 07 fb be 3d 2b 60 b2 bd
       -0.0923567 -0.11732246 0.093252234 -0.08709749
000250 92 01 c4 bd cc f5 94 bd b3 c8 56 3d 63 ba df 3d
       -0.09570612 -0.072734445 0.052437495 0.10924222
000260 70 70 f9 bd 7e 9b ed bd 41 92 96 bd 68 12 f9 bb
       -0.12179649 -0.116019234 -0.073521145 -0.007601071
000270 7f ac a6 3d 5c b3 c2 bd 51 2f 18 ba 5e fb f0 bd
       0.0813837 -0.09506866 -0.00058053905 -0.117666945
000280 49 5a 03 be c9 2c d6 3c 92 4e b3 3d 8c d9 d1 3d
       -0.1282741 0.026144402 0.087552205 0.10246572
000290 3a 84 d1 3d 32 5e b6 bd fa 5c ef 3d 28 23 b4 bd
       0.10230298 -0.08904685 0.11687656 -0.08795768
0002a0 88 a9 d0 3c ac c6 f6 bd d3 6f 47 3d 2b 1f ae bd
       0.025471464 -0.120496124 0.04869063 -0.085020386
0002b0 2a ee 57 3d c5 58 9a 3c 1f 79 b0 3d c7 8d ac bd
       0.052717365 0.018841157 0.08616852 -0.084254794
0002c0 ac 24 b9 bd 1b 65 a0 bd 34 b5 4c bd a6 d8 88 bd
       -0.09040198 -0.07831784 -0.049977496 -0.066819474
0002d0 b2 90 c4 bd ba 20 02 be ca 8b f3 bd 1c 4f e2 bd
       -0.09597911 -0.12707797 -0.11891897 -0.11050245
0002e0 27 67 50 bb 70 be 3c 3d b0 c5 aa bd ac a0 d7 3d
       -0.0031799765 0.046080053 -0.08338487 0.105286926
0002f0 91 58 91 bc b9 d3 f0 bd fa de ee bd fc 6b 7c bc
       -0.017742427 -0.11759133 -0.11663623 -0.015406605
000300 fc f6 cf 3d 4a 77 a2 3d ec c3 a8 bd 5b e6 0e 3d
       0.101545304 0.07932909 -0.08240494 0.034887653
000310 40 f4 c4 3d 26 f1 09 be 12 6f 99 bd 9e 08 ac bc
       0.096168995 -0.13470897 -0.07491888 -0.021000203
000320 da c9 ea bd 64 35 7d 3e b5 00 f1 bd 0e d5 f3 bd
       -0.114642814 0.24727398 -0.11767713 -0.11905871
000330 2a 7d df 3d ff 14 0c 3e 6f 2b 9f 3d 83 ef 15 3d
       0.10912545 0.13679884 0.07771956 0.03660537
000340 9b bc c6 3d 0e 20 8f 3c 3d b9 60 3c 10 a4 26 3d
       0.097039424 0.01747134 0.013716039 0.040683806
000350 14 f5 79 3c 7d 7b 3a bd 15 7f d6 bd 8a d7 cf 3c
       0.015256185 -0.045527924 -0.10473458 0.025371332
000360 63 a6 b2 bd 81 d8 56 bd 87 1d fc 3c 9c c3 ae bd
       -0.08723142 -0.052452568 0.030775798 -0.08533403
000370 a9 ce 4e bd d1 ca 47 3d ff b7 0b be 99 44 d9 3d
       -0.050490055 0.048777405 -0.13644408 0.10608787
000380 f4 f6 4f 3d 1c cd b4 3d 7a d3 1e 3e 73 27 77 bd
       0.050772622 0.08828184 0.1551036 -0.060340356
000390 88 91 bd bd 5c 9d dd 3c 66 03 47 bd 12 21 23 3d
       -0.092562735 0.027052574 -0.048587225 0.03982646
0003a0 c0 cd a2 bc 1e 12 84 3d 3c 0d 23 be b2 9e c5 3d
       -0.0198735 0.06448768 -0.15923017 0.09649409
0003b0 d7 44 d4 3a 0c be e7 bd b6 65 9a bb 39 75 90 bc
       0.0016194832 -0.113155454 -0.004711832 -0.017634021
0003c0 45 91 0e 3e bc d8 84 be fd 96 75 bd 18 54 fb bd
       0.13922603 -0.25946605 -0.059958447 -0.12271899
0003d0 c4 7a 4c 3d 8f 23 2e be 3e 91 18 3c 27 d6 d0 bd
       0.049921766 -0.17005752 0.009311972 -0.10197096
0003e0 a2 66 2c 3d d0 22 1c 3c 7c 4c a8 3d ee 0f 04 be
       0.042090066 0.009529784 0.08217713 -0.12896702
0003f0 ec b4 29 bd 90 5f 12 3d 71 20 14 be 87 b9 9d bd
       -0.041432306 0.035735667 -0.144655 -0.07701402

net.2.bias f4 [64]
000000 14 62 47 bd 4e fc 1b 3e b5 69 10 bd d4 91 93 3c
       -0.04867752 0.15232965 -0.03525706 0.018013872
000010 2e a3 63 3d 7e f6 18 3c 7f 66 12 3e 0f a0 e5 3c
       0.055575542 0.009336112 0.14296912 0.028030423
000020 8a c1 dd 3c be 33 c5 3d e0 d5 8d 3d d4 fb 3f bd
       0.027069826 0.0962901 0.06925559 -0.04687102
000030 de 63 32 3e 20 68 94 3d 5e 6f ee bd 54 71 e4 3d
       0.17420909 0.07246423 -0.11642335 0.11154428
000040 74 a7 d4 3d 9c 94 30 3e d3 a9 37 3c f4 5f 46 3d
       0.10383502 0.1724419 0.011209923 0.04843135
000050 31 48 85 3c 19 e8 3a 3d 37 03 11 3d 2a 36 5c 3e
       0.016269775 0.0456315 0.035403457 0.21505037
000060 07 f5 13 3e 48 5a e2 3d 32 76 0e be 68 86 ee 3c
       0.1444894 0.11052376 -0.13912275 0.029116824
000070 0b ad 9d 3b 8f 23 43 bd de ac ae 3c c6 67 6b 3c
       0.004811888 -0.047641333 0.021322664 0.014368003
000080 a0 16 cd 3d 20 e4 33 3e ca 7b d9 3d 41 7b df 3d
       0.10014081 0.17567492 0.10619314 0.10912181
000090 3d c8 ae bc a3 06 18 3e 1b 1e 19 3e c5 a1 5c 3b
       -0.021335715 0.14846282 0.1495289 0.0033665758
0000a0 36 ec 6a 3c db 0d 07 3e 19 28 88 3c 46 19 24 3e
       0.014338544 0.13188879 0.016620683 0.16025266
0000b0 f2 59 12 3d 27 89 29 3e bf 7a b7 3d a1 0a f9 3c
       0.03573031 0.16556226 0.08958959 0.030400576
0000c0 cb ee 33 bd 6d f7 8b bb 2f 93 5f 3d d7 2d cc bd
       -0.043928903 -0.004271439 0.054583725 -0.09969681
0000d0 cb a1 4b bd a7 3f a8 bd b6 e3 6c bd 81 9e 68 bd
       -0.049714845 -0.08215266 -0.05783435 -0.056791786
0000e0 c7 2b a3 3d a6 16 40 3d 00 d6 54 3d f4 87 14 3e
       0.07967334 0.0468966 0.0519619 0.14504987
0000f0 d4 cd 57 bc 79 6a 88 3d 7c b8 8c 3d 52 76 d5 bc
       -0.013171632 0.06660933 0.06871125 -0.026057396

mu_head.weight f4 [1, 64]
000000 22 4d ba bc 28 50 de 3d 29 40 37 bc 57 54 54 bc
       -0.022741858 0.10855132 -0.011184731 -0.012959561
000010 c5 13 8c be 41 bf 97 3e 91 ef 92 be ef 2e 03 bd
       -0.27358833 0.29638103 -0.286984 -0.03202718
000020 cd 8b 99 be 3a 8e 5e 3d 54 7d 63 be 1a 62 60 3e
       -0.29989472 0.054334857 -0.22215778 0.21912423
000030 e6 73 87 be 6a 40 46 be 17 62 7e 3e f6 29 19 be
       -0.2645561 -0.1936051 0.24842106 -0.14957413
000040 a5 17 65 3c 83 a7 48 3e 4f c5 c0 3d ab 82 6a bc
       0.013982688 0.1959515 0.09412634 -0.01431338
000050 17 61 53 3d 94 75 a5 be 91 1b 68 3c 0d 9d 8d ba
       0.051606264 -0.32316267 0.014166729 -0.0010804251
000060 5b 23 91 be 8f 0f 4b 3d 64 e7 b8 bd 11 bd 01 3e
       -0.28347287 0.049575385 -0.09028509 0.1266978
000070 bd be b6 bc f8 71 8e 3e b2 35 98 be 7d bf 09 be
       -0.022307748 0.27821326 -0.29728466 -0.13451953
000080 cb 58 cc 3d 62 f4 3e be 22 67 6c bd 39 d4 b2 bd
       0.099778734 -0.18647912 -0.057715543 -0.087318845
000090 12 fc 44 3d b3 6a 0e 3f 9b 94 62 3e 2a 23 84 bd
       0.048091955 0.5563156 0.22127001 -0.064520195
0000a0 a4 a6 81 3e aa 5f 7d 3e 64 f1 8b 3e 70 2b 2f 3f
       0.2532245 0.24743524 0.27332604 0.68425655
0000b0 08 a6 85 3e 9c ee d8 3d e7 bf 38 be 1d a9 5e bd
       0.26103234 0.10592386 -0.18041955 -0.054360498
0000c0 b2 d3 f0 bc cc d4 58 3e e6 1f cd 3e f2 aa a1 bd
       -0.02939782 0.21174926 0.400634 -0.07893933
0000d0 76 ba 9b 3d 24 82 2b be 13 4a 37 3e 0b 65 a2 3e
       0.07603924 -0.16748863 0.17899351 0.31717715
0000e0 37 50 bc bb 41 c7 a4 3e 57 dc 4a be f0 42 dd be
       -0.005746867 0.3218327 -0.19810615 -0.43215132
0000f0 d8 78 95 be 30 2b 65 bc cd f8 cd be a0 77 04 3c
       -0.2919376 -0.0139873475 -0.40228882 0.008085161

log_std_head.weight f4 [1, 64]
000000 d0 79 8b 3d 07 12 ed bd 19 f1 a5 bc a2 e6 19 be
       0.06810343 -0.11575704 -0.020256566 -0.15029386
000010 e2 9f af bd 6b d3 af bd 97 f7 0a be dc 16 ac bd
       -0.08575417 -0.08585247 -0.1357101 -0.084027976
000020 6b 65 a6 3d d1 bf 39 be ab 68 39 be 38 29 96 3b
       0.08124813 -0.18139578 -0.18106334 0.0045825504
000030 66 58 71 be d4 9f 54 be 82 84 24 bb 66 f9 1f bd
       -0.23568878 -0.20764095 -0.0025103395 -0.039056204
000040 93 07 4d be 20 b6 74 3d 5d d3 b1 3d 5b 23 34 be
       -0.2002242 0.059744 0.086828925 -0.17591612
000050 90 5d 11 be 27 ca 72 bd 30 e1 80 be f7 13 6f be
       -0.14195848 -0.05927482 -0.25171804 -0.2334746
000060 95 e9 13 be f5 58 09 be 7f 27 99 bd 84 5c 8e 3c
       -0.14444573 -0.1341284 -0.074782364 0.0173781
000070 eb 9e 5e be 8a 7f 13 3c 8e b4 be 3b fb b2 98 be
       -0.2174031 0.009002576 0.0058198636 -0.2982405
000080 c0 bb 99 3b ff a7 00 be 0a 3d cf 3d f5 fb b1 bd
       0.004691571 -0.12564085 0.10119064 -0.08690635
000090 29 b7 c7 bd e4 c1 83 3e 45 21 cf bc e8 ac f0 bd
       -0.09751732 0.25733864 -0.025284419 -0.11751729
0000a0 09 08 fc bd 8a 17 43 ba ef e1 80 3e 29 c8 80 3e
       -0.1230622 -0.0007442167 0.25172374 0.2515271
0000b0 e1 0c 9f bc 78 6d 01 be 80 0d e7 3d c3 95 b8 be
       -0.01941532 -0.12639415 0.11281872 -0.3605176
0000c0 b9 3e ab bd ef 67 c9 3d 7b 68 da ba 9d 6c 75 bd
       -0.08361573 0.09834277 -0.0016663218 -0.059918035
0000d0 2d 5e de bd 0f 2a 10 be 61 b1 37 3e 19 01 be 3d
       -0.10857806 -0.14078544 0.17938758 0.09277553
0000e0 73 04 c1 bd cb 42 15 3e 68 b9 d5 3c bc 3d 35 be
       -0.09424677 0.14576261 0.026089385 -0.17699331
0000f0 ed fc 3c be ad ee cb bd 71 d3 d5 bd a8 86 77 3e
       -0.18455859 -0.09957633 -0.1044072 0.24172461
