Q1/ckpt/actor_ep300.pth (torch, 21552 bytes, 6 tensors)

net.0.weight f4 [64, 3]
0.37452018 -1.2951659 -0.31218183 -0.42590082 0.44539422 -0.5055319 0.76983505 0.6603073
0.2714461 0.7306118 -0.45869064 -0.117044196 0.5869734 0.8716565 0.24979681 0.2709897
1.1609449 0.28719464 1.0590215 0.20146541 0.053416792 -0.97320676 -0.10102278 -0.101509474
0.74193233 -0.8851181 -0.32661542 1.0852165 0.060179412 -0.10250689 0.6626805 -0.4925368
-0.35390007 -0.3734191 -0.87649125 -0.24624029 -0.042214748 -0.054549657 0.0062738587 0.32573608
-1.0376308 -0.13238648 0.058715247 -1.4824578 -0.3406743 -0.3169973 -0.91183835 -0.3940201
-0.34472802 -0.92319405 -0.21558319 -0.38627145 0.9768725 0.4757303 -0.5465509 0.35345832
-0.3685696 -0.48720235 0.55139816 -0.10654524 0.19346115 0.8001629 -0.14205119 -0.9393209
0.5413266 0.07717167 0.03350556 0.67159224 0.050096106 -0.39696306 0.13568798 -0.31365317
-0.28667185 -0.21288596 0.15190506 0.9928153 0.41648573 -0.024363805 0.34108075 -0.47387624
-0.37709343 -0.44386816 -0.75779057 -0.06796595 0.48656848 -1.3014762 -0.32320386 -0.8567393
-0.22866602 -0.09774673 0.9631785 0.115689926 -0.12521704 -0.82706326 0.5160228 0.019417189
0.18995297 0.7341478 -0.20523669 -0.70618176 -0.8631193 0.089679055 0.9271085 0.43304792
-0.009703554 -0.73999053 0.43535143 0.08496711 -0.77303255 0.08095703 0.60226357 0.06429115
1.0829473 0.25714347 0.12975997 1.239456 0.29536796 0.29491362 0.6788628 0.04753297
-0.14446874 -1.4904337 -0.34334904 0.55112547 -0.2560919 0.19559279 0.44408426 -1.0123664
-0.23257665 -0.1738491 -1.0395353 -0.12561715 0.4993067 -1.2210269 -0.15772206 0.0029408066
-0.92375124 -0.31295776 0.19539306 0.35620987 -0.5572849 -0.4580473 -0.4030775 -0.46241233
0.7838185 -0.7739419 -0.30629137 -0.007949743 0.6845175 -0.21622789 -0.73716587 0.24780749
0.16035101 -0.0141360415 0.035015147 0.33161247 0.49118072 0.3156562 0.20337883 -0.05583571
0.598139 -0.14966914 -0.090939134 -0.22554953 0.5026739 0.99814135 0.6547381 0.32309765
0.45615697 -1.2040945 -0.15577665 0.097369604 0.37039697 -0.43348828 0.1560403 -0.15289904
0.27340332 -0.71580505 0.9470258 -0.044700764 0.17692557 -0.96205145 -0.13061191 0.2321654
-0.65638214 -0.2795633 -0.11785225 1.1284852 0.24691431 -0.41102916 0.37048241 -0.3523998
00000000: 1cc1 bf3e ffc7 a5bf 4cd6 9fbe ac0f dabe
00000010: b60a e43e 8a6a 01bf e913 453f e609 293f
00000020: fcfa 8a3e 6009 3b3f 80d9 eabe deb4 efbd
00000030: e443 163f e124 5f3f bcca 7f3e 29bf 8a3e
00000040: d899 943f 2d0b 933e 048e 873f f34c 4e3e
00000050: 91cb 5a3d 1424 79bf 08e5 cebd 33e4 cfbd
00000060: 47ef 3d3f 1a97 62bf 233a a7be 60e8 8a3f
00000070: b07e 763d 22ef d1bd 6ea5 293f c92d fcbe
00000080: 6432 b5be ca30 bfbe bb61 60bf 6a26 7cbe
00000090: 5fe9 2cbd 766f 5fbd f194 cd3b e1c6 a63e
000000a0: 16d1 84bf 5290 07be 667f 703d 2dc1 bdbf
000000b0: dd6c aebe 784d a2be 3d6e 69bf 01bd c9be
000000c0: 3180 b0be 7256 6cbf d7c1 5cbe 5fc5 c5be
000000d0: 5114 7a3f ec92 f33e c3ea 0bbf 7df8 b43e
000000e0: 28b5 bcbe 9672 f9be 6e28 0d3f 6434 dabd
000000f0: ae1a 463e 7ad7 4c3f de75 11be 5677 70bf
00000100: 6194 0a3f 2e0c 9e3d 203d 093d 78ed 2b3f
00000110: 9331 4d3d be3e cbbe caf1 0a3e 2697 a0be
00000120: a7c6 92be c7fe 59be 008d 1b3e 2529 7e3f
00000130: 9e3d d53e 9a96 c7bc 23a2 ae3e e89f f2be
00000140: 6412 c1be b042 e3be 90fe 41bf bb31 8bbd
00000150: 811f f93e c696 a6bf fa7a a5be 4453 5bbf
00000160: 6d27 6abe 702f c8bd de92 763f d7ee ec3d
00000170: e538 00be 6bba 53bf 121a 043f cc10 9f3c
00000180: 0883 423e 1cf1 3b3f 9129 52be 54c8 34bf
00000190: 63f5 5cbf a7a9 b73d fc56 6d3f 75b8 dd3e
000001a0: a8fb 1ebc 0570 3dbf 62e6 de3e 3c03 ae3d
000001b0: 76e5 45bf cdcc a53d f22d 1a3f 14ab 833d
000001c0: 049e 8a3f 4fa8 833e ccdf 043e 7fa6 9e3f
000001d0: 783a 973e ebfe 963e f4c9 2d3f eeb1 423d
000001e0: 9def 13be 88c6 bebf 72cb afbe 8f16 0d3f
000001f0: 7a1e 83be 7a49 483e 035f e33e 3995 81bf
00000200: 9328 6ebe 8005 32be 7e0f 85bf c8a1 00be
00000210: 21a5 ff3e 9c4a 9cbf e481 21be 8cba 403b
00000220: f67a 6cbf 003c a0be 1e15 483e 2461 b63e
00000230: 39aa 0ebf 2d85 eabe 2d60 cebe 4fc1 ecbe
00000240: 54a8 483f 0e21 46bf 39d2 9cbe a43f 02bc
00000250: 8a3c 2f3f d86a 5dbe e7b6 3cbf 3fc1 7d3e
00000260: 0e33 243e db9a 67bc 0b6c 0f3d 1cc9 a93e
00000270: 0a7c fb3e b09d a13e 8a42 503e fcb3 64bd
00000280: a31f 193f de42 19be 4c3e babd 75f6 66be
00000290: 3daf 003f 3186 7f3f eb9c 273f 0e6d a53e
000002a0: 688d e93e c51f 9abf ea83 1fbe b769 c73d
000002b0: aca4 bd3e 2df2 ddbe 07c9 1f3e 9191 1cbe
000002c0: 85fb 8b3e 003f 37bf 4870 723f 2618 37bd
000002d0: fa2b 353e 0149 76bf 21bf 05be c4bc 6d3e
000002e0: a908 28bf ec22 8fbe 855c f1bd 3472 903f
000002f0: 1bd7 7c3e 6a72 d2be dfaf bd3e bf6d b4be

net.0.bias f4 [64]
-0.30991012 0.38861057 0.20463133 -0.27162823 -0.37285802 -0.22352594 0.3593265 0.23014319
-0.6830369 0.07149224 -0.7075254 -0.06373581 -0.5552991 0.3035693 -0.0018583961 -0.7691552
0.37703392 -0.36300015 0.42935386 0.17768092 0.46799213 -0.5396124 0.29595718 -0.7440715
-0.030720338 0.19803812 0.19540706 0.34110147 -0.3951026 0.6088173 0.07814963 0.51158655
-0.118495554 0.15024078 -0.010759361 -0.5722799 -0.6464528 -0.032859486 -0.08742385 0.075232975
0.100463375 0.24421805 -0.25160274 0.36768 0.38975087 -0.77089703 0.024529751 -0.6041233
0.5029213 -0.4417231 -0.50461906 -0.6740042 0.114546396 -1.0146377 -0.06485111 -0.8393006
0.37241477 -0.14892791 0.16790664 0.35399863 0.2576345 0.19345455 0.15471405 -0.60752773
00000000: 8aac 9ebe f7f7 c63e e08a 513e db12 8bbe
00000010: 3fe7 bebe fce3 64be a5f9 b73e a8aa 6b3e
00000020: 82db 2ebf 866a 923d 6220 35bf ec87 82bd
00000030: 1528 0ebf 6f6d 9b3e 6d95 f3ba 5be7 44bf
00000040: 970a c13e 28db b9be 45d4 db3e fdf1 353e
00000050: aa9c ef3e 0a24 0abf b387 973e 787b 3ebf
00000060: 38a9 fbbc 81ca 4a3e ca18 483e daa4 ae3e
00000070: e34a cabe 73db 1b3f ea0c a03d 56f7 023f
00000080: ccad f2bd b8d8 193e 0848 30bc ef80 12bf
00000090: ee7d 25bf ab97 06bd 470b b3bd bf13 9a3d
000000a0: bebf cd3d 4c14 7a3e 13d2 80be 8e40 bc3e
000000b0: 6d8d c73e 8259 45bf 9ef2 c83c d3a7 1abf
000000c0: 73bf 003f 8829 e2be b72e 01bf 8a8b 2cbf
000000d0: 4d97 ea3d a6df 81bf a9d0 84bd 67dc 56bf
000000e0: 26ad be3e 8f80 18be b8ef 2b3e 4f3f b53e
000000f0: abe8 833e f318 463e 5c6d 1e3e f086 1bbf

net.2.weight f4 [64, 64]
-2.3800385 -0.0839339 -0.026346678 -0.10306375 0.117515475 0.10230652 0.018525153 -0.41980353
-0.5463172 0.096217655 0.5990213 -0.11453994 0.041224405 0.062458683 -2.8184192 0.026359687
-1.7118592 -0.03172606 -0.40385956 -0.33854398 0.3467872 -1.0972655 0.10383194 0.14140855
-0.09083495 0.23820205 0.09653324 -0.052724633 -0.9692754 -0.31641847 0.23760602 0.008083057
-0.13706164 0.0473352 0.09431593 -0.7591431 0.04284681 0.10312805 0.11229945 0.18613926
-1.0046905 0.1400116 -0.95749617 0.055604417 -0.10332684 -0.122561105 -0.005744222 0.20249902
-0.037836917 0.07425836 -0.32929033 0.10369884 -0.012509303 0.19000545 0.11500765 0.13969569
-0.015925262 0.0024093927 -0.04704945 -0.12560561 -0.003691225 0.026336325 0.06390656 0.05755421
-0.13000812 -0.3700415 0.041552212 0.33006838 -0.24398355 -0.5834165 -0.09637303 -0.46430102
0.19935438 0.04910875 -0.13177133 -0.45378453 0.05722028 -0.014816592 -0.029801747 -0.5504971
0.032993738 -0.059615877 -0.17782716 0.040275674 0.0025996384 -0.06941187 -0.05261428 -0.63645595
-0.030670378 -0.13535827 0.12038072 -0.011651901 -0.02388077 -0.07606072 -0.12153915 -0.20008275
-0.19922678 0.015765863 -0.023228992 0.10030999 0.10921944 -0.5552365 -0.7691774 -0.06947283
-0.6167811 0.026336491 0.4976526 -0.017950328 0.02343961 -0.65507746 -0.05242659 -0.44326547
0.09607048 -0.071346596 -0.099907614 0.06266204 0.044935618 -0.083376504 -0.014174632 -0.20798483
0.10075414 0.011853793 0.033779733 -0.024390718 -0.012762324 0.09865146 -0.5888435 -0.6248781
-0.04745479 0.07626033 0.067766294 -0.024561575 0.06357542 0.059347287 -0.0323859 -0.043790806
0.010996066 -0.08462804 -0.06952806 0.04015268 -0.11926532 0.0064960336 0.109035745 -0.022611402
-0.0923567 -0.11732246 0.093252234 -0.08709749 -0.09570612 -0.072734445 0.052437495 0.10924222
-0.12179649 -0.116019234 -0.073521145 -0.007601071 0.0813837 -0.09506866 -0.00058053905 -0.117666945
-0.1282741 0.026144402 0.087552205 0.10246572 0.10230298 -0.08904685 0.11687656 -0.08795768
0.025471464 -0.120496124 0.04869063 -0.085020386 0.052717365 0.018841157 0.08616852 -0.084254794
-0.09040198 -0.07831784 -0.049977496 -0.066819474 -0.09597911 -0.12707797 -0.11891897 -0.11050245
-0.0031799765 0.046080053 -0.08338487 0.105286926 -0.017742427 -0.11759133 -0.11663623 -0.015406605
0.05955013 0.05215588 -0.14151743 0.13510981 -0.34003088 -1.4974065 -0.117161065 -0.04776938
-0.087044 0.2942462 -0.102253176 -0.24694042 0.10912545 0.14683275 0.057253703 -0.03850303
0.08026059 -0.15269367 -0.030469391 -0.092918165 -0.00037784135 -0.3579546 -0.25958085 -0.045949277
0.044822052 -0.046831205 0.028792832 -0.06817589 -0.03808933 -0.020175518 -0.09234117 0.0018564758
0.049885515 0.121850446 0.21686627 -0.35242993 -0.064808376 -1.0288084 -1.7758145 -0.099116445
-0.081824124 0.11782192 -0.16422912 0.07920427 0.022691559 -0.21923338 -0.014864502 -0.059138823
0.1366127 -0.42886207 -0.32996267 -0.14404452 0.0022561487 -0.33790228 0.046038974 -0.43089694
0.062344946 -0.007107561 0.1231987 -0.27778825 -0.038404606 0.035702925 -1.791158 -0.15694168
00000000: 8d52 18c0 89e5 abbd fdd4 d7bc 1613 d3bd
00000010: f4ab f03d 1586 d13d 10c2 973c 7df0 d6be
00000020: 72db 0bbf c30d c53d 7659 193f eb93 eabd
00000030: ecda 283d add4 7f3d fb60 34c0 45f0 d73c
00000040: 341e dbbf 2ff3 01bd aec6 cebe a355 adbe
00000050: 188e b13e 3273 8cbf d7a5 d43d 67cd 103e
00000060: ad07 babd 3deb 733e 38b3 c53d c9f5 57bd
00000070: 6f22 78bf 9a01 a2be fe4e 733e cc6e 043c
00000080: e359 0cbe 8ee2 413d b628 c13d 3457 42bf
00000090: 2380 2f3d cd34 d33d 41fd e53d 4a9b 3e3e
000000a0: b399 80bf 335f 0f3e 781e 75bf 75c1 633d
000000b0: 069d d3bd 5101 fbbd 073a bcbb e75b 4f3e
000000c0: e2fa 1abd c414 983d be98 a8be 0f60 d43d
000000d0: d2f3 4cbc ca90 423e 2189 eb3d 630c 0f3e
000000e0: b275 82bc e7e6 1d3b edb6 40bd c29e 00be
000000f0: 7be8 71bb 47bf d73c 71e1 823d f7bd 6b3d
00000100: d920 05be 1476 bdbe a732 2a3d b9fe a83e
00000110: d3d6 79be c95a 15bf 395f c5bd ddb8 edbe
00000120: 8e23 4c3e 4226 493d 10ef 06be 7256 e8be
00000130: d05f 6a3d 4bc1 72bc cb22 f4bc 61ed 0cbf
00000140: 7124 073d c72f 74bd 5318 36be 1bf8 243d
00000150: b25e 2a3b cf27 8ebd 1282 57bd c7ee 22bf
00000160: 7240 fbbc 5c9b 0abe 2b8a f63d 9de7 3ebc
00000170: 9ba1 c3bc b9c5 9bbd 85e9 f8bd 7ee2 4cbe
00000180: 1b02 4cbe 6927 813c ba4a bebc 536f cd3d
00000190: 71ae df3d fb23 0ebf cfe8 44bf c547 8ebd
000001a0: 5ee5 1dbf a0bf d73c 52cc fe3e 910c 93bc
000001b0: 6d04 c03c 28b3 27bf 44bd 56bd b1f3 e2be
000001c0: 9ac0 c43d 2a1e 92bd 5d9c ccbd f554 803d
000001d0: 690e 383d 4dc1 aabd b73c 68bc faf9 54be
000001e0: 3058 ce3d 6936 423c 9e5c 0a3d 0bcf c7bc
000001f0: 1119 51bc c709 ca3d 73be 16bf 03f8 1fbf
00000200: f45f 42bd 602e 9c3d 0ec9 8a3d 5b35 c9bc
00000210: d433 823d 2416 733d 14a7 04bd fd5d 33bd
00000220: d828 343c 7751 adbd ba64 8ebd 2377 243d
00000230: 6041 f4bd aedc d43b 224e df3d 8c3b b9bc
00000240: 8225 bdbd c246 f0bd 07fb be3d 2b60 b2bd
00000250: 9201 c4bd ccf5 94bd b3c8 563d 63ba df3d
00000260: 7070 f9bd 7e9b edbd 4192 96bd 6812 f9bb
00000270: 7fac a63d 5cb3 c2bd 512f 18ba 5efb f0bd
00000280: 495a 03be c92c d63c 924e b33d 8cd9 d13d
00000290: 3a84 d13d 325e b6bd fa5c ef3d 2823 b4bd
000002a0: 88a9 d03c acc6 f6bd d36f 473d 2b1f aebd
000002b0: 2aee 573d c558 9a3c 1f79 b03d c78d acbd
000002c0: ac24 b9bd 1b65 a0bd 34b5 4cbd a6d8 88bd
000002d0: b290 c4bd ba20 02be ca8b f3bd 1c4f e2bd
000002e0: 2767 50bb 70be 3c3d b0c5 aabd aca0 d73d
000002f0: 9158 91bc b9d3 f0bd fade eebd fc6b 7cbc
00000300: d6ea 733d 67a1 553d f2e9 10be 3a5a 0a3e
00000310: 8718 aebe 04ab bfbf 24f2 efbd d3a9 43bd
00000320: 2044 b2bd 70a7 963e 1d6a d1bd f3dd 7cbe
00000330: 2a7d df3d 535b 163e dc82 6a3d 5ab5 1dbd
00000340: aa5f a43d bb5b 1cbe f29a f9bc e14b bebd
00000350: 0219 c6b9 d345 b7be c8e7 84be 4f35 3cbd
00000360: 5497 373d 14d2 3fbd f2de eb3c cd9f 8bbd
00000370: 8f03 1cbd 2147 a5bc 5e1d bdbd fe54 f33a
00000380: c154 4c3d ba8c f93d 3112 5e3e b271 b4be
00000390: 41ba 84bd feaf 83bf e44d e3bf 90fd cabd
000003a0: 6893 a7bd 9e4c f13d ae2b 28be d935 a23d
000003b0: a6e3 b93c b77e 60be 3d8a 73bc 8d3b 72bd
000003c0: 33e4 0b3e cf93 dbbe def0 a8be 6880 13be
000003d0: e5db 133b 8701 adbe 5d93 3c3d 869e dcbe
000003e0: 6a5d 7f3d 8be6 e8bb 9a4f fc3d 433a 8ebe
000003f0: 264e 1dbd 3b3d 123d aa44 e5bf 52b5 20be

net.2.bias f4 [64]
-0.018416554 0.1133996 -0.03525706 -0.004460981 0.12776485 -0.00038007236 0.16024025 0.035210617
0.014576728 0.13162547 0.050333574 0.008703602 0.1847194 0.22257496 -0.063350774 0.12792924
0.11875713 0.23394266 -0.008637429 0.06364206 0.0562539 0.07856433 0.03419845 0.19759546
0.13353352 0.12310638 -0.13245106 0.034841444 -0.03801217 -0.12626898 -0.018278634 0.0011469672
0.12836848 0.22942145 0.100962676 0.15197049 -0.021335715 0.16074678 0.124089375 -0.00074926484
0.14605331 0.1941923 0.10656958 0.16252868 0.0989112 0.18155038 0.13482067 0.043815825
0.0825529 -0.02518581 0.02563672 -0.09969681 -0.08608935 -0.109027825 -0.03727034 -0.012181136
0.07967334 0.03657594 0.028730903 0.25447375 -0.030331088 0.14544813 0.09707272 0.13922685
00000000: 50de 96bc 0d3e e83d b569 10bd 6c2d 92bb
00000010: cad4 023e 7344 c7b9 0516 243e 0239 103d
00000020: 3bd3 6e3c d4c8 063e 942a 4e3d 8d99 0e3c
00000030: 1527 3d3e b1ea 633e 0dbe 81bd e2ff 023e
00000040: f036 f33d aa8e 6f3e 0184 0dbc c556 823d
00000050: 7d6a 663d 56e6 a03d ad13 0c3d 7756 4a3e
00000060: 03bd 083e 331f fc3d 40a1 07be e7b5 0e3d
00000070: a6b2 1bbd a84c 01be 13bd 95bc d555 963a
00000080: 0773 033e 75ed 6a3e 85c5 ce3d 279e 1b3e
00000090: 3dc8 aebc ce9a 243e 9222 fe3d 506a 44ba
000000a0: 008f 153e 59da 463e 2741 da3d eb6d 263e
000000b0: f591 ca3d 58e8 393e 6e0e 0a3e 3978 333d
000000c0: 7f11 a93d 7952 cebc 1904 d23c d72d ccbd
000000d0: 9d4f b0bd fb49 dfbd c9a8 18bd 6393 47bc
000000e0: c72b a33d a7d0 153d 125d eb3c 624a 823e
000000f0: e778 f8bc 5bf0 143e 10ce c63d 7c91 0e3e

mu_head.weight f4 [1, 64]
-0.61985224 0.6456549 -0.011184731 0.27429596 -0.46700743 1.8761585 -0.54930544 -0.088847436
-0.9104307 0.524044 -0.42690748 1.0832677 -0.44994226 -0.57294333 1.7881875 -0.30305296
0.21788323 0.20527038 0.4493243 -0.16582674 0.16201833 -0.6255918 -0.09265234 0.0036643355
-0.53616214 -0.008611809 -0.3308656 0.45300698 -0.15967175 0.6368263 -0.92929167 -0.23333149
0.15207757 -0.7129098 -0.06254534 -0.62378913 0.048091955 0.89336765 0.22961606 -0.25105911
0.2742336 0.35919032 0.8856022 1.3255659 0.45058942 0.11077459 -0.73103905 -0.29949522
-0.56652594 0.32437652 0.82813776 -0.07893933 0.3941577 -0.53353125 0.47925013 0.44897354
-0.005746867 1.0055594 -0.326052 -0.7389511 -0.79269475 0.29302284 -0.7510347 -0.18932398
00000000: a3ae 1ebf a449 253f 2940 37bc 8570 8c3e
00000010: 991b efbe f625 f03f 489f 0cbf a5f5 b5bd
00000020: fd11 69bf bf27 063f 9e93 dabe 84a8 8a3f
00000030: d55e e6be 6aac 12bf 54e3 e43f c229 9bbe
00000040: c81c 5f3e 6632 523e d60d e63e 7cce 29be
00000050: 22e8 253e c926 20bf 83c0 bdbd 5925 703b
00000060: ec41 09bf 8c18 0dbc 3767 a9be 88f0 e73e
00000070: fe80 23be 0c07 233f 0fe6 6dbf 73ee 6ebe
00000080: 39ba 1b3e 4281 36bf c517 80bd a5b0 1fbf
00000090: 12fc 443d beb3 643f 7920 6b3e d28a 80be
000000a0: 5968 8c3e cbe7 b73e d3b6 623f 25ac a93f
000000b0: a8b3 e63e cadd e23d 6025 3bbf 7057 99be
000000c0: d807 11bf ae14 a63e d600 543f f2aa a1bd
000000d0: 0acf c93e 8195 08bf 4660 f53e dcdf e53e
000000e0: 3750 bcbb 2cb6 803f 4af0 a6be e62b 3dbf
000000f0: 0bee 4abf 1707 963e cf43 40bf 25de 41be

log_std_head.weight f4 [1, 64]
0.09797579 -0.21560869 -0.020256566 -0.59213436 -0.05025718 -0.02267509 -0.19155554 -0.0849936
0.11229518 -0.2722504 0.041767273 -0.004986484 -0.38754436 0.17006104 -0.064515114 -0.055672117
-0.108642705 0.18891574 0.08286235 -0.17650396 -0.014737949 -0.041851945 -0.3025266 -0.18157384
0.030633291 -0.16704348 -0.100132644 -0.12082199 -0.21549416 0.0638882 -0.19080356 -0.40612385
0.040047076 0.1277998 0.08184709 0.10254799 -0.09751732 0.2819186 0.07263641 -0.024830164
0.058172386 0.1740856 -0.33527756 0.104263015 0.23210257 -0.021689747 -0.049480382 -0.054731276
0.11167406 0.104060136 -0.05356886 -0.059918035 -0.054915298 -0.07520763 0.1306311 0.42032954
-0.09424677 0.1740962 -0.100209676 -0.09893602 -0.22953492 -0.037903257 -0.055887766 0.4274767
00000000: 88a7 c83d 86c8 5cbe 19f1 a5bc 1e96 17bf
00000010: 79da 4dbd 1cc1 b9bc 2327 44be 2011 aebd
00000020: 04fb e53d 6864 8bbe 2914 2b3d a965 a3bb
00000030: 376c c6be 7b24 2e3e 8020 84bd 7208 64bd
00000040: 1180 debd 2173 413e bcb3 a93d 74bd 34be
00000050: 7077 71bc f26c 2bbd c4e4 9abe 7eee 39be
00000060: abf2 fa3c 720d 2bbe 5812 cdbd 8571 f7bd
00000070: 80aa 5cbe d1d7 823d 0262 43be 77ef cfbe
00000080: 6708 243d f3dd 023e 729f a73d ae04 d23d
00000090: 29b7 c7bd a257 903e 66c2 943d a168 cbbc
000000a0: 2b46 6e3d 7f43 323e 80a9 abbe d987 d53d
000000b0: 4cac 6d3e b2ae b1bc f1ab 4abd e72d 60bd
000000c0: 5fb5 e43d 7b1d d53d 056b 5bbd 9d6c 75bd
000000d0: ddee 60bd 7506 9abd 29c4 053e 6f35 d73e
000000e0: 7304 c1bd 4646 323e bb3a cdbd f89e cabd
000000f0: 340b 6bbe 7240 1bbd 92ea 64bd 3ade da3e
