Q1/ckpt/actor_ep150.pth (torch, 21552 bytes, 6 tensors)

net.0.weight f4 [64, 3]
000000 5f 1c 80 3e e8 53 80 bf 04 8f 87 be b6 18 fe be
       0.25021645 -1.0025606 -0.264763 -0.49628228
000010 af 5b 05 3f 0e 38 0b bf 47 5d 2d 3f d7 7c 18 3f
       0.52093023 -0.5438241 0.67720455 0.5956549
000020 20 19 9f 3e 6d 8c 42 3f e1 35 c0 be 68 94 fe bd
       0.31073856 0.7599552 -0.37541106 -0.1243065
000030 84 6f 16 3f 35 a6 20 3f d8 49 7d 3e 1c 41 52 3e
       0.5876391 0.6275361 0.247352 0.2053265
000040 0f d9 62 3f 4d 11 95 3e bc 58 3c 3f 97 05 47 3e
       0.88612455 0.29114762 0.735729 0.19435726
000050 38 a2 71 3d 76 d5 56 bf ab 3b d0 3a 24 79 3e be
       0.058992594 -0.83919466 0.0015886923 -0.18600899
000060 63 af 26 3f f1 6d 10 bf bf 17 9f be 0c 97 71 3f
       0.6511137 -0.5641776 -0.31072804 0.94371104
000070 cc 79 66 3d da df b2 bd 7d 79 06 3f 31 19 65 be
       0.0562685 -0.087341025 0.52529126 -0.22372891
000080 5d 0c cc be 83 77 bc be ec 5d 21 bf 68 da 34 be
       -0.39853182 -0.3680993 -0.6303394 -0.1766144
000090 5f e9 2c bd 76 6f 5f bd f1 94 cd 3b 8e 50 c0 3e
       -0.042214748 -0.054549657 0.0062738587 0.37561458
0000a0 84 37 77 bf 71 bd f2 bd 04 c0 de 3d ee d9 8e bf
       -0.96569085 -0.11852539 0.10876468 -1.1160257
0000b0 dd 9e a5 be c3 e8 ed bd cb c5 64 bf 96 60 ad be
       -0.32347766 -0.116166614 -0.8936431 -0.33862752
0000c0 9e 8e 90 be e3 48 4d bf 6c b3 60 be e0 0f 19 bf
       -0.28233808 -0.8018934 -0.21943444 -0.5978985
0000d0 d3 80 3c 3f 24 27 e9 3e a7 5f d1 be 4c a0 de 3e
       0.7363407 0.45537674 -0.4089329 0.43481672
0000e0 35 af cd be ff cb e7 be 68 2f fe 3e 4b bf 93 bd
       -0.40172735 -0.45272824 0.49645543 -0.072142206
0000f0 5e 1f 69 3e 4d ae 49 3f 62 e7 68 be a5 f4 3a bf
       0.22765872 0.78781587 -0.22744516 -0.7302955
000100 24 50 c4 3e 5e 5d 09 3e 89 91 0e 3e 4b 2b 0b 3f
       0.38342392 0.13414523 0.13922705 0.54362935
000110 85 87 05 bb bd 37 01 bf 14 00 56 3e 43 2a c5 be
       -0.0020374965 -0.50475675 0.20898467 -0.38508806
000120 46 18 12 be cf 5c 82 be 42 4c 1b 3e 66 9f 40 3f
       -0.14267072 -0.25461432 0.15165809 0.7524322
000130 44 77 d7 3e f3 16 79 bd 96 9e d7 3e 31 1d ea bd
       0.4208318 -0.0608129 0.4211318 -0.11431349
000140 f2 e8 d8 be ca 03 66 be f3 57 47 bf 91 9f 0f 3d
       -0.42365223 -0.22462383 -0.77868575 0.035064284
000150 55 d5 17 3f b9 a5 54 bf 4d 45 a2 be 20 ed 1e bf
       0.59309894 -0.8306537 -0.31693497 -0.62080574
000160 c6 8d f5 bd 14 b7 ba bd 14 ac 46 3f f7 68 35 3e
       -0.11989932 -0.09116951 0.7760632 0.17715822
000170 9a b5 d8 bd 2a 6b 0a bf 8b c5 0b 3f b8 87 2a bb
       -0.10581513 -0.5406977 0.545983 -0.0026020836
000180 f0 bf 8b 3e 01 e8 1c 3f 51 e4 ce be 27 b9 f4 be
       0.27294874 0.6129151 -0.40408567 -0.4779751
000190 fa fb 60 bf 6c b4 7f 3d 9b 4f 48 3f 31 04 0c 3f
       -0.87884486 0.062427923 0.7824647 0.54693896
0001a0 bc f5 0c bd 13 4e 19 bf 31 1a af 3e 0a d4 f7 3d
       -0.034414038 -0.59884757 0.3419967 0.1210099
0001b0 34 a3 4e bf be 6a 7d be f4 99 16 3f fb 75 99 be
       -0.8071778 -0.2474775 0.58828664 -0.29972824
0001c0 ae 77 16 3f a0 12 9a 3e 30 fe 70 3d 1f 87 87 3f
       0.58776367 0.30092335 0.058836162 1.0588111
0001d0 62 42 36 3e ed b7 07 3e 1c 43 00 3f 9c a2 5a bd
       0.1779876 0.13253756 0.501024 -0.053377733
0001e0 38 38 4a be ff f4 91 bf f6 77 dc be 0b 8d eb 3e
       -0.19748008 -1.1402892 -0.43060273 0.46006045
0001f0 1c 11 a1 be e0 61 8a 3e 02 9a 0c 3f 08 31 08 bf
       -0.31458366 0.27027798 0.549225 -0.53199816
000200 bb 6e f3 bd 22 98 ce bd 0a a0 77 bf a5 e3 90 bd
       -0.118863545 -0.10087611 -0.96728575 -0.0707467
000210 86 fa 1a 3f 95 8e 89 bf 79 20 21 be a2 ed 30 be
       0.6053852 -1.0746638 -0.15735044 -0.1727815
000220 96 20 71 bf 6a 57 59 be a5 7b 29 3e 86 b6 0e 3f
       -0.9419035 -0.21224752 0.16551073 0.5574726
000230 e1 fb 14 bf 0a d3 0e bf 82 c5 3a be bd 42 ec be
       -0.58196837 -0.5579077 -0.18239406 -0.46144667
000240 1e 8d 49 3f b6 62 36 bf e7 83 75 be 47 53 c8 bd
       0.7873095 -0.7124437 -0.23976098 -0.09781509
000250 8d 46 20 3f 4f c3 55 be 85 4d 12 bf 35 f9 96 3e
       0.6260765 -0.20875286 -0.57149535 0.29487005
000260 8d db 0a 3e 3b 6c b0 bc 4b 11 14 be 45 de d1 3e
       0.13560314 -0.021535983 -0.14459722 0.4098989
000270 01 d8 0b 3f 48 2c b3 3e f6 d2 47 3e 0a 94 33 be
       0.5462647 0.3499472 0.19514069 -0.17536941
000280 a8 8f bc 3e 22 a1 4d be 42 de 81 be f6 e7 f6 be
       0.3682835 -0.20080999 -0.25364882 -0.48223847
000290 34 6a f1 3e b7 77 70 3f 06 9c cf 3e bb 25 aa 3e
       0.4715134 0.9393267 0.40548724 0.3323191
0002a0 f8 bc 07 3f 8b 75 8d bf df 95 13 be 0d aa 19 3e
       0.5302272 -1.1051496 -0.1441264 0.15006275
0002b0 d6 b5 c4 3e d6 a0 fe be 66 0f b2 39 88 84 c5 be
       0.3841998 -0.49732083 0.00033962278 -0.38577676
0002c0 2e 1a 86 3e b8 eb 0c bf 26 a4 7b 3f 3c 33 b3 bd
       0.2619185 -0.5504718 0.98297346 -0.087500066
0002d0 12 47 bb 3e ca 6f 5a bf e3 ce e5 bd a8 c5 94 3e
       0.3657766 -0.85326827 -0.11221101 0.2905705
0002e0 79 92 9f be f4 f5 ba be 42 9d 66 be 0e 3a 5e 3f
       -0.31166437 -0.36515772 -0.22520927 0.86807334
0002f0 bd c4 26 3e 88 7a 01 bf 65 92 ec 3e 87 23 c6 be
       0.16285987 -0.5057759 0.4620544 -0.3869898

net.0.bias f4 [64]
000000 b2 b4 81 be c7 ac 47 3e 8c a3 31 3e 70 bf 16 be
       -0.25333172 0.19499503 0.17347544 -0.14721465
000010 1b 66 76 be 6d 8f e4 bd f2 48 cc 3e 3f 50 04 3e
       -0.24062388 -0.11160169 0.39899403 0.12921236
000020 59 b0 e7 be c7 e1 5c 3e 01 32 b5 be 3a ca ad be
       -0.4525173 0.21570502 -0.35389712 -0.3394335
000030 15 28 0e bf ef a5 4a 3e 53 83 b9 bc a4 0e 42 bf
       -0.5552991 0.19789861 -0.022645628 -0.7580359
000040 e9 53 aa 3e 61 61 ab be 34 19 a4 3e 0d 46 75 3e
       0.33267143 -0.33472732 0.32050478 0.23952504
000050 ed 4c d1 3e 86 5c 00 bf 4d 7d 8f 3e 34 e2 01 bf
       0.40879002 -0.5014118 0.28025284 -0.50735784
000060 a5 49 91 bd 45 2a 6c 3e 19 2c a4 3e f1 ec 1a 3d
       -0.07094125 0.23063 0.32064894 0.03782362
000070 14 f5 4a be 3f 10 23 3f 1e fd a5 3d 2b 9a 1c 3f
       -0.19820052 0.63696665 0.08104919 0.6117274
000080 7a dc 27 3e b4 ff 51 bd 05 ea de bc 6a 68 f6 be
       0.16392699 -0.051269248 -0.027211199 -0.48126537
000090 71 59 ee be 6e 0d 58 bd 54 cc cb bd da e9 6d 3d
       -0.46552613 -0.052747183 -0.09951082 0.058084346
0000a0 ea bd 4f be 45 80 77 3e 31 c5 9d be b4 8e a6 3e
       -0.2028729 0.24170025 -0.30814508 0.3253075
0000b0 1e 34 7f 3e b7 70 49 bf f4 83 9c 3e 37 b3 ed be
       0.24922225 -0.78687614 0.30569422 -0.46425793
0000c0 ed ee 23 3f 85 65 c6 be 0f 10 00 bf 21 65 0d bf
       0.64036447 -0.38749328 -0.50024503 -0.55232435
0000d0 66 20 2d 3e da b6 55 bf 07 4a d0 bb e9 11 36 bf
       0.1690689 -0.83482134 -0.006356481 -0.7112108
0000e0 e9 3c 78 3e 04 4b 68 3d 7c 4f 25 3e ea 7c b8 3e
       0.24241985 0.056712165 0.16143602 0.36032802
0000f0 32 24 08 3e ce 27 8e 3e 77 2d 54 3e b3 33 ca be
       0.13295057 0.27764744 0.20720468 -0.39492568

net.2.weight f4 [64, 64]
000000 dd 54 03 bf ce d5 20 be 81 67 62 bd 04 95 0a be
       -0.51301366 -0.1570656 -0.05527449 -0.13533407
000010 1a 87 8c 3d 6c 9f 47 3d ac ed 11 bb 8a 68 5c 3e
       0.06861706 0.04873602 -0.0022266908 0.21524253
000020 28 d5 dc 3d 61 82 83 3d c7 09 51 3e eb 93 ea bd
       0.10782844 0.06421352 0.20413886 -0.11453994
000030 ec da 28 3d 6e 6e b5 3d c5 17 10 bf 45 f0 d7 3c
       0.041224405 0.088589534 -0.5628627 0.026359687
000040 dc 4f 02 bf 28 01 cc bd c0 e0 d3 be 72 3b ea be
       -0.50903106 -0.09961158 -0.41382408 -0.45748478
000050 9c fa a0 3e 33 04 0d bf 6d 9f 81 3d 9a 3e 5a bc
       0.314412 -0.5508453 0.06329236 -0.013320589
000060 c1 40 a5 bd 67 e5 59 3e 3b c6 6b bd f7 8f 0c bc
       -0.080689915 0.21278916 -0.057562094 -0.008579246
000070 94 8c 08 be b8 9d 2b be 8f 55 58 3e 00 79 88 bd
       -0.13334876 -0.16759384 0.21126388 -0.06663704
000080 e1 a4 60 be 08 96 37 3d d2 68 ad 3d c5 30 30 be
       -0.21937896 0.044820815 0.084672585 -0.17206104
000090 50 1c 91 ba 51 b7 43 3d 49 8d 8c 3d af 7b 09 3e
       -0.001107106 0.047782246 0.068628855 0.13426088
0000a0 13 47 34 be 45 da 06 3e d4 f4 23 be 72 4b f9 3d
       -0.17605238 0.131692 -0.16011363 0.12172593
0000b0 ba 32 d3 bd 51 01 fb bd b1 7b 0e be 7b b3 85 bc
       -0.1031241 -0.122561105 -0.13914372 -0.016320935
0000c0 06 6c de bd fa e9 68 bd 11 55 98 be 4d db 80 3d
       -0.108604476 -0.056863762 -0.297524 0.06291828
0000d0 7f 7e 19 bd 9e d0 23 3c da ce b0 3d 4c 11 ab 3d
       -0.03747415 0.009998469 0.08633204 0.083529085
0000e0 c6 2a b0 bb 46 85 08 be 20 72 96 bd 3c cf 7a be
       -0.0053761927 -0.1333209 -0.07345986 -0.24493116
0000f0 2c c5 0b 3d 44 fd 66 bd a4 91 1f 3c b5 83 1c be
       0.034123585 -0.056393877 0.009739313 -0.15284617
000100 95 0e df bd 4e 3b 01 be 05 93 a3 3d 89 dc 84 3e
       -0.10891453 -0.12620279 0.07987026 0.25949505
000110 f0 37 d1 3c 4d 63 8f 3d 58 af 4f bd b8 f5 24 be
       0.025539368 0.07001362 -0.05070433 -0.1610936
000120 8e b2 e4 3d d9 8d 8c 3c 96 3f bd bc d7 3b 3c be
       0.11166869 0.017157482 -0.02310161 -0.18382202
000130 d0 5f 6a 3d b6 07 b9 b9 04 90 5c bd 6f ad 5a be
       0.05722028 -0.00035291695 -0.05384828 -0.21355222
000140 46 ef a5 3d e9 c5 85 bd 0f 68 69 3d 24 0c b8 3d
       0.081022784 -0.06531889 0.056984004 0.08986691
000150 09 65 83 bd 2f f2 5f bd 41 5e d9 bc fe 6d 07 bf
       -0.06415755 -0.054674324 -0.026534202 -0.5290221
000160 c9 6b 12 bd be 94 4f be 81 ca 41 3d 6d 7c e4 3d
       -0.035747323 -0.20271584 0.047312263 0.11156545
000170 30 ba 1e be 8e fa d2 3d 23 7d 33 be bc 67 dc 3c
       -0.15500712 0.10301696 -0.17528205 0.026904933
000180 5f c0 81 be 64 69 9a 3d f2 bd c5 bd 3f cd e0 3d
       -0.2534208 0.07539633 -0.0965537 0.109766476
000190 25 51 ea 3d 92 ca e0 b9 f7 c1 43 bd 19 09 04 bc
       0.11441258 -0.00042875536 -0.0477924 -0.00805881
0001a0 4a 13 60 be 10 75 6b 3d 73 de a7 3e 4b 27 84 3d
       -0.21882358 0.057484686 0.32786903 0.06452807
0001b0 4e b8 1f 3d 7b f7 64 be 06 21 12 be a3 c1 22 be
       0.038994126 -0.22360031 -0.1427041 -0.15894179
0001c0 8b f6 90 3d 13 c9 9e bd ed 4a 0f 3d 27 34 41 3d
       0.07078274 -0.077531956 0.034983564 0.047168877
0001d0 13 9d ae 3d 4d c1 aa bd 66 5c ca 3b 20 48 2c 3d
       0.08526053 -0.083376504 0.0061755655 0.04206097
0001e0 69 1b e8 3d bb c0 1c 3b 6c ea 83 3d 3c a9 3b 3d
       0.11333353 0.0023918587 0.06441197 0.04581569
0001f0 a5 61 d9 ba 66 ac 83 3c da b3 9e bd 84 73 1c bf
       -0.0016584886 0.016073417 -0.07749148 -0.6111376
000200 f4 5f 42 bd 60 2e 9c 3d 0e c9 8a 3d 5b 35 c9 bc
       -0.04745479 0.07626033 0.067766294 -0.024561575
000210 d4 33 82 3d 24 16 73 3d 14 a7 04 bd fd 5d 33 bd
       0.06357542 0.059347287 -0.0323859 -0.043790806
000220 d8 28 34 3c 77 51 ad bd ba 64 8e bd 23 77 24 3d
       0.010996066 -0.08462804 -0.06952806 0.04015268
000230 60 41 f4 bd ae dc d4 3b 22 4e df 3d 8c 3b b9 bc
       -0.11926532 0.0064960336 0.109035745 -0.022611402
000240 82 25 bd bd c2 46 f0 bd 07 fb be 3d 2b 60 b2 bd
       -0.0923567 -0.11732246 0.093252234 -0.08709749
000250 92 01 c4 bd cc f5 94 bd b3 c8 56 3d 63 ba df 3d
       -0.09570612 -0.072734445 0.052437495 0.10924222
000260 70 70 f9 bd 7e 9b ed bd 41 92 96 bd 68 12 f9 bb
       -0.12179649 -0.116019234 -0.073521145 -0.007601071
000270 7f ac a6 3d 5c b3 c2 bd 51 2f 18 ba 5e fb f0 bd
       0.0813837 -0.09506866 -0.00058053905 -0.117666945
000280 49 5a 03 be c9 2c d6 3c 92 4e b3 3d 8c d9 d1 3d
       -0.1282741 0.026144402 0.087552205 0.10246572
000290 3a 84 d1 3d 32 5e b6 bd fa 5c ef 3d 28 23 b4 bd
       0.10230298 -0.08904685 0.11687656 -0.08795768
0002a0 88 a9 d0 3c ac c6 f6 bd d3 6f 47 3d 2b 1f ae bd
       0.025471464 -0.120496124 0.04869063 -0.085020386
0002b0 2a ee 57 3d c5 58 9a 3c 1f 79 b0 3d c7 8d ac bd
       0.052717365 0.018841157 0.08616852 -0.084254794
0002c0 ac 24 b9 bd 1b 65 a0 bd 34 b5 4c bd a6 d8 88 bd
       -0.09040198 -0.07831784 -0.049977496 -0.066819474
0002d0 b2 90 c4 bd ba 20 02 be ca 8b f3 bd 1c 4f e2 bd
       -0.09597911 -0.12707797 -0.11891897 -0.11050245
0002e0 27 67 50 bb 70 be 3c 3d b0 c5 aa bd ac a0 d7 3d
       -0.0031799765 0.046080053 -0.08338487 0.105286926
0002f0 91 58 91 bc b9 d3 f0 bd fa de ee bd fc 6b 7c bc
       -0.017742427 -0.11759133 -0.11663623 -0.015406605
000300 04 78 bf 3d 83 b0 9e 3d 76 85 83 bd 16 e8 dd 3d
       0.09349063 0.07748511 -0.0642194 0.108352825
000310 f8 57 26 3e cf d2 fe bd 15 74 a8 bd 88 47 20 bd
       0.16244495 -0.12442552 -0.08225266 -0.039130718
000320 60 34 e4 bd d5 3b 82 3e 49 52 db bd ec 2f 2e be
       -0.11142802 0.25436273 -0.10709054 -0.17010468
000330 2a 7d df 3d b7 aa 0f 3e 29 82 88 3d b0 7d 09 3d
       0.10912545 0.14029966 0.06665451 0.03356713
000340 0e 5b c4 3d 47 c2 ee 3a dd 8e 20 3c 54 f7 c7 3c
       0.0958768 0.0018215858 0.009799686 0.024409927
000350 1e 50 21 3c 12 50 80 be bf ea eb bd a4 e8 ee 3c
       0.009845762 -0.2506109 -0.11519384 0.029163666
000360 17 3d 58 bd a6 3b ab bd 83 84 03 3d 43 31 b3 bd
       -0.052792635 -0.083609864 0.032108795 -0.0874963
000370 86 fa 69 bd 1a d6 37 3d 70 1f 1d be 41 ee a1 3d
       -0.057123683 0.044881918 -0.15344024 0.079067715
000380 77 d4 54 3d b7 d4 ba 3d 83 ed 16 3e be 00 84 be
       0.051960435 0.091226034 0.14739041 -0.25781816
000390 f4 3a 68 bd b5 93 be 3c 80 a4 58 be 11 6c 8b 3c
       -0.056696847 0.023263792 -0.21156502 0.017019304
0003a0 88 9e d3 bc 81 b6 ed 3d a2 e9 c4 bd 59 92 b8 3d
       -0.02583243 0.116070755 -0.096148744 0.090122886
0003b0 aa 74 0e 3c 3b 0a 18 be aa ff 2c ba a1 c9 be bc
       0.008694807 -0.14847653 -0.0006599376 -0.023289504
0003c0 1c 27 02 3e 38 69 9a be c7 6c 8b be 1f cc 67 bd
       0.12710232 -0.301584 -0.27231428 -0.05659115
0003d0 39 00 95 3d 33 1f 8b be 4d b6 3c 3d 91 49 fa bb
       0.07275433 -0.2717224 0.046072293 -0.0076381643
0003e0 d4 0c 4a 3d e0 05 72 3c e1 24 f2 3d 8e d2 17 be
       0.04932864 0.0147719085 0.1182344 -0.14826414
0003f0 ba 8b 20 bd 26 3d 0d 3d 4a 0b 7c be fe ee 96 bd
       -0.039195754 0.034482144 -0.24613681 -0.07369803

net.2.bias f4 [64]
000000 a2 2b 0f bd 31 6c 17 3e b5 69 10 bd 52 3f 95 3c
       -0.03495372 0.14787365 -0.03525706 0.01821867
000010 0f 34 70 3d 3f 68 99 bb 17 3d 15 3e 43 32 63 bb
       0.058643397 -0.0046816166 0.14574085 -0.003466741
000020 25 de a4 bb 1e 51 e2 3d d2 a4 18 3d 61 cf 24 3c
       -0.0050313645 0.11050628 0.03726656 0.010059209
000030 5a b1 37 3e 75 d3 43 3e 63 87 bd bd a2 34 f4 3d
       0.17938748 0.19123633 -0.092543386 0.119241014
000040 c5 5c 08 3e d7 aa 41 3e 9b 44 fb 3c 6b 91 3f 3d
       0.13316639 0.18912826 0.030672362 0.04676954
000050 93 66 3e 3d 27 3b 97 3d 8d 22 59 3c 6c 20 63 3e
       0.04648454 0.07384329 0.013252866 0.22180337
000060 0c 05 10 3e 0a d9 f9 3d a3 1d 0e be d8 23 12 3d
       0.14064425 0.121996 -0.13878493 0.035678715
000070 de 2d 9b 3b e1 92 8e bd a6 ac 58 3c 0e a6 99 3b
       0.0047356924 -0.06961609 0.013224756 0.0046889847
000080 68 33 c8 3d 49 f3 36 3e ca 7b d9 3d 41 90 07 3e
       0.0977543 0.17866243 0.10619314 0.13238622
000090 3d c8 ae bc a4 e0 1b 3e d9 ff 15 3e 90 f5 93 3c
       -0.021335715 0.15222412 0.1464838 0.01806143
0000a0 dd 86 33 3d b4 36 4a 3e 30 74 f3 3c 55 bc f4 3d
       0.043829788 0.1974743 0.029718488 0.11949984
0000b0 68 74 8c 3d aa 33 40 3e 69 97 a8 3d fa c2 16 3d
       0.0685814 0.18769708 0.08232004 0.036807038
0000c0 fd 81 86 3d b8 26 88 bb 7d 11 6c 3d d7 2d cc bd
       0.06567762 -0.0041550063 0.057633866 -0.09969681
0000d0 73 59 e4 bc 38 e4 d1 bd b8 a6 00 bd 9f cd eb bc
       -0.027874684 -0.102486074 -0.031408995 -0.028784571
0000e0 c7 2b a3 3d 31 01 65 3d 9e 9a a0 3c 4d 86 51 3e
       0.07967334 0.05590934 0.019604977 0.20461388
0000f0 9b b7 9e bc b0 f5 70 3d 4e aa 90 3d b9 41 84 3d
       -0.01937466 0.058828056 0.07063733 0.06457848

mu_head.weight f4 [1, 64]
000000 1c 55 12 be 55 a3 b3 3d 29 40 37 bc 99 08 9e ba
       -0.14290279 0.087713875 -0.011184731 -0.0012057006
000010 37 72 9d be e1 cf 00 3f 3d 30 c1 be f2 1c a0 bc
       -0.30751202 0.503172 -0.37732115 -0.019545052
000020 24 cc da be 01 59 24 3e cb be 84 be 59 5c d4 3e
       -0.42733872 0.16049577 -0.25926813 0.41476706
000030 4e a6 a6 be a7 65 0a bf b0 74 20 3f 01 d9 38 be
       -0.32548755 -0.5406136 0.6267805 -0.1805153
000040 ab a7 16 3d 59 ba 0e 3e 04 7e 46 3e b7 e5 77 bd
       0.036780994 0.13938273 0.19384009 -0.060521808
000050 42 d3 01 3e b2 b7 05 bf 7f 7c 33 bc 9a 6d 73 3c
       0.12678245 -0.5223342 -0.010954975 0.014857674
000060 9a b2 b8 be a2 54 06 3d 8f 14 f9 bd 52 db 70 3e
       -0.36073762 0.032795556 -0.12162124 0.23521164
000070 52 7e 69 bd a4 ad c8 3e ad c2 58 bf 14 e7 2e be
       -0.057005234 0.39194977 -0.8467205 -0.17080337
000080 4f 59 8e 3d cf 05 95 be 22 67 6c bd 6e 4a 66 be
       0.06950628 -0.29105994 -0.057715543 -0.2248933
000090 12 fc 44 3d 74 3c 20 3f 46 b2 69 3e 1a bd e3 bd
       0.048091955 0.62592244 0.22821912 -0.11120053
0000a0 f9 2e 9c 3e 95 68 a7 3e 37 50 f7 3e bb eb 47 3f
       0.30504587 0.32696977 0.48303387 0.7809407
0000b0 70 69 b9 3e 35 f3 f1 3d 95 36 4f be 07 84 f8 bd
       0.36213255 0.11813966 -0.20235665 -0.12134557
0000c0 12 06 74 be f0 c2 6f 3e da b8 0c 3f f2 aa a1 bd
       -0.2383044 0.23414207 0.5496956 -0.07893933
0000d0 41 a4 46 3e a3 8b a6 be 63 31 82 3e 24 79 de 3e
       0.19398595 -0.3252841 0.25428304 0.43451798
0000e0 37 50 bc bb 6b ee c3 3e 41 16 6b be 4a 71 1a bf
       -0.005746867 0.38267836 -0.22957708 -0.60329115
0000f0 c1 30 cf be b0 4e 06 bc c6 34 de be 2d 39 21 be
       -0.40466884 -0.0081974715 -0.43399638 -0.15744467

log_std_head.weight f4 [1, 64]
000000 9b b3 2b 3d b2 b2 ed bd 19 f1 a5 bc c8 c7 49 be
       0.041919332 -0.11606349 -0.020256566 -0.19705117
000010 ca c7 e2 bd fb 07 3e be 60 89 3c be 91 8d bb bd
       -0.11073263 -0.18557732 -0.1841178 -0.09157861
000020 c7 09 53 3e bc 3c 5b be 4a bf 3e be 4f 4e 15 3d
       0.20609199 -0.21409887 -0.18627658 0.036451634
000030 15 0a 90 be 62 26 42 bd 56 23 02 3e df 83 6b bd
       -0.28132692 -0.047399886 0.12708792 -0.05749881
000040 21 c6 4f be 92 7b d7 3d d7 34 09 3e bb 65 39 be
       -0.20290424 0.10521616 0.13399063 -0.18105213
000050 0d 24 15 be dc a6 74 bd 28 9e 94 be 10 3a 77 be
       -0.14564534 -0.059729442 -0.29026914 -0.24143243
000060 5d 0a 40 be f3 01 05 be e4 37 9b bd 3e 11 4c 3d
       -0.18753953 -0.12989025 -0.0757902 0.04982113
000070 af 1b 5f be d4 dd aa 3c 56 e9 f4 bc 5a 6d ba be
       -0.21787904 0.020857729 -0.02989642 -0.36411554
000080 5f ad 4c 3c ee 3b 11 be 0a 3d cf 3d 26 17 0c bc
       0.012492507 -0.14183018 0.10119064 -0.008550441
000090 29 b7 c7 bd 5c d7 95 3e 95 5d 70 bc 2f d7 2e be
       -0.09751732 0.2926587 -0.014670749 -0.17074274
0000a0 17 46 13 bd f9 42 17 3d a9 5b 95 3e d9 33 43 3e
       -0.035955515 0.036929104 0.29171494 0.19062747
0000b0 3c 81 0c 3e 93 fd a8 bd ad 5f 35 3d 05 74 b4 be
       0.13721174 -0.082514904 0.044280697 -0.35244766
0000c0 1e 46 a2 3d cc 17 44 3d 29 46 99 bd 9d 6c 75 bd
       0.0792353 0.047874257 -0.07484085 -0.059918035
0000d0 b8 5f b2 bd 24 1e 48 be a5 21 5a 3e fa d3 32 3e
       -0.08709663 -0.19542748 0.21301897 0.17463675
0000e0 73 04 c1 bd b0 d8 28 3e 79 14 53 3c 41 a7 05 be
       -0.09424677 0.1648891 0.012883299 -0.13052084
0000f0 cd 33 31 be f6 f9 b7 bd c7 1d 08 be 35 c3 ab 3e
       -0.17304917 -0.08983223 -0.13292609 0.3354737
