Q1/ckpt/actor_ep400.pth (torch, 21552 bytes, 6 tensors)

net.0.weight f4 [64, 3]
0.33756274 -1.4695354 -0.35377762 -0.28025067 0.3321601 -0.3719143 0.7640077 0.7238031
0.23803613 0.70549846 -0.42305824 -0.17789027 0.5540964 0.94174415 0.25032285 0.32369983
1.2074674 0.28641635 1.0725905 0.27978662 -0.018760737 -1.0014087 -0.22940043 0.0049438165
0.7263962 -1.0373929 -0.35938162 1.0512648 0.14165334 -0.15362665 0.6898139 -0.67842513
-0.37668085 -0.34174487 -0.9661886 -0.23495652 -0.042214748 -0.054549657 0.0062738587 0.23050372
-1.0023538 -0.26769647 0.006487553 -1.675033 -0.3808907 -0.31461656 -0.8653118 -0.40123174
-0.4067121 -0.99067885 -0.21163905 -0.42776808 1.09964 0.3933358 -0.678919 0.23076728
-0.16239592 -0.6571172 0.45887753 -0.008548081 0.17319937 0.7128655 -0.14849734 -1.0836799
0.51850903 0.038321313 -0.009544729 0.66373545 -0.0044589974 -0.38593748 0.18900305 -0.29541042
-0.22454304 -0.2642472 0.14350995 0.9437128 0.47241512 0.009000577 0.28357926 -0.44567415
-0.33068284 -0.5839854 -0.59958434 -0.10242944 0.45052016 -1.4376047 -0.36151546 -0.9925848
-0.28403208 -0.03751741 0.92075306 0.19241197 -0.044753328 -0.82276094 0.4517116 0.093466006
0.17395785 0.7937469 -0.1533602 -0.84047717 -0.7450119 0.094987795 0.9002303 0.5914491
0.034719195 -0.80582774 0.3085562 0.1802683 -0.76461726 0.15523838 0.56376624 0.10200787
1.2042089 0.27511063 0.1706752 1.3359535 0.30527344 0.304374 0.72103244 0.12553954
-0.18189688 -1.5479082 -0.30525354 0.54678667 -0.25820416 0.14592713 0.45296818 -1.0588344
-0.25799334 -0.23940612 -1.0626196 -0.11545506 0.4836279 -1.2207291 -0.16150783 0.017002609
-0.8868144 -0.3155797 0.21838884 0.3225872 -0.5273673 -0.31463167 -0.4979422 -0.42492244
0.743254 -0.767411 -0.34333405 -0.05368633 0.65920275 -0.19002223 -0.72414654 0.12974963
0.22612555 0.13745572 0.06637087 0.26862904 0.4436065 0.33561096 0.2224492 -0.03334351
0.73709303 -0.12674811 0.017061949 -0.24658535 0.45075947 1.0428958 0.75958526 0.26064113
0.3715454 -1.2128966 -0.25175986 -0.087693766 0.27782825 -0.3906967 0.0676198 -0.087999225
0.24601442 -0.88410205 0.78095573 0.0030884163 0.111232646 -0.96562254 -0.1827491 0.22646378
-0.77150404 -0.21855825 -0.10108176 1.2096828 0.27038807 -0.35711485 0.337154 -0.39052054
00000000: 06d5 ac3e bc19 bcbf 5722 b5be 047d 8fbe
00000010: e310 aa3e 8d6b bebe 0296 433f 294b 393f
00000020: bebf 733e 8c9b 343f 179b d8be de28 36be
00000030: 43d9 0d3f 2516 713f 512a 803e fcbb a53e
00000040: 4b8e 9a3f 2aa5 923e a54a 893f 3140 8f3e
00000050: 1eb0 99bc 292e 80bf f2e7 6abe bdff a13b
00000060: 1af5 393f 4ac9 84bf de00 b8be d88f 863f
00000070: 930d 113e 4e50 1dbe a597 303f 45ad 2dbf
00000080: 50dc c0be 2ff9 aebe 2358 77bf 7198 70be
00000090: 5fe9 2cbd 766f 5fbd f194 cd3b 2b09 6c3e
000000a0: 214d 80bf 830f 89be 8a95 d43b 7b67 d6bf
000000b0: 1b04 c3be 6c15 a1be 1385 5dbf 3f6e cdbe
000000c0: 923c d0be 219d 7dbf e8b7 58be 6b04 dbbe
000000d0: 01c1 8c3f 4f63 c93e a3cd 2dbf 424e 6c3e
000000e0: 1e4b 26be d538 28bf fff1 ea3e 400d 0cbc
000000f0: 2d5b 313e 5a7e 363f b00f 18be 06b6 8abf
00000100: 02bd 043f cff6 1c3d 7f61 1cbc 91ea 293f
00000110: c81c 92bb 9999 c5be 048a 413e 0940 97be
00000120: 9cee 65be 694b 87be 46f4 123e 2997 713f
00000130: 65e0 f13e 2877 133c 4d31 913e 672f e4be
00000140: 434f a9be 1180 15bf 5c7e 19bf 87c6 d1bd
00000150: 94aa e63e 6e03 b8bf 8e18 b9be 0a1a 7ebf
00000160: a76c 91be dbab 19bd 79b6 6b3f a507 453e
00000170: 444f 37bd 76a0 52bf be46 e73e 1b6b bf3d
00000180: 0222 323e ff32 4b3f 750a 1dbe 8329 57bf
00000190: 1ab9 3ebf f688 c23d 7e75 663f 3569 173f
000001a0: b735 0e3d ba4a 4ebf 14fb 9d3e 4198 383e
000001b0: f5bd 43bf cff6 1e3e fc52 103f 81e9 d03d
000001c0: 8423 9a3f 4ddb 8c3e 7bc5 2e3e 8600 ab3f
000001d0: cd4c 9c3e e9d6 9b3e 9595 383f 708d 003e
000001e0: 2d43 3abe db21 c6bf 314a 9cbe 36fa 0b3f
000001f0: 5633 84be ec6d 153e 72eb e73e e387 87bf
00000200: b417 84be e126 75be eb03 88bf b473 ecbd
00000210: 139e f73e da40 9cbf 4f62 25be 0e49 8b3c
00000220: 4506 63bf aa93 a1be 53a1 5f3e 262a a53e
00000230: 8b01 07bf 6717 a1be 48f2 febe 6f8f d9be
00000240: e545 3e3f 0c75 44bf 7bc9 afbe 32e6 5bbd
00000250: 83c1 283f 3095 42be ab61 39bf 16dd 043e
00000260: 758d 673e 31c1 0c3e 73ed 873d bf89 893e
00000270: 6420 e33e 33d5 ab3e b9c9 633e 3493 08bd
00000280: 21b2 3c3f 42ca 01be 80c5 8b3c df80 7cbe
00000290: f2c9 e63e 9c7d 853f 2e74 423f c172 853e
000002a0: 333b be3e 3240 9bbf abe6 80be ca98 b3bd
000002b0: 813f 8e3e 6609 c8be 407c 8a3d f038 b4bd
000002c0: 34eb 7b3e 8354 62bf b7ec 473f 0767 4a3b
000002d0: f1cd e33d 0a33 77bf 9422 3bbe 1fe6 673e
000002e0: 4a81 45bf bccd 5fbe f403 cfbd e3d6 9a3f
000002f0: 4e70 8a3e c2d7 b6be 739f ac3e 4ff2 c7be

net.0.bias f4 [64]
-0.34451234 0.49387664 0.17988616 -0.31708315 -0.43590713 -0.24410623 0.30702677 0.35000053
-0.69597906 -0.015096643 -0.73242754 -0.023476081 -0.5552991 0.0760793 -0.05207663 -0.7384269
0.3312737 -0.39002508 0.55224234 0.30998984 0.40315062 -0.5063304 0.3186445 -0.76804864
0.010355955 0.13231927 0.21479304 0.37586927 -0.4495858 0.5936203 -0.049409244 0.5572991
-0.22368205 0.23099582 -0.028601965 -0.5119906 -0.7364536 -0.024436517 -0.07572846 0.020067137
0.1269285 0.20255502 -0.23489432 0.33056358 0.37861457 -0.8329572 -0.06041981 -0.7099874
0.4410217 -0.4098573 -0.48280638 -0.7493574 0.0560925 -1.0140581 -0.10422288 -0.8479425
0.19809291 -0.21329567 0.1722452 0.45638913 0.13927491 0.13815425 0.17536877 -0.5519996
00000000: ec63 b0be 66dd fc3e 1434 383e b958 a2be
00000010: 382f dfbe fcf6 79be 9d32 9d3e 4533 b33e
00000020: af2b 32bf e957 77bc 5f80 3bbf e950 c0bc
00000030: 1528 0ebf 77cf 9b3d 4e4e 55bd 8c09 3dbf
00000040: b59c a93e 5eb1 c7be c15f 0d3f fdb6 9e3e
00000050: c269 ce3e de9e 01bf 5f25 a33e d69e 44bf
00000060: 06ac 293c b47e 073e b5f2 5b3e f071 c03e
00000070: 1c30 e6be 80f7 173f 5961 4abd 27ab 0e3f
00000080: e80c 65be 2b8a 6c3e ab4e eabc d111 03bf
00000090: 3988 3cbf 172f c8bc 8617 9bbd d663 a43c
000000a0: 8bf9 013e 956a 4f3e 2388 70be a13f a93e
000000b0: c5d9 c13e af3c 55bf c37a 77bd bcc1 35bf
000000c0: 99cd e13e d1d8 d1be 6632 f7be e3d5 3fbf
000000d0: 40c1 653d a8cc 81bf ce72 d5bd c212 59bf
000000e0: ded8 4a3e 2e6a 5abe 0c61 303e d6ab e93e
000000f0: 159e 0e3e 4f78 0d3e df93 333e d94f 0dbf

net.2.weight f4 [64, 64]
-3.3599768 -0.14242402 -0.018450955 -0.13439445 0.09515545 0.068421304 0.024684075 -0.44574493
-1.0629067 0.05804381 0.5931283 -0.11453994 0.041224405 0.084096536 -3.7944674 0.026359687
-2.4101107 -0.07087377 -0.44259647 -0.32502735 0.2951088 -1.0958048 0.048333384 0.0253623
-0.06444852 0.22093384 -0.004605644 -0.03973126 -1.5796359 -0.4582913 0.20852304 -0.045293104
-0.1826365 0.073848166 0.062599175 -0.85512114 0.03978851 0.06781019 0.07757648 0.14359105
-1.4112973 0.18735252 -1.0260698 0.109879285 -0.07081042 -0.122561105 -0.097519524 0.17816664
-0.059158098 0.0024621538 -0.43377513 0.10518523 0.00741665 0.19810909 0.17351525 0.13377912
-0.004035987 -0.044973556 0.0033691213 -0.16238448 0.02897774 -0.017524121 0.02825661 -0.066875584
-0.17322169 -0.21130295 0.052434586 0.29476684 -0.4129162 -1.9652224 -0.10258774 -0.7294078
-0.0071476847 0.0208383 -0.5242177 -0.72990555 0.05722028 -0.031059384 -0.05623967 -0.5504971
0.003882004 -0.022657627 -0.048627973 0.040275674 -0.05126634 -0.06941187 -0.081230335 -0.63645595
0.02284208 -0.15394242 0.055058878 -0.033475585 -0.09976025 -0.10718253 -0.14537513 -0.43301907
-0.024822026 0.034401752 -0.044890955 0.10030999 0.13925862 -1.70709 -2.0121174 -0.08759643
-0.7873088 0.044554543 0.471281 -0.007921207 0.021829933 -0.6497292 0.006232672 -0.44326547
0.071752794 -0.071346596 -0.37902427 0.105140276 0.064857274 -0.083376504 0.08844563 -0.3046938
0.089719586 0.18087289 0.08241777 -0.024390718 -0.019291874 0.07891129 -1.206139 -0.6248781
-0.04745479 0.07626033 0.067766294 -0.024561575 0.06357542 0.059347287 -0.0323859 -0.043790806
0.010996066 -0.08462804 -0.06952806 0.04015268 -0.11926532 0.0064960336 0.109035745 -0.022611402
-0.0923567 -0.11732246 0.093252234 -0.08709749 -0.09570612 -0.072734445 0.052437495 0.10924222
-0.12179649 -0.116019234 -0.073521145 -0.007601071 0.0813837 -0.09506866 -0.00058053905 -0.117666945
-0.1282741 0.026144402 0.087552205 0.10246572 0.10230298 -0.08904685 0.11687656 -0.08795768
0.025471464 -0.120496124 0.04869063 -0.085020386 0.052717365 0.018841157 0.08616852 -0.084254794
-0.09040198 -0.07831784 -0.049977496 -0.066819474 -0.09597911 -0.12707797 -0.11891897 -0.11050245
-0.0031799765 0.046080053 -0.08338487 0.105286926 -0.017742427 -0.11759133 -0.11663623 -0.015406605
0.045374744 0.10975488 -0.12999688 0.13309577 -0.5835526 -3.2614384 -0.11199727 0.020755593
-0.10722235 0.3126703 -0.124485895 -0.28183034 0.10912545 0.13501307 0.041746616 -0.011211228
0.06043235 -0.2334546 -0.020355979 -0.2246379 0.018611846 -0.38910592 -0.29148024 -0.10688072
0.016090047 -0.013434999 0.027063495 -0.11290716 -0.05414782 -0.036174368 -0.06919386 0.036810763
-0.10529447 0.055667277 0.251667 -0.30999961 -0.060327392 -2.8858278 -3.620564 -0.10267815
-0.12072161 0.10223099 -0.17551604 0.05621979 0.008159049 -0.20017226 0.04198275 -0.043290626
0.1309593 -0.56376827 -0.25584418 -0.2691457 0.0027426714 -0.33790228 0.038748924 -0.5532737
0.048863262 -0.00014596387 0.08505941 -0.5959731 -0.05385916 0.025387272 -3.2247765 -0.24858549
00000000: dc09 57c0 9ad7 11be 7526 97bc b39e 09be
00000010: dce0 c23d 7820 8c3d 4236 ca3c ae38 e4be
00000020: 540d 88bf 59bf 6d3d 42d7 173f eb93 eabd
00000030: ecda 283d ce3a ac3d 8ed8 72c0 45f0 d73c
00000040: 413f 1ac0 4426 91bd 019c e2be fc69 a6be
00000050: 8018 973e 5543 8cbf 3af9 453d 99c4 cf3c
00000060: 96fd 83bd 7b3c 623e f1ea 96bb 3fbd 22bd
00000070: 8231 cabf 28a5 eabe 1087 553e 4385 39bd
00000080: 1005 3bbe b53d 973d ff33 803d 38e9 5abf
00000090: 47f9 223d 12e0 8a3d 6be0 9e3d 8809 133e
000000a0: 64a5 b4bf 57d9 3f3e 4156 83bf 6408 e13d
000000b0: 0e05 91bd 5101 fbbd 51b8 c7bd 5171 363e
000000c0: c34f 72bd 165c 213b c617 debe 5b6b d73d
000000d0: 5f07 f33b 1cdd 4a3e fbad 313e 65fd 083e
000000e0: 5040 84bb 3136 38bd 7acc 5c3b 1e48 26be
000000f0: ba62 ed3c bf8e 8fbc 687a e73c 11f6 88bd
00000100: 0761 31be cd5f 58be a6c5 563d aeeb 963e
00000110: c169 d3be 688c fbbf 8519 d2bd 78ba 3abf
00000120: 2037 eabb 15b5 aa3c 2233 06bf 17db 3abf
00000130: d05f 6a3d 4070 febc 915b 66bd 61ed 0cbf
00000140: 3869 7e3b 7d9c b9bc 202e 47bd 1bf8 243d
00000150: a7fc 51bd cf27 8ebd 175c a6bd c7ee 22bf
00000160: 501f bb3c 15a3 1dbe 6b85 613d b21d 09bd
00000170: 1a4f ccbd 8482 dbbd 38dd 14be adb4 ddbe
00000180: 9057 cbbc dae8 0c3d 94df 37bd 536f cd3d
00000190: d099 0e3e ed81 dabf 88c6 00c0 c265 b3bd
000001a0: 128d 49bf d37e 363d be4b f13e f3c7 01bc
000001b0: b0d4 b23c a754 26bf 713b cc3b b1f3 e2be
000001c0: 21f3 923d 2a1e 92bd 780f c2be c953 d73d
000001d0: e4d3 843d 4dc1 aabd fc22 b53d d300 9cbe
000001e0: e7be b73d be36 393e a6ca a83d 0bcf c7bc
000001f0: fe09 9ebc 3e9c a13d c362 9abf 03f8 1fbf
00000200: f45f 42bd 602e 9c3d 0ec9 8a3d 5b35 c9bc
00000210: d433 823d 2416 733d 14a7 04bd fd5d 33bd
00000220: d828 343c 7751 adbd ba64 8ebd 2377 243d
00000230: 6041 f4bd aedc d43b 224e df3d 8c3b b9bc
00000240: 8225 bdbd c246 f0bd 07fb be3d 2b60 b2bd
00000250: 9201 c4bd ccf5 94bd b3c8 563d 63ba df3d
00000260: 7070 f9bd 7e9b edbd 4192 96bd 6812 f9bb
00000270: 7fac a63d 5cb3 c2bd 512f 18ba 5efb f0bd
00000280: 495a 03be c92c d63c 924e b33d 8cd9 d13d
00000290: 3a84 d13d 325e b6bd fa5c ef3d 2823 b4bd
000002a0: 88a9 d03c acc6 f6bd d36f 473d 2b1f aebd
000002b0: 2aee 573d c558 9a3c 1f79 b03d c78d acbd
000002c0: ac24 b9bd 1b65 a0bd 34b5 4cbd a6d8 88bd
000002d0: b290 c4bd ba20 02be ca8b f3bd 1c4f e2bd
000002e0: 2767 50bb 70be 3c3d b0c5 aabd aca0 d73d
000002f0: 9158 91bc b9d3 f0bd fade eebd fc6b 7cbc
00000300: deda 393d 2bc7 e03d e71d 05be 424a 083e
00000310: b463 15bf 68bb 50c0 d35e e5bd a207 aa3c
00000320: 6497 dbbd 5216 a03e 76f2 febd 114c 90be
00000330: 2a7d df3d de40 0a3e 80fe 2a3d 4caf 37bc
00000340: e987 773d b90e 6fbe 95c1 a6bc 7a07 66be
00000350: df77 983c e438 c7be e63c 95be 47e4 dabd
00000360: 46cf 833c 781e 5cbc 43b4 dd3c de3b e7bd
00000370: 1bca 5dbd 932b 14bd 83b5 8dbd e2c6 163d
00000380: a1a4 d7bd 5f03 643d 7fda 803e 45b8 9ebe
00000390: db19 77bd 67b1 38c0 52b7 67c0 ec48 d2bd
000003a0: e43c f7bd 7b5e d13d 7aba 33be b946 663d
000003b0: 88ad 053c f5f9 4cbe 1bf6 2b3d 8351 31bd
000003c0: 321a 063e 1e53 10bf 02fe 82be 77cd 89be
000003d0: 64be 333b 8701 adbe 31b7 1e3d 58a3 0dbf
000003e0: d824 483d e10d 19b9 a133 ae3d b191 18bf
000003f0: 6c9b 5cbd f8f8 cf3c bd62 4ec0 328d 7ebe

net.2.bias f4 [64]
-0.009997251 0.11250035 -0.03525706 -0.017188221 0.1449905 -0.0033889809 0.16535571 0.038329285
0.00555299 0.14884311 0.029896861 0.0023554505 0.17867687 0.23974247 -0.056636143 0.13210109
0.10702886 0.21590358 -0.017547427 0.08158177 0.07874869 0.059460476 0.025649223 0.21993195
0.123323664 0.1536331 -0.13014716 0.02957853 -0.025723819 -0.13773154 -0.023286702 -0.013246964
0.12166502 0.22759272 0.0935366 0.15443082 -0.021335715 0.16470988 0.11042454 0.016806697
0.14082092 0.16227129 0.121128306 0.1681177 0.10150086 0.17377761 0.1307558 0.08661428
0.08318084 -0.027239906 -0.0010239102 -0.09969681 -0.1130848 -0.118121624 -0.070553124 -0.006922482
0.07967334 0.032936364 0.020523386 0.28047514 -0.027201701 0.15475678 0.11031938 0.1642174
00000000: 83cb 23bc 9566 e63d b569 10bd 50ce 8cbc
00000010: 6478 143e aa19 5ebb 0253 293e 2bff 1c3d
00000020: dbf5 b53b 546a 183e 43ea f43c e75d 1a3b
00000030: 12f7 363e 0d7f 753e 4dfb 67bd 8245 073e
00000040: f231 db3d d415 5d3e 9fbf 8fbc 5814 a73d
00000050: fe46 a13d d48c 733d 521e d23c d735 613e
00000060: 1e91 fc3d ff51 1d3e 4c45 05be ac4e f23c
00000070: c2ba d2bc 7f09 0dbe c1c3 bebc cb09 59bc
00000080: 832b f93d 110e 693e 1e90 bf3d 1d23 1e3e
00000090: 3dc8 aebc b5a9 283e 4326 e23d 33ae 893c
000000a0: 5c33 103e 722a 263e 1e12 f83d 0c27 2c3e
000000b0: afdf cf3d c2f2 313e d9e4 053e d462 b13d
000000c0: b75a aa3d 3926 dfbc ba34 86ba d72d ccbd
000000d0: 0199 e7bd c0e9 f1bd 287e 90bd fdd5 e2bb
000000e0: c72b a33d 48e8 063d a920 a83c 709a 8f3e
000000f0: 1ad6 debc 9078 1e3e 21ef e13d 9b28 283e

mu_head.weight f4 [1, 64]
-0.8476992 1.467109 -0.011184731 0.61155534 -0.5089374 2.1604981 -0.6220882 -0.08823109
-1.2315919 0.6319425 -0.39031094 1.3861104 -0.48909542 -0.53620434 2.1085958 -0.42321277
0.2598825 0.18333484 0.43722922 -0.16578719 0.20655906 -0.5959381 -0.103849776 -0.014003843
-0.5199015 -0.032031976 -0.4367395 0.41423097 -0.1608934 0.64027274 -0.9355103 -0.19762595
0.14882143 -0.7987403 -0.061711606 -0.7988685 0.048091955 0.9644974 0.22563377 -0.23072603
0.19931658 0.37075353 0.94637597 1.3244357 0.45585015 0.10057369 -0.96758384 -0.26160544
-0.7073968 0.31698972 0.83418983 -0.07893933 0.44093913 -0.46003142 0.44290036 0.40757677
-0.005746867 1.201158 -0.37903422 -0.81385624 -0.9936226 0.296878 -0.9428906 -0.21436393
00000000: d102 59bf 3aca bb3f 2940 37bc e48e 1c3f
00000010: b949 02bf 9a45 0a40 2c41 1fbf 80b2 b4bd
00000020: cea4 9dbf fcc6 213f d6d6 c7be 116c b13f
00000030: b76a fabe b044 09bf 3cf3 0640 58af d8be
00000040: 520f 853e 21bc 3b3e 82dc df3e 1ec4 29be
00000050: 3884 533e 668f 18bf 31af d4bd 6070 65bc
00000060: 4418 05bf f633 03bd 529c dfbe 1516 d43e
00000070: 3dc1 24be eae8 233f 9a7d 6fbf 755e 4abe
00000080: a564 183e 3f7a 4cbf 4fc5 7cbd a582 4cbf
00000090: 12fc 443d 4de9 763f 8a0c 673e 7243 6cbe
000000a0: a519 4c3e 68d3 bd3e b245 723f 1c87 a93f
000000b0: 3165 e93e 94f9 cd3d 93b3 77bf 26f1 85be
000000c0: f517 35bf 7a4c a23e 778d 553f f2aa a1bd
000000d0: c6c2 e13e 3d89 ebbe d6c3 e23e e7ad d03e
000000e0: 3750 bcbb 8cbf 993f c610 c2be e258 50bf
000000f0: 0d5e 7ebf 6500 983e 4761 71bf 3882 5bbe

log_std_head.weight f4 [1, 64]
0.04333926 -0.5245748 -0.020256566 -1.1908864 -0.007514195 0.004076725 -0.24063352 -0.081839494
-0.03857939 -0.27640903 0.1316695 -0.061272852 -0.5947352 0.37274563 -0.22341783 -0.0999922
-0.07157442 0.21484004 0.16067179 -0.1647257 -0.15950298 -0.06232501 -0.3046604 -0.16520548
0.064764716 -0.27584168 -0.28274068 -0.18969142 -0.23371819 0.093268365 -0.16023396 -0.41909045
0.028916448 0.135898 0.1665499 0.075664744 -0.09751732 0.21557021 0.1224553 -0.010987553
-0.0014656546 0.17082582 -0.4142004 0.049943406 0.23818102 -0.031920392 -0.048363216 -0.013756839
0.034738645 0.13095197 0.017345246 -0.059918035 -0.16645034 -0.12802495 0.13031597 0.3909746
-0.09424677 0.265865 -0.17520848 -0.061927993 -0.40498897 0.015409709 -0.10026735 0.43158105
00000000: 8284 313d 894a 06bf 19f1 a5bc f76e 98bf
00000010: a339 f6bb 0c96 853b a268 76be 779b a7bd
00000020: 6c05 1ebd 7c85 8dbe 5fd4 063e 3ef9 7abd
00000030: 9140 18bf 84d8 be3e a5c7 64be b6c8 ccbd
00000040: 9c95 92bd 07ff 5b3e 2587 243e dbad 28be
00000050: c054 23be 8248 7fbd 73fc 9bbe a02b 29be
00000060: 5da3 843d 1f3b 8dbe 63c3 90be 783e 42be
00000070: d253 6fbe 7c03 bf3d 5f14 24be 0693 d6be
00000080: 30e2 ec3c d828 0b3e 0f8c 2a3e 1ef6 9a3d
00000090: 29b7 c7bd 70be 5c3e d8c9 fa3d 2305 34bc
000000a0: 351b c0ba f7ec 2e3e 1312 d4be 7591 4c3d
000000b0: bae5 733e f5be 02bd 8218 46bd 5d64 61bc
000000c0: 1c4a 0e3d 4618 063e 9e17 8e3c 9d6c 75bd
000000d0: f571 2abe f918 03be 8d71 053e d32d c83e
000000e0: 7304 c1bd 751f 883e da69 33be 35a8 7dbd
000000f0: b75a cfbe 0179 7c3c f858 cdbd 31f8 dc3e
