Q1/ckpt/actor_ep450.pth (torch, 21552 bytes, 6 tensors)

net.0.weight f4 [64, 3]
0.33674774 -1.43038 -0.4169164 -0.26685917 0.39005208 -0.32203948 0.7627447 0.7632977
0.2317035 0.6782161 -0.4143926 -0.20015375 0.57985157 0.94923234 0.25272068 0.33368373
1.1885806 0.2894679 1.0544832 0.34381935 -0.02793823 -1.0071378 -0.2261449 -0.0013515643
0.72280383 -1.0001777 -0.36920497 1.0433239 0.16441676 -0.15665664 0.6935632 -0.7059408
-0.37712264 -0.41869247 -0.9566366 -0.24201785 -0.042214748 -0.054549657 0.0062738587 0.22321644
-0.9874904 -0.2658022 0.020727245 -1.6122624 -0.46503523 -0.39754418 -0.8989763 -0.3658735
-0.4300586 -1.0091447 -0.20701906 -0.43042222 1.0592151 0.43914214 -0.73314404 0.33699238
-0.17070334 -0.72861445 0.56870455 0.0034226638 0.18077902 0.65501624 -0.122274816 -1.1052846
0.53547454 0.04589346 -0.0014267724 0.6919214 0.01766733 -0.35602975 0.22132836 -0.28696534
-0.24652882 -0.23272143 0.16180277 0.8807982 0.55746996 -0.0034650813 0.28052685 -0.40763628
-0.33367166 -0.73132247 -0.58747333 -0.07164281 0.4485489 -1.3681463 -0.41453326 -1.0670621
-0.2842975 -0.03169623 0.88870245 0.25225416 -0.076851055 -0.85731727 0.4450291 0.1165531
0.19274943 0.7982757 -0.16899493 -0.9323547 -0.6808111 0.0985781 0.902857 0.5870988
0.04172827 -0.8655715 0.17914437 0.15135896 -0.6822349 0.2029916 0.58177465 0.08925786
1.2185738 0.2718687 0.1915633 1.3078336 0.31896445 0.30450007 0.72717637 0.12925766
-0.18678096 -1.5432856 -0.31971726 0.5341142 -0.33571053 0.14326042 0.45211467 -1.0410153
-0.25956166 -0.30535167 -1.0395855 -0.103593566 0.4721573 -1.1760088 -0.2064016 0.05725827
-0.91446894 -0.303941 0.20960066 0.36941782 -0.53507423 -0.4621351 -0.49007967 -0.37143552
0.7436248 -0.7718599 -0.26480994 -0.079469696 0.65747225 -0.18274674 -0.6939679 0.035771955
0.21123111 0.18218383 0.020833943 0.25333467 0.43076944 0.38373104 0.20391773 -0.07644192
0.725899 -0.12611449 0.012853897 -0.3026117 0.44006038 1.044809 0.7687831 0.26142445
0.3360579 -1.2075561 -0.25721428 -0.12392635 0.37739784 -0.40555397 0.038288094 -0.1072465
0.25712502 -0.94553924 0.87458605 0.020354649 0.13977797 -0.9497278 -0.18007062 0.17078248
-0.77867836 -0.22332957 -0.123264045 1.2225337 0.26132348 -0.3844157 0.32295036 -0.42127135
00000000: 336a ac3e b116 b7bf 1176 d5be c4a1 88be
00000010: e8b4 c73e 5ce2 a4be 3d43 433f 7a67 433f
00000020: af43 6d3e 929f 2d3f 442b d4be 1bf5 4cbe
00000030: 2771 143f e400 733f 9b64 813e 98d8 aa3e
00000040: 6923 983f 2335 943e 4ef9 863f 1709 b03e
00000050: b7de e4bc e4e9 80bf 8792 67be f926 b1ba
00000060: ac09 393f d305 80bf 6f08 bdbe a38b 853f
00000070: de5c 283e 996a 20be 5c8d 313f 89b8 34bf
00000080: 3816 c1be dc5e d6be 23e6 74bf 87d3 77be
00000090: 5fe9 2cbd 766f 5fbd f194 cd3b da92 643e
000000a0: 2ccc 7cbf 3a17 88be 2fcc a93c 9d5e cebf
000000b0: 1919 eebe e98a cbbe 5023 66bf c553 bbbe
000000c0: a430 dcbe a72b 81bf cefc 53be 4d60 dcbe
000000d0: 5c94 873f 3dd7 e03e 54af 3bbf 448a ac3e
000000e0: dbcc 2ebe 7a86 3abf 9f96 113f c54e 603b
000000f0: 231e 393e 25af 273f 386b fabd f779 8dbf
00000100: dc14 093f c8fa 3b3d 8a02 bbba c321 313f
00000110: 14bb 903c 8849 b6be e7a3 623e 1fed 92be
00000120: 0d72 7cbe 874e 6ebe a0af 253e fe7b 613f
00000130: 5ab6 0e3f 6b16 63bb 37a1 8f3e b4b5 d0be
00000140: 03d7 aabe f337 3bbf a764 16bf 77b9 92bd
00000150: 34a8 e53e 6b1f afbf b43d d4be 7e95 88bf
00000160: 718f 91be e8d3 01bd 0182 633f 7527 813e
00000170: 1664 9dbd 2579 5bbf dbda e33e 64b3 ee3d
00000180: 1b60 453e cc5b 4c3f 020d 2dbe ccae 6ebf
00000190: a349 2ebf 51e3 c93d a321 673f 1b4c 163f
000001a0: 43eb 2a3d 1896 5dbf 9f71 373e d8fd 1a3e
000001b0: f2a6 2ebf 08dd 4f3e 2fef 143f d3cc b63d
000001c0: 3afa 9b3f 6032 8b3e 2b29 443e 1767 a73f
000001d0: 4f4f a33e 6fe7 9b3e 3b28 3a3f 1f5c 043e
000001e0: 8243 3fbe 628a c5bf fbb1 a3be b5bb 083f
000001f0: 40e2 abbe dcb2 123e 937b e73e fd3f 85bf
00000200: 44e5 84be 0e57 9cbe 2311 85bf dd28 d4bd
00000210: 9abe f13e 7587 96bf f15a 53be a687 6a3d
00000220: a31a 6abf 289e 9bbe 8ea1 563e 5524 bd3e
00000230: a0fa 08bf f99c ecbe b9eb fabe cc2c bebe
00000240: 325e 3e3f 9c98 45bf 2b95 87be 02c1 a2bd
00000250: 1a50 283f f621 3bbe e1a7 31bf 9d85 123d
00000260: f84c 583e 668e 3a3e f2ab aa3c 15b5 813e
00000270: d08d dc3e 6578 c43e cfcf 503e 958d 9cbd
00000280: 84d4 393f 2824 01be 2799 523c ecef 9abe
00000290: 984f e13e 4dbc 853f f8ce 443f 6dd9 853e
000002a0: c80f ac3e 3391 9abf 97b1 83be 19cd fdbd
000002b0: 4a3a c13e c5a4 cfbe fad3 1c3d 0ea4 dbbd
000002c0: e4a5 833e dc0e 72bf dfe4 5f3f cbbe a63c
000002d0: f521 0f3e 5c21 73bf 6f64 38be 9ae1 2e3e
000002e0: 7757 47bf 82b0 64be dc71 fcbd fc7b 9c3f
000002f0: 31cc 853e 22d2 c4be c059 a53e e1b0 d7be

net.0.bias f4 [64]
-0.3536722 0.4906573 0.14017445 -0.35582384 -0.44268847 -0.2608823 0.27707058 0.34379414
-0.71873635 -0.024920166 -0.73084694 0.0016442462 -0.5552991 0.07304093 -0.040470663 -0.7393443
0.3108247 -0.32279274 0.54289913 0.22656392 0.3929568 -0.5208593 0.3167344 -0.8134838
0.009568332 0.15465724 0.19588281 0.39822015 -0.46281385 0.6261089 -0.077790305 0.5414547
-0.26349866 0.21736774 -0.013430293 -0.5153468 -0.728486 -0.050801467 -0.06537905 0.0017956956
0.12373664 0.20949903 -0.23505852 0.30115005 0.36366802 -0.82550544 -0.056661185 -0.77328455
0.45072943 -0.43590242 -0.5123283 -0.8459135 0.044010416 -1.0221354 -0.115331866 -0.8565093
0.17883432 -0.18715826 0.1661359 0.35707235 0.12143427 0.12718298 0.1646299 -0.46933165
00000000: 8614 b5be 6f37 fb3e e489 0f3e 8b2e b6be
00000010: 10a8 e2be 5d92 85be 32dc 8d3e c905 b03e
00000020: 1bff 37bf 6025 ccbc c918 3bbf bf83 d73a
00000030: 1528 0ebf 7c96 953d 91c4 25bd ab45 3dbf
00000040: 6a24 9f3e 1745 a5be 70fb 0a3f 5f00 683e
00000050: a231 c93e 0957 05bf 032b a23e 7940 50bf
00000060: 7ec4 1c3c 785e 1e3e 8195 483e 83e3 cb3e
00000070: f0f5 ecbe ac48 203f 8650 9fbd c69c 0a3f
00000080: 4ce9 86be a695 5e3e bb0a 5cbc c5ed 03bf
00000090: 0f7e 3abf 3315 50bd 74e5 85bd 8c5d eb3a
000000a0: a369 fd3d ea86 563e 2eb3 70be 5730 9a3e
000000b0: b232 ba3e 5354 53bf 8f15 68bd faf5 45bf
000000c0: 02c6 e63e 9a2e dfbe f327 03bf ca8d 58bf
000000d0: 4444 343d 55d5 82bf 1d33 ecbd 3244 5bbf
000000e0: 5820 373e 6aa6 3fbe 881f 2a3e 30d2 b63e
000000f0: 88b2 f83d 413c 023e be94 283e 3d4c f0be

net.2.weight f4 [64, 64]
-3.4733005 -0.14519136 -0.018773152 -0.12220471 0.09099159 0.05854576 0.029316682 -0.5085904
-1.1550908 0.06651995 0.58236927 -0.11453994 0.041224405 0.11357601 -3.8795662 0.026359687
-2.5516944 -0.0737964 -0.50573814 -0.35713077 0.27143016 -1.0988525 0.030018156 0.0253623
-0.07750372 0.22327676 0.008182541 -0.08233731 -1.6996529 -0.5146315 0.21244064 -0.0766694
-0.18447597 0.035625283 0.06309275 -0.80839807 0.0307117 0.05547014 0.066018015 0.13675994
-1.3728958 0.194392 -1.0055238 0.11877626 -0.06323215 -0.122561105 -0.070783116 0.17816664
-0.04479322 0.020444052 -0.39812502 0.11420049 0.006486743 0.19810909 0.1877362 0.14411934
0.007907832 0.0020280883 0.009431443 -0.19977632 0.05206249 -0.008009053 0.013696926 -0.05775984
-0.10656252 -0.26352373 0.061119396 0.31460607 -0.49035084 -2.0553932 -0.09386691 -0.7993525
0.017374353 0.025736276 -0.5910303 -0.7610199 0.05722028 -0.023922853 -0.030432984 -0.5504971
-0.019298173 -0.019210069 -0.043265335 0.040275674 -0.11388732 -0.06941187 -0.18176204 -0.63645595
0.00706535 -0.14500941 0.07240704 -0.15794772 -0.017380672 -0.23960546 -0.13774537 -0.49318886
-0.019495495 -0.047829755 -0.03496506 0.10030999 0.13232286 -1.6702065 -2.025291 -0.10892119
-0.7800877 0.0519765 0.48612967 -0.008056337 0.026810754 -0.6497292 -0.032759268 -0.44326547
0.075130805 -0.071346596 -0.42744237 0.11447503 0.07476865 -0.083376504 0.096893206 -0.33072206
0.09438959 0.18206221 0.08869802 -0.024390718 -0.014917481 0.08682432 -1.1371429 -0.6248781
-0.055573463 0.06925845 0.067766294 -0.03811202 0.06357542 0.059347287 -0.041991238 -0.05179051
5.2945805e-05 -0.09606613 -0.07960082 0.032918233 -0.11926532 -0.0013641008 0.101574555 -0.029513495
-0.0997668 -0.11732246 0.08592027 -0.09289076 -0.1020298 -0.069158725 0.047172353 0.102740966
-0.12179649 -0.13000326 -0.08055291 -0.015278806 0.07277014 -0.10304258 -0.012490915 -0.12260445
-0.13363649 0.014432412 0.08921207 0.10246572 0.10230298 -0.08904685 0.11687656 -0.08795768
0.018035518 -0.10347653 0.03881939 -0.09197715 0.04353368 0.01057408 0.079482235 -0.09109168
-0.09864734 -0.08373043 -0.049977496 -0.066819474 -0.09597911 -0.1414914 -0.11891897 -0.11050245
-0.011569716 0.03931757 -0.08338487 0.09998273 -0.025843585 -0.12526053 -0.12612121 -0.022221388
0.03641151 0.13122359 -0.11281166 0.15267158 -0.5224702 -3.106407 -0.09031375 0.017722601
-0.120021954 0.33506608 -0.15380493 -0.31723592 0.10912545 0.13968457 0.030097498 -0.047383565
0.055513546 -0.33785036 -0.050968133 -0.22067495 0.04930696 -0.38910592 -0.26389423 -0.056622103
0.0047944104 0.0114103425 0.047829017 -0.13778748 -0.060626615 -0.06852186 -0.045235574 0.025307423
-0.15952721 0.04032417 0.27699006 -0.32787853 -0.048961215 -2.8484595 -3.501305 -0.08566771
-0.13552403 0.11087851 -0.17394234 0.03657067 0.015281163 -0.25138414 0.043306164 -0.0722212
0.14565723 -0.5784301 -0.25960234 -0.29556742 0.011148053 -0.33790228 -0.008326801 -0.5277427
0.053525157 -0.06332874 0.064201064 -0.55513585 -0.055575848 0.03485724 -3.1704485 -0.27641353
00000000: 8e4a 5ec0 0bad 14be 27ca 99bc 7746 fabd
00000010: cc59 ba3d aecd 6f3d 8a29 f03c fb32 02bf
00000020: 04da 93bf 9d3b 883d 2716 153f eb93 eabd
00000030: ecda 283d 8a9a e83d d04a 78c0 45f0 d73c
00000040: f64e 23c0 9122 97bd 0e78 01bf d8d9 b6be
00000050: e5f8 8a3e 33a7 8cbf a3e8 f53c 99c4 cf3c
00000060: 45ba 9ebd aaa2 643e 1010 063c 77a0 a8bd
00000070: 3a8e d9bf e4be 03bf 0a8a 593e d904 9dbd
00000080: 45e7 3cbe d1eb 113d c636 813d 2df3 4ebf
00000090: 1a97 fb3c a834 633d 7434 873d cc0a 0c3e
000000a0: 0dbb afbf b20e 473e 01b5 80bf f840 f33d
000000b0: dc7f 81bd 5101 fbbd bdf6 90bd 5171 363e
000000c0: 1879 37bd 497a a73c 0bd7 cbbe f2e1 e93d
000000d0: bf8e d43b 1cdd 4a3e eb3d 403e 0594 133e
000000e0: da8f 013c ade9 043b 5786 1a3c 2a92 4cbe
000000f0: 7a3f 553d 6738 03bc 1269 603c 9595 6cbd
00000100: 733d dabd 95ec 86be 5558 7a3d 0c14 a13e
00000110: 440f fbbe 908b 03c0 4b3d c0bd 5ea2 4cbf
00000120: a954 8e3c e2d4 d23c c34d 17bf 33d2 42bf
00000130: d05f 6a3d dcf9 c3bc 984e f9bc 61ed 0cbf
00000140: 3417 9ebc 6f5e 9dbc fe36 31bd 1bf8 243d
00000150: c13d e9bd cf27 8ebd d41f 3abe c7ee 22bf
00000160: 7484 e73b 597d 14be 244a 943d 0cbd 21be
00000170: e961 8ebc 225b 75be 1f0d 0dbe 4083 fcbe
00000180: 04b5 9fbc 22e9 43bd 8637 0fbd 536f cd3d
00000190: a57f 073e 54c9 d5bf 5e9e 01c0 1312 dfbd
000001a0: d4b3 47bf 4fe5 543d fde5 f83e bafe 03bc
000001b0: 3aa2 db3c a754 26bf 952e 06bd b1f3 e2be
000001c0: 2ede 993d 2a1e 92bd bad9 dabe e271 ea3d
000001d0: 4e20 993d 4dc1 aabd f26f c63d 6754 a9be
000001e0: 544f c13d 846e 3a3e 4fa7 b53d 0bcf c7bc
000001f0: 7368 74bc f3d0 b13d e68d 91bf 03f8 1fbf
00000200: 00a1 63bd 60d7 8d3d 0ec9 8a3d 591b 1cbd
00000210: d433 823d 2416 733d 01ff 2bbd 4922 54bd
00000220: 2012 5e38 52be c4bd c105 a3bd 45d5 063d
00000230: 6041 f4bd a1cb b2ba 5206 d03d 49c6 f1bc
00000240: 8952 ccbd c246 f0bd f7f6 af3d 833d bebd
00000250: 00f5 d0bd 17a3 8dbd cc37 413d db69 d23d
00000260: 7070 f9bd 931f 05be edf8 a4bd f553 7abc
00000270: 8308 953d fd07 d3bd b2a6 4cbc 0b18 fbbd
00000280: 01d8 08be ec75 6c3c d1b4 b63d 8cd9 d13d
00000290: 3a84 d13d 325e b6bd fa5c ef3d 2823 b4bd
000002a0: 39bf 933c 81eb d3bd 1501 1f3d 845e bcbd
000002b0: 5f50 323d e83e 2d3c 95c7 a23d 468e babd
000002c0: 9e07 cabd dc7a abbd 34b5 4cbd a6d8 88bd
000002d0: b290 c4bd 1fe3 10be ca8b f3bd 1c4f e2bd
000002e0: e88e 3dbc 760b 213d b0c5 aabd bfc3 cc3d
000002f0: edb5 d3bc 4c44 00be eb25 01be a109 b6bc
00000300: 3c24 153d 7a5f 063e cd09 e7bd f055 1c3e
00000310: 9bc0 05bf 5fcf 46c0 6af6 b8bd fd2e 913c
00000320: 12ce f5bd c88d ab3e 0a7f 1dbe bf6c a2be
00000330: 2a7d df3d 7909 0f3e 078f f63c 4515 42bd
00000340: 2c62 633d b9fa acbe f6c3 50bd 9df8 61be
00000350: 18f6 493d e438 c7be 251d 87be 94ec 67bd
00000360: 6e1a 9d3b 72f2 3a3c 5ce8 433d 2918 0dbe
00000370: 9d53 78bd 3055 8cbd f048 39bd 8351 cf3c
00000380: 1a5b 23be f52a 253d a4d1 8d3e b2df a7be
00000390: 8e8b 48bd 294d 36c0 6215 60c0 8d72 afbd
000003a0: d0c6 0abe 4614 e33d f11d 32be 20cb 153d
000003b0: d85d 7a3c 6cb5 80be ce61 313d b5e8 93bd
000003c0: 2b27 153e ff13 14bf 99ea 84be 9d54 97be
000003d0: 53a6 363c 8701 adbe 226d 08bc 251a 07bf
000003e0: 323d 5b3d 80b2 81bd d97b 833d 621d 0ebf
000003f0: 80a3 63bd 77c6 0e3d a1e8 4ac0 1386 8dbe

net.2.bias f4 [64]
-0.013159406 0.11125439 -0.042924184 -0.0035056851 0.14712054 -0.0076142205 0.16593556 0.034781408
0.02698381 0.15477979 0.016780354 -0.0114304265 0.17037566 0.22762266 -0.05559325 0.13115743
0.10704035 0.21002944 -0.037656523 0.06450115 0.08210754 0.05036102 0.02635604 0.22221506
0.1347792 0.18786149 -0.12618336 0.043068923 -0.024722915 -0.14460424 -0.023286702 -0.019303968
0.10378125 0.21249793 0.0935366 0.14262867 -0.021335715 0.1722943 0.1138356 -0.020743508
0.14225785 0.17825703 0.117777385 0.18870337 0.1135984 0.19375317 0.14192137 0.0681104
0.08048806 -0.022935966 -0.007217131 -0.09969681 -0.101802595 -0.1294693 -0.059046656 -0.02114238
0.07967334 0.037807573 0.02629664 0.29394758 -0.015535661 0.1518867 0.108264 0.14948769
00000000: 8d9a 57bc 57d9 e33d 45d1 2fbd a3bf 65bb
00000010: c4a6 163e b680 f9bb 03eb 293e f376 0e3d
00000020: 270d dd3c 987e 1e3e f476 893c af46 3bbc
00000030: f576 2e3e ea15 693e bfb5 63bd 224e 063e
00000040: f937 db3d f511 573e ba3d 1abd 2e19 843d
00000050: ff27 a83d 5b47 4e3d 9fe8 d73c 588c 633e
00000060: 8f03 0a3e c35e 403e 3636 01be 0a69 303d
00000070: b687 cabc 2213 14be c1c3 bebc 5b23 9ebc
00000080: 448b d43d 0f99 593e 1e90 bf3d 400d 123e
00000090: 3dc8 aebc eb6d 303e a422 e93d 4aee a9bc
000000a0: 0bac 113e 0389 363e 4535 f13d 753b 413e
000000b0: 47a6 e83d 3b67 463e d653 113e 777d 8b3d
000000c0: edd6 a43d 35e4 bbbc af7d ecbb d72d ccbd
000000d0: e17d d0bd 9a93 04be e8da 71bd c932 adbc
000000e0: c72b a33d 1ddc 1a3d 0d6c d73c 4c80 963e
000000f0: 4989 7ebc 3088 1b3e 84b9 dd3d 4d13 193e

mu_head.weight f4 [1, 64]
-0.8752795 1.5572094 -0.0005261536 0.50861883 -0.5177869 2.2264595 -0.63507366 -0.08093245
-1.438883 0.7333053 -0.43033996 1.4018621 -0.48856488 -0.60602427 2.2040906 -0.4325484
0.2644935 0.17357796 0.44776422 -0.162851 0.19680178 -0.62048197 -0.09830099 -0.030554583
-0.58017886 -0.05084749 -0.45505777 0.4152751 -0.15653816 0.64440435 -0.9355103 -0.16980407
0.14099923 -0.811809 -0.061711606 -0.8019218 0.048091955 0.95816904 0.24526736 -0.21041635
0.2218385 0.35835573 0.94392174 1.4426742 0.4626109 0.123913795 -1.0502892 -0.2567914
-0.6973883 0.3049434 0.9283973 -0.07893933 0.46383396 -0.4388553 0.46050352 0.41378024
-0.005746867 1.1770643 -0.40273306 -0.8468432 -1.0276963 0.32252628 -0.95337397 -0.19511895
00000000: 5112 60bf a352 c73f 92ed 09ba d834 023f
00000010: af8d 04bf 507e 0e40 3094 22bf eabf a5bd
00000020: 512d b8bf e5b9 3b3f 8555 dcbe 3870 b33f
00000030: 2d25 fabe 6824 1bbf d20f 0d40 fc76 ddbe
00000040: b16b 873e 6cbe 313e 5a41 e53e 6ac2 26be
00000050: 6886 493e e8d7 1ebf 0852 c9bd 9b4d fabc
00000060: 9a86 14bf 7545 50bd 55fd e8be f09e d43e
00000070: 8a4b 20be aff7 243f 9a7d 6fbf 1ee1 2dbe
00000080: 1a62 103e b7d2 4fbf 4fc5 7cbd bf4a 4dbf
00000090: 12fc 443d 914a 753f 5e27 7b3e 6277 57be
000000a0: a229 633e 677a b73e dba4 713f 8ca9 b83f
000000b0: 56db ec3e 84c6 fd3d e06f 86bf 2a7a 83be
000000c0: 0a88 32bf 8b21 9c3e 72ab 6d3f f2aa a1bd
000000d0: a57b ed3e a4b1 e0be 1ec7 eb3e 01db d33e
000000e0: 3750 bcbb 0baa 963f 0733 cebe b7ca 58bf
000000f0: 8d8b 83bf 2a22 a53e 5110 74bf 43cd 47be

log_std_head.weight f4 [1, 64]
0.02629957 -0.311291 -0.023910891 -1.0715901 -0.031566232 0.07351322 -0.27743223 -0.10105013
-0.12522987 -0.2527078 0.16485216 -0.13151121 -0.54007584 0.44084233 -0.13405158 -0.11259817
-0.05062833 0.21647704 0.10909458 -0.17640172 -0.17785482 -0.063928746 -0.30716038 -0.17157632
0.11509681 -0.29508027 -0.26517287 -0.3194112 -0.24388063 0.08391691 -0.16023396 -0.4446297
0.024006933 0.12795435 0.1665499 0.036097564 -0.09751732 0.21986566 0.1046282 -0.028772103
0.03232367 0.15418568 -0.44272855 0.027798507 0.2596254 -0.036407717 -0.052129153 -0.022413326
0.02064825 0.14831778 0.031871025 -0.059918035 -0.24023916 -0.11057151 0.069598705 0.3865547
-0.09424677 0.31666926 -0.2071169 -0.014226788 -0.41241795 0.018423628 -0.13355796 0.41518283
00000000: 3272 d73c 8961 9fbe c6e0 c3bc dd29 89bf
00000010: 984b 01bd 198e 963d 990b 8ebe 5ff3 cebd
00000020: 423c 00be eb62 81be 01cf 283e e0aa 06be
00000030: 6942 0abf 16b6 e13e d144 09be df99 e6bd
00000040: a75f 4fbd 28ac 5d3e fb6c df3d a7a2 34be
00000050: 931f 36be 13ed 82bd 2044 9dbe b4b1 2fbe
00000060: e0b7 eb3d c314 97be bdc4 87be dd89 a3be
00000070: d8bb 79be a1dc ab3d 5f14 24be 81a6 e3be
00000080: 30aa c43c 7706 033e 0f8c 2a3e 0adb 133d
00000090: 29b7 c7bd 7724 613e 4f47 d63d 79b3 ebbc
000000a0: d365 043d dae2 1d3e 51ad e2be b2b9 e33c
000000b0: 9fed 843e 4220 15bd 6185 55bd 279c b7bc
000000c0: 8526 a93c 9ee0 173e 318b 023d 9d6c 75bd
000000d0: 4101 76be 5173 e2bd c489 8e3d 7fea c53e
000000e0: 7304 c1bd 7922 a23e 7416 54be 7917 69bc
000000f0: 7228 d3be 26ed 963c 6bc3 08be d892 d43e
