Q1/ckpt/best_actor.pth (torch, 21540 bytes, 6 tensors)

net.0.weight f4 [64, 3]
00000000: 9aaa be3e fd29 babf 4ec9 d3be 6d49 88be
00000010: d64d f13e b0d1 a4be 7b3a 433f 3f16 453f
00000020: 81a4 5c3e 19fb 263f 04ee e4be 2076 54be
00000030: 3ed3 133f 29d6 793f e39c 803e 763b 9e3e
00000040: 73ba 983f 56dc 953e 414d 853f 617c d33e
00000050: 1fcd 10bd 191b 83bf a3c2 38be b988 82bb
00000060: d627 423f bf92 84bf 047d b0be 906c 833f
00000070: 6968 383e f358 31be 9b48 373f 57c5 41bf
00000080: 9279 b9be fce7 eebe 1b66 77bf e89c 6abe
00000090: 5fe9 2cbd 766f 5fbd f194 cd3b c47a 5a3e
000000a0: a185 83bf 73b3 7bbe 6158 653d f16f d1bf
000000b0: c61a edbe 9716 ebbe c83c 64bf 0f94 bdbe
000000c0: 14b0 cabe 8d5c 84bf 4d92 49be 4f03 f6be
000000d0: 2754 893f 6c80 e33e 1a6c 52bf 5fbf c33e
000000e0: 4a05 33be e56a 44bf 56aa 223f 9e14 653b
000000f0: 186d 213e f0a2 223f 2b61 00be 8999 8fbf
00000100: 8bed 0a3f 9597 9d3d 2bc3 dcbc 8a1f 3a3f
00000110: 343a bf3c 6a8f d1be c35e 633e 38d1 adbe
00000120: 157f 85be 3d49 37be ba97 2d3e 4fe1 553f
00000130: e0ca 0f3f d0dd 84bc c62d 8e3e e457 e5be
00000140: cb44 a0be 05fd 45bf 3531 0abf 9d8c 92bd
00000150: 1165 fa3e 9f54 b1bf 5ff8 cdbe 1617 8cbf
00000160: c25b 96be 17eb fcbc d999 5e3f ea0d 533e
00000170: 3092 4dbd 08a3 63bf 54b9 e23e 1db4 023e
00000180: c0bb 323e 5f6a 3f3f 6679 73be 6dfd 70bf
00000190: a82d 28bf ecc2 c83d 937a 643f 9101 083f
000001a0: b999 5e3d d68b 65bf ad52 913e 66c3 103e
000001b0: e7b9 25bf 9797 3b3e 53c5 183f ddf5 963d
000001c0: c35a 9b3f 938b 963e f458 293e 26f8 a83f
000001d0: e384 a33e d313 8a3e 7645 3f3f d484 0b3e
000001e0: c9c0 1fbe 8345 c7bf a029 9ebe 7d16 073f
000001f0: a0ef cdbe 3983 0f3e 33df e73e 7515 86bf
00000200: a19e 85be 252e 89be b21d 84bf 33e7 efbd
00000210: 1dc9 f13e 6cd2 99bf 3b51 3bbe f7c9 003e
00000220: 97f2 70bf 91a6 9cbe abb8 5b3e 94d0 b03e
00000230: 5fac 0abf 58b4 07bf 6bf8 03bf 7d0e b2be
00000240: 5f6f 3a3f e504 47bf 828a 75be 9c55 a2bd
00000250: 9a61 243f 9858 45be ead8 30bf c21c aa3c
00000260: 529f 583e 2351 453e ec04 793d 866b 853e
00000270: b908 d63e 0c19 d33e b098 3b3e 60da c8bd
00000280: 9653 2e3f 7891 ffbd 0c11 2a3d 8d30 9ebe
00000290: 8633 df3e f22c 843f cce2 4a3f c54a 813e
000002a0: ab2b a93e 5fa5 9bbf da04 85be 760c dabd
000002b0: b1f4 c83e 9ee2 cbbe f95a a93c 924a 27bd
000002c0: 33f2 863e 8c30 7bbf 2830 703f 1dc7 63bb
000002d0: c852 303e 3de2 7bbf 5364 23be cad1 0a3e
000002e0: aa4f 48bf 53eb 73be 9e05 4fbe 330e 9e3f
000002f0: 004a 853e 8754 dabe c768 9d3e cac8 e3be
0.37239534 -1.4544064 -0.4136452 -0.2661852 0.47129697 -0.3219123 0.7626111 0.7698707
0.21547128 0.65226895 -0.44712842 -0.20748186 0.57744205 0.9759241 0.25119695 0.3090474
1.19319 0.29269665 1.0414201 0.4130583 -0.03535187 -1.0242645 -0.18042998 -0.0039835838
0.75842035 -1.0357283 -0.3447038 1.0267506 0.1800858 -0.17319088 0.7159516 -0.7569174
-0.36225563 -0.46661365 -0.96640176 -0.22911417 -0.042214748 -0.054549657 0.0062738587 0.21335894
-1.0275155 -0.24580173 0.055992488 -1.6362287 -0.4630949 -0.45915672 -0.89155245 -0.37027022
-0.39587462 -1.0340744 -0.19684716 -0.480494 1.0728806 0.44433916 -0.821962 0.38231942
-0.17482486 -0.7672561 0.6354116 0.0034954916 0.15764272 0.6352987 -0.12537067 -1.121873
0.5426871 0.076949276 -0.026948532 0.72704375 0.023343183 -0.4092973 0.22204117 -0.33948684
-0.26073518 -0.17899032 0.1695241 0.8354692 0.5616894 -0.01621905 0.27769297 -0.44793618
-0.31302485 -0.773392 -0.53981334 -0.07155726 0.48905233 -1.3853949 -0.40228555 -1.0944545
-0.2936688 -0.030873818 0.869535 0.20610777 -0.050188243 -0.8892064 0.4428202 0.1276402
0.17454433 0.74771684 -0.23776779 -0.941367 -0.65694666 0.098028034 0.89249533 0.5312739
0.05434582 -0.896665 0.2838339 0.14137039 -0.6473679 0.18319546 0.5967609 0.073711134
1.2137073 0.29403362 0.16537839 1.3200729 0.31937322 0.2696825 0.74715364 0.13624889
-0.15600885 -1.5568088 -0.30891132 0.5276869 -0.40221882 0.14014901 0.45287475 -1.0475298
-0.26097587 -0.26793018 -1.0321562 -0.117140196 0.4722375 -1.2017341 -0.18292706 0.12577043
-0.9412016 -0.3059583 0.21457164 0.34534132 -0.5416927 -0.5300956 -0.5155093 -0.3477668
0.7282619 -0.77741843 -0.23978618 -0.07926485 0.6421143 -0.19272077 -0.69080985 0.020765666
0.21154526 0.19269232 0.06079571 0.26058596 0.4180353 0.41230047 0.18319964 -0.09807277
0.6809629 -0.12478918 0.041520163 -0.30896416 0.43593997 1.0326216 0.79252315 0.25252357
0.3304113 -1.2159842 -0.25980264 -0.10646908 0.39249185 -0.39821333 0.020673262 -0.0408426
0.26356658 -0.9812095 0.9382348 -0.0034756132 0.17219079 -0.9839209 -0.1595624 0.1355659
-0.7824656 -0.23820238 -0.20216987 1.2348083 0.2603302 -0.42642614 0.30744 -0.44489127

net.0.bias f4 [64]
00000000: 3eee a7be e84e f13e df3d e43d 6b5b c6be
00000010: 5acc e7be 2fca 9abe 1498 793e 218e ac3e
00000020: bd65 34bf b5f6 57bd c4b8 38bf 9fa7 553c
00000030: 1528 0ebf ae7f a83d dc75 28bc 77a1 47bf
00000040: b1ca a73e 3c33 96be e88e 063f a744 253e
00000050: 97b1 c53e 2c47 0cbf f7bc 8c3e 9d44 4bbf
00000060: ca4c 64bb 6bb4 0a3e fa06 3c3e 39bb de3e
00000070: 4e5f e0be 4846 203f 353b 0dbe 860e 073f
00000080: 4aa0 a3be a0f6 4b3e 5aa2 94bc 4b74 f0be
00000090: 581e 31bf 838c 96bd 6e4d cabd 72f9 54bd
000000a0: 5da7 1e3e 3cee 583e 478a 7bbe 2cef b43e
000000b0: fece b43e 6888 53bf 8591 51bd 3709 52bf
000000c0: 22b5 e33e 7547 e7be d011 02bf 373f 5cbf
000000d0: 28ab 063d f604 88bf 10f1 cfbd 808c 60bf
000000e0: 56b3 263e 00b7 5bbe 1dc1 373e 7fd9 a03e
000000f0: fc92 c83d 1df2 f03d 7702 d03d cc8f e4be
-0.32798952 0.47130513 0.111446135 -0.3874162 -0.45273095 -0.3023238 0.2437442 0.33702186
-0.7046774 -0.052725513 -0.7215693 0.013040452 -0.5552991 0.08227478 -0.010282006 -0.7798075
0.3277183 -0.29335964 0.5256181 0.1613947 0.38612053 -0.547961 0.2748792 -0.7940157
-0.003483581 0.13545386 0.18362036 0.43502215 -0.43822712 0.6260724 -0.13792117 0.52756536
-0.31958228 0.19918299 -0.018143822 -0.46963724 -0.69186926 -0.07351019 -0.0987805 -0.051995702
0.15493532 0.21184629 -0.24564467 0.35338724 0.35314173 -0.82630014 -0.05116417 -0.8204531
0.4447413 -0.45171705 -0.5080843 -0.8603396 0.03287807 -1.0626514 -0.10153401 -0.87714386
0.16279349 -0.21456528 0.1794476 0.31415936 0.0979366 0.117649294 0.1015672 -0.44640958

net.2.weight f4 [64, 64]
00000000: fdbb 68c0 5352 2bbe 75dd b9bc 769b d0bd
00000010: c4dc 9f3d ef3b 2a3d 7b7a 043d 04ee 05bf
00000020: 0ab5 9ebf 1deb a83d a811 283f eb93 eabd
00000030: ecda 283d 463e 083e 43ef 80c0 45f0 d73c
00000040: 19df 2bc0 f9d1 96bd c1c6 10bf 3b09 c2be
00000050: 1bb9 863e b826 93bf ade8 803c d4ae f1ba
00000060: 8e03 a6bd c930 663e b324 e13c 4de2 abbd
00000070: e195 ecbf 5178 04bf f94f 603e 1477 bbbd
00000080: 093a 29be f70b 173d 0481 813d 5656 4bbf
00000090: 3f5a 553d 7acd 193d 680a 4d3d fb96 003e
000000a0: f72e b6bf 6e98 4b3e 9059 7ebf 3f1e e93d
000000b0: ae92 5bbd 5101 fbbd 0ca3 5dbd 5171 363e
000000c0: a1b2 e3bc 4543 743d 907f bbbe bebe 0c3e
000000d0: f1a5 273a 1cdd 4a3e 4de9 453e 93f1 0f3e
000000e0: 8b75 8d3c d962 933d 5445 713c d504 66be
000000f0: dfa4 5d3d 2e6a 543c 3673 afbb 5fb8 943b
00000100: 7d5a 0dbe 0c2a d1be c0f7 a93d bcb0 a83e
00000110: eaa5 0cbf 84d0 02c0 2cf4 a7bd a214 5bbf
00000120: c64b 4bbd 6aef d53c 2eee 37bf 7a4e 42bf
00000130: d05f 6a3d b77e 29bd 0864 a3bd 61ed 0cbf
00000140: f0e0 b1bd 4911 9ebd fe36 31bd 1bf8 243d
00000150: 4670 e1bd cf27 8ebd 2914 4abe c7ee 22bf
00000160: 76e3 533c 19b3 07be 5c13 9e3d 9851 5abe
00000170: acfe 23bd abdc 85be 606b 05be f813 11bf
00000180: 04b5 9fbc 82ec 53bd 4a88 8bbc 536f cd3d
00000190: 3961 353e 4f10 cfbf 8a5a ffbf 50db a2bd
000001a0: 0ccc 51bf d1a5 823d c881 ea3e a044 9ebc
000001b0: db16 d43c a754 26bf 5e88 3fbe b1f3 e2be
000001c0: c694 993d 2a1e 92bd 3bf8 25bf a380 e43d
000001d0: bb7e c83d 4dc1 aabd c087 e63d 8265 a0be
000001e0: 45a6 af3d 846e 3a3e 03df d43d 0bcf c7bc
000001f0: 8d1d c1bc c8ee 8d3d 6272 93bf 03f8 1fbf
00000200: 29a1 63bd 51d7 8d3d 0ec9 8a3d 821b 1cbd
00000210: d433 823d 2416 733d 0aff 2bbd 6e22 54bd
00000220: 6364 5d38 5bbe c4bd d305 a3bd 1ed5 063d
00000230: 6041 f4bd 10d1 b2ba 4006 d03d 98c6 f1bc
00000240: 9b52 ccbd c246 f0bd e8f6 af3d 8d3d bebd
00000250: 0bf5 d0bd 17a3 8dbd bb37 413d cd69 d23d
00000260: 7070 f9bd 941f 05be fef8 a4bd 9b54 7abc
00000270: 7108 953d 0e08 d3bd f5a6 4cbc 1418 fbbd
00000280: 03d8 08be 1e75 6c3c d8b4 b63d 8cd9 d13d
00000290: 3a84 d13d 325e b6bd fa5c ef3d 2823 b4bd
000002a0: e5be 933c 73eb d3bd ec00 1f3d 975e bcbd
000002b0: 3450 323d 413e 2d3c 86c7 a23d 568e babd
000002c0: b007 cabd e67a abbd 34b5 4cbd a6d8 88bd
000002d0: b290 c4bd 20e3 10be ca8b f3bd 1c4f e2bd
000002e0: 998f 3dbc 560b 213d b0c5 aabd b6c3 cc3d
000002f0: 44b6 d3bc 5444 00be ee25 01be e409 b6bc
00000300: 2cdb 0e3d 72ed 283e 6c67 f6bd 1ba4 1e3e
00000310: 9866 0bbf 6eab 4dc0 80fa bcbd c865 6e3d
00000320: 919e 09be c8bb ab3e bf3d 3dbe c1ab b5be
00000330: 2a7d df3d 9eb5 0e3e c488 163d fad4 91bd
00000340: 8cfc 803d 2a03 b1be c357 3dbd 5aea 8dbe
00000350: 221f 883d e438 c7be f410 80be 8b72 21be
00000360: 524c a63c 0396 3d3c 4bf1 583d 3067 edbd
00000370: e0ec 88bd b4e6 0fbd 0a6d 3dbd 6a7e 733c
00000380: aa75 03be 79e5 b13d 473a 8d3e b2df a7be
00000390: 8726 a4bd 4ec1 3cc0 1b4b 61c0 8337 b3bd
000003a0: fa21 05be 66ed cc3d 0103 36be a8af 053d
000003b0: d99d 273c da33 8ebe ed3f b63d 54c7 0ebd
000003c0: f7ef 123e 597c 1bbf 1444 7fbe d236 a2be
000003d0: 71bf 3abb 8701 adbe 44b0 cdbc c719 10bf
000003e0: a869 4a3d 2c8c 64bd 33b1 173d 2506 13bf
000003f0: dbed 6fbd 9524 1d3d bdf7 41c0 8796 88be
-3.636474 -0.16730623 -0.022688607 -0.10185902 0.078057796 0.041561063 0.03234337 -0.5231631
-1.2398999 0.08247969 0.6565194 -0.11453994 0.041224405 0.13305005 -4.0292068 0.026359687
-2.6854918 -0.07364268 -0.56553274 -0.37897667 0.263131 -1.1496191 0.015735948 -0.0018438944
-0.08106147 0.22479548 0.02748332 -0.08392773 -1.848324 -0.5174609 0.21905507 -0.09153572
-0.16526045 0.036876645 0.06323436 -0.79428613 0.05208802 0.037549473 0.050058752 0.12557594
-1.4233083 0.19882366 -0.9935541 0.11382722 -0.05360668 -0.122561105 -0.05411057 0.17816664
-0.027795138 0.059634466 -0.3662076 0.13744637 0.00063952716 0.19810909 0.19327278 0.14056997
0.017267963 0.07196588 0.014726002 -0.22462781 0.05411231 0.012964768 -0.0053543104 0.0045385803
-0.1380405 -0.40852392 0.08299208 0.32947338 -0.54940665 -2.0439768 -0.08200869 -0.8557836
-0.04963281 0.026115138 -0.7184781 -0.75900996 0.05722028 -0.04138061 -0.07978064 -0.5504971
-0.086854815 -0.07718141 -0.043265335 0.040275674 -0.110077426 -0.06941187 -0.19734253 -0.63645595
0.012932649 -0.13251914 0.07718536 -0.21320188 -0.040037796 -0.2614492 -0.13029242 -0.56671095
-0.019495495 -0.051739223 -0.017032761 0.10030999 0.17712869 -1.6176852 -1.9949505 -0.07951987
-0.81951976 0.06379283 0.4580214 -0.019319832 0.025889805 -0.6497292 -0.18704364 -0.44326547
0.074990794 -0.071346596 -0.64831895 0.11157348 0.09789797 -0.083376504 0.11256361 -0.31327444
0.08576635 0.18206221 0.103940986 -0.024390718 -0.023573661 0.069303095 -1.1519282 -0.6248781
-0.055573616 0.06925834 0.067766294 -0.03811217 0.06357542 0.059347287 -0.04199127 -0.051790647
5.2784e-05 -0.0960662 -0.07960095 0.03291809 -0.11926532 -0.0013642628 0.10157442 -0.029513642
-0.09976693 -0.11732246 0.085920155 -0.09289084 -0.10202988 -0.069158725 0.04717229 0.10274086
-0.12179649 -0.13000327 -0.08055304 -0.015278961 0.07277001 -0.10304271 -0.0124909775 -0.12260452
-0.13363652 0.01443222 0.08921212 0.10246572 0.10230298 -0.08904685 0.11687656 -0.08795768
0.018035362 -0.10347643 0.03881924 -0.09197729 0.04353352 0.0105739245 0.07948212 -0.0910918
-0.098647475 -0.083730504 -0.049977496 -0.066819474 -0.09597911 -0.14149141 -0.11891897 -0.11050245
-0.011569881 0.03931745 -0.08338487 0.099982664 -0.025843747 -0.12526065 -0.12612125 -0.022221513
0.034876987 0.16496828 -0.12031445 0.15492289 -0.5445342 -3.2135882 -0.092274666 0.058202535
-0.13439395 0.33541703 -0.18480586 -0.354826 0.10912545 0.13936469 0.036751524 -0.071207
0.062981695 -0.34572726 -0.046226274 -0.2771786 0.06646563 -0.38910592 -0.25012934 -0.15766351
0.020300064 0.01157141 0.05296449 -0.11591947 -0.06685805 -0.035132125 -0.046246566 0.014861682
-0.12837854 0.086863466 0.27583525 -0.32787853 -0.08015161 -2.9492984 -3.520209 -0.087508224
-0.13001242 0.10006218 -0.17774583 0.032638222 0.010230505 -0.27773935 0.088989116 -0.034858063
0.14349352 -0.60736614 -0.24928313 -0.3168245 -0.0028495456 -0.33790228 -0.025108464 -0.56289333
0.049417168 -0.05579774 0.037034225 -0.5743125 -0.058576446 0.038364965 -3.0307457 -0.26677343

net.2.bias f4 [64]
00000000: 6882 65bc 3505 f13d 68d1 2fbd 3df1 aebb
00000010: 4fd4 193e 03a2 613b 2ee7 213e 320d 103d
00000020: b9ff 1e3d 1d9c 183e 9358 c83b d28c 18bc
00000030: ca5f 2e3e b54c 4f3e 1c2b 31bd cc01 0b3e
00000040: 7022 db3d a6f4 583e 6adc 99bd f867 873d
00000050: 0fdb d43d 9b21 583d dc4e d53c 81ec 673e
00000060: d719 f93d 458b 663e aca8 06be 9d08 1f3d
00000070: acfd c0bc 6384 14be c1c3 bebc 1c92 debc
00000080: 6470 d93d 7098 5c3e 1e90 bf3d a6ca 0f3e
00000090: 3dc8 aebc 0bcc 343e 2a7b b83d 0343 17bc
000000a0: d8c3 203e c208 3f3e b826 f83d c366 503e
000000b0: 5b3e df3d 52f1 303e 339e 293e 216c 613d
000000c0: da2d a83d b972 e6bc 8f92 a1bc d72d ccbd
000000d0: 6970 9dbd 6f2a 02be 3fab 85bd cbf1 04bd
000000e0: c72b a33d f82e 1a3d ae20 c63c 1753 9d3e
000000f0: 182d 51bc 4de4 063e e0c5 e23d b4e8 0e3e
-0.014008142 0.11768571 -0.042924315 -0.0053388164 0.15022396 0.0034428842 0.15810844 0.035168834
0.038818095 0.14903302 0.0061140745 -0.009310918 0.17028728 0.20244105 -0.043254003 0.13574904
0.10699928 0.21187076 -0.07512744 0.06611627 0.103933446 0.052766424 0.02603858 0.22648813
0.12163132 0.22514065 -0.1315028 0.038826574 -0.02355846 -0.14503627 -0.023286702 -0.02716928
0.1061714 0.21542525 0.0935366 0.14042148 -0.021335715 0.17655961 0.09007867 -0.009232285
0.15699708 0.18655685 0.1211676 0.203517 0.10900565 0.17279556 0.16564254 0.05503476
0.082118705 -0.028130876 -0.019723205 -0.09969681 -0.07687456 -0.127115 -0.06526803 -0.032457154
0.07967334 0.03764245 0.024185505 0.30727455 -0.012767099 0.13173027 0.11072898 0.13955957

mu_head.weight f4 [1, 64]
00000000: 49ec 73bf fd79 d23f e9e3 09ba 74b7 e13e
00000010: b3e8 0bbf 6d9c 1540 3f51 29bf 7a83 a4bd
00000020: a936 cbbf cd67 3b3f 3847 03bf 5439 b03f
00000030: ac1e 04bf ac0e 2abf b69a 1140 a3ca edbe
00000040: d1c9 903e f1c8 323e 68d2 e83e 0082 25be
00000050: 9a64 573e 5d85 21bf 6a8d bfbd 6d93 05bd
00000060: 1a01 2abf 7e5e 9fbd f9c6 04bf dd06 df3e
00000070: 5726 1ebe 00db 283f 9a7d 6fbf 5274 2dbe
00000080: d901 0f3e e864 58bf 4fc5 7cbd 480c 5bbf
00000090: 12fc 443d 529e 733f dd5d 833e be6f 71be
000000a0: fb07 6d3e 52c4 c33e b8b0 753f d7e0 c13f
000000b0: 6b00 f33e 635b 093e 86ab 90bf c582 7bbe
000000c0: bb6e 3ebf 6912 a03e fe15 7b3f f2aa a1bd
000000d0: 7f6d ff3e 26b4 ecbe ef86 fa3e ff44 ee3e
000000e0: 3750 bcbb 3174 8f3f af37 e3be f416 57bf
000000f0: 6339 8fbf 32ed b93e 92b3 7ebf fb0f 3dbe
-0.9528242 1.6443478 -0.00052600965 0.44085276 -0.54651946 2.3376725 -0.66139597 -0.0803289
-1.5876056 0.7320526 -0.51280546 1.3767495 -0.516093 -0.6642864 2.2750678 -0.46443662
0.28278974 0.17459466 0.45473027 -0.16162872 0.2103447 -0.6309412 -0.093531445 -0.0326113
-0.6640793 -0.07781695 -0.5186611 0.43559924 -0.15444313 0.6595917 -0.9355103 -0.16938904
0.13965549 -0.8452897 -0.061711606 -0.85565615 0.048091955 0.9516345 0.2565755 -0.23577783
0.23147576 0.38235718 0.95972776 1.5146741 0.47461256 0.13413768 -1.1302345 -0.24561603
-0.7438771 0.31264046 0.9808043 -0.07893933 0.49888226 -0.46231192 0.4893107 0.46537015
-0.005746867 1.1207334 -0.4437842 -0.840194 -1.1189388 0.36313778 -0.9949275 -0.18463127

log_std_head.weight f4 [1, 64]
00000000: 2c17 3d3d b222 9dbd dbe0 c3bc 6625 90bf
00000010: d074 3cbd 0cc8 4e3d fa30 96be 628d d0bd
00000020: 2777 1fbe f032 80be 9d63 443e 8361 59be
00000030: c1a6 f8be 14cc fa3e 5f51 d0bd 60f2 f8bd
00000040: 6f92 05bd 8336 753e 364b e83d d69d 2cbe
00000050: 0e86 8abe 56c1 38bd 09b7 9ebe 551d 22be
00000060: fbd4 1c3e d438 aabe 4344 98be 48a8 a7be
00000070: f509 71be 2aee ba3d 5f14 24be 697a e6be
00000080: d5f6 963c b5e3 eb3d 0f8c 2a3e 32f3 9c3d
00000090: 29b7 c7bd 7be2 463e de2b d83d e97c 6fbd
000000a0: 9e1d 6d3c e828 fe3d ec03 e5be bc37 8e3c
000000b0: 4173 8d3e 45e3 d0bc c884 7abd 27cf aebc
000000c0: 919b a0bd 779e 2a3e c992 653d 9d6c 75bd
000000d0: c0fe 5dbe 7335 c0bd 6034 803d 704e cd3e
000000e0: 7304 c1bd 1605 8f3e 2e15 5abe 910c c73d
000000f0: c62e d0be 96b7 753b 912e dcbd 8273 d03e
0.046164677 -0.07672633 -0.02391093 -1.1261413 -0.04600984 0.05048375 -0.2933424 -0.10183217
-0.15572797 -0.25038862 0.19178624 -0.21228604 -0.48564723 0.48983824 -0.1017177 -0.12155604
-0.032610353 0.23946576 0.1134247 -0.16857085 -0.270554 -0.045106255 -0.3099902 -0.15831502
0.1531562 -0.3324648 -0.2973958 -0.32745576 -0.23538955 0.091274574 -0.16023396 -0.45015267
0.018428246 0.11518041 0.1665499 0.07663573 -0.09751732 0.19422333 0.10555242 -0.058468733
0.014472393 0.12410146 -0.44729555 0.01736056 0.27626994 -0.025498996 -0.061161786 -0.021339012
-0.07842172 0.16662012 0.05604819 -0.059918035 -0.2167921 -0.09385195 0.0625999 0.40098906
-0.09424677 0.27933568 -0.21297142 0.09719194 -0.40660685 0.003749346 -0.10751069 0.40713125
