Q1/ckpt/critic2_ep350.pth (torch, 38344 bytes, 7 tensors)

state_net.0.weight f4 [64, 3]
000000 f4 3b 80 bf b2 5b 35 bf 86 c9 a5 3e af 27 8b 3f
       -1.0018296 -0.7084304 0.32380313 1.0871485
000010 43 b6 fd 3f ae b7 f1 3e 5d b7 6e bf c1 8e 48 bf
       1.9821247 0.4721045 -0.9324854 -0.78342825
000020 17 32 99 be cb 08 99 bf 24 bd c5 3f 50 08 e7 3e
       -0.29921028 -1.1955808 1.5448346 0.4512353
000030 4d 1e 66 be 6d 85 a7 bf 0b 54 c0 3e 0b 75 40 bf
       -0.22472496 -1.3087593 0.3756412 -0.75178593
000040 44 75 0a 3e 20 9e 73 3e 4b 89 45 bf 6a d3 2c be
       0.13521296 0.23790789 -0.7716262 -0.16877523
000050 36 aa 89 be 7a 5e 8e bf 82 2d 95 bf 55 c4 c3 be
       -0.26887673 -1.1122582 -1.1654513 -0.38235727
000060 38 22 67 bf 39 f3 ad bf 67 81 3b 3e 01 54 06 c0
       -0.9028659 -1.3589851 0.18311082 -2.0988772
000070 ca 77 ed 3c e7 c7 74 3e e0 2a 79 bf 9c 06 bf 3e
       0.028987784 0.23904382 -0.9733105 0.3730973
000080 28 0b 6c 3e 36 21 60 bf aa 75 fb bf 1f 09 f6 be
       0.23051131 -0.87550676 -1.9645283 -0.48053834
000090 0f 94 ca be 04 99 5f 3f 26 27 3c 3f dd 22 4f bd
       -0.39566085 0.8734286 0.73497236 -0.050570358
0000a0 c0 13 1d c0 17 d2 ff be 97 ee 4c 3f 08 22 38 c0
       -2.4543304 -0.49964973 0.8005156 -2.877077
0000b0 25 a4 20 bf 39 4e 39 3f eb 2d 25 40 65 cc 08 3f
       -0.62750465 0.72384983 2.5809276 0.5343688
0000c0 68 95 7c bf a4 00 82 bf d7 8c 3d 3f b1 49 1a 3f
       -0.98665476 -1.0156446 0.7404303 0.60268694
0000d0 72 0e 14 be 9c e2 be 3e 7d ce a1 3f 3c 39 bf be
       -0.14458635 0.37282264 1.264114 -0.37348354
0000e0 54 a1 e7 3d 38 21 bc be b3 03 68 bf 91 8d 3a 3e
       0.11310068 -0.36744094 -0.90630645 0.18218066
0000f0 0c 9d e7 bf 48 f9 ae 3b 34 36 11 bf 94 6e ae bf
       -1.8094802 0.0053397752 -0.5672333 -1.3627496
000100 98 64 7a bf c6 a2 d4 be 06 c8 67 bf 62 1c c1 3e
       -0.97809744 -0.41530436 -0.90539587 0.37716967
000110 fd 9f 54 3f 7c 68 40 bf df 46 ed 3f 68 64 c8 3e
       0.8305662 -0.7515943 1.8537253 0.39139104
000120 94 7e 3f bf 6a e2 42 3f cc b0 2d 3f 6f 7c b3 bf
       -0.7480252 0.7612673 0.67847896 -1.4022349
000130 d4 99 03 3f c8 bd e6 3e 76 37 9b bf d2 21 0e bf
       0.514066 0.45066667 -1.21263 -0.55520356
000140 72 29 c1 be e4 ff a2 bf 99 f5 8e 3f 2b 0e ca 3e
       -0.37726933 -1.2734342 1.11687 0.39463934
000150 5f 7e 01 bf 52 f1 29 3d 01 2a 89 3e 9e 31 9a bf
       -0.5058345 0.041489907 0.2678986 -1.2046392
000160 a3 d2 ac 3f 77 fc d4 3e 2d 4b 32 bf 18 f5 23 c0
       1.3501781 0.41598865 -0.6964596 -2.5618343
000170 55 58 0b bf bd e7 81 3f c5 d3 00 3e 0b ef 85 bd
       -0.5443166 1.0148846 0.12580784 -0.065397345
000180 d5 91 d5 3f 64 01 9d bf 35 de c4 be ed e8 88 bf
       1.668513 -1.2266049 -0.3845078 -1.0696083
000190 58 02 7b bf 22 c4 4f 3e a2 b5 a9 bd 81 3a 9d 3f
       -0.9805045 0.20289662 -0.08286597 1.2283479
0001a0 92 14 af be 7c d3 cc bf d1 af e4 bf 2e 1b 17 bf
       -0.3419538 -1.600204 -1.7866155 -0.5902585
0001b0 10 e1 5b bf 1d 4a 00 3f 7d 40 e2 be bd 75 68 bf
       -0.85890293 0.5011309 -0.44189826 -0.90804654
0001c0 d7 7c 12 3e 09 9a a2 3e 1f 66 90 bf 74 19 b3 bf
       0.14305435 0.31758144 -1.1281165 -1.3992143
0001d0 03 25 cc be 82 0c 8d bf 9d 00 da be 38 f1 db be
       -0.39871988 -1.1019442 -0.42578593 -0.42957473
0001e0 a6 87 14 bf 18 28 e1 3f 7e a9 1a bd 4a 9a 08 bf
       -0.58019483 1.7590361 -0.037759297 -0.53360426
0001f0 d0 e2 7f 3c 09 f5 4b 3f 12 ed b3 3e 47 6e 6a bf
       0.015618041 0.7967077 0.35141808 -0.9157452
000200 fb 8a 3c bf 1a 83 77 bf 6c a6 d0 bf 6c ae 9a 3e
       -0.7364957 -0.9668442 -1.6300788 0.30211198
000210 96 0c 80 bf 6f 37 f4 bd 2b 26 6b 3e d8 e0 7f bf
       -1.0003841 -0.119246356 0.22963779 -0.9995246
000220 e2 2d e2 bf a6 62 d6 be 91 a7 52 bf 3c 7f 1e 3f
       -1.7670252 -0.41872138 -0.82286936 0.61912894
000230 29 e3 1b bf 17 6e 50 bf 65 69 df 3f 06 88 d8 3e
       -0.60893494 -0.81417984 1.7454039 0.42291278
000240 03 88 a5 bf 2d a0 ec bf 8f 2c f8 be df d7 f2 be
       -1.2932132 -1.8486382 -0.48471496 -0.47430322
000250 9d d3 ff 3c 4d b0 5f 3f 0c 5d 57 bf 70 18 b9 3f
       0.031228835 0.8737839 -0.84126353 1.4460583
000260 03 0e c0 3e 79 a5 4d 3f 39 40 84 bf 28 e7 84 bd
       0.3751069 0.80330616 -1.0332099 -0.06489402
000270 d7 12 f3 3c e8 55 03 bf c0 03 d8 3e 61 7b 8d bf
       0.02967207 -0.5130296 0.4219036 -1.1053277
000280 f5 97 8e 3f e2 79 1a 3f 26 f3 0e bf 44 3e 15 bf
       1.1140124 0.6034223 -0.55839765 -0.58298135
000290 cb bc 21 bf 3b 31 0c c0 32 91 7f bf 0d fa f9 be
       -0.631787 -2.1905048 -0.99830925 -0.48823586
0002a0 27 4d 0a c0 51 ee 39 3d 72 0d a1 be 11 07 3a bf
       -2.160959 0.04539329 -0.3145557 -0.7266703
0002b0 3d c5 90 3f 91 b8 9c 3e 01 94 5d bf 37 60 66 be
       1.1310192 0.30609563 -0.8655396 -0.2249764
0002c0 0a b5 8a be a5 53 ac bf aa 4e 56 3f 7f db 84 be
       -0.27091247 -1.3463026 0.8371378 -0.25948712
0002d0 14 24 e2 3f 39 ac 1f 3f d2 77 1c 3e bb 68 36 3e
       1.766726 0.62372166 0.15280083 0.17813389
0002e0 cc e0 96 3f 89 f8 9d 3c f2 34 0a 3f e4 50 a2 3f
       1.1787353 0.01928355 0.5398704 1.2680936
0002f0 24 36 00 3f ba c4 ba bc a9 61 12 40 d0 78 e9 3e
       0.5008261 -0.022798885 2.2872107 0.45599985

state_net.0.bias f4 [64]
000000 01 db 74 bf f0 2c 69 bf 7a 86 7d 3f 3c 60 8a 3f
       -0.95646673 -0.91084194 0.9903332 1.0810618
000010 c1 ea 01 40 f3 f9 91 3f 17 52 aa 3f c4 26 93 3f
       2.0299532 1.1404403 1.3306302 1.1496205
000020 7c cb 73 3f 26 03 e7 3e 89 3b 7e 3f ad 86 60 3e
       0.9523237 0.4511959 0.99309593 0.21926375
000030 79 77 f0 be 31 fd bc bd d7 b5 2e bf 01 88 02 bf
       -0.4696615 -0.0922798 -0.68246216 -0.50988775
000040 45 9e 08 bf 06 66 f4 3e d9 58 c0 3e b9 4f a1 3f
       -0.533665 0.47734088 0.37567785 1.2602454
000050 ea c5 71 3e 83 12 b9 3f a5 d8 1f bf 7c 05 c8 bd
       0.23610654 1.4458774 -0.6243995 -0.09766671
000060 19 80 e5 3f 96 06 5e bf a0 82 c8 3f 99 11 97 3f
       1.7929717 -0.867288 1.5664864 1.1802245
000070 29 43 ba 3f fe e0 8b 3f 7c 48 5b be b3 a4 a1 3f
       1.4551746 1.0928037 -0.2141437 1.2628387
000080 56 22 c8 bf ef 89 8d 3f 3b a7 a3 3f fd 6f 6d 3f
       -1.5635478 1.1057719 1.278541 0.92749006
000090 ee 03 50 be 10 10 c8 3f 3e b8 84 3f 70 68 91 bf
       -0.20313999 1.5629902 1.0368726 -1.1359997
0000a0 a8 d0 e5 3e 79 46 dd be fd b9 a0 3f ca 1e 83 3f
       0.44885755 -0.4321783 1.2556759 1.0243771
0000b0 ad e8 81 3f 6b 9b 53 3f 08 fa f8 be 72 bd 3a 3f
       1.0149132 0.82659024 -0.4862826 0.7294532
0000c0 42 a3 90 3f 41 36 ac be 8e 52 3f 3f a0 70 9a 3f
       1.1299822 -0.33635142 0.74735343 1.206562
0000d0 9d a6 76 3f 09 ca 58 be b3 44 11 be d9 82 42 3e
       0.9634798 -0.2117082 -0.14186363 0.18995227
0000e0 c4 93 1a 3f 5d e6 25 3f 35 84 a8 3f d8 90 c0 3e
       0.6038172 0.6480463 1.3165346 0.37610507
0000f0 bd 68 05 3f 1c 0d 9d 3f d5 7b 0a 3e 5c 46 14 3c
       0.5211294 1.2269626 0.135238 0.009049978

action_net.0.weight f4 [64, 1]
000000 df 9c 7c bf 48 29 27 be 44 ec 82 be 7e 9c f7 3d
       -0.98676866 -0.16324341 -0.2557088 0.120903954
000010 60 80 76 3d 86 2a 2b 3f 64 75 93 be bd 24 28 bb
       0.06018102 0.6686176 -0.288005 -0.0025656663
000020 63 49 02 3f c0 aa 44 bd a2 fc 38 bf 1b 37 2f 3f
       0.5089323 -0.048014402 -0.7226049 0.6844346
000030 9e 7a b2 bf 10 c7 89 3d aa 45 0a 3f d9 0a 13 bf
       -1.394367 0.06727421 0.5401255 -0.5743843
000040 d6 4e 3e 3f e6 71 1f 3f c9 59 63 3f 7e 71 7c 3f
       0.74339044 0.6228317 0.88808876 0.98610675
000050 a8 05 a1 be 60 96 03 bd 92 08 28 3f e1 46 d4 bf
       -0.31449628 -0.03212583 0.6563808 -1.658413
000060 e5 50 31 3f 4a c5 8e 3f 09 27 35 bf ea b1 63 be
       0.6926406 1.1153958 -0.7076269 -0.22235838
000070 12 64 34 be e4 34 ab be 9c 40 aa 3f 28 0b 78 3e
       -0.17616299 -0.3343879 1.3300967 0.24223006
000080 39 46 19 3f 28 78 43 3e 4b e1 76 bf 70 cf d4 3d
       0.59872776 0.19088805 -0.9643752 0.10391128
000090 98 5a 30 3e 6c e9 db bd a0 1f 2d bf 33 65 c0 be
       0.17222059 -0.10737881 -0.6762638 -0.3757721
0000a0 d0 84 d3 3d 2b a7 39 3e e0 a2 b7 3d 68 5f cd 3e
       0.10328066 0.18130176 0.08966613 0.40111852
0000b0 f0 cc 54 be d8 d1 c3 be a2 d0 1e 3f 38 70 26 3f
       -0.20781302 -0.38246036 0.620371 0.6501498
0000c0 d7 db a1 3f ed 61 a0 be 12 96 0d bf 3a 94 83 3f
       1.2645215 -0.3132471 -0.55307114 1.027961
0000d0 73 9a fa bc a8 5c 6b be d8 52 b2 3e 8a cc 25 3f
       -0.030591225 -0.22984564 0.3482883 0.64765227
0000e0 da f6 09 3f 8c 77 fc be 78 35 f6 3e e2 1d 73 bf
       0.5389229 -0.49309957 0.48087668 -0.9496747
0000f0 88 a1 a6 3e ac 7d 22 bf 0a 0f 7b bf fc f8 57 bf
       0.32545114 -0.6347301 -0.9806982 -0.84364295

action_net.0.bias f4 [64]
000000 eb 4c 4c bf 88 39 54 be 76 53 26 bf 78 1d 91 3f
       -0.7980487 -0.20725071 -0.649711 1.1337118
000010 b8 59 f6 be 04 af be 3f 4c 3f c4 be 92 3f aa 3f
       -0.48115325 1.489716 -0.38329542 1.330065
000020 f4 4d 9a be 40 1c fa bd ae 52 83 3f f5 a5 4d 3f
       -0.301376 -0.122124195 1.0259607 0.80331355
000030 e5 71 49 3f 98 8b 64 bf 13 4b 04 3f dd 55 9e 3f
       0.78689414 -0.89275503 0.51677054 1.2369953
000040 04 75 6e bf da c1 38 bf 79 7a a2 3f 88 d4 77 be
       -0.931473 -0.72170794 1.2693626 -0.24202168
000050 3c 5e 16 3f 0a 64 79 bf bd 30 60 3f f3 f4 82 bc
       0.5873754 -0.9741827 0.8757437 -0.015985942
000060 8f c0 79 3f ae d7 48 3f 18 3f ac 3f 9e 78 9c 3f
       0.97559446 0.784541 1.3456755 1.222431
000070 db 83 81 3f 30 8d 31 3f a3 56 a8 3e 24 d2 85 be
       1.0118364 0.6935606 0.328786 -0.26136887
000080 c4 58 1b bf c0 bf 32 bf a6 a5 8c 3f b8 59 38 bf
       -0.6068232 -0.6982384 1.0988052 -0.720119
000090 62 45 3c bf aa 84 8d 3f f6 f7 3d bf 3f b9 b9 3f
       -0.7354337 1.1056111 -0.74206483 1.4509658
0000a0 0e 04 7a bf ec 01 12 3f 18 6c 0e bf 34 c6 1e bf
       -0.97662437 0.5703418 -0.5563369 -0.62021184
0000b0 8e a6 62 bf ec 4d e8 be 91 0b c1 be 72 a1 7c bf
       -0.8853539 -0.4537195 -0.37704137 -0.98683846
0000c0 10 28 81 bc 54 6b a9 be de ec 4a bf 2e 1b 50 bf
       -0.015766174 -0.33089697 -0.7926768 -0.8129147
0000d0 62 fc b4 3f 34 56 bc be 31 3e 36 3f 08 fc 31 3f
       1.4139521 -0.36784518 0.71188647 0.69525194
0000e0 26 fd 96 3f bc 0c 4b bf 8e 7d 51 bf 80 63 87 3f
       1.1796005 -0.79316306 -0.81832206 1.057724
0000f0 f8 ee b8 be 62 e4 76 bf 02 3b 7b bf 8f 32 5f 3f
       -0.3611982 -0.96442235 -0.98136914 0.8718652

output_net.0.weight f4 [64, 128]
000000 46 7a c6 be 43 e8 2f 3f 34 81 03 3f aa 14 3f 3e
       -0.38765162 0.6871378 0.51369023 0.18660226
000010 19 64 dd 3e f0 bb 0e 3f ee 88 2d 3f 90 71 00 3f
       0.4324043 0.5575552 0.67787063 0.5017328
000020 08 66 1c 3f 73 7b 20 3f e4 b3 b4 3e fc 5a df be
       0.6109319 0.6268837 0.35293496 -0.43624103
000030 89 d8 5c be 10 19 2b 3f d2 cc f7 3e bb 2d c2 3e
       -0.21566977 0.6683512 0.48398453 0.37925515
000040 6c 43 0b be a7 11 4a bb ec 10 3b 3f 1d 36 cf 3e
       -0.13599938 -0.0030833276 0.73072696 0.40470973
000050 67 bc 39 3e 51 47 fe 3e ec 36 d0 bd 56 a9 00 bf
       0.18138276 0.49663785 -0.101667255 -0.50258386
000060 51 e7 12 be d4 dc d6 be 6d 4b 0b 3f d5 43 a4 3e
       -0.14346053 -0.41965353 0.54411966 0.32083002
000070 5d 93 a2 3e 3d f1 75 3e a7 a4 80 bf d5 99 f4 3e
       0.31753054 0.24017806 -1.0050248 0.47773615
000080 f3 aa 97 3f 21 77 0c 3f b4 14 15 3e 33 d6 bb be
       1.1849045 0.54869276 0.14558679 -0.3668686
000090 d8 17 da bd 43 81 dc 3e 0f cd d7 3e 3c c8 6f be
       -0.10649079 0.4306737 0.42148635 -0.23416227
0000a0 53 26 e2 3e 1f 66 42 be 7e bf aa 3d a0 e8 24 3f
       0.44169864 -0.18984269 0.083373055 0.6441746
0000b0 32 05 ea 3e bf c5 d1 3e e9 1f 8b be a5 8e b1 3e
       0.4570709 0.4097118 -0.27172783 0.34679142
0000c0 3b f2 b0 3e 5b ed da bd f7 ff aa 3e f4 90 e2 3e
       0.34559807 -0.10689803 0.3339841 0.44251215
0000d0 2b bf a5 bd 3e 4e e6 3c 99 84 c6 bd 84 40 90 bd
       -0.08093103 0.02811348 -0.0969326 -0.070435554
0000e0 b8 dc fc 3e 2c e6 c1 3e 72 32 1c 3f 5e 82 c7 3e
       0.49387145 0.3787092 0.61014473 0.3896665
0000f0 f6 e4 12 3f e1 3c 94 3e fb e1 d0 be 88 40 b0 3e
       0.57380617 0.28952697 -0.4079741 0.34424233
000100 35 b2 80 be 59 99 90 bd 40 2f 25 bd 7a 4f 86 3e
       -0.2513596 -0.07060499 -0.040328264 0.2623251
000110 60 60 0b bd f5 6d 98 3e 0c 0a 5c bd 67 1c bd 3e
       -0.034027457 0.2977139 -0.05372052 0.36935732
000120 53 40 23 be 19 69 0a 3d d6 df aa 3e a3 f7 9d 3e
       -0.15942506 0.033791635 0.33373898 0.30852994
000130 1c 19 a8 3e 92 67 17 bc e4 0e bf 3d 2d f0 b8 3e
       0.32831657 -0.009241002 0.09329012 0.3612074
000140 38 42 88 bc c6 83 27 bd 1e ac 8c 3e a0 a1 92 3d
       -0.016633138 -0.040897153 0.27475065 0.07159734
000150 ba c6 dd 3e a5 a2 1c bd 28 e0 96 3e a2 c8 57 3a
       0.4331568 -0.038241047 0.29467893 0.0008231496
000160 69 f5 a5 3e ae ea a7 3e 20 1f 69 3e 78 e8 9b 3e
       0.32413796 0.32796234 0.2276578 0.30450797
000170 6f 3b b9 3e 8e 2c a2 3e 82 d9 e1 3d 22 7c aa bb
       0.36178157 0.31674618 0.110278144 -0.005202786
000180 97 9c 4c 3d 32 de 85 bd f8 4f 8e 3e 31 54 76 3d
       0.049954023 -0.06536521 0.27795386 0.060138885
000190 04 e8 07 3d 19 da c1 3e 08 35 8b bb 73 9f 8f 3e
       0.03318025 0.37861708 -0.004248265 0.28051338
0001a0 b5 84 43 3d 68 45 b9 3e af 2c 96 3d c4 9e be bc
       0.04773398 0.36185765 0.073327415 -0.023269065
0001b0 eb 5b 6f bd ba 0c 05 3d 5a d4 3b be 3c 5f 98 bc
       -0.05843727 0.03248284 -0.18342724 -0.018600099
0001c0 4d 74 8b 3d 55 bb 92 bd cf 38 82 bd 99 ee cd 3d
       0.06809292 -0.07164637 -0.06358492 0.100552745
0001d0 a7 c9 a1 3e 56 7c cb bc 0e 72 80 3e 9a e6 8b 3e
       0.3159916 -0.024839561 0.25087017 0.27324373
0001e0 fa 11 91 3e 23 68 4b bc a4 ad 2a bd 97 8a 86 3e
       0.28334028 -0.012414965 -0.041669503 0.2627761
0001f0 af 04 74 3d cb 9f 48 bd 36 58 61 bd 3a dd bc 3e
       0.05957478 -0.048980515 -0.055015765 0.36887532
000200 45 33 cd 3c 90 b4 01 3d b9 0e 10 bd ba 4a 8c bd
       0.025048861 0.03166634 -0.03517029 -0.068501905
000210 72 bc 85 bd 29 08 93 3d ac bb 63 3c 4f 34 5e bd
       -0.06530084 0.07179291 0.013899725 -0.054249104
000220 d6 0c 9c 3d fb b2 a5 3d c7 b0 35 bc 3a ee be 3c
       0.07619636 0.080907784 -0.01108951 0.023306955
000230 fb e1 19 3b b6 32 b5 bc 56 61 87 bc 55 7f 7d bd
       0.0023480642 -0.022118907 -0.016525906 -0.06188901
000240 5a 5f 17 3d a0 be b0 3d 7c a4 9e 3d 2d de 39 3d
       0.03695617 0.08630109 0.07746217 0.0453779
000250 33 d8 93 bd 1d 8f 28 bd 61 99 13 bd 53 37 b0 3d
       -0.07218971 -0.04115211 -0.036034945 0.08604302
000260 6c 7a 99 bd 3c e6 89 3d e4 df 92 bd 1b 72 87 3c
       -0.07494053 0.06733367 -0.0717161 0.016533902
000270 54 74 96 bd f4 ab 45 bd 81 80 81 3d 2f b6 30 bd
       -0.073464066 -0.04825969 0.06323338 -0.043142494
000280 00 e8 98 bd e6 e7 8f bd 22 dc d2 bc d5 04 69 bd
       -0.074661255 -0.07026653 -0.025739733 -0.056889374
000290 06 25 cc bb 16 2d 10 bd 34 38 a4 bd 90 8d 5d 3d
       -0.0062299995 -0.035199247 -0.080185324 0.054090083
0002a0 1b aa 97 3c 29 47 93 3d 42 cd b1 bc 36 78 28 3b
       0.01851373 0.07191307 -0.02170432 0.0025706417
0002b0 35 c2 cb ba 42 c3 ff bc de 18 96 bd 46 6a 98 bd
       -0.0015545549 -0.031221036 -0.07328962 -0.07442145
0002c0 66 45 4e bd f8 4e 9a bd c6 b3 98 3d 12 7e 34 3d
       -0.050359152 -0.07534593 0.07456164 0.044065543
0002d0 d3 6c 7b 3d 3a b9 ac bd 4e 7f 36 bd 49 93 89 3c
       0.06138308 -0.08433767 -0.044555 0.016793864
0002e0 39 24 64 bd 4c 99 4c 3d 4c 84 02 bc e7 a8 2a bc
       -0.055698607 0.049950883 -0.007966112 -0.010416246
0002f0 80 ce c1 3a 5b 25 74 3d d1 96 02 3d 1b b5 b1 bc
       0.0014786273 0.059605937 0.03188211 -0.021692803
000300 52 a6 38 bd 80 db 8d 3d eb 0d 03 bd cc 16 b4 3d
       -0.04508049 0.06926632 -0.031995695 0.08793411
000310 45 5c e9 3b df 6f 86 3d 9b 84 41 3b 74 7c 6b 3d
       0.007121595 0.065643065 0.0029528502 0.057491735
000320 40 fb 8a bd f3 45 a2 bc 06 ae 5b bd 7d 7c 8e bd
       -0.067862034 -0.019808745 -0.05363276 -0.06957338
000330 db 40 90 bd 31 b2 aa 3d 5d d6 26 3d 68 08 72 3c
       -0.0704362 0.083347686 0.040731777 0.014772512
000340 01 ba b7 bb 76 1a 44 3c 4a 54 4a bd fe d9 69 bd
       -0.00560689 0.011969199 -0.04939679 -0.05709266
000350 a7 34 81 bd 93 d1 a4 3d ff 86 62 bd 1a 2f 5f bd
       -0.06308871 0.080477856 -0.055304524 -0.05448828
000360 67 ad 29 bd 23 e9 43 bc b3 d9 a5 bd c6 58 8e 3d
       -0.041425135 -0.01195744 -0.080981635 0.06950526
000370 8e da 7e bd 00 f1 35 bd 2f da 66 bd 96 9b e3 bc
       -0.06222015 -0.04441929 -0.05636042 -0.02778415
000380 26 a3 95 bd be 78 f3 bc 52 e9 e8 bc 43 0f 95 bd
       -0.07306509 -0.02972066 -0.028431568 -0.072783016
000390 1a 46 b7 bc a9 93 a3 bb 0d 03 28 bc 3b 39 f0 bc
       -0.022372294 -0.0049919677 -0.010254634 -0.029324165
0003a0 56 17 74 bc 24 08 88 bd 11 14 91 bd b8 39 95 bd
       -0.014898142 -0.06642178 -0.070839055 -0.072863996
0003b0 1f 2c 43 3d 38 06 9a 3b 0b 88 08 bd 2a 79 5a bd
       0.0476495 0.0047004484 -0.033332866 -0.053338207
0003c0 bf 59 f2 bc c3 a4 9f bc 48 0e ea bb 5c 6b a4 bd
       -0.02958381 -0.019487744 -0.0071428157 -0.0802829
0003d0 91 5f 60 bd 8f fa a6 3d 40 60 27 bd 1b f4 24 bc
       -0.05477864 0.08153259 -0.040863276 -0.010067965
0003e0 db 84 2f 3d f9 db b0 3d 9e ab 20 bd 5f 1a c4 bb
       0.04285131 0.086357065 -0.039226167 -0.005984589
0003f0 58 c5 47 3d 74 0a ac 3c 0d c3 46 3d af 6b 06 3d
       0.048772186 0.021001078 0.04852586 0.03281754

output_net.0.bias f4 [64]
000000 bf 21 a5 3e dd 9b 17 3d 45 7e 93 3e 9b 44 ce 3e
       0.3225231 0.037013877 0.28807274 0.40286717
000010 7f 50 4e 3e 9c d2 80 3e 22 6f 2b 3e 6d 90 80 3e
       0.20147894 0.25160682 0.16741613 0.25110188
000020 a7 dc dd bc 6c 50 b5 3e 98 2a 20 3d 04 17 2d 3c
       -0.027082754 0.3541292 0.03910312 0.010564569
000030 d3 92 85 3e 02 fd b9 3e 07 66 ac 3b 4d 0b c1 3e
       0.2608858 0.36325842 0.005261186 0.37703934
000040 63 f0 c2 3e 17 53 64 bd 7c 76 04 bc 77 0d a3 bd
       0.38074026 -0.055743303 -0.0080848895 -0.079615526
000050 1c 70 4d 3d 91 e8 b9 3e fd 49 3a 3e 23 fc bc bd
       0.050155744 0.36310247 0.18192287 -0.09227779
000060 24 7b 21 bd f6 5f 88 3e 62 f5 00 be 1e ed c5 bc
       -0.039424077 0.26635712 -0.12593606 -0.024160918
000070 a2 ad b4 3e ce 0b e1 3d 99 b7 cf 3e ff 3b 50 3c
       0.3528872 0.1098858 0.4056976 0.012709617
000080 6c e3 95 3e 5e 07 c8 3e de 5f f8 3e d8 f4 92 3e
       0.29275072 0.3906812 0.4851064 0.28702426
000090 59 bf a7 3e 5c 2d 78 3e 68 e2 ab 3e ac 65 e2 3c
       0.32763174 0.24236053 0.33571172 0.027636372
0000a0 f1 b9 18 3d 76 c3 ba 3e 43 60 cd 3e 52 f8 58 3c
       0.037286703 0.3647725 0.40112504 0.013242798
0000b0 ad c1 ae 3d 2e be 8a 3e ff 01 0c 3d 6e ab 1a 3e
       0.085330345 0.2709822 0.03418159 0.15104458
0000c0 83 ea 95 3d 31 78 a2 3e b0 41 6e 3d 88 e2 8a 3e
       0.0732012 0.31732324 0.058168113 0.27125955
0000d0 c2 70 bc 3e 87 c6 f7 3e db 71 64 3d 5b 74 9d 3e
       0.36804777 0.48393652 0.055772644 0.30752835
0000e0 b5 5b c3 3a c3 74 b5 3e 60 fc 93 3d 16 52 ab 3e
       0.001490465 0.35440645 0.07225871 0.33461064
0000f0 4a 82 e7 3e a7 c5 2f bd 5a 24 cc 3e 40 02 c2 3e
       0.4521659 -0.042913105 0.39871484 0.37892342

output_net.2.weight f4 [1, 64]
000000 ca 28 30 bf 04 b7 ec 3d 08 39 3f bf b7 e6 21 bf
       -0.6881224 0.11558345 -0.746964 -0.6324267
000010 de 14 35 bf 4e 6d 41 bf f9 28 e5 3f b1 0c 2a bf
       -0.70734966 -0.7555741 1.7903129 -0.66425616
000020 ee 3a bb 3f 4d 4f 1a 40 3e 41 ce 3d 72 52 0e 40
       1.4627359 2.4110901 0.10071038 2.223782
000030 4d 9f 44 bf 86 ba ce 40 3b 85 a2 3f dd df 3b bf
       -0.76805574 6.460269 1.2696909 -0.73388463
000040 ce 59 41 bf d8 1a c2 3d 6b 6f 3f 3d 95 58 98 3d
       -0.75527656 0.09477776 0.046737116 0.07438771
000050 6a 3e b1 3d d3 9b 2d bf 06 60 ba 3f 52 a0 10 40
       0.08654483 -0.67815894 1.4560554 2.2597852
000060 72 41 44 3d c4 97 2f bf 81 36 a3 3f 27 cc eb 3c
       0.047913976 -0.6859095 1.2751008 0.02878387
000070 6b 4f 32 bf f5 78 19 40 3d 5a 2d bf 86 d6 e8 3c
       -0.6965243 2.3980076 -0.6771582 0.028422605
000080 82 59 3a bf 5b a9 32 bf a7 90 3f bf ae af 45 bf
       -0.7279283 -0.69789666 -0.74830097 -0.7722119
000090 e3 13 0c 40 48 b6 42 bf 12 73 26 bf 2c 36 f3 3f
       2.1887138 -0.7605939 -0.65019333 1.9000907
0000a0 19 1d aa 3d 9f 81 43 bf 9e e2 24 bf 87 37 ce 3f
       0.08306331 -0.7636966 -0.6440829 1.6110696
0000b0 98 23 26 40 47 19 d2 3f 3f 57 d6 3d 93 bb be 3f
       2.5959225 1.6413964 0.104658596 1.4900993
0000c0 b9 33 b8 3f da 0d 3f bf 25 3b 38 3d 9f 96 3d bf
       1.4390785 -0.7463051 0.04497828 -0.74057955
0000d0 3a ca 35 bf 97 77 32 bf b3 0d 81 3d 16 9d 38 bf
       -0.710117 -0.6971373 0.06301441 -0.72114694
0000e0 df 9a 6f 3d 98 e2 21 bf 8b 95 2f 3d 3b c5 42 bf
       0.058497306 -0.6323638 0.042867225 -0.760822
0000f0 f4 2b 23 41 7b 29 ab 3d e7 04 3a bf 91 6a 49 bf
       10.198231 0.08357521 -0.7266373 -0.7867823
