Q1/ckpt/critic2_ep150.pth (torch, 38344 bytes, 7 tensors)

state_net.0.weight f4 [64, 3]
00000000: 7826 30bf 8ee8 46bf e662 a63e edba 373f
00000010: 6d81 c33f cc43 bc3e e7d8 18bf b2c0 f6be
00000020: 91a5 69be 3023 96bf e95e 933f ee5b ce3e
00000030: aec5 41be c7b0 abbf 393f db3e 0853 48bf
00000040: 22c2 583e 34a1 843e 753c d6be d4b3 c8bd
00000050: 0ca1 74be 2360 47bf 9287 49bf b425 9abe
00000060: 6626 5fbf 7203 90bf f4d2 2b3e 9e2b a9bf
00000070: b5e4 54be b9e5 693e 8acc 60bf 7384 e43e
00000080: 3b08 8a3e 5fed 1fbf 1a0e 46bf 2de6 03bf
00000090: e21e 1abf be2f 543f c1f5 233f b083 863e
000000a0: 9bb5 cfbf f139 a5be a384 633f 2ace 00c0
000000b0: 3d70 dcbe 4902 453e 4334 0e40 2b28 e23e
000000c0: 21f8 39bf 94ff 81bf b28a 2c3f 8696 b63e
000000d0: 046a 17bf 033b 4d3e 6907 a53f 9387 a5be
000000e0: d62c fd3d 0737 8dbe ad28 6dbf 533a 833e
000000f0: 7aaf 6ebf d18b 053f 2b99 cfbe 0497 77bf
00000100: 7c02 3abf 6c19 b7be e095 42bf 06e8 b63e
00000110: 643a 413f 3244 08bf f253 cb3f c04b bd3e
00000120: d448 72bf c612 96bd eeee 363f b62a 78bf
00000130: 842e db3e 6a68 c23e f12d 75bf 3f5a 06bf
00000140: 7f97 afbe 5499 9abf 3eff 483f c182 c53e
00000150: fdbf dbbe c7af df3c bc65 883e d86d 96bf
00000160: 3e28 7a3f 1f92 c93e 7983 f2be 5150 04c0
00000170: 581a a2be 3acc 7a3f 6e61 4b3e 4e7a fcbd
00000180: 8fa5 e43f 3902 10bf 253e dbbe 4a8e 59bf
00000190: 27d2 77bf 85c6 7d3e 173e 69be 6601 1c3f
000001a0: 53c9 8abe 58a7 c3bf 2157 3abf c878 04bf
000001b0: 8eb3 3bbf 5623 213f 5d72 89be dfc5 5cbf
000001c0: f559 503e fbe3 ad3e da7e 38bf 2c1e 71bf
000001d0: 1983 9abe 2541 9cbf b014 23bf 8983 8cbe
000001e0: 436c d7be 88f0 903f fb67 09bd b966 1cbf
000001f0: 20c4 b33c 2c50 343f 69db c7be 4f52 06bf
00000200: 0440 15bf e700 53bf ef0e b1bf 2fb7 913e
00000210: 9298 59bf d304 983e 2a51 803e f37c 24bf
00000220: ff36 97bf b3d5 a2be 6be3 14bf c110 e03e
00000230: 84a3 0dbf e99a 53bf ddc3 c03f 08f3 be3e
00000240: 9855 53bf 14cc aabf 3ac3 c1be 6c16 cfbe
00000250: 7733 c2bd aa48 4d3f 266a 60bf b404 923f
00000260: 6301 a93e fd71 4a3f b223 45bf 00c9 91bd
00000270: 4894 aebe 0a96 36bf d949 f43e cb35 57bf
00000280: c426 783f 2d19 073f 8784 2bbf c7ed 7dbe
00000290: 202d 05bf b636 d4bf b5c4 e1be fe1c d1be
000002a0: 2d06 dbbf 4a05 983e 3234 8dbe 242e 39bf
000002b0: 65bd 5d3f 559f 8a3e 0373 17bf d5c9 8fbe
000002c0: d1e2 81be 8483 89bf f1e5 5c3f 78f7 78be
000002d0: 09a7 d83f 1042 073f fae0 1b3e f2c9 c03c
000002e0: ea94 953f 4049 033c 00db 573e 8c62 0a3e
000002f0: 7e68 e73e 5383 48be 2aa4 f03f 0655 b23e
-0.688087 -0.776986 0.3249733 0.717696 1.5273873 0.36770475 -0.59705967 -0.4819389
-0.22817065 -1.1729488 1.1513339 0.40304512 -0.18923065 -1.3413323 0.42821673 -0.78251696
0.21167806 0.25904238 -0.41843 -0.097999245 -0.2388956 -0.7788107 -0.7872249 -0.3010689
-0.87167966 -1.1251051 0.16779691 -1.3216436 -0.2079037 0.22841538 -0.878121 0.446323
0.26959404 -0.62471575 -0.7736527 -0.51523095 -0.60203373 0.8288535 0.64046866 0.26272345
-1.6227297 -0.32270768 0.8887426 -2.0125833 -0.4305438 0.19239153 2.2219398 0.4417127
-0.7264424 -1.0156121 0.6739913 0.35661715 -0.5914614 0.20042042 1.2892886 -0.32329997
0.123620674 -0.27581045 -0.9264019 0.25630435 -0.93236506 0.5216647 -0.40546545 -0.96714807
-0.7266004 -0.35761583 -0.7600994 0.35723895 0.7547972 -0.5322906 1.5884993 0.36971855
-0.94642377 -0.073277995 0.7145833 -0.9694017 0.42808926 0.37970287 -0.95773226 -0.52481455
-0.3429527 -1.2078042 0.7851447 0.3857632 -0.42919913 0.027305497 0.26640117 -1.1752272
0.97717655 0.39369294 -0.4736593 -2.0674021 -0.31660724 0.97967875 0.19861385 -0.12328015
1.7863024 -0.5625339 -0.4282085 -0.8498274 -0.9680504 0.2478276 -0.22777592 0.60939634
-0.27106723 -1.5285444 -0.727892 -0.517468 -0.73320854 0.62944543 -0.26845065 -0.8623943
0.20346816 0.33962998 -0.7206856 -0.94186664 -0.30178145 -1.220738 -0.6370344 -0.27444103
-0.42074785 1.1323404 -0.03354643 -0.6109424 0.021944106 0.7043483 -0.39034584 -0.5246934
-0.58300805 -0.8242325 -1.3832682 0.2846007 -0.8499843 0.2969118 0.25061923 -0.6425316
-1.1813658 -0.31803665 -0.5815951 0.43762782 -0.5532763 -0.8265825 1.5059773 0.37294793
-0.8255248 -1.334353 -0.3784426 -0.40446794 -0.094824724 0.80189 -0.8766197 1.1407685
0.3300887 0.7908018 -0.7700759 -0.07118416 -0.34097505 -0.7132269 0.4771259 -0.84066457
0.9693415 0.5277279 -0.66999096 -0.24797736 -0.5202198 -1.6579196 -0.44095388 -0.40842432
-1.711126 0.29691535 -0.27578884 -0.7233603 0.8661712 0.27074686 -0.5915987 -0.28083673
-0.2536836 -1.074326 0.8628836 -0.24313152 1.6925975 0.5283518 0.1522254 0.023533795
1.168607 0.00801307 0.21079636 0.13514155 0.4519691 -0.19581346 1.8800099 0.34830493

state_net.0.bias f4 [64]
00000000: b44a 4bbf 0c5a 41bf e807 643f 1536 843f
00000010: 4ba5 f73f 8381 843f 382c a63f 2921 863f
00000020: 43db 003f 8cea b73e ce93 633f 1b31 fabe
00000030: 64b5 e0be 4221 28bc 13b1 bdbe 63fa b3be
00000040: 5a59 06bf 15a6 f53e b764 a43e c8cb 903f
00000050: 2d7c 033f a4e4 b33f 69b7 ffbe f4f4 b7be
00000060: 6f5f a73f c715 55bf 46f8 bf3f 6fe5 983f
00000070: afa3 b53f 3832 8f3f e82c d7be eb1f a93f
00000080: 8ff6 92bf 55f6 3d3f 3f73 983f 4d78 393e
00000090: a83b 26bd 999a bf3f ab63 6b3f 043d 84bf
000000a0: 534e 363f 702a c5be 845b 8a3f f07f 213f
000000b0: ad73 643f f42b 493f ba71 84be 8892 0e3f
000000c0: 33fe 803f 3017 82be ea06 2f3f ff13 a43f
000000d0: a941 0a3f 13f0 fbbd a561 dfbe e5a2 5f3e
000000e0: bd14 523e 42bc 1e3f 2552 9e3f b282 ce3e
000000f0: eceb 0f3f e698 913f b518 fb3d 7010 af3b
-0.7941086 -0.75528026 0.89074564 1.0329005 1.9347318 1.0352024 1.2982244 1.047887
0.50334567 0.35921133 0.8889741 -0.4886559 -0.4388839 -0.0102618355 -0.3704916 -0.35151967
-0.5248009 0.47978273 0.3210809 1.1312189 0.5136135 1.405415 -0.49944618 -0.35929072
1.3075999 -0.83236355 1.4997642 1.1945018 1.4190577 1.11872 -0.42026448 1.3212866
-1.1481494 0.74204 1.191017 0.18112297 -0.040584236 1.4969054 0.91948956 -1.033112
0.71213263 -0.3850894 1.0809178 0.6308584 0.8923901 0.7858269 -0.25868016 0.5569234
1.0077575 -0.25408316 0.68369925 1.2818602 0.5400644 -0.1230165 -0.43629184 0.21839483
0.20515724 0.6200601 1.2368819 0.40334088 0.56219363 1.1374786 0.12260572 0.0053425357

action_net.0.weight f4 [64, 1]
00000000: 22f3 7cbf 4829 27be 44ec 82be 1c09 123e
00000010: 6080 763d 660d 323f 6475 93be d13d e83c
00000020: af4b d63e c0aa 44bd 6f15 25bf e02e 293f
00000030: b7bc 7abf 10c7 893d f803 003f dddd 05bf
00000040: d64e 3e3f e671 1f3f dd84 633f 84d5 4d3f
00000050: 4dc8 87be 6096 03bd 2f3f 223f 7779 99bf
00000060: 46ec 303f 3f23 7e3f b0fe 27bf f0a4 47be
00000070: 5f51 e4bd 1d8a 8ebe d9a3 8a3f 280b 783e
00000080: 3946 193f 2878 433e 6091 65bf 70cf d43d
00000090: 985a 303e 82b6 38bd a01f 2dbf 464f a5be
000000a0: d084 d33d b5c2 463e e0a2 b73d 685f cd3e
000000b0: f0cc 54be d8d1 c3be 2b38 053f 3870 263f
000000c0: a8c3 5d3f f642 a5be 1296 0dbf d5e2 693f
000000d0: cfd7 2e3b a85c 6bbe cdaf aa3e 8228 1a3f
000000e0: ad6d 0a3f 8c77 fcbe 7835 f63e e585 5ebf
000000f0: 88a1 a63e ac7d 22bf 0a0f 7bbf 9941 44bf
-0.9880849 -0.16324341 -0.2557088 0.14261287 0.06018102 0.69551694 -0.288005 0.028349789
0.41854617 -0.048014402 -0.6448583 0.6608715 -0.97944206 0.06727421 0.50006056 -0.5229166
0.74339044 0.6228317 0.8887461 0.80403924 -0.26520005 -0.03212583 0.6337766 -1.1990193
0.69110525 0.9927253 -0.65623 -0.19496512 -0.11148333 -0.27839747 1.0831252 0.24223006
0.59872776 0.19088805 -0.8967495 0.10391128 0.17222059 -0.045095928 -0.6762638 -0.32287043
0.10328066 0.19410212 0.08966613 0.40111852 -0.20781302 -0.38246036 0.5203883 0.6501498
0.8662667 -0.3227765 -0.55307114 0.91361743 0.0026678925 -0.22984564 0.3333725 0.6021806
0.540736 -0.49309957 0.48087668 -0.86923057 0.32545114 -0.6347301 -0.9806982 -0.76662594

action_net.0.bias f4 [64]
00000000: f2f5 32bf 8839 54be 7653 26bf dc56 8e3f
00000010: b859 f6be b0da bb3f 4c3f c4be 6555 a73f
00000020: 1332 b8be 401c fabd c91c 7f3f ad7d 483f
00000030: 275a 593f 988b 64bf eedf ea3e 2316 9a3f
00000040: 0475 6ebf dac1 38bf 7320 a03f 39b4 b7be
00000050: 09bc 143f 0a64 79bf b668 5c3f be48 b6be
00000060: 2c7a 783f bc8e 513f 4232 ad3f 60bd 9b3f
00000070: bffb 7c3f 3178 2f3f 9817 883e 24d2 85be
00000080: c458 1bbf c0bf 32bf 838a 8a3f b859 38bf
00000090: 6245 3cbf 12bf 893f f6f7 3dbf 8a95 b53f
000000a0: 0e04 7abf d557 143f 186c 0ebf 34c6 1ebf
000000b0: 8ea6 62bf ec4d e8be e093 e3be 72a1 7cbf
000000c0: 208f c2be 4a8a a4be deec 4abf ade0 69bf
000000d0: f46c b33f 3456 bcbe 79f3 2b3f aa3b 303f
000000e0: 01c0 943f bc0c 4bbf 8e7d 51bf 282a 833f
000000f0: f8ee b8be 62e4 76bf 023b 7bbf 186b 513f
-0.6990653 -0.20725071 -0.649711 1.1120257 -0.48115325 1.4676113 -0.38329542 1.3072935
-0.35975704 -0.122124195 0.996533 0.78316766 0.84903187 -0.89275503 0.4587397 1.2038006
-0.931473 -0.72170794 1.2509903 -0.35879686 0.5809942 -0.9741827 0.86097276 -0.35602373
0.9706142 0.8185842 1.3530962 1.2167168 0.98821634 0.6854277 0.265805 -0.26136887
-0.6068232 -0.6982384 1.082352 -0.720119 -0.7354337 1.0761435 -0.74206483 1.4186261
-0.97662437 0.5794652 -0.5563369 -0.62021184 -0.8853539 -0.4537195 -0.44448757 -0.98683846
-0.3799982 -0.32136756 -0.7926768 -0.91358453 1.4017625 -0.36784518 0.67168385 0.6884104
1.1621095 -0.79316306 -0.81832206 1.024724 -0.3611982 -0.96442235 -0.98136914 0.8180404

output_net.0.weight f4 [64, 128]
00000000: e036 9dbe 4da0 dd3e ab39 bb3e 7093 203e
00000010: c5f3 cb3e 6c3d 063f dc3c 183f de3a b23e
00000020: f698 ef3e 5256 003f 6e6b aa3e edd0 e5bd
00000030: 6489 15be a9df ab3e 6a1f 2e3e 0603 7a3e
00000040: eff8 7bbd ccbf a23d 3c8f 493f 68c7 c13e
00000050: 6ff5 1a3e d52f b53e 34a0 62bd 9f59 c3be
00000060: 8826 86bc 070d c9be 54d3 eb3e cc60 9f3e
00000070: 9501 8a3e 9240 603e f9d4 febe 54e8 053f
00000080: a79a 673f 3980 cf3e bd52 753e bcc0 8d3d
00000090: b400 9ebc e09a c63e cb16 853e 947e b9be
000000a0: 75b9 973e 3517 02be 98d2 ea3d 328a f73e
000000b0: ec13 c23e 8e5a 7a3e 3f26 32be 4929 943e
000000c0: 624c 3c3e 4138 06bd c09f 953e 6798 d63e
000000d0: fa05 27bc a085 d33b 73a0 08bd 64a5 103d
000000e0: 3fea df3e b844 af3e f7d4 043f 7993 bd3e
000000f0: de5d 1f3f 7f34 c93e 6a9e 38be c5e6 693e
00000100: 983e f1bd 5999 90bd 402f 25bd b2e0 9e3e
00000110: 6060 0bbd 3272 af3e 0c0a 5cbd 9fd8 d53e
00000120: f551 f8bd 1969 0a3d 6048 c33e 1416 b33e
00000130: 1dc8 bb3e 9267 17bc f01f 083e b0bb d13e
00000140: 3842 88bc c683 27bd 225e a23e 72f9 7b3d
00000150: ca4e f73e a5a2 1cbd 4e8d ac3e d417 b7bc
00000160: a5dc bb3e 57ac bd3e f94c 8d3e 57f7 b43e
00000170: 3a6c d23e de97 bb3e 01ee b33d 227c aabb
00000180: 979c 4c3d 32de 85bd 1400 a63e 3154 763d
00000190: 04e8 073d 58da da3e 0835 8bbb c990 a83e
000001a0: b584 433d 3bdb d13e af2c 963d c49e bebc
000001b0: eb5b 6fbd ba0c 053d e784 08be 3c5f 98bc
000001c0: b294 533d 18aa 7ebd cf38 82bd 8683 9b3d
000001d0: 9286 ba3e 567c cbbc 6ea4 973e 15d3 a03e
000001e0: ab30 a83e 2368 4bbc a4ad 2abd 0424 9e3e
000001f0: af04 743d cb9f 48bd 3658 61bd 602d d43e
00000200: 4533 cd3c 90b4 013d b90e 10bd ba4a 8cbd
00000210: 72bc 85bd 2908 933d acbb 633c 4f34 5ebd
00000220: d60c 9c3d fbb2 a53d c7b0 35bc 3aee be3c
00000230: fbe1 193b b632 b5bc 5661 87bc 557f 7dbd
00000240: 5a5f 173d a0be b03d 7ca4 9e3d 2dde 393d
00000250: 33d8 93bd 1d8f 28bd 6199 13bd 5337 b03d
00000260: 6c7a 99bd 3ce6 893d e4df 92bd 1b72 873c
00000270: 5474 96bd f4ab 45bd 8180 813d 2fb6 30bd
00000280: 00e8 98bd e6e7 8fbd 22dc d2bc d504 69bd
00000290: 0625 ccbb 162d 10bd 3438 a4bd 908d 5d3d
000002a0: 1baa 973c 2947 933d 42cd b1bc 3678 283b
000002b0: 35c2 cbba 42c3 ffbc de18 96bd 466a 98bd
000002c0: 6645 4ebd f84e 9abd c6b3 983d 127e 343d
000002d0: d36c 7b3d 3ab9 acbd 4e7f 36bd 4993 893c
000002e0: 3924 64bd 4c99 4c3d 4c84 02bc e7a8 2abc
000002f0: 80ce c13a 5b25 743d d196 023d 1bb5 b1bc
00000300: 52a6 38bd 80db 8d3d eb0d 03bd cc16 b43d
00000310: 455c e93b df6f 863d 9b84 413b 747c 6b3d
00000320: 40fb 8abd f345 a2bc 06ae 5bbd 7d7c 8ebd
00000330: db40 90bd 31b2 aa3d 5dd6 263d 6808 723c
00000340: 01ba b7bb 761a 443c 4a54 4abd fed9 69bd
00000350: a734 81bd 93d1 a43d ff86 62bd 1a2f 5fbd
00000360: 67ad 29bd 23e9 43bc b3d9 a5bd c658 8e3d
00000370: 8eda 7ebd 00f1 35bd 2fda 66bd 969b e3bc
00000380: 26a3 95bd be78 f3bc 52e9 e8bc 430f 95bd
00000390: 1a46 b7bc a993 a3bb 0d03 28bc 3b39 f0bc
000003a0: 5617 74bc 2408 88bd 1114 91bd b839 95bd
000003b0: 1f2c 433d 3806 9a3b 0b88 08bd 2a79 5abd
000003c0: bf59 f2bc c3a4 9fbc 480e eabb 5c6b a4bd
000003d0: 915f 60bd 8ffa a63d 4060 27bd 1bf4 24bc
000003e0: db84 2f3d f9db b03d 9eab 20bd 5f1a c4bb
000003f0: 58c5 473d 740a ac3c 0dc3 463d af6b 063d
-0.3070593 0.43286362 0.36567435 0.15681243 0.3983442 0.5243747 0.59467864 0.34810537
0.46796387 0.50131714 0.33285087 -0.1122149 -0.14603192 0.33569077 0.17004171 0.24415216
-0.0615167 0.079467386 0.78734183 0.37847447 0.15132688 0.35388055 -0.055328563 -0.38154313
-0.016375795 -0.39267752 0.46059668 0.31128538 0.26954332 0.21899632 -0.4977186 0.5230763
0.90470356 0.40527514 0.23957343 0.06921527 -0.019287445 0.38790035 0.25993952 -0.36229384
0.2963368 -0.12704165 0.11465949 0.48347622 0.37905824 0.24448606 -0.17397402 0.28937748
0.18388513 -0.03276849 0.29223442 0.4191315 -0.010194296 0.0064551383 -0.03335614 0.03531398
0.43733403 0.34232116 0.5188746 0.37026575 0.62252605 0.39297864 -0.1802918 0.22841938
-0.11779517 -0.07060499 -0.040328264 0.31030804 -0.034027457 0.34266812 -0.05372052 0.4176683
-0.12125007 0.033791635 0.38141155 0.34977782 0.36676112 -0.009241002 0.13293433 0.40963507
-0.016633138 -0.040897153 0.31712443 0.061517186 0.483023 -0.038241047 0.33701557 -0.02235023
0.36691776 0.37045547 0.27597788 0.35344955 0.41098195 0.36639303 0.0878563 -0.005202786
0.049954023 -0.06536521 0.32421935 0.060138885 0.03318025 0.42744708 -0.004248265 0.32922962
0.04773398 0.40987572 0.073327415 -0.023269065 -0.05843727 0.03248284 -0.13331948 -0.018600099
0.05165548 -0.062173933 -0.06358492 0.075934455 0.36430794 -0.024839561 0.29617637 0.31411043
0.3284963 -0.012414965 -0.041669503 0.30886853 0.05957478 -0.048980515 -0.055015765 0.41440868
0.025048861 0.03166634 -0.03517029 -0.068501905 -0.06530084 0.07179291 0.013899725 -0.054249104
0.07619636 0.080907784 -0.01108951 0.023306955 0.0023480642 -0.022118907 -0.016525906 -0.06188901
0.03695617 0.08630109 0.07746217 0.0453779 -0.07218971 -0.04115211 -0.036034945 0.08604302
-0.07494053 0.06733367 -0.0717161 0.016533902 -0.073464066 -0.04825969 0.06323338 -0.043142494
-0.074661255 -0.07026653 -0.025739733 -0.056889374 -0.0062299995 -0.035199247 -0.080185324 0.054090083
0.01851373 0.07191307 -0.02170432 0.0025706417 -0.0015545549 -0.031221036 -0.07328962 -0.07442145
-0.050359152 -0.07534593 0.07456164 0.044065543 0.06138308 -0.08433767 -0.044555 0.016793864
-0.055698607 0.049950883 -0.007966112 -0.010416246 0.0014786273 0.059605937 0.03188211 -0.021692803
-0.04508049 0.06926632 -0.031995695 0.08793411 0.007121595 0.065643065 0.0029528502 0.057491735
-0.067862034 -0.019808745 -0.05363276 -0.06957338 -0.0704362 0.083347686 0.040731777 0.014772512
-0.00560689 0.011969199 -0.04939679 -0.05709266 -0.06308871 0.080477856 -0.055304524 -0.05448828
-0.041425135 -0.01195744 -0.080981635 0.06950526 -0.06222015 -0.04441929 -0.05636042 -0.02778415
-0.07306509 -0.02972066 -0.028431568 -0.072783016 -0.022372294 -0.0049919677 -0.010254634 -0.029324165
-0.014898142 -0.06642178 -0.070839055 -0.072863996 0.0476495 0.0047004484 -0.033332866 -0.053338207
-0.02958381 -0.019487744 -0.0071428157 -0.0802829 -0.05477864 0.08153259 -0.040863276 -0.010067965
0.04285131 0.086357065 -0.039226167 -0.005984589 0.048772186 0.021001078 0.04852586 0.03281754

output_net.0.bias f4 [64]
00000000: cb4b bd3e dd9b 173d 7598 ab3e 7780 e63e
00000010: af9b 7e3e 92ed 983e eb34 bf3d 8ec2 983e
00000020: d065 57bc cf63 7a3e 982a 203d d1f2 7fbd
00000030: beaa 9d3e 808a 723e e1a8 c9bc 2d28 d93e
00000040: 940b db3e 1753 64bd 7c76 04bc 770d a3bd
00000050: 1c70 4d3d ab15 d23e cf5f ec3d 2ebd 73bd
00000060: 247b 21bd 6c8c a03e f94e c5bd 1eed c5bc
00000070: 07d6 cc3e f6fa 7d3c 37e7 e73e 0f2c b63c
00000080: e901 ae3e dc2f e03e 363c 083f 8108 ab3e
00000090: e468 773e bc30 943e d617 c43e c9e3 42bd
000000a0: f1b9 183d 6bdb d23e 2399 e53e 151c 793d
000000b0: 5064 943d 3f8e 703e ff01 0c3d 3658 603d
000000c0: 21f2 043e 8294 ba3e b041 6e3d d5fc a23e
000000d0: 8894 d43e eaf6 073f db71 643d 6b95 b53e
000000e0: b55b c33a 24b3 cd3e 60fc 933d 3369 c33e
000000f0: 446d a03e a7c5 2fbd 6c43 e43e e713 da3e
0.36971888 0.037013877 0.33514753 0.45019886 0.24864076 0.29868752 0.09336265 0.29835933
-0.013146833 0.24452136 0.03910312 -0.062487427 0.30794328 0.23685646 -0.02461666 0.42413464
0.4278227 -0.055743303 -0.0080848895 -0.079615526 0.050155744 0.41032156 0.115417115 -0.059506588
-0.039424077 0.31357133 -0.096342035 -0.024160918 0.4000704 0.015501728 0.4529359 0.022237806
0.33985832 0.43786514 0.53216875 0.33404925 0.24161106 0.2894343 0.38299435 -0.047580514
0.037286703 0.41183028 0.44843397 0.060817797 0.072456956 0.23491763 0.03418159 0.054771625
0.1298299 0.36441427 0.058168113 0.3183352 0.4151957 0.53111136 0.055772644 0.3546556
0.001490465 0.40175736 0.07225871 0.38166198 0.31333363 -0.042913105 0.4458269 0.4259331

output_net.2.weight f4 [1, 64]
00000000: 5bab 1abf 04b7 ec3d 20bb 29bf b8d0 0dbf
00000010: 10ff 1ebf 3a77 2abf ce2c 913f 6481 14bf
00000020: 2a6b 913f 0b23 ab3f 3e41 ce3d 05e4 ae3f
00000030: 59e0 2dbf 6fe5 4440 b6b4 873f 6d27 27bf
00000040: 0313 2abf d81a c23d 6b6f 3f3d 9558 983d
00000050: 6a3e b13d 72c3 18bf fa89 893f 9e6f 9a3d
00000060: 7241 443d 4fd9 19bf 2e6d 853f 27cc eb3c
00000070: f634 1cbf b675 623f ba13 17bf 6858 1b3d
00000080: 220f 25bf 4465 1cbf 2efe 29bf 9a31 30bf
00000090: fc62 a33f 8962 2bbf beb4 11bf fe27 903f
000000a0: 191d aa3d 1632 2dbf cf9c 0fbf 5589 883f
000000b0: f3eb 913f 2893 9f3f 3f57 d63d b184 833f
000000c0: 8542 713f 69b8 28bf 253b 383d b613 29bf
000000d0: 2da8 20bf 72b0 1cbf b30d 813d 4417 23bf
000000e0: df9a 6f3d a174 0bbf 8b95 2f3d 840f 2dbf
000000f0: dd51 9240 7b29 ab3d 94c6 24bf 91de 32bf
-0.6041772 0.11558345 -0.66301155 -0.55396605 -0.62107944 -0.66588175 1.1341798 -0.58009934
1.1360829 1.3370069 0.10071038 1.3663336 -0.6792045 3.0765035 1.0602024 -0.65294534
-0.6643526 0.09477776 0.046737116 0.07438771 0.08654483 -0.59673226 1.0745232 0.075408205
0.047913976 -0.6009721 1.0423944 0.02878387 -0.6101831 0.8846086 -0.59014475 0.037926108
-0.64476216 -0.6109202 -0.6640347 -0.68825686 1.2764583 -0.6694723 -0.56916416 1.1262205
0.08306331 -0.6765455 -0.56098646 1.066691 1.1400131 1.2466784 0.104658596 1.0274869
0.94242126 -0.6590639 0.04497828 -0.660457 -0.62756616 -0.61206734 0.06301441 -0.63707376
0.058497306 -0.54474837 0.042867225 -0.676018 4.572493 0.08357521 -0.64365506 -0.6987086
