Q1/ckpt/critic2_ep100.pth (torch, 38344 bytes, 7 tensors)

state_net.0.weight f4 [64, 3]
-0.7982222 -0.7267706 0.29869738 0.60912406 1.4830981 0.34874764 -0.62751955 -0.48841548
-0.23410429 -1.0078886 1.0343609 0.40013632 -0.42695102 -1.3787669 0.42013907 -0.7367024
0.30182087 0.26369345 -0.42160392 -0.1311155 -0.24773985 -0.83470523 -0.76481205 -0.31049168
-0.86549234 -1.042113 0.14944412 -1.1955119 -0.250738 0.22501442 -0.7972333 0.4561574
0.26623857 -0.661455 -0.69970864 -0.49518147 -0.6745052 0.7729792 0.59957635 0.1016559
-1.5609595 -0.30758223 0.7733659 -1.9246385 -0.41579604 0.20266584 2.114171 0.42544708
-0.65075165 -1.0466064 0.6639312 0.35478106 -0.5836423 0.1734687 1.2631167 -0.28668565
0.10918331 -0.366082 -1.0112585 0.19228202 -0.75184035 0.61660755 -0.42169613 -0.9758602
-0.7362664 -0.37062046 -0.7282215 0.32737544 0.7297744 -0.57171094 1.5306169 0.35438424
-0.87715787 0.077542186 0.73336667 -0.9298565 0.3846345 0.33916426 -0.9960459 -0.58424455
-0.3651829 -1.1218429 0.7091786 0.38369322 -0.5081285 3.6873e-05 0.27300698 -1.0795017
0.88293487 0.3948432 -0.63115627 -1.8973813 -0.33909068 0.8818294 0.07203489 -0.1004016
1.684171 -0.71719366 -0.4097431 -0.8686688 -0.9378237 0.24196336 -0.22090617 0.7390496
-0.24695083 -1.4228554 -0.5877366 -0.5514398 -0.59397566 0.7228491 -0.27110747 -0.8818983
0.28809848 0.34892192 -0.7492881 -0.9261354 -0.3097769 -1.226733 -0.57503206 -0.30413842
-0.3335917 1.1544411 -0.035610713 -0.5789749 -0.020595491 0.69116265 -0.24873297 -0.22057901
-0.48702177 -0.9525566 -1.126124 0.26770404 -0.75907177 0.3707541 0.25167143 -0.6461883
-1.1202543 -0.32785225 -0.43055847 0.6279826 -0.5545406 -0.7660829 1.5124314 0.35920778
-0.85216135 -1.2653279 -0.38707888 -0.45574412 -0.19579509 0.7785296 -0.79131776 1.1308299
0.324031 0.6676023 -0.8932323 -0.04402572 -0.34384748 -0.66715825 0.46672416 -1.000776
0.91648585 0.51046616 -0.68164134 -0.12159264 -0.50816923 -1.4547496 -0.25537464 -0.46415013
-1.558613 0.42910996 -0.27973732 -0.6557774 0.79844 0.266636 -0.64548075 -0.342387
-0.26938087 -1.014606 0.8876504 -0.2315648 1.5688558 0.50469804 0.14452311 0.015480699
1.1825904 0.01352213 0.017862182 0.11650176 0.41649076 -0.17540357 1.7504618 0.3462558
00000000: 4a58 4cbf a30d 3abf ddee 983e 8eef 1b3f
00000010: 29d6 bd3f 0d8f b23e 1fa5 20bf 9811 fabe
00000020: 09b9 6fbe 7e02 81bf f065 843f abde cc3e
00000030: 5399 dabe 6f7b b0bf 781c d73e 8798 3cbf
00000040: 4488 9a3e d402 873e 78dc d7be 2443 06be
00000050: 84af 7dbe 3eaf 55bf b9ca 43bf c4f8 9ebe
00000060: e890 5dbf f563 85bf e107 193e 8906 99bf
00000070: bb60 80be 2e6a 663e 7b17 4cbf 768d e93e
00000080: 6c50 883e 1d55 29bf 1b20 33bf 6d88 fdbe
00000090: 5fac 2cbf f7e1 453f d67d 193f f830 d03d
000000a0: 85cd c7bf 6b7b 9dbe 4ffb 453f 8e5a f6bf
000000b0: 38e3 d4be a287 4f3e 944e 0740 33d4 d93e
000000c0: a997 26bf 33f7 85bf 65f7 293f dda5 b53e
000000d0: 9569 15bf c7a1 313e cfad a13f 76c8 92be
000000e0: 809b df3d 1a6f bbbe eb70 81bf 94e5 443e
000000f0: 9c78 40bf fed9 1d3f 8ee8 d7be f9d1 79bf
00000100: f47b 3cbf f7c1 bdbe b96c 3abf c19d a73e
00000110: 7fd2 3a3f a65b 12bf 41eb c33f da71 b53e
00000120: 6b8d 60bf 70ce 9e3d ebbd 3b3f 130b 6ebf
00000130: d0ee c43e f0a6 ad3e ddfc 7ebf 0d91 15bf
00000140: 41f9 babe 8c98 8fbf bb8c 353f 7073 c43e
00000150: b614 02bf 15a8 1a38 92c7 8b3e 1d2d 8abf
00000160: 0508 623f e328 ca3e 7593 21bf 64dd f2bf
00000170: 4b9d adbe 92bf 613f 0787 933d 5b9f cdbd
00000180: ea92 d73f 019a 37bf d9c9 d1be 1461 5ebf
00000190: 3715 70bf 3ec5 773e 3a35 62be 5b32 3d3f
000001a0: aee0 7cbe 2020 b6bf e875 16bf 292b 0dbf
000001b0: ca0e 18bf a30c 393f 99ce 8abe 16c4 61bf
000001c0: a581 933e e5a5 b23e 58d1 3fbf 3617 6dbf
000001d0: 149b 9ebe 9605 9dbf 4d35 13bf 08b8 9bbe
000001e0: 88cc aabe bac4 933f 8adc 11bd b337 14bf
000001f0: e0b7 a8bc 09f0 303f dbb3 7ebe 77df 61be
00000200: eb5a f9be c0da 73bf d524 90bf 8110 893e
00000210: 8752 42bf 7bd3 bd3e 14db 803e 996c 25bf
00000220: 7e64 8fbf 40dc a7be 2972 dcbe 78c3 203f
00000230: 5ff6 0dbf 021e 44bf 5a97 c13f 15ea b73e
00000240: 3f27 5abf 44f6 a1bf 342f c6be 4b57 e9be
00000250: 827e 48be b74d 473f cd93 4abf 09bf 903f
00000260: 64e7 a53e fce7 2a3f dfaa 64bf 5054 34bd
00000270: c70c b0be e2ca 2abf 78f6 ee3e 6e19 80bf
00000280: d19e 6a3f e9ad 023f 0c80 2ebf 9005 f9bd
00000290: 6117 02bf 3c35 babf 77c0 82be 16a5 edbe
000002a0: a180 c7bf 4db4 db3e bb39 8fbe 07e1 27bf
000002b0: 9066 4c3f 8484 883e 3a3e 25bf 594d afbe
000002c0: 4aec 89be 9cde 81bf 0e3d 633f 531f 6dbe
000002d0: 44d0 c83f e433 013f defd 133e c2a2 7d3c
000002e0: 1f5f 973f ed8b 5d3c b653 923c 7a98 ee3d
000002f0: 473e d53e fe9c 33be 220f e03f 7148 b13e

state_net.0.bias f4 [64]
-0.7320709 -0.6153534 0.84050995 1.0259404 1.7761638 0.9714042 1.2342902 0.99605465
0.5106596 0.25330734 0.8523575 -0.4724734 -0.5283945 0.108661294 -0.24852633 -0.3112204
-0.39517325 0.5676568 0.37537152 1.0547172 0.51046544 1.3473225 -0.43572983 -0.38318893
1.0563143 -0.82323885 1.4177616 1.1779095 1.3201985 1.1096859 -0.4583935 1.2762352
-0.90993345 0.646818 1.01158 0.180109 -0.040664155 1.4016697 0.8875025 -0.9718888
0.71325153 -0.2716826 0.6833347 0.6521436 0.849074 0.7872879 -0.2652154 0.39655653
1.0038931 -0.21150988 0.57662755 1.2386607 0.47616014 0.0014436985 -0.4755905 0.21114793
0.19015291 0.59187305 1.1604605 0.4058707 0.5363288 1.0877212 0.07503635 -0.05510676
00000000: 0069 3bbf cd87 1dbf a92b 573f 0452 833f
00000010: 5659 e33f f2ad 783f 39fd 9d3f 70fd 7e3f
00000020: 96ba 023f 80b1 813e 1a34 5a3f 09e8 f1be
00000030: dd44 07bf d089 de3d b07d 7ebe 4858 9fbe
00000040: 2654 cabe f551 113f b230 c03e f900 873f
00000050: ddad 023f 1075 ac3f fb17 dfbe 5731 c4be
00000060: 4f35 873f c8bf 52bf 3679 b53f bdc5 963f
00000070: 44fc a83f 300a 8e3f 8eb2 eabe ad5b a33f
00000080: 66f1 68bf dd95 253f 747b 813f 7e6e 383e
00000090: 758f 26bd ea69 b33f 5d33 633f b4cd 78bf
000000a0: a797 363f fb19 8bbe 06ef 2e3f e2f2 263f
000000b0: ea5c 593f b38b 493f 50ca 87be 7509 cb3e
000000c0: 927f 803f 0c96 58be dd9d 133f 6f8c 9e3f
000000d0: 43cb f33e 7c3a bd3a 9980 f3be 2a37 583e
000000e0: 72b7 423e fe84 173f f889 943f 49ce cf3e
000000f0: d84c 093f 733a 8b3f a8ac 993d a0b7 61bd

action_net.0.weight f4 [64, 1]
-0.9730239 -0.16324341 -0.2557088 0.13685268 0.06018102 0.68537766 -0.288005 0.033412926
0.41492736 -0.048014402 -0.6363907 0.6436214 -0.9474786 0.06727421 0.4803755 -0.50602055
0.74339044 0.6228317 0.8738633 0.7921766 -0.25503713 -0.03212583 0.62919176 -1.0129035
0.68268377 0.99594605 -0.64837426 -0.18994993 -0.10649815 -0.26601407 1.0448288 0.24223006
0.59872776 0.19088805 -0.87899613 0.10391128 0.17222059 -0.039551444 -0.6762638 -0.31535614
0.10328066 0.19323218 0.08966613 0.40111852 -0.20781302 -0.38246036 0.5320797 0.6501498
0.826174 -0.3227765 -0.55307114 0.91361743 0.0143041825 -0.22984564 0.33093008 0.5876202
0.5289788 -0.49309957 0.48087668 -0.8514312 0.32545114 -0.6347301 -0.9806982 -0.7484201
00000000: 1818 79bf 4829 27be 44ec 82be 1c23 0c3e
00000010: 6080 763d e974 2f3f 6475 93be fedb 083d
00000020: 5c71 d43e c0aa 44bd 80ea 22bf 5fc4 243f
00000030: f58d 72bf 10c7 893d c7f3 f53e 908a 01bf
00000040: d64e 3e3f e671 1f3f 81b5 5f3f 16cc 4a3f
00000050: 3a94 82be 6096 03bd b612 213f d2a6 81bf
00000060: 5dc4 2e3f 52f6 7e3f dbfb 25bf 3c82 42be
00000070: b41b dabd ff32 88be f3bc 853f 280b 783e
00000080: 3946 193f 2878 433e e405 61bf 70cf d43d
00000090: 985a 303e b200 22bd a01f 2dbf 5c76 a1be
000000a0: d084 d33d a8de 453e e0a2 b73d 685f cd3e
000000b0: f0cc 54be d8d1 c3be 6036 083f 3870 263f
000000c0: 2480 533f f642 a5be 1296 0dbf d5e2 693f
000000d0: 175c 6a3c a85c 6bbe ab6f a93e 476e 163f
000000e0: 286b 073f 8c77 fcbe 7835 f63e 65f7 59bf
000000f0: 88a1 a63e ac7d 22bf 0a0f 7bbf 7698 3fbf

action_net.0.bias f4 [64]
-0.666979 -0.20725071 -0.649711 1.0869027 -0.48115325 1.4435651 -0.38329542 1.2808511
-0.35013744 -0.122124195 0.9681503 0.7566164 0.8185812 -0.89275503 0.41976386 1.176087
-0.931473 -0.72170794 1.227138 -0.36189073 0.55402756 -0.9741827 0.8355295 -0.50915825
0.9486286 0.7885352 1.3294675 1.1925611 0.9629079 0.6591198 0.2652533 -0.26136887
-0.6068232 -0.6982384 1.056467 -0.720119 -0.7354337 1.0494045 -0.74206483 1.3944713
-0.97662437 0.55811 -0.5563369 -0.62021184 -0.8853539 -0.4537195 -0.4184244 -0.98683846
-0.38841575 -0.32136756 -0.7926768 -0.91358453 1.3745998 -0.36784518 0.6427017 0.6647605
1.1363543 -0.79316306 -0.81832206 0.9970577 -0.3611982 -0.96442235 -0.98136914 0.7850787
00000000: 23bf 2abf 8839 54be 7653 26bf a11f 8b3f
00000010: b859 f6be bec6 b83f 4c3f c4be eef2 a33f
00000020: 3745 b3be 401c fabd b3d8 773f 9db1 413f
00000030: 8a8e 513f 988b 64bf 4aeb d63e 058a 963f
00000040: 0475 6ebf dac1 38bf dc12 9d3f be49 b9be
00000050: c0d4 0d3f 0a64 79bf 43e5 553f 3258 02bf
00000060: 53d9 723f 71dd 493f fe2b aa3f d8a5 983f
00000070: 2281 763f 13bc 283f 48cf 873e 24d2 85be
00000080: c458 1bbf c0bf 32bf 503a 873f b859 38bf
00000090: 6245 3cbf e352 863f f6f7 3dbf 097e b23f
000000a0: 0e04 7abf 4ce0 0e3f 186c 0ebf 34c6 1ebf
000000b0: 8ea6 62bf ec4d e8be b93b d6be 72a1 7cbf
000000c0: 6ede c6be 4a8a a4be deec 4abf ade0 69bf
000000d0: e3f2 af3f 3456 bcbe 1988 243f be2d 2a3f
000000e0: 0f74 913f bc0c 4bbf 8e7d 51bf 2c3f 7f3f
000000f0: f8ee b8be 62e4 76bf 023b 7bbf ebfa 483f

output_net.0.weight f4 [64, 128]
-0.28177878 0.3811564 0.3478589 0.13436455 0.33250362 0.5026893 0.5623813 0.33128548
0.44059527 0.4648817 0.3165963 -0.07948445 -0.10598652 0.28729227 0.09619323 0.20712739
-0.04148894 0.06019914 0.7754246 0.33212122 0.14598103 0.335609 -0.02520482 -0.34112984
-0.023220016 -0.33281678 0.43971735 0.29572064 0.22835025 0.201364 -0.47928149 0.44013748
0.74742436 0.37675527 0.18439588 0.06237357 -0.0077053634 0.35994816 0.24486402 -0.3559711
0.27882627 -0.10329017 0.058878526 0.4483175 0.35965645 0.22801052 -0.18190718 0.27561015
0.16807349 -0.013203669 0.26837304 0.3832138 0.00681429 -0.00031928124 -0.023586512 0.02260973
0.43643862 0.31717694 0.4943189 0.3634408 0.5397541 0.35628188 -0.13174993 0.20381942
-0.10663538 -0.07060499 -0.040328264 0.29550287 -0.034027457 0.32817322 -0.05372052 0.40277782
-0.03124338 0.033791635 0.36726448 0.3363782 0.3554009 -0.009241002 0.12127508 0.3950794
-0.016633138 -0.040897153 0.30318847 0.02376152 0.46880308 -0.038241047 0.32328293 -0.024233477
0.35307583 0.3585397 0.26147893 0.33863416 0.3962053 0.3520113 0.08018499 -0.005202786
0.049954023 -0.06536521 0.31037846 0.060138885 0.03318025 0.41261932 -0.004248265 0.3144169
0.04773398 0.39555255 0.073327415 -0.023269065 -0.05843727 0.03248284 -0.072100975 -0.018600099
0.014652105 -0.062173933 -0.06358492 0.075934455 0.3493954 -0.024839561 0.28200033 0.3008692
0.3140479 -0.012414965 -0.041669503 0.29508403 0.05957478 -0.048980515 -0.055015765 0.4008898
0.025048861 0.03166634 -0.03517029 -0.068501905 -0.06530084 0.07179291 0.013899725 -0.054249104
0.07619636 0.080907784 -0.01108951 0.023306955 0.0023480642 -0.022118907 -0.016525906 -0.06188901
0.03695617 0.08630109 0.07746217 0.0453779 -0.07218971 -0.04115211 -0.036034945 0.08604302
-0.07494053 0.06733367 -0.0717161 0.016533902 -0.073464066 -0.04825969 0.06323338 -0.043142494
-0.074661255 -0.07026653 -0.025739733 -0.056889374 -0.0062299995 -0.035199247 -0.080185324 0.054090083
0.01851373 0.07191307 -0.02170432 0.0025706417 -0.0015545549 -0.031221036 -0.07328962 -0.07442145
-0.050359152 -0.07534593 0.07456164 0.044065543 0.06138308 -0.08433767 -0.044555 0.016793864
-0.055698607 0.049950883 -0.007966112 -0.010416246 0.0014786273 0.059605937 0.03188211 -0.021692803
-0.04508049 0.06926632 -0.031995695 0.08793411 0.007121595 0.065643065 0.0029528502 0.057491735
-0.067862034 -0.019808745 -0.05363276 -0.06957338 -0.0704362 0.083347686 0.040731777 0.014772512
-0.00560689 0.011969199 -0.04939679 -0.05709266 -0.06308871 0.080477856 -0.055304524 -0.05448828
-0.041425135 -0.01195744 -0.080981635 0.06950526 -0.06222015 -0.04441929 -0.05636042 -0.02778415
-0.07306509 -0.02972066 -0.028431568 -0.072783016 -0.022372294 -0.0049919677 -0.010254634 -0.029324165
-0.014898142 -0.06642178 -0.070839055 -0.072863996 0.0476495 0.0047004484 -0.033332866 -0.053338207
-0.02958381 -0.019487744 -0.0071428157 -0.0802829 -0.05477864 0.08153259 -0.040863276 -0.010067965
0.04285131 0.086357065 -0.039226167 -0.005984589 0.048772186 0.021001078 0.04852586 0.03281754
00000000: 4f45 90be ef26 c33e 901a b23e dc96 093e
00000010: ea3d aa3e 3fb0 003f 39f8 0f3f 409e a93e
00000020: b495 e13e f904 ee3e e918 a23e bec8 a2bd
00000030: 760f d9bd f917 933e f500 c53d 3419 543e
00000040: 4ff0 29bd 6093 763d 3a82 463f cb0b aa3e
00000050: 0d7c 153e f1d4 ab3e 577a cebc 92a8 aebe
00000060: e737 bebc f666 aabe a222 e13e b268 973e
00000070: a6d4 693e 5d32 4e3e 6264 f5be b359 e13e
00000080: 3457 3f3f 11e6 c03e 46d2 3c3e 6e7b 7f3d
00000090: 467d fcbb 204b b83e a2bd 7a3e d841 b6be
000000a0: 51c2 8e3e cc89 d3bd 9c2a 713d df89 e53e
000000b0: e424 b83e 977b 693e e045 3abe c61c 8d3e
000000c0: 751b 2c3e 3454 58bc 3168 893e 9934 c43e
000000d0: 684a df3b 3465 a7b9 8038 c1bc 0a38 b93c
000000e0: e274 df3e 0465 a23e 5e17 fd3e ea14 ba3e
000000f0: 532d 0a3f 946a b63e 74e9 06be 0ab6 503e
00000100: a663 dabd 5999 90bd 402f 25bd 274c 973e
00000110: 6060 0bbd 5206 a83e 0c0a 5cbd e538 ce3e
00000120: 1ef2 ffbc 1969 0a3d 170a bc3e c339 ac3e
00000130: 1bf7 b53e 9267 17bc 125f f83d d947 ca3e
00000140: 3842 88bc c683 27bd 853b 9b3e 85a7 c23c
00000150: f506 f03e a5a2 1cbd 5785 a53e 4985 c6bc
00000160: 5bc6 b43e 8492 b73e 91e0 853e 7561 ad3e
00000170: 6cdb ca3e d33a b43e 0738 a43d 227c aabb
00000180: 979c 4c3d 32de 85bd ede9 9e3e 3154 763d
00000190: 04e8 073d d742 d33e 0835 8bbb 40fb a03e
000001a0: b584 433d dd85 ca3e af2c 963d c49e bebc
000001b0: eb5b 6fbd ba0c 053d ada9 93bd 3c5f 98bc
000001c0: 620f 703c 18aa 7ebd cf38 82bd 8683 9b3d
000001d0: f4e3 b23e 567c cbbc 5962 903e 870b 9a3e
000001e0: e3ca a03e 2368 4bbc a4ad 2abd 4115 973e
000001f0: af04 743d cb9f 48bd 3658 61bd 6e41 cd3e
00000200: 4533 cd3c 90b4 013d b90e 10bd ba4a 8cbd
00000210: 72bc 85bd 2908 933d acbb 633c 4f34 5ebd
00000220: d60c 9c3d fbb2 a53d c7b0 35bc 3aee be3c
00000230: fbe1 193b b632 b5bc 5661 87bc 557f 7dbd
00000240: 5a5f 173d a0be b03d 7ca4 9e3d 2dde 393d
00000250: 33d8 93bd 1d8f 28bd 6199 13bd 5337 b03d
00000260: 6c7a 99bd 3ce6 893d e4df 92bd 1b72 873c
00000270: 5474 96bd f4ab 45bd 8180 813d 2fb6 30bd
00000280: 00e8 98bd e6e7 8fbd 22dc d2bc d504 69bd
00000290: 0625 ccbb 162d 10bd 3438 a4bd 908d 5d3d
000002a0: 1baa 973c 2947 933d 42cd b1bc 3678 283b
000002b0: 35c2 cbba 42c3 ffbc de18 96bd 466a 98bd
000002c0: 6645 4ebd f84e 9abd c6b3 983d 127e 343d
000002d0: d36c 7b3d 3ab9 acbd 4e7f 36bd 4993 893c
000002e0: 3924 64bd 4c99 4c3d 4c84 02bc e7a8 2abc
000002f0: 80ce c13a 5b25 743d d196 023d 1bb5 b1bc
00000300: 52a6 38bd 80db 8d3d eb0d 03bd cc16 b43d
00000310: 455c e93b df6f 863d 9b84 413b 747c 6b3d
00000320: 40fb 8abd f345 a2bc 06ae 5bbd 7d7c 8ebd
00000330: db40 90bd 31b2 aa3d 5dd6 263d 6808 723c
00000340: 01ba b7bb 761a 443c 4a54 4abd fed9 69bd
00000350: a734 81bd 93d1 a43d ff86 62bd 1a2f 5fbd
00000360: 67ad 29bd 23e9 43bc b3d9 a5bd c658 8e3d
00000370: 8eda 7ebd 00f1 35bd 2fda 66bd 969b e3bc
00000380: 26a3 95bd be78 f3bc 52e9 e8bc 430f 95bd
00000390: 1a46 b7bc a993 a3bb 0d03 28bc 3b39 f0bc
000003a0: 5617 74bc 2408 88bd 1114 91bd b839 95bd
000003b0: 1f2c 433d 3806 9a3b 0b88 08bd 2a79 5abd
000003c0: bf59 f2bc c3a4 9fbc 480e eabb 5c6b a4bd
000003d0: 915f 60bd 8ffa a63d 4060 27bd 1bf4 24bc
000003e0: db84 2f3d f9db b03d 9eab 20bd 5f1a c4bb
000003f0: 58c5 473d 740a ac3c 0dc3 463d af6b 063d

output_net.0.bias f4 [64]
0.3545706 0.037013877 0.319979 0.43507344 0.2334853 0.28352007 0.09273748 0.2832177
-0.04184812 0.22748382 0.03910312 -0.052496932 0.29276913 0.20389684 0.016504433 0.40897247
0.41265237 -0.055743303 -0.0080848895 -0.079615526 0.050155744 0.3951772 0.09839328 -0.059506588
-0.039424077 0.2984258 -0.07016618 -0.024160918 0.38491717 0.00045348346 0.4377938 0.022237806
0.32469594 0.4227165 0.5170048 0.3188776 0.19716714 0.27426395 0.36785623 -0.058163654
0.037286703 0.39666235 0.4333039 0.034243513 0.060982615 0.21573772 0.03418159 0.044124473
0.10768939 0.34924716 0.058168113 0.30316848 0.40004086 0.51596105 0.055772644 0.33949226
0.001490465 0.38662726 0.07225871 0.36649275 0.28444803 -0.042913105 0.43066677 0.4107531
00000000: 478a b53e dd9b 173d 4ad4 a33e f2c1 de3e
00000010: c516 6f3e 8b29 913e 26ed bd3d e901 913e
00000020: ef68 2bbd 85f1 683e 982a 203d 0607 57bd
00000030: d6e5 953e 55ca 503e 4e34 873c d764 d13e
00000040: 2c47 d33e 1753 64bd 7c76 04bc 770d a3bd
00000050: 1c70 4d3d aa54 ca3e 6a82 c93d 2ebd 73bd
00000060: 247b 21bd 44cb 983e 49b3 8fbd 1eed c5bc
00000070: dd13 c53e 85c1 ed39 8226 e03e 0f2c b63c
00000080: 8c3e a63e 4c6e d83e 6d5a 043f ed43 a33e
00000090: 2fe6 493e 536c 8c3e a757 bc3e 033d 6ebd
000000a0: f1b9 183d 5417 cb3e 02da dd3e ed42 0c3d
000000b0: e8c8 793d 59ea 5c3e ff01 0c3d ddbb 343d
000000c0: 418c dc3d 86d0 b23e b041 6e3d e638 9b3e
000000d0: 28d2 cc3e 0616 043f db71 643d eed1 ad3e
000000e0: b55b c33a 02f4 c53e 60fc 933d f0a4 bb3e
000000f0: 2ca3 913e a7c5 2fbd 5b80 dc3e 3b4e d23e

output_net.2.weight f4 [1, 64]
-0.5655865 0.11558345 -0.62305367 -0.51632833 -0.581478 -0.62636316 1.0543503 -0.5399444
1.0214559 1.106046 0.10071038 1.2647942 -0.6382815 2.4879103 0.9784437 -0.61399674
-0.62324363 0.09477776 0.046737116 0.07438771 0.08654483 -0.55789006 1.019264 0.075408205
0.047913976 -0.56136775 0.9086674 0.02878387 -0.57001954 0.7683438 -0.5508166 0.037926108
-0.6053132 -0.5724607 -0.6253863 -0.649408 1.1956688 -0.6288485 -0.5296049 1.0029452
0.08306331 -0.63785726 -0.5227918 0.91174674 1.0540876 1.1800317 0.104658596 0.9539885
0.8565225 -0.61917883 0.04497828 -0.6203646 -0.5889239 -0.5723004 0.06301441 -0.59577465
0.058497306 -0.5047743 0.042867225 -0.63666815 3.290837 0.08357521 -0.6041532 -0.65716076
00000000: 47ca 10bf 04b7 ec3d 7280 1fbf 182e 04bf
00000010: bedb 14bf 5659 20bf f3f4 863f cc39 0abf
00000020: 11bf 823f ea92 8d3f 3e41 ce3d c7e4 a13f
00000030: 6b66 23bf ec39 1f40 497b 7a3f e42e 1dbf
00000040: e58c 1fbf d81a c23d 6b6f 3f3d 9558 983d
00000050: 6a3e b13d e2d1 0ebf 3e77 823f 9e6f 9a3d
00000060: 7241 443d ccb5 0fbf 6d9e 683f 27cc eb3c
00000070: cdec 11bf 2eb2 443f 5102 0dbf 6858 1b3d
00000080: cef5 1abf c98c 12bf 5119 20bf 9a3f 26bf
00000090: ad0b 993f 37fc 20bf 3094 07bf 8260 803f
000000a0: 191d aa3d 9d4a 23bf afd5 05bf 3c68 693f
000000b0: 58ec 863f 470b 973f 3f57 d63d 9738 743f
000000c0: 0f45 5b3f 8182 1ebf 253b 383d 37d0 1ebf
000000d0: b7c3 16bf 4782 12bf b30d 813d b084 18bf
000000e0: df9a 6f3d e338 01bf 8b95 2f3d affc 22bf
000000f0: 139d 5240 7b29 ab3d c9a9 1abf b03b 28bf
