Q1/ckpt/critic1_ep350.pth (torch, 38344 bytes, 7 tensors)

state_net.0.weight f4 [64, 3]
-0.7126157 1.6856565 0.39882508 -0.46835133 0.9928666 -0.115482025 -0.5593719 -0.12770842
-0.20029834 0.5523402 0.40141696 0.7809844 -0.47265333 0.7326476 -0.5045816 -0.7182613
-1.8707848 -0.3806557 -1.036262 -0.3971072 -0.3488028 -1.374543 0.19857197 -0.18703414
-1.3740126 -1.6435724 -0.48535377 -0.6210208 -0.08142316 -0.22122963 -0.87685263 -1.6308819
-0.37840888 -0.86245877 0.15707022 0.2600354 -0.92675173 -0.8186359 0.15977967 -0.290314
-1.1032208 0.19716044 -1.2139138 1.8629409 0.3868839 -0.23219375 -1.4449818 -0.6502469
-1.1345749 -2.1293 -0.5390891 0.8135825 -0.60486495 0.42458838 -0.3717521 0.03124693
-0.723966 -1.2321329 1.2481457 0.37267017 -1.0016767 0.8306123 0.279186 -0.9857361
1.8168309 0.46557298 0.62729174 1.1109693 0.03228143 -0.9870615 0.3094949 0.52481616
-0.47549176 0.10429125 0.23869772 0.89490044 1.8329012 0.41227567 1.0212617 2.5682402
0.5588133 0.056225654 2.7292683 0.5625918 1.2706853 0.49784014 0.20743914 1.4631946
-0.8934854 -0.30834454 -1.140215 -0.59920496 -0.28815633 -0.69254106 0.12645544 0.22346433
-0.891535 1.7512738 -0.12813818 -0.6626571 -0.14554755 -0.18575966 -0.13716774 -0.13898157
0.17095385 -1.2678878 1.4371974 0.41560003 -0.67152643 0.4223516 -0.5212 -1.0290726
1.4058084 0.3697043 1.296212 -0.8410424 -0.052818634 -0.94088346 -1.706034 0.13839062
-0.33642343 0.15574756 -0.41099742 -0.76112795 -0.17974703 -0.27325478 -0.6567992 1.0762608
0.8441994 -0.7108828 -0.60584456 0.21083212 0.94922835 -2.858604 -0.6599108 -1.0620109
1.6914725 0.4491793 -0.10869124 0.8483767 -0.56433 -0.44263688 -0.8754421 0.45266178
0.6222478 0.8920695 0.62719834 -0.5559445 -2.7482648 -0.52442694 -1.0892755 -1.7138231
-0.4250296 -0.20746848 -0.10392077 0.4976585 -0.75157964 -0.19354565 -0.27117258 -0.66117924
0.11833604 0.22786051 0.22583655 0.59979045 0.104144014 -0.744166 -0.18338081 -0.23394784
-0.94321626 1.0548508 -0.24134563 -1.4706733 1.9876617 0.5451717 -0.7217593 -2.4993665
-0.55950415 1.3070039 1.2595794 0.41922393 0.935194 -0.9695453 -0.08636746 -0.39363128
-1.091704 0.35924053 -1.0960753 -0.07980309 0.0036026726 0.23984651 -2.8229454 -0.5670503
00000000: fc6d 36bf 98c3 d73f cd32 cc3e bfcb efbe
00000010: 812c 7e3f d781 ecbd ff32 0fbf ffc5 02be
00000020: 021b 4dbe 2b66 0d3f 8686 cd3e 98ee 473f
00000030: 9eff f1be cb8e 3b3f 422c 01bf f9df 37bf
00000040: e075 efbf 4ee5 c2be 3ca4 84bf a351 cbbe
00000050: 4896 b2be 06f1 afbf 7356 4b3e e185 3fbe
00000060: a5df afbf 9560 d2bf 4a80 f8be 38fb 1ebf
00000070: 30c1 a6bd 058a 62be 6a79 60bf bdc0 d0bf
00000080: cfbe c1be 19ca 5cbf 04d7 203e 5c23 853e
00000090: 9a3f 6dbf 1f92 51bf 489d 233e 09a4 94be
000000a0: 5736 8dbf 6de4 493e 8761 9bbf d974 ee3f
000000b0: a615 c63e 33c4 6dbe 2af5 b8bf 9576 26bf
000000c0: c039 91bf 7446 08c0 be01 0abf f146 503f
000000d0: 6ed8 1abf a663 d93e 4b56 bebe 90f9 ff3c
000000e0: d655 39bf 88b6 9dbf 3dc3 9f3f a0ce be3e
000000f0: f136 80bf 02a3 543f 78f1 8e3e 3359 7cbf
00000100: ea8d e83f 955f ee3e 3196 203f 3e34 8e3f
00000110: 8839 043d 10b0 7cbf 1e76 9e3e 5a5a 063f
00000120: a873 f3be a796 d53d 2d6d 743e 3218 653f
00000130: 829c ea3f cc15 d33e b4b8 823f 0c5e 2440
00000140: 630e 0f3f df4c 663d 55ac 2e40 0406 103f
00000150: d1a5 a23f e7e4 fe3e ed6a 543e f649 bb3f
00000160: 76bb 64bf 56df 9dbe 91f2 91bf 7f65 19bf
00000170: 3a89 93be 5f4a 31bf 897d 013e d5d3 643e
00000180: a33b 64bf bd29 e03f a836 03be e5a3 29bf
00000190: 6b0a 15be c837 3ebe b375 0cbe 2f51 0ebe
000001a0: 870e 2f3e 264a a2bf 16f6 b73f 87c9 d43e
000001b0: 28e9 2bbf 783e d83e 5d6d 05bf a7b8 83bf
000001c0: 88f1 b33f e249 bd3e 46ea a53f 8e4e 57bf
000001d0: 5a58 58bd bddd 70bf 525f dabf 45b6 0d3e
000001e0: b13f acbe 4a7c 1f3e 416e d2be 48d9 42bf
000001f0: 9b0f 38be 0de8 8bbe fe23 28bf eac2 893f
00000200: 741d 583f 6afc 35bf a118 1bbf 60e4 573e
00000210: a100 733f 5ef3 36c0 eaef 28bf f9ef 87bf
00000220: 2c82 d83f d4fa e53e 8399 debd 372f 593f
00000230: ee77 10bf 4da1 e2be f91c 60bf 49c3 e73e
00000240: a24b 1f3f ab5e 643f 1290 203f 6152 0ebf
00000250: 92e3 2fc0 d840 06bf 616d 8bbf 8e5e dbbf
00000260: 7b9d d9be 9e72 54be 6ad4 d4bd 18cd fe3e
00000270: 8667 40bf d530 46be 22d7 8abe 0b43 29bf
00000280: 2a5a f23d 4454 693e b241 673e de8b 193f
00000290: 7549 d53d aa81 3ebf 2ec8 3bbe 0690 6fbe
000002a0: 9f76 71bf 5a05 873f 4f23 77be 063f bcbf
000002b0: b36b fe3f 5f90 0b3f 38c5 38bf 9ff5 1fc0
000002c0: aa3b 0fbf e74b a73f e639 a13f 85a4 d63e
000002d0: e068 6f3f 1f34 78bf 6ce1 b0bd 0a8a c9be
000002e0: f5bc 8bbf 60ee b73e 324c 8cbf cd6f a3bd
000002f0: d11a 6c3b 539a 753e 23ab 34c0 352a 11bf

state_net.0.bias f4 [64]
0.62314624 1.0468756 1.0190814 0.69882876 -0.5793168 0.4940573 1.6268861 0.5211492
0.64434874 1.1831523 0.72465897 1.2912946 0.95031446 1.2388396 0.54432714 -0.6898189
0.35207164 2.0872056 1.326675 1.1258997 0.925597 0.8721265 0.9386555 -0.44547492
1.2804716 -0.07075963 -0.81104875 -0.1333673 0.894982 -1.3822696 1.1967034 1.1144112
0.7592011 0.95525175 1.1815395 1.1506437 -0.4786903 0.9325472 0.77130175 0.98046005
-0.41420603 1.3848925 -0.5207166 0.7230283 -0.8447193 0.9492593 0.8903544 -0.4001121
0.42067787 0.284684 0.9305582 -0.23883912 1.3591497 1.1404576 0.9718309 1.1805652
0.8933456 0.500282 -0.11878105 -1.286939 0.86057705 -0.78124094 -0.37563348 -0.44735387
00000000: 8386 1f3f 0500 863f 4271 823f 71e6 323f
00000010: 1b4e 14bf 14f5 fc3e ce3d d03f 096a 053f
00000020: 0af4 243f 8971 973f 4083 393f 2449 a53f
00000030: cf47 733f 4c92 9e3f 0659 0b3f f997 30bf
00000040: bc42 b43e c794 0540 7dd0 a93f 7b1d 903f
00000050: edf3 6c3f af43 5f3f ba4b 703f 4a15 e4be
00000060: 7ee6 a33f 6dea 90bd e4a0 4fbf 7091 08be
00000070: 8a1d 653f 36ee b0bf 942d 993f 07a5 8e3f
00000080: 015b 423f 618b 743f b03c 973f 4b48 933f
00000090: e516 f5be 6abb 6e3f 0874 453f 6eff 7a3f
000000a0: d012 d4be 2844 b13f af4d 05bf 6218 393f
000000b0: 863f 58bf a802 733f 44ee 633f 7edb ccbe
000000c0: 1763 d73e 1ac2 913e 1039 6e3f 3e92 74be
000000d0: 9ef8 ad3f 84fa 913f e9c9 783f c31c 973f
000000e0: 4cb2 643f 7b12 003f 7b43 f3bd 6bba a4bf
000000f0: c74e 5c3f 68ff 47bf 0853 c0be 910b e5be

action_net.0.weight f4 [64, 1]
-1.2190315 -0.92657787 0.107094765 -0.06865158 -0.3731857 -0.63550043 0.7589593 0.5206878
-0.37169302 -0.048388764 1.1009976 0.3905574 -0.3992723 -0.1718889 0.9833687 -0.70761716
-0.060369372 0.4607086 0.4397354 0.3135086 0.073687434 -0.3981024 0.52425766 0.4361155
0.8192895 -0.8353225 0.70579994 -0.32906187 0.7384767 -0.97801673 -1.0492427 1.0749543
-1.1374407 -0.28585568 0.085497014 -0.4609319 -0.44518062 -0.4935049 0.1345222 0.3799951
0.4513716 0.048307776 -0.7535719 0.7063259 0.5517883 -0.8385313 -0.8594384 -0.6700667
0.082555376 -0.82849365 -0.8802238 -0.7532425 0.3785795 0.5303357 0.35942626 0.052658185
-0.78713965 0.99486834 0.6535312 1.1886553 0.7696302 -0.43460178 -0.47303566 1.4194027
00000000: 3909 9cbf 3534 6dbf 8054 db3d 3399 8cbd
00000010: 3212 bfbe 28b0 22bf 284b 423f cc4b 053f
00000020: 8c4e bebe 4c33 46bd 7ded 8c3f 24f7 c73e
00000030: 6b6d ccbe a503 30be 0dbe 7b3f 6626 35bf
00000040: e045 77bd ffe1 eb3e 0025 e13e 3384 a03e
00000050: 70e9 963d 14d4 cbbe c035 063f 884a df3e
00000060: f5bc 513f b2d7 55bf 4eaf 343f cc7a a8be
00000070: cf0c 3d3f 4e5f 7abf 964d 86bf 1a98 893f
00000080: a897 91bf ad5b 92be 0f19 af3d 44ff ebbe
00000090: b7ee e3be adac fcbe 30c0 093e b88e c23e
000000a0: 2e1a e73e 60de 453d 17ea 40bf c6d1 343f
000000b0: ff41 0d3f fda9 56bf 2804 5cbf 7e89 2bbf
000000c0: cb12 a93d 2918 54bf 5956 61bf 80d4 40bf
000000d0: 2cd5 c13e 15c4 073f b806 b83e 1cb0 573d
000000e0: fc81 49bf b1af 7e3f d24d 273f db25 983f
000000f0: 7c06 453f 2084 debe bb31 f2be fdae b53f

action_net.0.bias f4 [64]
0.055531535 -0.45613468 -0.4370036 1.1633989 0.7158342 -0.9776149 -0.3886619 1.1381466
-0.5524082 1.2371047 0.70136803 -0.39127722 0.7131287 0.55866855 0.77504826 0.9360146
-0.34713614 1.0965284 -0.87090504 0.5146464 -0.73088086 0.713905 1.4907635 -0.45903432
0.9584141 1.2684327 -0.47541708 -0.3179003 0.8926353 0.3066144 -0.6622704 -0.3796428
-0.8748313 1.3922843 1.2241957 1.293854 1.1119438 0.8739911 0.2725525 0.70347214
1.0732589 -0.679194 1.1249949 0.8660745 0.79849863 1.3110151 -0.89789426 -0.7644907
1.0598625 1.3898596 -0.116536856 -0.9290012 0.65599734 0.97361684 -0.610384 1.0545166
0.84015834 0.20308067 1.3031573 0.17375764 -0.94161224 0.8076565 1.3586488 0.385691
00000000: 0975 633d 7c8a e9be f0be dfbe 41ea 943f
00000010: e940 373f f844 7abf b1fe c6be caae 913f
00000020: a06a 0dbf 7259 9e3f db8c 333f 7d55 c8be
00000030: 9a8f 363f e704 0f3f 9069 463f a79e 6f3f
00000040: d4bb b1be 0b5b 8c3f a2f3 5ebf debf 033f
00000050: 021b 3bbf 7ac2 363f 57d1 be3f 8c06 ebbe
00000060: a05a 753f 015c a23f de69 f3be d4c3 a2be
00000070: bf83 643f 90fc 9c3e 8e8a 29bf 8b60 c2be
00000080: f2f4 5fbf 5f36 b23f 72b2 9c3f 029d a53f
00000090: 2d54 8e3f e1bd 5f3f 008c 8b3e c016 343f
000000a0: 8c60 893f a8df 2dbf d5ff 8f3f 0fb7 5d3f
000000b0: 686a 4c3f 58cf a73f 66dc 65bf aab5 43bf
000000c0: 93a9 873f ebe6 b13f e0aa eebd 06d3 6dbf
000000d0: 71ef 273f f43e 793f 2042 1cbf 66fa 863f
000000e0: 9e14 573f 61f4 4f3e dccd a63f 86ed 313e
000000f0: 800d 71bf 94c2 4e3f 34e8 ad3f 4a79 c53e

output_net.0.weight f4 [64, 128]
0.04636759 -0.08871589 -0.06186481 0.05266745 0.05917524 0.049852777 0.034572445 -0.0104969675
-0.003616598 -0.04611777 0.071453825 -0.077315494 0.045364507 0.022820953 0.0170912 0.069831245
-0.017768586 -0.064810924 -0.008177721 0.00041591562 0.046680223 -0.028914781 -0.038947333 -0.082333654
-0.013332492 -0.02570742 0.012352641 0.040985376 0.03719228 0.029652776 -0.07889428 0.031339172
-0.047098096 0.061881073 -0.081893384 0.0048341486 -0.028622892 -0.049814604 -0.06391735 0.06843297
-0.03447942 -0.04298356 0.07610506 -0.026609128 0.03639772 -0.07922201 0.049602643 -0.06905745
0.035449386 -0.09038008 0.019235319 -0.00056200713 -0.025443446 -0.01328487 0.035590917 0.01331623
-0.048599046 -0.081154145 -0.06340081 -0.084737524 0.018654017 -0.04800961 0.032258555 -0.073771074
-0.054637294 -0.027372116 0.069896 0.020309383 -0.07598496 -0.04803059 0.07045208 0.047164686
0.08402318 -0.07864231 -0.031800695 0.07738626 -0.07792193 0.0036785712 -0.050535005 -0.05365683
0.06496375 0.0002182165 0.0067987503 -0.039538693 0.07044981 -0.0052146856 0.014109778 0.06355144
0.0031678393 -0.06127288 -0.052199863 0.060777765 0.035563666 -0.089374565 -0.019823901 -0.040395625
-0.04101925 -0.069227524 -0.008141111 0.0034975403 0.029100478 -0.082459055 -0.019368526 0.05503426
0.046626784 0.04015737 -0.049654726 -0.06631855 -0.025761398 -0.00053537864 0.032747563 -0.046160143
0.075007506 0.048391327 0.06491437 0.08751369 0.07446685 -0.061197307 -0.018111933 0.042451758
0.05589635 -0.046855878 -0.080858946 -0.090454526 -0.07494537 0.005963204 0.01629404 -0.076851286
0.45519936 0.5652715 0.50804234 -0.11840588 -0.50453204 0.5580917 0.38071722 0.86206156
-0.84885716 0.5547556 0.6252186 0.3850922 0.6562081 0.6478735 -0.49663284 -0.26029894
-0.5182048 0.20175202 -0.22075744 0.14953367 0.5157418 0.394165 0.38512877 -0.2056671
0.49822882 -0.41229016 0.8899466 0.45408368 0.5244593 1.3981253 0.5814974 0.57927275
0.68412024 0.46469802 0.5720897 0.29379022 -0.30948427 0.31822875 0.38861164 0.64414656
-0.28038132 0.22936863 -0.36796835 0.60820585 0.66777956 0.22417411 -0.29062572 -0.4600989
-0.14195389 0.6728341 0.6541222 -0.3907059 0.43760738 0.57614017 0.29501045 0.57451415
0.4873528 -0.69043595 -1.1120862 1.4751087 0.2455126 -0.69296074 0.7775446 0.66093665
-0.021517647 -0.18132348 -0.02921864 0.29666403 0.27939406 0.059255823 0.07476206 0.32806855
0.022209534 0.29240847 0.15073703 -0.014295518 0.3275665 0.3399375 0.17665052 0.24197823
-0.065197326 0.40860924 -0.04231725 0.22194491 0.013662723 0.22779073 0.4215244 -0.059041686
0.28319576 0.30311453 -0.13789357 -0.15508853 0.2621514 -0.013231238 -0.11928952 0.0031452382
-0.23831229 0.40351403 0.3128556 0.35928124 0.25691074 0.37969545 0.029675046 0.25656873
0.34511 -0.068156056 0.21531808 0.32147476 0.346042 0.25868854 0.04522026 -0.07887542
0.3637005 0.35382774 -0.043760054 0.0106662605 0.35401553 0.30689234 -0.0412723 0.28372574
0.24004301 -0.020148225 0.3815999 0.09081596 0.035865113 0.35416105 0.34430835 0.019304669
00000000: f1eb 3d3d adb0 b5bd f465 7dbd d3b9 573d
00000010: bd61 723d 6d32 4c3d d69b 0d3d 79fb 2bbc
00000020: 7204 6dbb fde5 3cbd 6256 923d 9657 9ebd
00000030: 22d0 393d 02f3 ba3c d802 8c3c af03 8f3d
00000040: 6d8f 91bc 97bb 84bd d9fb 05bc 400f da39
00000050: c333 3f3d b1de ecbc 3d87 1fbd 8c9e a8bd
00000060: 8670 5abc 5e98 d2bc bb62 4a3c 48e0 273d
00000070: ef56 183d 61ea f23c 5393 a1bd 815d 003d
00000080: efe9 40bd 0277 7d3d b8b7 a7bd c767 9e3b
00000090: 8e7a eabc 660a 4cbd 19e7 82bd 9626 8c3d
000000a0: 4b3a 0dbd 880f 30bd f8dc 9b3d 63fb d9bc
000000b0: c715 153d 263f a2bd 242c 4b3d fe6d 8dbd
000000c0: 6033 113d 3119 b9bd 6393 9d3c a953 13ba
000000d0: c66e d0bc c9a8 59bc c8c7 113d 512c 5a3c
000000e0: cb0f 47bd 2534 a6bd 49d8 81bd de8a adbd
000000f0: 4fd0 983c baa5 44bd 8c21 043d 4a15 97bd
00000100: 5bcb 5fbd 7d3b e0bc a225 8f3d dd5f a63c
00000110: 019e 9bbd b9bb 44bd 2e49 903d c22f 413d
00000120: 5814 ac3d 380f a1bd 7241 02bd b07c 9e3d
00000130: 8895 9fbd 2f14 713b cbfd 4ebd 44c7 5bbd
00000140: b70b 853d 0cd1 6439 0dc8 de3b 53f3 21bd
00000150: fd47 903d f4df aabb b32c 673c 4227 823d
00000160: 869b 4f3b 45f9 7abd 86cf 55bd 1bf2 783d
00000170: 35ab 113d 030a b7bd bc65 a2bc e275 25bd
00000180: cd03 28bd 29c7 8dbd 4b62 05bc fd36 653b
00000190: 2064 ee3c 4be0 a8bd beaa 9ebc 9b6b 613d
000001a0: bafb 3e3d 0e7c 243d c162 4bbd 05d2 87bd
000001b0: 9109 d3bc a758 0cba 4f22 063d 6b12 3dbd
000001c0: 899d 993d fc35 463d d3f1 843d 613a b33d
000001d0: 1382 983d 07aa 7abd 7a5f 94bc e5e1 2d3d
000001e0: 92f3 643d f3eb 3fbd 6099 a5bd 3940 b9bd
000001f0: f57c 99bd fb66 c33b 147b 853c 3564 9dbd
00000200: e40f e93e a2b5 103f 100f 023f c87e f2bd
00000210: 0329 01bf 19df 0e3f 5eed c23e 11b0 5c3f
00000220: b44e 59bf 7704 0e3f 530e 203f ce2a c53e
00000230: 41fd 273f 0adb 253f a946 febe e745 85be
00000240: 12a9 04bf 1598 4e3e 3d0e 62be 5b1f 193e
00000250: a807 043f ffcf c93e 992f c53e 659a 52be
00000260: d917 ff3e b217 d3be 8ad3 633f a87d e83e
00000270: f742 063f c5f5 b23f 03dd 143f 384b 143f
00000280: 8122 2f3f e6ec ed3e 7874 123f ac6b 963e
00000290: b974 9ebe e1ee a23e 1bf8 c63e cae6 243f
000002a0: 248e 8fbe 9cdf 6a3e 5966 bcbe 61b3 1b3f
000002b0: 9af3 2a3f e68d 653e e5cc 94be 1592 ebbe
000002c0: 5c5c 11be db3e 2c3f 8d74 273f 9b0a c8be
000002d0: 130e e03e ec7d 133f 9c0b 973e 5c13 133f
000002e0: 4e86 f93e 69c0 30bf d758 8ebf 5dd0 bc3f
000002f0: a867 7b3e e065 31bf 2a0d 473f 2533 293f
00000300: c745 b0bc ddac 39be ee5b efbc 59e4 973e
00000310: bd0c 8f3e 3cb6 723d da1c 993d 9af8 a73e
00000320: c5f0 b53c 90b6 953e cf5a 1a3e c037 6abc
00000330: ccb6 a73e 4a0c ae3e e0e3 343e 24c9 773e
00000340: 2d86 85bd 3b35 d13e da54 2dbd 8745 633e
00000350: 9dd9 5f3c f941 693e 0cd2 d73e b2d5 71bd
00000360: 09ff 903e d431 9b3e f933 0dbe 87cf 1ebe
00000370: b538 863e d6c7 58bc 104e f4bd 5720 4e3b
00000380: 2308 74be 6499 ce3e 9c2e a03e b6f3 b73e
00000390: ce89 833e 7167 c23e 1519 f33c fa5c 833e
000003a0: 42b2 b03e 6795 8bbd 587c 5c3e 5798 a43e
000003b0: 6b2c b13e d372 843e e138 393d 7089 a1bd
000003c0: f436 ba3e e928 b53e be3d 33bd 8ac1 2e3c
000003d0: 8641 b53e fe20 9d3e 250d 29bd 8044 913e
000003e0: d6cd 753e e40d a5bc 1061 c33e b8fd b93d
000003f0: 4ce7 123d 9954 b53e 2f49 b03e d324 9e3c

output_net.0.bias f4 [64]
-0.05192616 0.38579163 0.022266492 0.36842752 0.24633403 0.2513929 0.24832661 0.027400918
0.18425663 -0.047551885 0.30151615 0.15830208 -0.06361674 0.33881798 0.23058785 0.19847551
-0.015009288 0.231541 -0.08069447 0.24891818 -0.013142762 -0.02030264 0.38606092 0.29538688
0.37980524 0.35092828 -0.09742061 0.033879716 0.30837408 -0.03359199 0.17695214 0.27754828
0.22472908 0.42150655 0.255925 0.30892769 0.2719311 0.031194696 0.26951265 0.23197831
0.30260813 0.3209686 0.20772405 0.29436457 0.2632382 -0.045075294 0.009353619 -0.026548615
0.34330317 0.3293922 0.23068395 0.28417093 0.38497582 0.32050624 0.1939511 0.19101986
0.29938734 0.35280374 -0.0260937 0.23339134 -0.110671915 -0.07486163 0.4453162 0.050080188
00000000: 86b0 54bd 7b86 c53e 3868 b63c 88a2 bc3e
00000010: fd3e 7c3e 92b6 803e 5549 7e3e e477 e03c
00000020: c5ad 3c3e c4c5 42bd 5360 9a3e f119 223e
00000030: 7e49 82bd 8d79 ad3e 391f 6c3e 2a3d 4b3e
00000040: 84e9 75bc 1519 6d3e 2443 a5bd 68e4 7e3e
00000050: bd54 57bc b951 a6bc c7a9 c53e f33c 973e
00000060: d575 c23e dfac b33e 7584 c7bd 75c5 0a3d
00000070: 35e3 9d3e c197 09bd f132 353e cf1a 8e3e
00000080: 611f 663e b5cf d73e 9a08 833e c52b 9e3e
00000090: 8e3a 8b3e 058c ff3c 90fd 893e b98b 6d3e
000000a0: 74ef 9a3e ff55 a43e 9db5 543e f4b6 963e
000000b0: 28c7 863e dfa0 38bd ec3f 193c 7b7c d9bc
000000c0: 6fc5 af3e 18a6 a83e 6a38 6c3e da7e 913e
000000d0: 8d1b c53e 6519 a43e 1e9b 463e b69a 433e
000000e0: 4c49 993e b1a2 b43e 75c2 d5bc 24fe 6e3e
000000f0: f5a7 e2bd 0e51 99bd 7c00 e43e e220 4d3d

output_net.2.weight f4 [1, 64]
0.102008015 -0.65849704 2.0373645 -0.70441717 -0.71097255 -0.67844576 -0.6476794 0.10445305
-0.8067635 0.03055378 -0.6628591 4.436623 2.264465 -0.73713094 3.1258473 -0.8139249
2.272906 -0.73971695 0.01840988 -0.7058404 0.059979286 0.111395516 3.3960688 -0.76614696
4.286036 -0.8736298 -0.062969685 0.11183183 -0.675108 0.067595035 -0.80433244 -0.7377171
-0.7434987 3.4278965 -0.8238015 -0.6934784 -0.8001277 0.11052714 -0.7806091 -0.74539906
-0.9573503 -0.6845026 -0.7596713 -0.7454272 -0.8294608 -0.08221693 0.051936634 -0.0690117
-0.7070316 -0.7792794 -0.75160086 -0.7308588 3.4045026 -0.6773873 -0.73023295 -0.80969507
-0.8161091 -0.8266661 1.8806531 -0.6742375 1.8719257 0.027887842 2.505467 0.035011277
00000000: 94e9 d03d 4393 28bf 2e64 0240 af54 34bf
00000010: 4c02 36bf 9fae 2dbf 51ce 25bf 7beb d53d
00000020: 0e88 4ebf ec4b fa3c 22b1 29bf d1f8 8d40
00000030: ffec 1040 9db4 3cbf e20d 4840 625d 50bf
00000040: 4b77 1140 175e 3dbf 51d0 963c f5b1 34bf
00000050: d7ac 753d 5523 e43d 3159 5940 3522 44bf
00000060: 3527 8940 34a6 5fbf 40f6 80bd 1608 e53d
00000070: e1d3 2cbf 446f 8a3d bbe8 4dbf 07db 3cbf
00000080: ee55 3ebf a862 5b40 a8e4 52bf cd87 31bf
00000090: 2bd5 4cbf 0e5c e23d ffd5 47bf 79d2 3ebf
000000a0: e914 75bf 903b 2fbf d179 42bf 51d4 3ebf
000000b0: 8b57 54bf 5a61 a8bd 82bb 543d 0256 8dbd
000000c0: 0600 35bf db7e 47bf ea68 40bf 9019 3bbf
000000d0: 5fe3 5940 4169 2dbf 8cf0 3abf 2d48 4fbf
000000e0: 87ec 50bf 64a0 53bf 3eb9 f03f d49a 2cbf
000000f0: 439b ef3f 0b75 e43c 9259 2040 fc67 0f3d
