Q1/ckpt/critic2_ep500.pth (torch, 38344 bytes, 7 tensors)

state_net.0.weight f4 [64, 3]
0	0xbfb31ea3	-1.3993725
1	0xbf2dd9de	-0.67910564
2	0x3e923a9f	0.2856035
3	0x3faa558c	1.3307357
4	0x3ffa749d	1.9566838
5	0x3f056ba1	0.52117354
6	0xbf888ea7	-1.0668534
7	0xbf4496b4	-0.76792455
8	0xbea50c1f	-0.3223581
9	0xbf9df835	-1.2341372
10	0x3fdbeb15	1.7181116
11	0x3ef08209	0.4697421
12	0xbecc8a17	-0.39949104
13	0xbf999914	-1.1999841
14	0x3eb42944	0.35187733
15	0xbf5d4c66	-0.864447
16	0x3e8c8d7e	0.274517
17	0x3e884098	0.2661178
18	0xbf3fccea	-0.7492205
19	0xbe4e91a7	-0.2017275
20	0xbe97db4d	-0.296595
21	0xbf87bc44	-1.0604329
22	0xbfa15119	-1.2602874
23	0xbed5c105	-0.41748825
24	0xbf7bb278	-0.98319197
25	0xbfa300be	-1.2734601
26	0x3db83e88	0.08996302
27	0xc00c301b	-2.1904361
28	0x3ec9af37	0.3939149
29	0x3ed00334	0.40627444
30	0xbf7d99a1	-0.99062544
31	0x3f010d02	0.50410473
32	0x3e8e5ba3	0.27804288
33	0xbf8aa48e	-1.0831468
34	0xc001eeab	-2.0301921
35	0xbf01e357	-0.5073752
36	0xbe4c9c3e	-0.19981477
37	0x3f82b518	1.0211515
38	0x3f48a4dc	0.78376555
39	0xbe0f05cf	-0.1396706
40	0xc0265fc0	-2.599594
41	0xbf04883b	-0.5177037
42	0x3f79aac1	0.97526175
43	0xc0473e2a	-3.1131692
44	0xbf219c57	-0.6312918
45	0x3f57bb94	0.84270597
46	0x402e8af0	2.72723
47	0x3f0edd93	0.55806845
48	0xbfa71e66	-1.3056152
49	0xbf65b94c	-0.89735866
50	0x3f3ae213	0.7300121
51	0x3f3e9294	0.7444241
52	0xbc87c2cf	-0.016572384
53	0x3ed6ac18	0.41928172
54	0x3fb5cfd5	1.420405
55	0xbefee1d0	-0.49781656
56	0x3d4f9a60	0.050684333
57	0xbf0e613f	-0.55617136
58	0xbf6f702a	-0.93530524
59	0x3e2b9c3c	0.16758817
60	0xc00f6275	-2.2403843
61	0xbe92cbef	-0.28671214
62	0xbf23248e	-0.63727653
63	0xbfb87ff1	-1.4414045
64	0xbf675e90	-0.90378666
65	0xbee2c6bf	-0.44292256
66	0xbfa7f9c2	-1.3123095
67	0x3ec97960	0.39350414
68	0x3f4ee400	0.8081665
69	0xbf88493e	-1.0647352
70	0x3ffdc731	1.9826413
71	0x3ecf8ed9	0.40538672
72	0xbf35a8e7	-0.7096085
73	0x3f3ee0ac	0.7456157
74	0x3f246ab2	0.64225304
75	0xc0003649	-2.0033133
76	0x3f142a4a	0.5787703
77	0x3edf71a8	0.436414
78	0xbfae68b6	-1.3625705
79	0xbf30fdd0	-0.6913729
80	0xbecf0c95	-0.40439287
81	0xbf9ebb70	-1.2400951
82	0x3f96212b	1.1728872
83	0x3ed71442	0.42007643
84	0xbf320f00	-0.6955414
85	0x3db0794b	0.08616885
86	0x3e8fb32b	0.28066382
87	0xbf9ca88c	-1.2238936
88	0x3fbf885e	1.4963491
89	0x3ee05e7c	0.43822086
90	0xbf2dee2a	-0.67941535
91	0xc02e8b47	-2.7272508
92	0xbf0f583c	-0.5599401
93	0x3f81e5b4	1.0148225
94	0x3b3e7d80	0.0029066503
95	0xbd5100e4	-0.05102624
96	0x3fdbd8af	1.7175502
97	0xbfbef6a8	-1.4919024
98	0xbf070d80	-0.52754974
99	0xbf905ce5	-1.1278349
100	0xbf53d799	-0.8275085
101	0x3e45eae2	0.19327882
102	0xbdd6ffa7	-0.104979806
103	0x3fc13e04	1.5097051
104	0xbf197440	-0.5994301
105	0xbfd7532d	-1.6822258
106	0xc0002c38	-2.002699
107	0xbf258dff	-0.64669794
108	0xbf62c4d2	-0.88581574
109	0x3f1c60bc	0.61085105
110	0xbf0d75e5	-0.5525802
111	0xbf812f7c	-1.0092616
112	0x3e84f10f	0.25965163
113	0x3eafb6c6	0.34319133
114	0xbfadbd65	-1.3573424
115	0xbfacad5c	-1.3490405
116	0xbedf8a56	-0.4366023
117	0xbfb00333	-1.3750976
118	0xbf1f8a3d	-0.6232031
119	0xbeec5cc9	-0.4616454
120	0xbf27e51d	-0.65583974
121	0x3feaffef	1.8359355
122	0xbd960f87	-0.0732718
123	0xbf029a65	-0.5101684
124	0x3d8b5504	0.06803325
125	0x3f51d962	0.81972325
126	0x3f168c7a	0.588081
127	0xbf7d262b	-0.98886365
128	0xbf61839d	-0.8809145
129	0xbf81023e	-1.0078809
130	0xbfc8b34d	-1.5679718
131	0x3e5b9ca5	0.21446474
132	0xbf7b07f7	-0.9805903
133	0xbd280edc	-0.041029796
134	0x3e806b67	0.2508194
135	0xbf92d141	-1.1470109
136	0xbff0b7b0	-1.8806057
137	0xbee1da39	-0.44111803
138	0xbf866531	-1.0499631
139	0x3f0acfa4	0.54223084
140	0xbf3486fe	-0.7051848
141	0xbf6390fc	-0.88893104
142	0x3ff2748e	1.894182
143	0x3ee3c2b6	0.4448449
144	0xbfc3f563	-1.5309261
145	0xbfe6d795	-1.803454
146	0xbf05d682	-0.5228044
147	0xbe3dea2e	-0.18546364
148	0x3dcc19c4	0.09965852
149	0x3f6c6596	0.9234251
150	0xbf6a4bd6	-0.91521966
151	0x3fca2fdf	1.5795859
152	0x3ec7094a	0.38874274
153	0x3f5b3023	0.85620326
154	0xbfa0bbab	-1.2557272
155	0xbde51231	-0.1118511
156	0x3d9b682d	0.07588229
157	0xbeffe0f2	-0.49976307
158	0x3ebcab0d	0.3684925
159	0xbfc2b859	-1.5212508
160	0x3f988a50	1.191721
161	0x3f186d18	0.59541464
162	0xbe74fcc3	-0.23924546
163	0xbefdf157	-0.4959819
164	0xbf3d13e8	-0.738585
165	0xc02242e3	-2.5353324
166	0xbf8bd940	-1.0925674
167	0xbf0fda30	-0.561923
168	0xc009def0	-2.154232
169	0xbe8c394c	-0.27387464
170	0xbed962f2	-0.42458302
171	0xbf4d369b	-0.80161446
172	0x3f9d03f6	1.2266834
173	0x3ea20c35	0.31649938
174	0xbf49abda	-0.7877785
175	0xbe968e9e	-0.29405683
176	0xbe9ae319	-0.30251387
177	0xbfce77f5	-1.6130358
178	0x3f391152	0.72292054
179	0xbe9b8a29	-0.30378845
180	0x40025199	2.0362303
181	0x3f1dbe4a	0.61618483
182	0x3e2f4bf6	0.1711882
183	0x3e63da42	0.22251227
184	0x3fa288b8	1.2697973
185	0x38b4ae6c	8.6155575e-05
186	0x3ef99bd8	0.48751712
187	0x3fa438ce	1.2829835
188	0x3f0615d5	0.52377063
189	0xbcd21fcd	-0.02564993
190	0x401ecf35	2.481397
191	0x3ef58fb7	0.47961208

state_net.0.bias f4 [64]
0	0xbf85b656	-1.044627
1	0xbf7f67c1	-0.9976769
2	0x3f868910	1.0510578
3	0x3f817f1e	1.0116918
4	0x400172e0	2.0226364
5	0x3f8f59dd	1.1199299
6	0x3fbc6057	1.47169
7	0x3fa25675	1.2682635
8	0x3f85aa98	1.0442686
9	0x3f60fa3f	0.87881845
10	0x3f7f374c	0.9969375
11	0x3e966440	0.2937336
12	0xbe5ca9fe	-0.21549222
13	0xbe28e349	-0.16492952
14	0xbf2275b9	-0.6346088
15	0xbf11aa15	-0.5690015
16	0xbf0ab3c5	-0.54180557
17	0x3f04beb9	0.5185352
18	0x3e107c8b	0.1411001
19	0x3f9a3591	1.2047597
20	0x3e65f92f	0.22458337
21	0x3fc890cc	1.5669188
22	0xbf303279	-0.68827015
23	0xbe08f44b	-0.1337444
24	0x3ff368b8	1.9016333
25	0xbf5f7e0f	-0.87301725
26	0x3fc2ede7	1.5228852
27	0x3f9a6a82	1.2063754
28	0x3fb57eba	1.4179299
29	0x3f83cd64	1.0297055
30	0xbe8f6136	-0.28003854
31	0x3f9836d2	1.189173
32	0xbfc3b597	-1.5289792
33	0x3f99e219	1.2022125
34	0x3fa93236	1.3218448
35	0x3f70e466	0.9409851
36	0x3df0b553	0.11753335
37	0x3fc6999c	1.5515628
38	0x3f97bf49	1.1855251
39	0xbf9dd28f	-1.2329882
40	0x3efa31ee	0.48866218
41	0xbec249fb	-0.37947068
42	0x3fac67b4	1.3469148
43	0x3f8fd620	1.1237221
44	0x3f8956f0	1.0729656
45	0x3f4f9b4a	0.8109633
46	0xbe851ec1	-0.26000026
47	0x3f29828c	0.66214824
48	0x3fa5ae66	1.2943847
49	0xbde98f9f	-0.11404347
50	0x3f3358bb	0.70057267
51	0x3f902b4e	1.1263216
52	0x3f8a6893	1.0813164
53	0xbe5f9e55	-0.21837743
54	0x3dcd36c5	0.10020212
55	0x3e85b3d4	0.2611376
56	0x3f8b7863	1.0896114
57	0x3f2124ea	0.6294695
58	0x3fb97e8c	1.4491744
59	0x3efdc48b	0.49564013
60	0x3eec2ef8	0.46129584
61	0x3f9fecf7	1.2494191
62	0x3dca081c	0.09864828
63	0xbde13a7b	-0.109974824

action_net.0.weight f4 [64, 1]
0	0xbf8f11b2	-1.1177275
1	0xbe272948	-0.16324341
2	0xbe82ec44	-0.2557088
3	0x3e0f711c	0.14007992
4	0x3d768060	0.06018102
5	0x3f31cf4d	0.6945694
6	0xbe937564	-0.288005
7	0xbc038076	-0.008026233
8	0x3eeecf73	0.46642646
9	0xbd44aac0	-0.048014402
10	0xbf445905	-0.76698333
11	0x3f3e7fbb	0.7441365
12	0xbfb77f9b	-1.4335817
13	0x3d89c710	0.06727421
14	0x3f18304d	0.594487
15	0xbf1e6f49	-0.6188856
16	0x3f3e4ed6	0.74339044
17	0x3f1f71e6	0.6228317
18	0x3f6c6741	0.9234505
19	0x3f726a87	0.946938
20	0xbeb78578	-0.35844016
21	0xbd039660	-0.03212583
22	0x3f32203a	0.69580424
23	0xbffe8010	-1.9882832
24	0x3f3aef24	0.7302115
25	0x3f898811	1.0744649
26	0xbf4a4381	-0.7900925
27	0xbe87471f	-0.2642145
28	0xbe33aefa	-0.17547217
29	0xbebe8427	-0.372102
30	0x3faca04f	1.3486422
31	0x3e780b28	0.24223006
32	0x3f194639	0.59872776
33	0x3e437828	0.19088805
34	0xbf844da9	-1.03362
35	0x3dd4cf70	0.10391128
36	0x3e305a98	0.17222059
37	0xbdedc645	-0.116100825
38	0xbf2d1fa0	-0.6762638
39	0xbeccdf55	-0.4001414
40	0x3dd384d0	0.10328066
41	0x3e48a27c	0.19593233
42	0x3db7a2e0	0.08966613
43	0x3ecd5f68	0.40111852
44	0xbe54ccf0	-0.20781302
45	0xbec3d1d8	-0.38246036
46	0x3f112fde	0.56713665
47	0x3f267038	0.6501498
48	0x3fa47173	1.2847122
49	0xbea061ed	-0.3132471
50	0xbf0d9612	-0.55307114
51	0x3f8e49f1	1.1116315
52	0xbd434ff1	-0.04768366
53	0xbe6b5ca8	-0.22984564
54	0x3eb9cff6	0.36291474
55	0x3f343694	0.7039578
56	0x3f10445f	0.56354326
57	0xbefc778c	-0.49309957
58	0x3ef63578	0.48087668
59	0xbf8133bf	-1.0093917
60	0x3ea6a188	0.32545114
61	0xbf227dac	-0.6347301
62	0xbf7b0f0a	-0.9806982
63	0xbf6107ac	-0.8790233

action_net.0.bias f4 [64]
0	0xbf4cf903	-0.8006746
1	0xbe543988	-0.20725071
2	0xbf265376	-0.649711
3	0x3f8c51cb	1.0962461
4	0xbef659b8	-0.48115325
5	0x3fbbdd27	1.4676865
6	0xbec43f4c	-0.38329542
7	0x3fa64171	1.2988721
8	0xbe9e8c08	-0.3096621
9	0xbdfa1c40	-0.122124195
10	0x3f795a5c	0.974035
11	0x3f4cb9d6	0.79971063
12	0x3f3d6e6e	0.7399663
13	0xbf648b98	-0.89275503
14	0x3f1573d8	0.5837989
15	0x3f991112	1.1958334
16	0xbf6e7504	-0.931473
17	0xbf38c1da	-0.72170794
18	0x3f9f1478	1.2428122
19	0xbea899d9	-0.32929876
20	0x3f044ea3	0.5168249
21	0xbf79640a	-0.9741827
22	0x3f5d928d	0.86551744
23	0x3d9decba	0.07711168
24	0x3f7129b1	0.9420424
25	0x3f5a3f76	0.85253084
26	0x3fa1ef9b	1.2651247
27	0x3f960c81	1.1722566
28	0x3f7863e8	0.97027445
29	0x3f229e45	0.6352275
30	0x3f007e00	0.5019226
31	0xbe85d224	-0.26136887
32	0xbf1b58c4	-0.6068232
33	0xbf32bfc0	-0.6982384
34	0x3f84c65e	1.0373037
35	0xbf3859b8	-0.720119
36	0xbf3c4562	-0.7354337
37	0x3f89c35e	1.0762746
38	0xbf3df7f6	-0.74206483
39	0x3fb4f045	1.4135824
40	0xbf7a040e	-0.97662437
41	0x3f012243	0.50442904
42	0xbf0e6c18	-0.5563369
43	0xbf1ec634	-0.62021184
44	0xbf62a68e	-0.8853539
45	0xbee84dec	-0.4537195
46	0xbec80dd4	-0.3907305
47	0xbf7ca172	-0.98683846
48	0x3ec1f755	0.37884012
49	0xbea96b54	-0.33089697
50	0xbf4aecde	-0.7926768
51	0xbf3e984c	-0.74451137
52	0x3fb060c0	1.3779526
53	0xbebc5634	-0.36784518
54	0x3f34787b	0.7049634
55	0x3f30abb9	0.6901203
56	0x3f92eb3f	1.1478041
57	0xbf4b0cbc	-0.79316306
58	0xbf517d8e	-0.81832206
59	0x3f815e4a	1.01069
60	0xbeb8eef8	-0.3611982
61	0xbf76e462	-0.96442235
62	0xbf7b3b02	-0.98136914
63	0x3f5d94f7	0.8655543

output_net.0.weight f4 [64, 128]
0	0xbecd06b2	-0.4004417
1	0x3f59ba5f	0.85050005
2	0x3f0ca654	0.54941297
3	0x3e2f83d6	0.17140135
4	0x3ed6fd6c	0.4199022
5	0x3f160b40	0.58610916
6	0x3f3a1c44	0.7269938
7	0x3f07657a	0.52889216
8	0x3f1c184d	0.6097458
9	0x3f29c686	0.6631855
10	0x3ec7132a	0.3888181
11	0xbeedc632	-0.46440274
12	0xbe7d0884	-0.2471028
13	0x3f3529e8	0.7076707
14	0x3ee11b88	0.43966317
15	0x3f07a250	0.52982044
16	0xbdaa5734	-0.08317414
17	0xbc10baa8	-0.008833565
18	0x3f3a0fa4	0.72680116
19	0x3eca6027	0.39526483
20	0x3e0fa73b	0.14028637
21	0x3f08b9ea	0.5340868
22	0xbcdeadfb	-0.02718257
23	0xbf2337f3	-0.63757247
24	0xbe3feceb	-0.18742721
25	0xbed81306	-0.42202014
26	0x3f0d02a9	0.55082184
27	0x3e9bd6e0	0.30437374
28	0x3ea4bd2c	0.32175577
29	0x3e69183b	0.2276315
30	0xbf836bfa	-1.0267327
31	0x3ec9b382	0.39394766
32	0x3f9734b3	1.1812958
33	0x3f11f7ef	0.5701894
34	0x3d93a9fd	0.07210157
35	0xbf002ebd	-0.50071317
36	0xbe4f27d5	-0.20230038
37	0x3ee7a9b6	0.45246667
38	0x3ef176f4	0.47161067
39	0xbe663271	-0.2248018
40	0x3ed7a6d1	0.42119458
41	0xbe23307d	-0.15936466
42	0x3d9d1f5a	0.076719955
43	0x3f222f73	0.6335365
44	0x3ef5bc5b	0.47995266
45	0x3ee2d3b4	0.44302142
46	0xbeaac657	-0.33354446
47	0x3ea2d5a7	0.3180363
48	0x3ec85d9d	0.3913392
49	0xbdc56793	-0.09638896
50	0x3e9e4f15	0.3091971
51	0x3ee1c54e	0.44095844
52	0xbdd7fbd6	-0.10546081
53	0x3dd165ec	0.10224518
54	0xbdb06fb5	-0.086150564
55	0xbde3e2b4	-0.111272246
56	0x3f08a079	0.5336986
57	0x3eb7b753	0.35882053
58	0x3f2866db	0.65781945
59	0x3ede395a	0.4340313
60	0x3f070ed6	0.5275701
61	0x3e43a1c7	0.19104682
62	0xbeaee9ac	-0.34162652
63	0x3eccb1fa	0.39979535
64	0x3dd2d13d	0.10293815
65	0xbd909959	-0.07060499
66	0xbd252f40	-0.040328264
67	0x3e3e035a	0.18555966
68	0xbd0b6060	-0.034027457
69	0x3e61b5a4	0.22041947
70	0xbd5c0a0c	-0.05372052
71	0x3e964e4b	0.29356608
72	0xbd1e477e	-0.0386424
73	0x3d0a6919	0.033791635
74	0x3e8bbe80	0.27293777
75	0x3e702414	0.23451263
76	0x3ea10d96	0.31455678
77	0xbc176792	-0.009241002
78	0x3cb29e07	0.021803869
79	0x3e967e3c	0.29393184
80	0xbc884238	-0.016633138
81	0xbd2783c6	-0.040897153
82	0x3e4bba34	0.1989525
83	0x3d7c155a	0.0615438
84	0x3ebcf7a8	0.36907697
85	0xbd1ca2a5	-0.038241047
86	0x3e60cc4f	0.21952938
87	0xbb15bd33	-0.0022848367
88	0x3e7e67e7	0.24844323
89	0x3e982bd4	0.29720938
90	0x3e25ff7b	0.1621074
91	0x3e6ccb7b	0.23124497
92	0x3e939777	0.28826496
93	0x3e803803	0.25042734
94	0x3dbaa20b	0.091129385
95	0xbbaa7c22	-0.005202786
96	0x3d4c9c97	0.049954023
97	0xbd85de32	-0.06536521
98	0x3e63e991	0.22257067
99	0x3d765431	0.060138885
100	0x3d07e804	0.03318025
101	0x3e9bb90f	0.30414626
102	0xbb8b3508	-0.004248265
103	0x3e556696	0.20839915
104	0x3d4384b5	0.04773398
105	0x3e916e96	0.28404683
106	0x3d962caf	0.073327415
107	0xbcbe9ec4	-0.023269065
108	0xbd6f5beb	-0.05843727
109	0x3d050cba	0.03248284
110	0xbd800c6e	-0.06252371
111	0xbc985f3c	-0.018600099
112	0x3d23e3b4	0.040012076
113	0xbd92bb55	-0.07164637
114	0xbd8238cf	-0.06358492
115	0x3e81f879	0.25384882
116	0x3e763caa	0.24046579
117	0xbccb7c56	-0.024839561
118	0x3e32a3fa	0.17445365
119	0x3e4ccd1d	0.2000012
120	0x3e532d62	0.20622781
121	0xbc4b6823	-0.012414965
122	0xbd2aada4	-0.041669503
123	0x3e54cabc	0.20780462
124	0x3d7404af	0.05957478
125	0xbd489fcb	-0.048980515
126	0xbd615836	-0.055015765
127	0x3ea24921	0.31696418
128	0x3ccd3345	0.025048861
129	0x3d01b490	0.03166634
130	0xbd100eb9	-0.03517029
131	0xbd8c4aba	-0.068501905
132	0xbd85bc72	-0.06530084
133	0x3d930829	0.07179291
134	0x3c63bbac	0.013899725
135	0xbd5e344f	-0.054249104
136	0x3d9c0cd6	0.07619636
137	0x3da5b2fb	0.080907784
138	0xbc35b0c7	-0.01108951
139	0x3cbeee3a	0.023306955
140	0x3b19e1fb	0.0023480642
141	0xbcb532b6	-0.022118907
142	0xbc876156	-0.016525906
143	0xbd7d7f55	-0.06188901
144	0x3d175f5a	0.03695617
145	0x3db0bea0	0.08630109
146	0x3d9ea47c	0.07746217
147	0x3d39de2d	0.0453779
148	0xbd93d833	-0.07218971
149	0xbd288f1d	-0.04115211
150	0xbd139961	-0.036034945
151	0x3db03753	0.08604302
152	0xbd997a6c	-0.07494053
153	0x3d89e63c	0.06733367
154	0xbd92dfe4	-0.0717161
155	0x3c87721b	0.016533902
156	0xbd967454	-0.073464066
157	0xbd45abf4	-0.04825969
158	0x3d818081	0.06323338
159	0xbd30b62f	-0.043142494
160	0xbd98e800	-0.074661255
161	0xbd8fe7e6	-0.07026653
162	0xbcd2dc22	-0.025739733
163	0xbd6904d5	-0.056889374
164	0xbbcc2506	-0.0062299995
165	0xbd102d16	-0.035199247
166	0xbda43834	-0.080185324
167	0x3d5d8d90	0.054090083
168	0x3c97aa1b	0.01851373
169	0x3d934729	0.07191307
170	0xbcb1cd42	-0.02170432
171	0x3b287836	0.0025706417
172	0xbacbc235	-0.0015545549
173	0xbcffc342	-0.031221036
174	0xbd9618de	-0.07328962
175	0xbd986a46	-0.07442145
176	0xbd4e4566	-0.050359152
177	0xbd9a4ef8	-0.07534593
178	0x3d98b3c6	0.07456164
179	0x3d347e12	0.044065543
180	0x3d7b6cd3	0.06138308
181	0xbdacb93a	-0.08433767
182	0xbd367f4e	-0.044555
183	0x3c899349	0.016793864
184	0xbd642439	-0.055698607
185	0x3d4c994c	0.049950883
186	0xbc02844c	-0.007966112
187	0xbc2aa8e7	-0.010416246
188	0x3ac1ce80	0.0014786273
189	0x3d74255b	0.059605937
190	0x3d0296d1	0.03188211
191	0xbcb1b51b	-0.021692803
192	0xbd38a652	-0.04508049
193	0x3d8ddb80	0.06926632
194	0xbd030deb	-0.031995695
195	0x3db416cc	0.08793411
196	0x3be95c45	0.007121595
197	0x3d866fdf	0.065643065
198	0x3b41849b	0.0029528502
199	0x3d6b7c74	0.057491735
200	0xbd8afb40	-0.067862034
201	0xbca245f3	-0.019808745
202	0xbd5bae06	-0.05363276
203	0xbd8e7c7d	-0.06957338
204	0xbd9040db	-0.0704362
205	0x3daab231	0.083347686
206	0x3d26d65d	0.040731777
207	0x3c720868	0.014772512
208	0xbbb7ba01	-0.00560689
209	0x3c441a76	0.011969199
210	0xbd4a544a	-0.04939679
211	0xbd69d9fe	-0.05709266
212	0xbd8134a7	-0.06308871
213	0x3da4d193	0.080477856
214	0xbd6286ff	-0.055304524
215	0xbd5f2f1a	-0.05448828
216	0xbd29ad67	-0.041425135
217	0xbc43e923	-0.01195744
218	0xbda5d9b3	-0.080981635
219	0x3d8e58c6	0.06950526
220	0xbd7eda8e	-0.06222015
221	0xbd35f100	-0.04441929
222	0xbd66da2f	-0.05636042
223	0xbce39b96	-0.02778415
224	0xbd95a326	-0.07306509
225	0xbcf378be	-0.02972066
226	0xbce8e952	-0.028431568
227	0xbd950f43	-0.072783016
228	0xbcb7461a	-0.022372294
229	0xbba393a9	-0.0049919677
230	0xbc28030d	-0.010254634
231	0xbcf0393b	-0.029324165
232	0xbc741756	-0.014898142
233	0xbd880824	-0.06642178
234	0xbd911411	-0.070839055
235	0xbd9539b8	-0.072863996
236	0x3d432c1f	0.0476495
237	0x3b9a0638	0.0047004484
238	0xbd08880b	-0.033332866
239	0xbd5a792a	-0.053338207
240	0xbcf259bf	-0.02958381
241	0xbc9fa4c3	-0.019487744
242	0xbbea0e48	-0.0071428157
243	0xbda46b5c	-0.0802829
244	0xbd605f91	-0.05477864
245	0x3da6fa8f	0.08153259
246	0xbd276040	-0.040863276
247	0xbc24f41b	-0.010067965
248	0x3d2f84db	0.04285131
249	0x3db0dbf9	0.086357065
250	0xbd20ab9e	-0.039226167
251	0xbbc41a5f	-0.005984589
252	0x3d47c558	0.048772186
253	0x3cac0a74	0.021001078
254	0x3d46c30d	0.04852586
255	0x3d066baf	0.03281754

output_net.0.bias f4 [64]
0	0x3e7c130a	0.24616638
1	0x3d179bdd	0.037013877
2	0x3e58e666	0.2118164
3	0x3ea71d80	0.32639694
4	0x3e002825	0.12515314
5	0x3e339073	0.17535572
6	0x3e46b010	0.194031
7	0x3e32e58c	0.17470378
8	0xbdcfebbb	-0.10152384
9	0x3ed37d74	0.4130665
10	0x3d202a98	0.03910312
11	0x3cffaeb4	0.031211235
12	0x3e3d14ad	0.18464918
13	0x3ed40607	0.41410848
14	0x3d3bcd25	0.045849938
15	0x3e99fd8d	0.30076256
16	0x3e9be60a	0.30448943
17	0xbd645317	-0.055743303
18	0xbc04767c	-0.0080848895
19	0xbda30d77	-0.079615526
20	0x3d4d701c	0.050155744
21	0x3e92ce25	0.286729
22	0x3e837350	0.25673914
23	0xbe079018	-0.13238561
24	0xbd217b24	-0.039424077
25	0x3e428ed5	0.18999799
26	0xbe0c6580	-0.13710594
27	0xbcc5ed1e	-0.024160918
28	0x3e8d9880	0.2765541
29	0x3e4b78a8	0.19870245
30	0x3ea89c26	0.32931632
31	0x3c503bff	0.012709617
32	0x3e5da94a	0.2164661
33	0x3ea0f165	0.3143417
34	0x3ed15632	0.40886074
35	0x3e57dbe3	0.21079974
36	0x3ec6bf83	0.38817987
37	0x3e2a1b17	0.16611896
38	0x3e84c17a	0.2592886
39	0xbc0e9a58	-0.008703791
40	0x3d0bfbda	0.03417573
41	0x3e93bb2f	0.28853747
42	0x3ea63d7a	0.32468778
43	0x3cab833d	0.020936603
44	0x3e123a29	0.14279999
45	0x3e900c0c	0.2813419
46	0x3d0c01ff	0.03418159
47	0x3e764e65	0.24053343
48	0x3d779fe8	0.060455233
49	0x3e76d791	0.2410567
50	0x3d6e41b0	0.058168113
51	0x3e47acbc	0.19499487
52	0x3e955e6b	0.29173598
53	0x3ed0b0f7	0.40760013
54	0x3d6471db	0.055772644
55	0x3e6cc7ad	0.23123045
56	0x3ac35bb5	0.001490465
57	0x3e8e4dac	0.27793634
58	0x3d93fc60	0.07225871
59	0x3e844923	0.2583705
60	0x3ef3c2f6	0.4760968
61	0xbd2fc5a7	-0.042913105
62	0x3ea5157b	0.3224295
63	0x3e9afde1	0.3027182

output_net.2.weight f4 [1, 64]
0	0xbf2e42d5	-0.6807073
1	0x3decb704	0.11558345
2	0xbf3ca4bd	-0.7368887
3	0xbf1fc108	-0.6240392
4	0xbf33367b	-0.70005006
5	0xbf3f6297	-0.7475981
6	0x400c4070	2.191433
7	0xbf274644	-0.6534159
8	0x4006cc49	2.1062186
9	0x4049211a	3.1426454
10	0x3dce413e	0.10071038
11	0x40235c5c	2.5525122
12	0xbf42873f	-0.7598762
13	0x4105a2f8	8.352287
14	0x3fc1fdc2	1.5155566
15	0xbf38f4c4	-0.7224848
16	0xbf3ebd7d	-0.74507886
17	0x3dc21ad8	0.09477776
18	0x3d3f6f6b	0.046737116
19	0x3d985895	0.07438771
20	0x3db13e6a	0.08654483
21	0xbf2b052e	-0.6680478
22	0x3fc552a3	1.5415844
23	0x404d532a	3.208201
24	0x3d444172	0.047913976
25	0xbf2ce483	-0.6753618
26	0x3fc5ada8	1.5443621
27	0x3cebcc27	0.02878387
28	0xbf2f67c1	-0.6851769
29	0x405d9701	3.4623415
30	0xbf2b0a68	-0.66812754
31	0x3ce8d686	0.028422605
32	0xbf378828	-0.7169213
33	0xbf300684	-0.6875994
34	0xbf3c0465	-0.73444206
35	0xbf43ee10	-0.7653513
36	0x40226dc4	2.5379496
37	0xbf404584	-0.7510607
38	0xbf23d97e	-0.6400374
39	0x402cf6de	2.7025676
40	0x3d99b3d1	0.075050004
41	0xbf40e750	-0.75352955
42	0xbf2238ab	-0.6336772
43	0x3fface28	1.9594164
44	0x405f4bbe	3.488998
45	0x4001150a	2.0169091
46	0x3dd6573f	0.104658596
47	0x3fe0c917	1.7561368
48	0x3ffcbe6f	1.9745616
49	0xbf3d1a08	-0.73867846
50	0x3d383b25	0.04497828
51	0xbf3a98aa	-0.72889197
52	0xbf32ac9c	-0.6979463
53	0xbf2f3d51	-0.68452936
54	0x3d810db3	0.06301441
55	0xbf3619b1	-0.7113295
56	0x3d6f9adf	0.058497306
57	0xbf1fc9d2	-0.6241733
58	0x3d2f958b	0.042867225
59	0xbf404b50	-0.7511492
60	0x4140d2c8	12.05146
61	0x3dab297b	0.08357521
62	0xbf36b025	-0.71362525
63	0xbf470987	-0.7774891
