Q1/ckpt/critic2_ep450.pth (torch, 38344 bytes, 7 tensors)

state_net.0.weight f4 [64, 3]
000000 1b 2e a0 bf 1f fe 34 bf 93 b2 9a 3e cb af a7 3f
       -1.251407 -0.7070026 0.30214366 1.3100523
000010 0c 37 fd 3f 2b 2a 01 3f ae e8 82 bf 0a b0 47 bf
       1.9782424 0.5045497 -1.0227258 -0.7800299
000020 41 ae a3 be 04 52 97 bf e5 70 d5 3f c1 2b f3 3e
       -0.31968883 -1.1821904 1.6675078 0.4749432
000030 4a 9f 96 be 65 47 98 bf b6 12 cb 3e 37 39 55 bf
       -0.29418403 -1.1896788 0.39662713 -0.8329043
000040 b8 73 78 3e 7f 9f 84 3e bc a8 3c bf 41 01 52 be
       0.24262893 0.25902936 -0.7369497 -0.20508291
000050 65 36 94 be 62 c0 8e bf a1 4e 9c bf bd 2e ce be
       -0.2894775 -1.115246 -1.2211496 -0.40270033
000060 a6 9b 6e bf 8e 9d a9 bf 42 9c e7 3d 90 97 12 c0
       -0.9320625 -1.3251207 0.11309101 -2.2905006
000070 3b 57 3e 3e 71 fe ae 3e 7b 0e 79 bf 2e 0e e8 3e
       0.18587963 0.34178498 -0.9728772 0.45323318
000080 81 09 89 3e 39 4c 8d bf 28 26 00 c0 2e 2b fb be
       0.26765063 -1.1038886 -2.0023289 -0.4905638
000090 19 12 a0 be af 19 76 3f 6a 33 48 3f 1a 4e 2f be
       -0.31263807 0.9613294 0.7820345 -0.17119637
0000a0 a0 32 25 c0 26 2b 04 bf 1e 82 6c 3f ab d3 42 c0
       -2.581215 -0.5162834 0.92386043 -3.0441692
0000b0 25 6a 26 bf f2 65 5c 3f ef b0 2b 40 d9 c9 0e 3f
       -0.65005714 0.86093056 2.6826742 0.55776745
0000c0 35 30 98 bf e4 19 72 bf ae 3a 3d 3f be fe 30 3f
       -1.1889712 -0.94570756 0.73917663 0.69138706
0000d0 3f 3e 35 bc 9d f8 c8 3e da 38 b7 3f c6 a5 fa be
       -0.011062204 0.39252177 1.4314225 -0.489546
0000e0 fa db a5 3d 52 0d f9 be ce f3 6c bf 5c 43 3d 3e
       0.08098598 -0.48642975 -0.92559516 0.18482727
0000f0 04 51 09 c0 26 2a 97 be 19 56 1c bf 71 ef b7 bf
       -2.1455698 -0.29524344 -0.61068875 -1.4369947
000100 3b c3 7a bf 6d f6 e1 be a4 f0 93 bf 85 dc c3 3e
       -0.9795415 -0.4413332 -1.1557813 0.3825418
000110 3e 23 54 3f b9 6b 70 bf 46 f5 fd 3f 98 b0 ca 3e
       0.82866275 -0.9391437 1.9840477 0.39587855
000120 eb 0f 35 bf 59 fd 43 3f 4a 91 20 3f 74 6f ee bf
       -0.70727414 0.7655845 0.62721694 -1.8627763
000130 7e 0d 0c 3f a1 da e0 3e 3f 76 af bf d4 d3 3c bf
       0.5470809 0.439168 -1.3707961 -0.73760724
000140 2a 0d ce be 57 d7 a1 bf c9 57 95 3f ee c1 d5 3e
       -0.40244418 -1.2643842 1.1667415 0.4174952
000150 12 c9 24 bf db 3e 8c 3d 12 51 8e 3e 0c c8 98 bf
       -0.6436931 0.06847926 0.27796227 -1.193605
000160 44 c2 b8 3f 47 c1 e2 3e 66 44 26 bf ec 95 2a c0
       1.4434285 0.44288084 -0.6494812 -2.6654005
000170 0d 87 0f bf 4e 60 84 3f a8 b4 d5 3c 8b 85 2e bd
       -0.56065446 1.034189 0.02608712 -0.042607825
000180 b2 73 da 3f 47 58 ba bf df d2 01 bf 8e 68 8f bf
       1.7066557 -1.455819 -0.5071239 -1.1203783
000190 01 94 63 bf 00 0d 20 3e 03 1d 7c bd c5 17 c1 3f
       -0.8889771 0.15629959 -0.061551105 1.5085379
0001a0 80 b0 0e bf 60 2a d9 bf be 5f fb bf 57 7b 1f bf
       -0.5573807 -1.6966057 -1.9638593 -0.62297577
0001b0 9e a2 74 bf b6 61 f7 3e 29 7b 07 bf f5 ff 7b bf
       -0.95560634 0.48316735 -0.529223 -0.98437434
0001c0 fc a4 65 3e 7a fd ab 3e a3 ab aa bf 55 fd ac bf
       0.22426218 0.33591825 -1.3333629 -1.3514811
0001d0 88 50 db be aa 1f 9c bf 85 b5 17 bf 40 ef f9 be
       -0.42834878 -1.2197163 -0.5926135 -0.48815346
0001e0 df 07 2e bf c0 c2 ee 3f 57 27 ac bd 44 64 fb be
       -0.6798076 1.8653183 -0.08405941 -0.49099934
0001f0 b7 19 9c 3d b0 ae 53 3f 73 a9 08 3f 95 8b 64 bf
       0.07622092 0.82688427 0.5338356 -0.89275485
000200 f1 b8 61 bf 02 0b 76 bf 80 8f d1 bf 73 d3 7d 3e
       -0.88172823 -0.96110547 -1.6371918 0.24787693
000210 1b 14 7d bf 40 06 8c bd 82 30 74 3e 77 d1 94 bf
       -0.98858804 -0.068371296 0.2384663 -1.1626424
000220 bd c9 ed bf ca c3 dd be 03 9f 7f bf 89 1c ea 3e
       -1.8577191 -0.43313438 -0.9985201 0.45724896
000230 cb 9c 33 bf f8 1f 4e bf 67 79 ef 3f 65 c1 e6 3e
       -0.7016112 -0.8051753 1.8708924 0.45069423
000240 0c 64 c1 bf 13 ed e7 bf a7 88 03 bf 1a cf d4 be
       -1.5108657 -1.8119224 -0.5138039 -0.41564256
000250 bf 93 03 3e 0a a7 67 3f 97 99 59 bf 09 89 c6 3f
       0.1284933 0.90489256 -0.84999985 1.551057
000260 e6 f5 cb 3e bd 27 61 3f 9d 2c 9f bf 06 df da bd
       0.39836043 0.8795126 -1.243549 -0.106870696
000270 15 b3 6a 3d 68 70 f2 be 05 8a b5 3e b1 8d a5 bf
       0.057299692 -0.47351384 0.35456863 -1.2933866
000280 b2 38 91 3f a1 be 21 3f ca 3b b0 be b5 db 05 bf
       1.1345427 0.631815 -0.34420615 -0.5228837
000290 d1 69 36 bf 59 98 18 c0 5b 8d 86 bf 0b c3 12 bf
       -0.71255213 -2.3842986 -1.0511888 -0.5732886
0002a0 44 52 07 c0 03 04 94 be cc 7d ce be b1 bd 40 bf
       -2.114396 -0.2890931 -0.4033035 -0.75289446
0002b0 c4 76 9a 3f 6d 1c a4 3e 41 6b 4c bf 46 58 9e be
       1.2067494 0.32052937 -0.79851156 -0.30926722
0002c0 b9 61 99 be 8d 38 c5 bf 49 03 50 3f a2 79 92 be
       -0.2995737 -1.5407883 0.8125501 -0.28608423
0002d0 91 e4 03 40 6e 80 0c 3f 0e b9 30 3e e5 01 72 3e
       2.0608256 0.5488347 0.17258093 0.23633535
0002e0 a7 6e 99 3f 43 12 0c 3d 04 72 02 3f f3 7a a4 3f
       1.1986893 0.034197103 0.50955224 1.2850021
0002f0 ea 5e 00 3f b1 91 b3 3c 0c 83 1c 40 34 e8 f3 3e
       0.5014483 0.021920057 2.4454985 0.47638094

state_net.0.bias f4 [64]
000000 11 56 82 bf 2f 36 78 bf 46 c9 87 3f 0a bd 84 3f
       -1.0182515 -0.9695768 1.0608299 1.037019
000010 ce 9e 01 40 8c 79 8e 3f 16 28 b8 3f 82 c6 a0 3f
       2.0253177 1.1130843 1.4387233 1.256058
000020 97 32 85 3f ad 8b 25 3f 1d 99 7f 3f 66 b5 87 3e
       1.0406064 0.64666253 0.9984301 0.26505584
000030 34 31 94 be 59 2d 3e be 8b 06 29 bf f4 db 0d bf
       -0.2894379 -0.18571986 -0.6602561 -0.55413747
000040 65 8a 0a bf 2b 7e ff 3e b7 2a 75 3e 07 48 9c 3f
       -0.54117423 0.49900946 0.23942076 1.2209481
000050 b8 84 4e 3e e7 88 c3 3f 1b 12 24 bf 05 66 03 be
       0.20167816 1.5276154 -0.64090127 -0.12831886
000060 ba 6e f1 3f 02 22 5d bf fb df bd 3f 80 52 96 3f
       1.8861916 -0.86380017 1.4833978 1.1743927
000070 02 57 b5 3f 7e c6 86 3f 7a 65 91 be 9f 98 9b 3f
       1.4167178 1.0529325 -0.28397733 1.2155951
000080 6f c7 c3 bf 6c a0 99 3f 9f 9b aa 3f e0 e5 6f 3f
       -1.5295237 1.2002082 1.3328742 0.93710136
000090 28 14 14 3b b7 6a c5 3f c5 5c 96 3f 63 5b 93 bf
       0.0022595022 1.5423192 1.1747061 -1.1512264
0000a0 42 4e fc 3e 14 ce b3 be 7a a4 a9 3f c9 f6 8c 3f
       0.49278456 -0.35118163 1.3253319 1.1012813
0000b0 1f e4 86 3f 13 7c 54 3f 2c fb 9d be f9 b3 2b 3f
       1.0538367 0.8300182 -0.3085569 0.6707149
0000c0 30 47 a3 3f 2c d1 6f be a7 57 32 3f f8 f2 8c 3f
       1.27561 -0.23419636 0.69664997 1.1011648
0000d0 a4 30 88 3f 74 3f 1b be 27 90 56 3c b8 eb 71 3e
       1.0639844 -0.15160924 0.013095892 0.23625076
0000e0 5e 44 81 3f d0 78 1f 3f a3 96 b4 3f 39 44 e2 3e
       1.0098989 0.6229372 1.4108471 0.44192675
0000f0 9b 52 f0 3e 1d 9d a2 3f f1 92 f5 3d 8e 9e 81 bd
       0.46938023 1.2704197 0.119909175 -0.0632907

action_net.0.weight f4 [64, 1]
000000 0a 67 94 bf 48 29 27 be 44 ec 82 be 74 3f 04 3e
       -1.1593945 -0.16324341 -0.2557088 0.1291483
000010 60 80 76 3d 8a e1 2e 3f 64 75 93 be 4b c1 80 bc
       0.06018102 0.68312895 -0.288005 -0.01571717
000020 30 d8 f5 3e c0 aa 44 bd 70 4f 44 bf 55 89 39 3f
       0.480165 -0.048014402 -0.7668371 0.7247518
000030 ec b3 b9 bf 10 c7 89 3d 24 07 15 3f e8 05 1f bf
       -1.4508033 0.06727421 0.5821402 -0.6211839
000040 d6 4e 3e 3f e6 71 1f 3f d8 6a 68 3f cf 7b 6d 3f
       0.74339044 0.6228317 0.9078803 0.9276704
000050 d9 10 b9 be 60 96 03 bd 8c f1 2c 3f d4 4e ff bf
       -0.36145666 -0.03212583 0.6755607 -1.9945931
000060 17 9f 37 3f 05 2e 8a 3f af 99 48 bf 3f 17 86 be
       0.71727127 1.0795294 -0.783595 -0.2618961
000070 98 56 3b be dd 73 be be 33 7c a6 3f 28 0b 78 3e
       -0.18294752 -0.37197772 1.3006653 0.24223006
000080 39 46 19 3f 28 78 43 3e 10 6d 84 bf 70 cf d4 3d
       0.59872776 0.19088805 -1.0345783 0.10391128
000090 98 5a 30 3e e1 2b fe bd a0 1f 2d bf 7c eb cd be
       0.17222059 -0.12410713 -0.6762638 -0.40218723
0000a0 d0 84 d3 3d 59 97 3e 3e e0 a2 b7 3d 68 5f cd 3e
       0.10328066 0.18612422 0.08966613 0.40111852
0000b0 f0 cc 54 be d8 d1 c3 be 55 29 16 3f 38 70 26 3f
       -0.20781302 -0.38246036 0.5865682 0.6501498
0000c0 6b 42 9d 3f ed 61 a0 be 12 96 0d bf 4b bc 86 3f
       1.2285894 -0.3132471 -0.55307114 1.0526212
0000d0 84 3f 6e bd a8 5c 6b be 55 31 b2 3e 24 5a 2f 3f
       -0.058166042 -0.22984564 0.34803262 0.6849692
0000e0 92 4f 0e 3f 8c 77 fc be 78 35 f6 3e 4f 99 81 bf
       0.55590165 -0.49309957 0.48087668 -1.0124911
0000f0 88 a1 a6 3e ac 7d 22 bf 0a 0f 7b bf 20 a5 66 bf
       0.32545114 -0.6347301 -0.9806982 -0.9009571

action_net.0.bias f4 [64]
000000 2d 0e 32 bf 88 39 54 be 76 53 26 bf a9 8d 8f 3f
       -0.6955288 -0.20725071 -0.649711 1.1215106
000010 b8 59 f6 be 53 f7 be 3f 4c 3f c4 be fd 79 a9 3f
       -0.48115325 1.4919227 -0.38329542 1.3240353
000020 96 1d 9d be 40 1c fa bd f9 78 80 3f 7b 4f 51 3f
       -0.30686635 -0.122124195 1.0036918 0.817619
000030 f0 fa 49 3f 98 8b 64 bf da d2 14 3f 7a 52 9c 3f
       0.78898525 -0.89275503 0.58134234 1.221267
000040 04 75 6e bf da c1 38 bf df 55 a2 3f d1 8f ae be
       -0.931473 -0.72170794 1.2682456 -0.34094098
000050 c6 b4 0d 3f 0a 64 79 bf 82 f7 62 3f 1e df ad 3d
       0.55353963 -0.9741827 0.88658917 0.08489822
000060 86 09 78 3f bb ef 60 3f 75 b9 a6 3f 30 ce 99 3f
       0.9688953 0.878658 1.3025347 1.2016048
000070 aa 2c 7f 3f 00 6d 2b 3f 3c ad fb 3e 24 d2 85 be
       0.99677527 0.66963196 0.49155605 -0.26136887
000080 c4 58 1b bf c0 bf 32 bf 50 bc 88 3f b8 59 38 bf
       -0.6068232 -0.6982384 1.0682468 -0.720119
000090 62 45 3c bf cb ab 8c 3f f6 f7 3d bf 6e 4e b8 3f
       -0.7354337 1.0989927 -0.74206483 1.4398935
0000a0 0e 04 7a bf 4e 54 0a 3f 18 6c 0e bf 34 c6 1e bf
       -0.97662437 0.5403489 -0.5563369 -0.62021184
0000b0 8e a6 62 bf ec 4d e8 be ec 3a c4 be 72 a1 7c bf
       -0.8853539 -0.4537195 -0.38326204 -0.98683846
0000c0 3e e6 5c 3e 54 6b a9 be de ec 4a bf f1 c3 4c bf
       0.21572205 -0.33089697 -0.7926768 -0.7998648
0000d0 46 8c b3 3f 34 56 bc be c8 14 39 3f c4 eb 34 3f
       1.4027183 -0.36784518 0.72297335 0.7067225
0000e0 de 1c 96 3f bc 0c 4b bf 8e 7d 51 bf 22 eb 84 3f
       1.172756 -0.79316306 -0.81832206 1.0384257
0000f0 f8 ee b8 be 62 e4 76 bf 02 3b 7b bf bb 3a 5f 3f
       -0.3611982 -0.96442235 -0.98136914 0.8719899

output_net.0.weight f4 [64, 128]
000000 b8 2b cc be 21 8b 52 3f 31 e7 0b 3f f3 9e 37 3e
       -0.39877105 0.82243544 0.54649645 0.17931728
000010 9e 0b da 3e ce 77 12 3f 43 e4 36 3f 27 33 06 3f
       0.42586988 0.5721406 0.7144205 0.524218
000020 14 fc 1c 3f b4 39 23 3f 14 de c0 3e 34 d4 e8 be
       0.6132214 0.63759923 0.37669432 -0.45474398
000030 50 3d 81 be 8e 0a 37 3f c0 1f f5 3e 19 85 00 3f
       -0.2524209 0.7150048 0.47875786 0.5020309
000040 01 b8 bf bd 24 32 ab 3a ff de 41 3f 05 24 cb 3e
       -0.09361268 0.0013061208 0.7573089 0.39675918
000050 9a 53 ff 3d c5 bd 08 3f ab ce 42 bd b5 4e 1f bf
       0.124671176 0.53414565 -0.047560375 -0.6222947
000060 d4 17 29 be a3 dc d7 be 90 87 0c 3f 82 0b a1 3e
       -0.16512996 -0.4216052 0.5489435 0.31454092
000070 a7 b3 a1 3e be a2 70 3e 85 0d 81 bf 2e 2a d8 3e
       0.31582376 0.23499581 -1.0082251 0.4221968
000080 39 0b 9b 3f 7b 31 11 3f ec 1e 8d 3d 2a e9 f5 be
       1.21128 0.56716126 0.068906635 -0.48029453
000090 aa c2 3b be ee 04 e2 3e 90 bd ea 3e 06 e9 63 be
       -0.18335977 0.44144386 0.4584775 -0.2225686
0000a0 0b f1 ee 3e 4f f5 32 be f6 48 8f 3d fc ba 24 3f
       0.46668276 -0.1747639 0.06996338 0.64347816
0000b0 c9 9b f1 3e 33 d7 dd 3e 39 a6 a6 be cd a0 aa 3e
       0.47189167 0.43328246 -0.32548693 0.33325806
0000c0 fd 38 c0 3e ff 6e d6 bd 11 a2 a4 3e 6e 88 e4 3e
       0.3754348 -0.104703896 0.32154897 0.44635338
0000d0 5e 16 ae bd 50 17 83 3d eb c5 be bd 94 39 eb bd
       -0.0850036 0.06400931 -0.093150936 -0.114855915
0000e0 65 e0 06 3f 65 a4 bc 3e 60 81 25 3f ac 06 dc 3e
       0.5268615 0.36844173 0.64650536 0.4297384
0000f0 f2 79 0f 3f 6c f4 58 3e fe 61 b1 be f0 6a c5 3e
       0.5604545 0.2118699 -0.34645075 0.3855815
000100 59 54 60 3d 59 99 90 bd 40 2f 25 bd 5f 46 56 3e
       0.05476794 -0.07060499 -0.040328264 0.20925282
000110 60 60 0b bd ad 49 7b 3e 0c 0a 5c bd 22 0c a2 3e
       -0.034027457 0.24539824 -0.05372052 0.31649882
000120 a7 12 99 bd 19 69 0a 3d 26 a0 93 3e e3 d5 84 3e
       -0.07474261 0.033791635 0.2883312 0.25944433
000130 cb b6 a0 3e 92 67 17 bc e5 20 3e 3d 79 e3 9f 3e
       0.3138946 -0.009241002 0.04641809 0.31228235
000140 38 42 88 bc c6 83 27 bd f3 80 65 3e 35 38 76 3d
       -0.016633138 -0.040897153 0.22412471 0.060112197
000150 97 5d c5 3e a5 a2 1c bd 0d 76 7a 3e e9 5d 2f bc
       0.38547966 -0.038241047 0.24459095 -0.010703542
000160 1b 10 8c 3e a7 54 9f 3e db ba 37 3e 79 49 81 3e
       0.27356037 0.31119272 0.17942373 0.25251368
000170 a3 9f 9e 3e b2 3b 89 3e 37 9c d0 3d 22 7c aa bb
       0.30981168 0.26803356 0.101860456 -0.005202786
000180 97 9c 4c 3d 32 de 85 bd 3c 4d 71 3e 31 54 76 3d
       0.049954023 -0.06536521 0.23564619 0.060138885
000190 04 e8 07 3d c8 0d a7 3e 08 35 8b bb cb a7 6a 3e
       0.03318025 0.32627702 -0.004248265 0.2291557
0001a0 b5 84 43 3d db ff 9d 3e af 2c 96 3d c4 9e be bc
       0.04773398 0.30859265 0.073327415 -0.023269065
0001b0 eb 5b 6f bd ba 0c 05 3d 67 84 c9 bd 3c 5f 98 bc
       -0.05843727 0.03248284 -0.09839707 -0.018600099
0001c0 cf d0 48 3d 55 bb 92 bd cf 38 82 bd 1c 04 5e 3e
       0.04902726 -0.07164637 -0.06358492 0.21681255
0001d0 ae c2 86 3e 56 7c cb bc 70 03 4c 3e 10 32 66 3e
       0.26320404 -0.024839561 0.19923186 0.22480035
0001e0 94 b7 6c 3e 23 68 4b bc a4 ad 2a bd f1 19 62 3e
       0.23116904 -0.012414965 -0.041669503 0.22080208
0001f0 af 04 74 3d cb 9f 48 bd 36 58 61 bd dd 61 a8 3e
       0.05957478 -0.048980515 -0.055015765 0.32887164
000200 45 33 cd 3c 90 b4 01 3d b9 0e 10 bd ba 4a 8c bd
       0.025048861 0.03166634 -0.03517029 -0.068501905
000210 72 bc 85 bd 29 08 93 3d ac bb 63 3c 4f 34 5e bd
       -0.06530084 0.07179291 0.013899725 -0.054249104
000220 d6 0c 9c 3d fb b2 a5 3d c7 b0 35 bc 3a ee be 3c
       0.07619636 0.080907784 -0.01108951 0.023306955
000230 fb e1 19 3b b6 32 b5 bc 56 61 87 bc 55 7f 7d bd
       0.0023480642 -0.022118907 -0.016525906 -0.06188901
000240 5a 5f 17 3d a0 be b0 3d 7c a4 9e 3d 2d de 39 3d
       0.03695617 0.08630109 0.07746217 0.0453779
000250 33 d8 93 bd 1d 8f 28 bd 61 99 13 bd 53 37 b0 3d
       -0.07218971 -0.04115211 -0.036034945 0.08604302
000260 6c 7a 99 bd 3c e6 89 3d e4 df 92 bd 1b 72 87 3c
       -0.07494053 0.06733367 -0.0717161 0.016533902
000270 54 74 96 bd f4 ab 45 bd 81 80 81 3d 2f b6 30 bd
       -0.073464066 -0.04825969 0.06323338 -0.043142494
000280 00 e8 98 bd e6 e7 8f bd 22 dc d2 bc d5 04 69 bd
       -0.074661255 -0.07026653 -0.025739733 -0.056889374
000290 06 25 cc bb 16 2d 10 bd 34 38 a4 bd 90 8d 5d 3d
       -0.0062299995 -0.035199247 -0.080185324 0.054090083
0002a0 1b aa 97 3c 29 47 93 3d 42 cd b1 bc 36 78 28 3b
       0.01851373 0.07191307 -0.02170432 0.0025706417
0002b0 35 c2 cb ba 42 c3 ff bc de 18 96 bd 46 6a 98 bd
       -0.0015545549 -0.031221036 -0.07328962 -0.07442145
0002c0 66 45 4e bd f8 4e 9a bd c6 b3 98 3d 12 7e 34 3d
       -0.050359152 -0.07534593 0.07456164 0.044065543
0002d0 d3 6c 7b 3d 3a b9 ac bd 4e 7f 36 bd 49 93 89 3c
       0.06138308 -0.08433767 -0.044555 0.016793864
0002e0 39 24 64 bd 4c 99 4c 3d 4c 84 02 bc e7 a8 2a bc
       -0.055698607 0.049950883 -0.007966112 -0.010416246
0002f0 80 ce c1 3a 5b 25 74 3d d1 96 02 3d 1b b5 b1 bc
       0.0014786273 0.059605937 0.03188211 -0.021692803
000300 52 a6 38 bd 80 db 8d 3d eb 0d 03 bd cc 16 b4 3d
       -0.04508049 0.06926632 -0.031995695 0.08793411
000310 45 5c e9 3b df 6f 86 3d 9b 84 41 3b 74 7c 6b 3d
       0.007121595 0.065643065 0.0029528502 0.057491735
000320 40 fb 8a bd f3 45 a2 bc 06 ae 5b bd 7d 7c 8e bd
       -0.067862034 -0.019808745 -0.05363276 -0.06957338
000330 db 40 90 bd 31 b2 aa 3d 5d d6 26 3d 68 08 72 3c
       -0.0704362 0.083347686 0.040731777 0.014772512
000340 01 ba b7 bb 76 1a 44 3c 4a 54 4a bd fe d9 69 bd
       -0.00560689 0.011969199 -0.04939679 -0.05709266
000350 a7 34 81 bd 93 d1 a4 3d ff 86 62 bd 1a 2f 5f bd
       -0.06308871 0.080477856 -0.055304524 -0.05448828
000360 67 ad 29 bd 23 e9 43 bc b3 d9 a5 bd c6 58 8e 3d
       -0.041425135 -0.01195744 -0.080981635 0.06950526
000370 8e da 7e bd 00 f1 35 bd 2f da 66 bd 96 9b e3 bc
       -0.06222015 -0.04441929 -0.05636042 -0.02778415
000380 26 a3 95 bd be 78 f3 bc 52 e9 e8 bc 43 0f 95 bd
       -0.07306509 -0.02972066 -0.028431568 -0.072783016
000390 1a 46 b7 bc a9 93 a3 bb 0d 03 28 bc 3b 39 f0 bc
       -0.022372294 -0.0049919677 -0.010254634 -0.029324165
0003a0 56 17 74 bc 24 08 88 bd 11 14 91 bd b8 39 95 bd
       -0.014898142 -0.06642178 -0.070839055 -0.072863996
0003b0 1f 2c 43 3d 38 06 9a 3b 0b 88 08 bd 2a 79 5a bd
       0.0476495 0.0047004484 -0.033332866 -0.053338207
0003c0 bf 59 f2 bc c3 a4 9f bc 48 0e ea bb 5c 6b a4 bd
       -0.02958381 -0.019487744 -0.0071428157 -0.0802829
0003d0 91 5f 60 bd 8f fa a6 3d 40 60 27 bd 1b f4 24 bc
       -0.05477864 0.08153259 -0.040863276 -0.010067965
0003e0 db 84 2f 3d f9 db b0 3d 9e ab 20 bd 5f 1a c4 bb
       0.04285131 0.086357065 -0.039226167 -0.005984589
0003f0 58 c5 47 3d 74 0a ac 3c 0d c3 46 3d af 6b 06 3d
       0.048772186 0.021001078 0.04852586 0.03281754

output_net.0.bias f4 [64]
000000 d6 ee 89 3e dd 9b 17 3d fc a8 70 3e 09 07 b3 3e
       0.2694003 0.037013877 0.23501962 0.34966305
000010 e2 ef 17 3e e7 51 4b 3e d5 61 4c 3e 33 b3 4a 3e
       0.14837602 0.19855462 0.19959195 0.19794922
000020 2a b3 d3 bd 00 8f d1 3e 98 2a 20 3d 69 aa 8f 3c
       -0.10336907 0.40929413 0.03910312 0.017537313
000030 a1 d5 54 3e 2e d6 d3 3e 43 d0 5e 3b a4 df a5 3e
       0.20784618 0.41374344 0.0033998645 0.32397187
000040 00 c7 a7 3e 17 53 64 bd 7c 76 04 bc 77 0d a3 bd
       0.32769012 -0.055743303 -0.0080848895 -0.079615526
000050 1c 70 4d 3d e2 b3 9e 3e ef 9a 6f 3e 01 dd 0a be
       0.050155744 0.30996615 0.23398946 -0.13560869
000060 24 7b 21 bd f6 58 5a 3e b5 55 1b be 1e ed c5 bc
       -0.039424077 0.21322998 -0.15169413 -0.024160918
000070 fa 7c 99 3e 87 06 44 3e 2d 82 b4 3e ff 3b 50 3c
       0.29978162 0.19143115 0.35255566 0.012709617
000080 87 6e 75 3e 3d d6 ac 3e 36 37 dd 3e 20 9c 6f 3e
       0.23967944 0.337572 0.43206185 0.233994
000090 48 05 bc 3e 3d dc 41 3e 58 a9 90 3e f2 ae 9d bc
       0.3672278 0.1893167 0.282542 -0.01924846
0000a0 da fb 0b 3d dc 9b 9f 3e 0e 26 b2 3e 1b bf 9d 3a
       0.03417573 0.311736 0.34794658 0.0012035103
0000b0 90 16 03 3e d0 8f 94 3e ff 01 0c 3d 46 09 5c 3e
       0.12801576 0.2901597 0.03418159 0.21487913
0000c0 9c 7d 55 3d 74 4d 87 3e b0 41 6e 3d 66 70 5f 3e
       0.052121744 0.2642628 0.058168113 0.2182022
0000d0 dc 41 a1 3e 9f 95 dc 3e db 71 64 3d f2 46 82 3e
       0.3149556 0.43082902 0.055772644 0.25444752
0000e0 b5 5b c3 3a 33 37 9a 3e 60 fc 93 3d e1 29 90 3e
       0.001490465 0.3012024 0.07225871 0.2815695
0000f0 67 b3 f5 3e a7 c5 2f bd 0b f8 b0 3e 4b dd a6 3e
       0.47988436 -0.042913105 0.34564242 0.32590708

output_net.2.weight f4 [1, 64]
000000 22 d5 2f bf 04 b7 ec 3d 3e 8f 3e bf 54 72 21 bf
       -0.6868459 0.11558345 -0.7443732 -0.63065076
000010 0f ee 34 bf b3 40 41 bf d8 72 05 40 37 25 29 bf
       -0.7067575 -0.7548935 2.0851345 -0.6607241
000020 88 29 f0 3f 58 17 43 40 3e 41 ce 3d df 2c 1e 40
       1.8762674 3.0482998 0.10071038 2.4714887
000030 fd 44 44 bf d4 d0 fe 40 99 ca b7 3f 12 f4 3a bf
       -0.7666777 7.9629917 1.4358703 -0.7302867
000040 d1 bd 40 bf d8 1a c2 3d 6b 6f 3f 3d 95 58 98 3d
       -0.75289637 0.09477776 0.046737116 0.07438771
000050 6a 3e b1 3d 72 eb 2c bf c0 d0 c3 3f 2f da 3c 40
       0.08654483 -0.6754676 1.529808 2.9508169
000060 72 41 44 3d 40 ec 2e bf dd f9 bb 3f 27 cc eb 3c
       0.047913976 -0.6832924 1.4685627 0.02878387
000070 44 47 31 bf be 0e 55 40 15 cc 2c bf 86 d6 e8 3c
       -0.6924937 3.3290248 -0.67498904 0.028422605
000080 99 56 39 bf 16 c7 31 bf 06 33 3e bf a9 7b 45 bf
       -0.7239776 -0.69444406 -0.74296606 -0.77141815
000090 33 73 1a 40 43 3d 42 bf c3 a7 25 bf 57 10 1f 40
       2.4132812 -0.7587473 -0.6470911 2.4853723
0000a0 d1 b3 99 3d 3a b9 42 bf 98 f5 23 bf 40 07 ee 3f
       0.075050004 -0.76063883 -0.6404662 1.8595963
0000b0 95 c6 4d 40 7a 9c fb 3f 3f 57 d6 3d f7 12 da 3f
       3.2152455 1.9657128 0.104658596 1.7037038
0000c0 7f 22 ec 3f bf c1 3e bf 25 3b 38 3d 87 80 3c bf
       1.8448027 -0.74514383 0.04497828 -0.7363362
0000d0 13 b8 34 bf 88 43 31 bf b3 0d 81 3d 17 e7 37 bf
       -0.70593375 -0.6924367 0.06301441 -0.7183699
0000e0 df 9a 6f 3d a6 64 21 bf 8b 95 2f 3d 13 28 42 bf
       0.058497306 -0.630442 0.042867225 -0.758424
0000f0 87 0e 3a 41 7b 29 ab 3d 17 b9 38 bf b4 d6 48 bf
       11.628547 0.08357521 -0.72157425 -0.7845261
