Q1/ckpt/critic1_ep250.pth (torch, 38344 bytes, 7 tensors)

state_net.0.weight f4 [64, 3]
000000 4b 15 21 bf 4f 11 bf 3f cf a2 b1 3e 66 45 95 be
       -0.62923115 1.4927157 0.34694526 -0.2915451
000010 b3 1b 82 3f 77 9a 6a be e9 f1 d3 be eb 06 f1 bb
       1.0164703 -0.22910486 -0.413955 -0.007355561
000020 72 55 34 be 66 e0 87 3e 3a 74 c5 3e 7e b1 47 3f
       -0.1761072 0.2653839 0.38565236 0.78005207
000030 b1 26 ba be e0 18 35 3f 1c ca f2 be c4 b3 19 bf
       -0.36357644 0.7074108 -0.47419822 -0.60039926
000040 53 f9 bc bf ff 04 a4 be f6 d5 6d bf 18 0a eb be
       -1.4763588 -0.32035062 -0.92904603 -0.45906138
000050 c0 fc aa be 84 a3 97 bf 30 e0 93 3e 9f d8 3c be
       -0.33395958 -1.1846776 0.2888198 -0.1844201
000060 72 aa 90 bf 42 4a af bf 4f e4 93 be 83 65 ea be
       -1.1302016 -1.3694537 -0.28885123 -0.45780572
000070 fb 36 51 3d 8a 0f 48 be 67 b5 2c bf ea e7 af bf
       0.051077824 -0.19537178 -0.674643 -1.374265
000080 35 f1 a2 be 1a 04 3c bf 29 df 53 3e 05 1a 93 3e
       -0.3182465 -0.7344376 0.20690598 0.2873079
000090 35 7b 56 bf 06 71 3f bf 9f 2a 53 3e 39 0b 71 be
       -0.8378175 -0.74781835 0.20621727 -0.23539437
0000a0 dd d6 97 bf 64 32 6b 3e 82 90 9b bf c1 77 e3 3f
       -1.1862446 0.22968441 -1.2153475 1.7770921
0000b0 95 4d 98 3e 38 d1 1a bf cb de 60 bf 34 73 35 bf
       0.2974669 -0.6047549 -0.87839955 -0.7087891
0000c0 46 59 0f bf 75 8d da bf 79 eb 12 bf 69 0b 76 3e
       -0.55995595 -1.7074419 -0.5739055 0.2402779
0000d0 30 76 19 bf 5a 4a 9f 3e dd f0 97 be 73 ae 4a 3e
       -0.59945965 0.31111413 -0.29675952 0.1979311
0000e0 33 2f 32 bf 1e a6 90 bf dc ce 89 3f 44 bd c4 3e
       -0.6960327 -1.1300695 1.0766253 0.38425648
0000f0 72 f6 67 bf a5 44 3c 3f 17 1b 97 3e 30 5b 68 bf
       -0.9061042 0.73542243 0.29512855 -0.9076414
000100 8d 4d cb 3f 2f 5d d6 3e f2 e1 1f 3f 73 b2 55 3f
       1.5883042 0.41867968 0.6245414 0.83475417
000110 3b 46 ce 3b d0 68 34 bf 08 02 fc 3d 4a 8d f7 3e
       0.006294993 -0.7047243 0.12305075 0.48349983
000120 80 8c 9d be d5 e6 03 3e bd 34 70 3e 83 8b 1e 3f
       -0.30771255 0.12881024 0.23457618 0.6193163
000130 04 17 b6 3f 90 ce e1 3e 75 76 4f 3f db a8 0a 40
       1.4225774 0.44102907 0.81040126 2.1665561
000140 8a f6 f0 3e 9d d4 78 bd 65 8e 15 40 47 92 f3 3e
       0.47063094 -0.06074964 2.336816 0.47572538
000150 b3 42 88 3f 1f bf 01 3f 85 ce 00 3e 9c b8 aa 3f
       1.0645355 0.5068225 0.12578781 1.3337588
000160 86 d1 1f bf 13 88 c7 be 6b db 83 bf 21 e1 0b bf
       -0.6242908 -0.38971004 -1.0301336 -0.54640394
000170 a1 93 75 be f1 c0 0d bf aa 26 21 3e 2d 2e 75 3e
       -0.23982097 -0.5537253 0.15737405 0.23943396
000180 55 4b 36 bf 3a 44 c7 3f 7f 13 be bd 35 cf 08 bf
       -0.712087 1.5567696 -0.09281062 -0.5344117
000190 73 82 7c be 11 51 44 be a4 63 43 bd 2f b1 ee bd
       -0.24659137 -0.1917155 -0.047702447 -0.11654889
0001a0 43 9a 30 3e 3b 5e 96 bf 7d 43 9a 3f 37 dd d1 3e
       0.17246346 -1.1747507 1.2051846 0.40989086
0001b0 29 3a eb be 0b b1 b5 3e 10 7b f4 be 84 b3 77 bf
       -0.4594281 0.35486636 -0.4775014 -0.96758294
0001c0 77 9d 93 3f 70 03 b7 3e 91 00 b5 3f a7 24 0f bf
       1.153243 0.3574481 1.4140798 -0.559153
0001d0 f7 2b f5 bd d3 6b 6c bf bd ab c1 bf e6 e6 11 3e
       -0.11971276 -0.92352027 -1.5130535 0.14248237
0001e0 5c c1 5b be 29 96 fa bc 79 67 c1 be 8f 9a 17 bf
       -0.2146048 -0.03058918 -0.37774256 -0.5922021
0001f0 34 f3 1e be 99 35 83 be d5 43 08 bf 9c d8 70 3f
       -0.15522462 -0.2562683 -0.53228503 0.9408052
000200 4f 76 49 3f f0 d5 21 bf 82 b6 1c bf c8 4c 56 3e
       0.7869615 -0.6321707 -0.61215985 0.20927727
000210 62 9d 64 3f 92 10 1a c0 1b d6 0e bf 97 2a 7f bf
       0.8930265 -2.4072614 -0.5579545 -0.9967436
000220 ea e5 b5 3f bb 68 d0 3e 4f 0b f6 bd 49 9d 2c 3f
       1.4210789 0.40704903 -0.12013876 0.674275
000230 fe 80 00 bf fc aa bb be 5b fc 61 bf 72 ae dc 3e
       -0.50196826 -0.36653888 -0.8827569 0.4310184
000240 c2 69 d0 3e ba 2b 2d 3f 0f 81 21 3f da be 90 be
       0.40705687 0.67644846 0.6308755 -0.28270608
000250 49 43 15 c0 5a df ef be 93 83 6e bf 5a 58 b5 bf
       -2.3322318 -0.4685009 -0.93169516 -1.4167588
000260 22 bd bc be 1f d1 31 be 15 a6 64 be 0e 84 dc 3e
       -0.36863047 -0.1736493 -0.2232898 0.430695
000270 76 a4 18 bf e9 10 10 be 13 c5 80 be a7 b4 08 bf
       -0.5962595 -0.1406895 -0.25150356 -0.53400654
000280 93 79 16 3e b2 fe 75 3e 3a 01 aa 3d 12 a2 ed 3e
       0.14694814 0.2402294 0.08301015 0.46412712
000290 00 8c 7e 3d 64 b5 1c bf d3 ed 77 be e8 0f 6d be
       0.062145233 -0.6121428 -0.24211816 -0.23150599
0002a0 83 d1 4c bf 17 67 67 3f 1c 81 84 be 85 8d b0 bf
       -0.8000719 0.9039168 -0.25879753 -1.3793188
0002b0 2d 5f e6 3f a7 49 f8 3e d0 37 07 bf bb 09 11 c0
       1.7997795 0.48493692 -0.5281954 -2.266219
0002c0 b1 6c d4 be 3d 1e 90 3f c4 93 88 3f bd 91 b3 3e
       -0.41489175 1.1259228 1.0670094 0.35072127
0002d0 c7 d6 75 3e 2a e2 09 bf e1 2c 7b bd b8 a1 aa be
       0.24007712 -0.53860724 -0.061322097 -0.33326507
0002e0 52 65 84 bf 1e a8 af 3e a8 26 6a bf 65 02 42 3c
       -1.034342 0.3430795 -0.91465235 0.011841391
0002f0 99 fe 9c 3b ee 5f f1 3e b7 e0 14 c0 b2 14 fd be
       0.0047910926 0.471435 -2.3262155 -0.49429852

state_net.0.bias f4 [64]
000000 55 fd 1b 3f 82 bf 89 3f 8f e8 85 3f 39 69 0b 3f
       0.6093343 1.0761569 1.0461596 0.5445743
000010 8b a6 f8 be 55 07 0a 3f 6e 2c cb 3f 93 bc 82 3e
       -0.48564562 0.5391744 1.5872934 0.25534496
000020 d6 40 d3 bb 7d 55 9b 3f 8c f4 20 3f 3e f3 a3 3f
       -0.006446938 1.2135464 0.6287315 1.2808607
000030 87 b8 53 3f 34 c2 98 3f 92 c9 07 3f d4 3e 0a bf
       0.8270344 1.1934266 0.53041947 -0.5400212
000040 c1 01 03 be 51 7b ee 3f 0e 21 7e 3f 4e 44 8e 3f
       -0.12793638 1.8631383 0.9926919 1.1114595
000050 36 b0 64 3f 40 a3 5e 3f fd 7f 7a 3f d6 20 e9 be
       0.89331377 0.8696785 0.97851545 -0.45532864
000060 99 4a a5 3f 32 c9 39 3e 62 e5 3d bf 7b d8 2c 3d
       1.291339 0.18143156 -0.74178135 0.04219864
000070 11 9c 64 3f 6b 34 a9 bf 31 b0 86 3f a9 c0 8e 3f
       0.8930064 -1.3219122 1.0522519 1.1152545
000080 07 08 30 3f bd c3 6c 3f 6a b2 96 3f 65 a8 92 3f
       0.6876225 0.9248617 1.1773198 1.145764
000090 74 41 e9 be 89 58 6e 3f cf 11 2b 3f 90 55 4a 3f
       -0.4555775 0.93103844 0.6682405 0.7903681
0000a0 eb c0 83 be 81 1a b4 3f b8 f0 03 bf 46 f5 20 3f
       -0.25733122 1.4070588 -0.5153918 0.6287426
0000b0 da 14 60 bf 39 10 74 3f 87 53 2f 3f 94 89 91 be
       -0.87531817 0.95337254 0.6848683 -0.28425276
0000c0 2f 42 a6 3e 05 0f 88 3e 75 d2 66 3f 05 36 8b be
       0.3247237 0.2657396 0.9016488 -0.2718965
0000d0 cf 88 b0 3f c5 21 92 3f c4 69 70 3f e2 f4 94 3f
       1.3791751 1.1416556 0.93911386 1.1637232
0000e0 5b fb 4e 3f 18 10 a8 3e 6e 5f e4 be 1d 84 91 bf
       0.8085229 0.3282478 -0.44604057 -1.1368443
0000f0 70 ab 63 3f 6d bf 1d bf b1 4e 10 bf 1a bc f5 be
       0.8893347 -0.6162022 -0.56370074 -0.47995073

action_net.0.weight f4 [64, 1]
000000 d3 12 99 bf 0e a1 89 bf 80 54 db 3d ce 81 5c bd
       -1.195887 -1.0752275 0.107094765 -0.05383473
000010 5b e1 be be 28 b0 22 bf ae 4e 0b 3f 0e 12 03 3f
       -0.37281308 -0.63550043 0.5441693 0.51199424
000020 8c 4e be be 36 19 3f bd 2f a6 84 3f 24 f7 c7 3e
       -0.37169302 -0.046654902 1.0363215 0.3905574
000030 3e cf be be 7f ec 3d be a4 6f 70 3f c2 ad 33 bf
       -0.37267488 -0.18547247 0.9392035 -0.7018701
000040 e0 45 77 bd 37 b5 e2 3e 00 25 e1 3e 12 7d a2 3e
       -0.060369372 0.4427888 0.4397354 0.31736046
000050 70 e9 96 3d 0f ad c7 be ba a2 02 3f 88 4a df 3e
       0.073687434 -0.3899922 0.5102955 0.4361155
000060 bd a4 52 3f 9e dc 53 bf 50 4e 26 3f 6f 5d a5 be
       0.8228262 -0.8275851 0.64963245 -0.32297847
000070 dd 95 3d 3f 94 91 48 bf a0 9a 89 bf 74 20 6c 3f
       0.740568 -0.78347135 -1.0750313 0.9223702
000080 6a 09 9c bf 43 d1 8f be 86 ce b2 3d 3a 39 e7 be
       -1.2190373 -0.28089342 0.087307975 -0.45160848
000090 83 d8 e0 be 88 98 fd be 29 b8 6b 3e 38 c0 c3 3e
       -0.43915185 -0.49530435 0.2301947 0.3823259
0000a0 85 cb e3 3e 60 de 45 3d cf b0 42 bf 43 7f 31 3f
       0.4449121 0.048307776 -0.7605104 0.6933481
0000b0 c1 1a 0d 3f 1c c7 59 bf 28 04 5c bf 7e 89 2b bf
       0.5511895 -0.8506944 -0.8594384 -0.6700667
0000c0 77 83 9c 3d 8d eb 53 bf 64 65 63 bf 80 d4 40 bf
       0.076422624 -0.82781297 -0.88826585 -0.7532425
0000d0 70 c0 bf 3e f5 d7 05 3f b8 06 b8 3e c7 11 46 3d
       0.37451506 0.5228265 0.35942626 0.048356798
0000e0 8f 2b 43 bf 95 ee 73 3f 37 a7 25 3f 22 fb 77 3f
       -0.7623834 0.9528592 0.64708275 0.96867573
0000f0 7c 06 45 3f 59 dc d6 be 0f c1 ea be 68 5d 8f 3f
       0.7696302 -0.41964987 -0.45850417 1.120038

action_net.0.bias f4 [64]
000000 b5 23 32 be b7 78 83 be f0 be df be 4c 73 90 3f
       -0.17396434 -0.25678036 -0.4370036 1.1285186
000010 7c 9b 27 3f f8 44 7a bf cc 46 2b be b1 7a 8e 3f
       0.65471625 -0.9776149 -0.16726226 1.1131192
000020 a0 6a 0d bf 4c 24 9a 3f 42 90 18 3f 7d 55 c8 be
       -0.5524082 1.2042327 0.5959512 -0.39127722
000030 9c 59 1e 3f b2 66 05 3f 8c 79 3d 3f ce 0d 63 3f
       0.61855483 0.52109826 0.7401359 0.8869294
000040 d4 bb b1 be 12 4c 88 3f a2 f3 5e bf f4 81 c9 3e
       -0.34713614 1.0648215 -0.87090504 0.3935696
000050 02 1b 3b bf 98 38 2b 3f 31 73 b9 3f 8c 06 eb be
       -0.73088086 0.6688323 1.4488279 -0.45903432
000060 f3 98 68 3f 67 d7 99 3f 56 ce f0 be 87 06 88 be
       0.9085838 1.201886 -0.47032422 -0.2656748
000070 2e 49 5a 3f 71 72 d5 3c 3d b8 18 bf 7e 52 cc be
       0.85267913 0.026055546 -0.59656125 -0.39906687
000080 50 4f 3c bf f2 ce ac 3f 9d a5 97 3f 3b cd 9e 3f
       -0.7355852 1.3500655 1.1847416 1.2406381
000090 97 69 88 3f 2a e2 54 3f a0 53 83 3e bd ce 25 3f
       1.0657223 0.831576 0.25649738 0.6476858
0000a0 5d ee 85 3f a8 df 2d bf 83 d9 87 3f 03 5b 5a 3f
       1.0463368 -0.679194 1.0613254 0.8529512
0000b0 85 5c 44 3f fb 0f a4 3f 66 dc 65 bf aa b5 43 bf
       0.76703674 1.2817377 -0.89789426 -0.7644907
0000c0 17 b5 7f 3f 3d 86 ad 3f 82 44 1c be 06 d3 6d bf
       0.99885696 1.3556591 -0.15260509 -0.9290012
0000d0 08 91 1d 3f a1 18 71 3f 20 42 1c bf 98 ee 82 3f
       0.61549425 0.94178206 -0.610384 1.0229063
0000e0 45 f4 42 3f ff 86 1f 3e bf 05 a4 3f 0b ca 39 3e
       0.76153976 0.1557884 1.2814254 0.1814348
0000f0 80 0d 71 bf bd 1f 45 3f 53 a5 a5 3f f8 5d 8d 3e
       -0.94161224 0.77001554 1.2941078 0.27610755

output_net.0.weight f4 [64, 128]
000000 f1 eb 3d 3d ad b0 b5 bd f4 65 7d bd d3 b9 57 3d
       0.04636759 -0.08871589 -0.06186481 0.05266745
000010 bd 61 72 3d 6d 32 4c 3d d6 9b 0d 3d 79 fb 2b bc
       0.05917524 0.049852777 0.034572445 -0.0104969675
000020 72 04 6d bb fd e5 3c bd 62 56 92 3d 96 57 9e bd
       -0.003616598 -0.04611777 0.071453825 -0.077315494
000030 22 d0 39 3d 02 f3 ba 3c d8 02 8c 3c af 03 8f 3d
       0.045364507 0.022820953 0.0170912 0.069831245
000040 6d 8f 91 bc 97 bb 84 bd d9 fb 05 bc 40 0f da 39
       -0.017768586 -0.064810924 -0.008177721 0.00041591562
000050 c3 33 3f 3d b1 de ec bc 3d 87 1f bd 8c 9e a8 bd
       0.046680223 -0.028914781 -0.038947333 -0.082333654
000060 86 70 5a bc 5e 98 d2 bc bb 62 4a 3c 48 e0 27 3d
       -0.013332492 -0.02570742 0.012352641 0.040985376
000070 ef 56 18 3d 61 ea f2 3c 53 93 a1 bd 81 5d 00 3d
       0.03719228 0.029652776 -0.07889428 0.031339172
000080 ef e9 40 bd 02 77 7d 3d b8 b7 a7 bd c7 67 9e 3b
       -0.047098096 0.061881073 -0.081893384 0.0048341486
000090 8e 7a ea bc 66 0a 4c bd 19 e7 82 bd 96 26 8c 3d
       -0.028622892 -0.049814604 -0.06391735 0.06843297
0000a0 4b 3a 0d bd 88 0f 30 bd f8 dc 9b 3d 63 fb d9 bc
       -0.03447942 -0.04298356 0.07610506 -0.026609128
0000b0 c7 15 15 3d 26 3f a2 bd 24 2c 4b 3d fe 6d 8d bd
       0.03639772 -0.07922201 0.049602643 -0.06905745
0000c0 60 33 11 3d 31 19 b9 bd 63 93 9d 3c a9 53 13 ba
       0.035449386 -0.09038008 0.019235319 -0.00056200713
0000d0 c6 6e d0 bc c9 a8 59 bc c8 c7 11 3d 51 2c 5a 3c
       -0.025443446 -0.01328487 0.035590917 0.01331623
0000e0 cb 0f 47 bd 25 34 a6 bd 49 d8 81 bd de 8a ad bd
       -0.048599046 -0.081154145 -0.06340081 -0.084737524
0000f0 4f d0 98 3c ba a5 44 bd 8c 21 04 3d 4a 15 97 bd
       0.018654017 -0.04800961 0.032258555 -0.073771074
000100 5b cb 5f bd 7d 3b e0 bc a2 25 8f 3d dd 5f a6 3c
       -0.054637294 -0.027372116 0.069896 0.020309383
000110 01 9e 9b bd b9 bb 44 bd 2e 49 90 3d c2 2f 41 3d
       -0.07598496 -0.04803059 0.07045208 0.047164686
000120 58 14 ac 3d 38 0f a1 bd 72 41 02 bd b0 7c 9e 3d
       0.08402318 -0.07864231 -0.031800695 0.07738626
000130 88 95 9f bd 2f 14 71 3b cb fd 4e bd 44 c7 5b bd
       -0.07792193 0.0036785712 -0.050535005 -0.05365683
000140 b7 0b 85 3d 0c d1 64 39 0d c8 de 3b 53 f3 21 bd
       0.06496375 0.0002182165 0.0067987503 -0.039538693
000150 fd 47 90 3d f4 df aa bb b3 2c 67 3c 42 27 82 3d
       0.07044981 -0.0052146856 0.014109778 0.06355144
000160 86 9b 4f 3b 45 f9 7a bd 86 cf 55 bd 1b f2 78 3d
       0.0031678393 -0.06127288 -0.052199863 0.060777765
000170 35 ab 11 3d 03 0a b7 bd bc 65 a2 bc e2 75 25 bd
       0.035563666 -0.089374565 -0.019823901 -0.040395625
000180 cd 03 28 bd 29 c7 8d bd 4b 62 05 bc fd 36 65 3b
       -0.04101925 -0.069227524 -0.008141111 0.0034975403
000190 20 64 ee 3c 4b e0 a8 bd be aa 9e bc 9b 6b 61 3d
       0.029100478 -0.082459055 -0.019368526 0.05503426
0001a0 ba fb 3e 3d 0e 7c 24 3d c1 62 4b bd 05 d2 87 bd
       0.046626784 0.04015737 -0.049654726 -0.06631855
0001b0 91 09 d3 bc a7 58 0c ba 4f 22 06 3d 6b 12 3d bd
       -0.025761398 -0.00053537864 0.032747563 -0.046160143
0001c0 89 9d 99 3d fc 35 46 3d d3 f1 84 3d 61 3a b3 3d
       0.075007506 0.048391327 0.06491437 0.08751369
0001d0 13 82 98 3d 07 aa 7a bd 7a 5f 94 bc e5 e1 2d 3d
       0.07446685 -0.061197307 -0.018111933 0.042451758
0001e0 92 f3 64 3d f3 eb 3f bd 60 99 a5 bd 39 40 b9 bd
       0.05589635 -0.046855878 -0.080858946 -0.090454526
0001f0 f5 7c 99 bd fb 66 c3 3b 14 7b 85 3c 35 64 9d bd
       -0.07494537 0.005963204 0.01629404 -0.076851286
000200 be d7 d5 3e 22 25 1d 3f e0 03 fb 3e 1a 5f cd bd
       0.4176616 0.61384785 0.49026394 -0.10027905
000210 cd 42 d8 be f1 de c2 3e 87 54 b3 3e 8c 76 4e 3f
       -0.42238465 0.38060716 0.35025427 0.8064964
000220 cf 5a e2 be ea ef 0a 3f ca 9e f0 3e 32 c1 bd 3e
       -0.44209906 0.5427233 0.46996146 0.3706146
000230 da 32 1b 3f 00 fc 28 3f ac 8d af be 58 f7 48 be
       0.6062447 0.6600952 -0.34287775 -0.19625604
000240 b8 f4 88 be 4d 2f 72 3e 15 89 ae bd 0b a4 14 3e
       -0.26749206 0.23650856 -0.0852224 0.14515702
000250 10 4f 03 3f 4d 07 bc 3e 5d c1 d6 3e e3 29 e5 bd
       0.51292515 0.3672432 0.419444 -0.1118963
000260 13 99 f7 3e 2a 8f 42 be 2e 2e 26 3f 25 9f 9f 3e
       0.48358974 -0.18999925 0.64914215 0.31176105
000270 da bc 04 3f 6b 05 c4 3f 72 96 eb 3e 3e b0 10 3f
       0.51850665 1.5314153 0.46013218 0.56518924
000280 30 5e 1a 3f 60 b4 dd 3e 9b 30 11 3f 29 3a 93 3e
       0.6029997 0.43301678 0.5671479 0.2875531
000290 a5 17 70 be ec ed 9c 3e 57 f6 c6 3e 85 50 10 3f
       -0.2344652 0.3065027 0.38859817 0.56372863
0002a0 06 4e 5b be e7 67 55 3e c8 e5 82 be 1f 8c 10 3f
       -0.21416482 0.20840417 -0.25565934 0.5646381
0002b0 ff aa 11 3f 37 f4 51 3e b1 05 33 be 6e eb d2 be
       0.56901544 0.20503317 -0.1748264 -0.41195244
0002c0 af 96 05 be 7b 83 d9 3e 94 e5 05 3f 0d 2b a6 be
       -0.13045762 0.42483124 0.52303433 -0.3245472
0002d0 92 5f d4 3e f5 f8 0f 3f 24 4f ab 3e 39 8a 0b 3f
       0.41479164 0.56239253 0.33458817 0.54507786
0002e0 ff 3c f0 3e 2e c3 fe be ad 0a 5a bf ed 1e 93 3f
       0.46921536 -0.49758285 -0.8517254 1.1493813
0002f0 95 5c 88 3e cf da 15 bf de 62 55 3f 65 2d 07 3f
       0.26633134 -0.58537 0.83353984 0.5280364
000300 c2 60 29 bd 4d 54 4a be ee 5b ef bc ce 40 a9 3e
       -0.04135204 -0.1975872 -0.02921864 0.33057255
000310 b9 35 a1 3e 3c b6 72 3d 1f af 0c 3d a1 3e b7 3e
       0.314863 0.059255823 0.034346696 0.3578997
000320 c5 f0 b5 3c 14 03 a7 3e 7a 1d 2a 3e c0 37 6a bc
       0.022209534 0.32619536 0.16612807 -0.014295518
000330 19 bd b9 3e a8 58 c0 3e 74 87 50 3e 60 be 8d 3e
       0.36277083 0.3756764 0.20364171 0.27684307
000340 2d 86 85 bd e7 b5 e0 3e da 54 2d bd 85 25 7f 3e
       -0.065197326 0.4388878 -0.04231725 0.24916656
000350 9d d9 5f 3c 25 ca 86 3e c1 87 e7 3e b2 d5 71 bd
       0.013662723 0.263261 0.4522076 -0.059041686
000360 e6 f7 9d 3e 04 fc ac 3e a9 80 c2 bd 64 10 c5 bc
       0.30853194 0.33786023 -0.09497196 -0.024055667
000370 d7 6c 93 3e 52 90 bc bc 4b ba 0d be a5 f3 0d bd
       0.28793976 -0.023018036 -0.13840596 -0.034656186
000380 82 b5 7d be d2 3d e0 3e 11 20 b1 3e a6 ca c9 3e
       -0.24776271 0.43797165 0.34594777 0.3941242
000390 26 7d 95 3e 58 74 d4 3e 7a 70 5b 3d e3 3a 92 3e
       0.29197043 0.41495013 0.053574063 0.28560552
0003a0 a8 2d c0 3e 67 95 8b bd 83 16 80 3e 5a 05 b2 3e
       0.37534833 -0.068156056 0.25017175 0.34769708
0003b0 9b 41 bf 3e ca 4e 96 3e e1 38 39 3d 70 89 a1 bd
       0.3735474 0.29356986 0.04522026 -0.07887542
0003c0 cd 28 cb 3e b9 05 c7 3e 09 e2 81 bd 8a c1 2e 3c
       0.39679566 0.38871554 -0.06341941 0.0106662605
0003d0 bc 1a c4 3e 11 01 ac 3e 25 0d 29 bd 06 5f a2 3e
       0.38301647 0.33594564 -0.0412723 0.31713122
0003e0 bf 69 8c 3e e3 e9 02 bd 52 62 d2 3e 74 21 9d 3d
       0.27424428 -0.031961333 0.41090637 0.07672396
0003f0 4c e7 12 3d 0c 75 c7 3e 44 17 c2 3e 15 46 59 3c
       0.035865113 0.38956487 0.37908375 0.013261338

output_net.0.bias f4 [64]
000000 86 b0 54 bd d3 58 d6 3e f6 09 53 3d 6b 6e cd 3e
       -0.05192616 0.41864643 0.05152317 0.40123305
000010 ea e9 8e 3e 83 85 91 3e 3e f9 8f 3e e4 77 e0 3c
       0.27912837 0.28422174 0.28119844 0.027400918
000020 94 2c 5e 3e c4 c5 42 bd 16 38 ab 3e 66 6b 07 3e
       0.21696693 -0.047551885 0.33441228 0.13224563
000030 79 5a b4 bc db 41 be 3e f7 5a 29 3e 93 b7 6c 3e
       -0.022015797 0.3715962 0.16538607 0.23116903
000040 02 9f 99 bc 88 55 87 3e 24 43 a5 bd f4 3d 90 3e
       -0.018752579 0.26432443 -0.08069447 0.28172266
000050 bd 54 57 bc b9 51 a6 bc 26 ab 91 3e c3 01 a8 3e
       -0.013142762 -0.02030264 0.28450888 0.32813844
000060 cb 3f 8d 3e 94 64 c4 3e 75 84 c7 bd 75 c5 0a 3d
       0.27587733 0.38357985 -0.09742061 0.033879716
000070 08 b5 ae 3e c1 97 09 bd 80 b7 56 3e a1 e3 9e 3e
       0.3412249 -0.03359199 0.20968437 0.31033042
000080 68 d7 83 3e 83 44 a2 3e 87 c4 93 3e 6a fb ae 3e
       0.2575028 0.31692895 0.28860876 0.3417619
000090 f7 f9 9b 3e 05 8c ff 3c a9 bf 9a 3e 93 8c 87 3e
       0.30464146 0.031194696 0.3022435 0.26474437
0000a0 04 9a ab 3e 5a 26 b5 3e 69 3f 76 3e fc 7d a7 3e
       0.33515942 0.35380822 0.24047627 0.32713306
0000b0 2a 85 97 3e df a0 38 bd ec 3f 19 3c 7b 7c d9 bc
       0.29593784 -0.045075294 0.009353619 -0.026548615
0000c0 e2 8e c0 3e 86 68 b9 3e 03 e3 86 3e d6 4a a2 3e
       0.3760901 0.36212558 0.2634507 0.3169772
0000d0 50 52 95 3e 50 eb b4 3e 1d 2c 68 3e 36 18 65 3e
       0.29164362 0.3533578 0.22673078 0.22372517
0000e0 41 05 aa 3e 81 5c c5 3e 77 4e 42 bd f4 51 88 3e
       0.33207133 0.38547137 -0.04743811 0.26625025
0000f0 f4 d4 44 bd dd cc 85 bd 11 0a af 3e e2 20 4d 3d
       -0.04805465 -0.06533215 0.34187368 0.050080188

output_net.2.weight f4 [1, 64]
000000 94 e9 d0 3d 57 93 14 bf 63 c8 da 3f f1 df 1e bf
       0.102008015 -0.5803732 1.7092403 -0.6206046
000010 e2 e7 20 bf ff 76 19 bf 31 ec 11 bf 7b eb d5 3d
       -0.62853825 -0.599472 -0.57001024 0.10445305
000020 a3 b9 36 bf ec 4b fa 3c a0 5b 12 bf 54 6a 0a 40
       -0.7137701 0.03055378 -0.5717106 2.1627398
000030 94 95 ef 3f 9b 14 26 bf 0d 10 1d 40 3e 8a 39 bf
       1.8717523 -0.6487519 2.4541047 -0.72476566
000040 02 61 ff 3f e4 23 26 bf 51 d0 96 3c 17 74 1f bf
       1.995148 -0.64898515 0.01840988 -0.62286514
000050 d7 ac 75 3d 55 23 e4 3d 69 dc 04 40 5e c2 2c bf
       0.059979286 0.111395516 2.0759528 -0.6748408
000060 45 e2 41 40 f1 19 47 bf 40 f6 80 bd 16 08 e5 3d
       3.0294354 -0.7777396 -0.062969685 0.11183183
000070 a5 95 17 bf 44 6f 8a 3d db 4d 34 bf 26 0b 26 bf
       -0.59212714 0.067595035 -0.704313 -0.6486076
000080 a8 9d 27 bf 70 e0 0b 40 c2 f4 3b bf 92 57 1b bf
       -0.6547494 2.1855736 -0.73420346 -0.60680497
000090 fd fd 35 bf 0e 5c e2 3d 7a fc 30 bf 38 af 28 bf
       -0.7109068 0.11052714 -0.6913525 -0.6589236
0000a0 31 9b 5f bf 94 cf 19 bf 1b f4 2b bf e6 f9 27 bf
       -0.8734618 -0.60082364 -0.6716935 -0.6561569
0000b0 da 7b 3b bf 5a 61 a8 bd 82 bb 54 3d 02 56 8d bd
       -0.7323586 -0.08221693 0.051936634 -0.0690117
0000c0 03 ce 20 bf c1 ba 30 bf 78 77 29 bf b1 01 23 bf
       -0.6281435 -0.69034964 -0.6619792 -0.63674456
0000d0 18 d5 1b 40 4d f1 17 bf 65 05 25 bf f0 96 37 bf
       2.4348812 -0.5935257 -0.64461356 -0.7171469
0000e0 76 d0 3a bf 8a d7 3d bf ea 29 bd 3f 43 bd 16 bf
       -0.72974336 -0.7415701 1.4778416 -0.5888254
0000f0 bd da a0 3f ce 2b 19 3d 95 e2 c3 3f fc 67 0f 3d
       1.2566754 0.03739529 1.5303522 0.035011277
