Q1/ckpt/critic1_ep50.pth (torch, 38332 bytes, 7 tensors)

state_net.0.weight f4 [64, 3]
0	0xbf2f8f8e	-0.6857842
1	0x3f890e37	1.0707463
2	0x3ea9cb95	0.33163133
3	0xbe99d93c	-0.3004855
4	0x3f6fe5c3	0.93709964
5	0xbe0d0425	-0.13771112
6	0xbf029a20	-0.51016426
7	0x3ca15ddf	0.019698082
8	0xbe413be0	-0.18870497
9	0xbe24c2ee	-0.16089985
10	0xbd62eb28	-0.055400044
11	0x3f337bf3	0.70111006
12	0xbcbaee95	-0.022818843
13	0x3f454a91	0.77066904
14	0xbee41af8	-0.44551826
15	0xbf178a87	-0.5919575
16	0xbf5d21de	-0.863798
17	0xbe980c79	-0.29697016
18	0xbf95d911	-1.1706868
19	0xbec47690	-0.38371706
20	0xbec052fb	-0.3756331
21	0xbf58e2ec	-0.84721255
22	0x3dc2b935	0.09507982
23	0xbdb0c010	-0.08630383
24	0xbf8501bc	-1.0391154
25	0xbf2ad422	-0.6672994
26	0xbe9bc5db	-0.3042439
27	0xbf175db2	-0.5912734
28	0x3d28133a	0.04103396
29	0xbe619113	-0.22027998
30	0xbf1f4602	-0.622162
31	0xbf627d90	-0.88472843
32	0xbea1e108	-0.31616998
33	0xbf6a5520	-0.9153614
34	0x3e54f538	0.20796669
35	0x3e8565e7	0.26054308
36	0xbf1c58fb	-0.61073273
37	0xbf3ccd36	-0.7375063
38	0x3e20f3c2	0.15717986
39	0xbe21bc40	-0.15794468
40	0xbf886a31	-1.0657407
41	0x3dc8788a	0.09788616
42	0xbf50b8a3	-0.81531733
43	0x3fba242f	1.4542292
44	0x3e4748d2	0.19461372
45	0xbf919cc3	-1.1375965
46	0xbba5ada2	-0.005056099
47	0xbf263a80	-0.64933014
48	0xbf0f6465	-0.56012565
49	0xbed8895f	-0.42292306
50	0xbf1e2a41	-0.61783224
51	0x3d810f3b	0.06301733
52	0xbf1c4ef2	-0.6105796
53	0x3ec2e955	0.38068643
54	0xbd5779b0	-0.052606285
55	0x3e8c781d	0.2743539
56	0xbf45b518	-0.7722945
57	0xbf3b7dbe	-0.7323874
58	0x3f26f22a	0.65213263
59	0x3ed82528	0.42215848
60	0xbf49b015	-0.78784305
61	0x3ebcb316	0.36855382
62	0x3e8dbdc8	0.27683854
63	0xbf767b18	-0.96281576
64	0x3f94b6a5	1.1618239
65	0x3ec412e4	0.38295662
66	0x3e850c2d	0.25985852
67	0x3f4e7f04	0.8066256
68	0xbc816712	-0.015796218
69	0xbf38759b	-0.7205445
70	0x3abac50a	0.0014249396
71	0x3ed30748	0.41216493
72	0xbf35915f	-0.70924944
73	0x3e0b015f	0.13574742
74	0x3e6e17bc	0.23251241
75	0x3f00000f	0.5000009
76	0x3e815071	0.25256684
77	0x3eab045e	0.3340177
78	0x3f19a0c8	0.6001096
79	0x3fa9b91d	1.3259617
80	0x3ec17c78	0.37790275
81	0xbe7952e0	-0.2434802
82	0x3fb5bc10	1.4198017
83	0x3eb3988f	0.3507733
84	0x3f21054e	0.6289872
85	0x3ecee077	0.40405628
86	0xbb4177c6	-0.0029520853
87	0x3f795ec4	0.97410226
88	0xbec90bd5	-0.3926684
89	0xbe908b4d	-0.28231278
90	0xbf57ab51	-0.84245783
91	0xbef5e9f2	-0.4803005
92	0xbe999660	-0.2999754
93	0xbf356594	-0.7085812
94	0x3e44bee7	0.19213448
95	0x3e6704c4	0.22560412
96	0xbf313513	-0.6922161
97	0x3f828a02	1.0198367
98	0xbd41f83e	-0.047355883
99	0xbf2e74d0	-0.6814699
100	0xbe8aeb6c	-0.27132738
101	0xbe51945f	-0.20466755
102	0xbe5ee511	-0.2176707
103	0xbebdfdeb	-0.37107787
104	0x3e133923	0.14377265
105	0xbf7d1530	-0.98860455
106	0x3f2044a7	0.62604755
107	0x3ee5db5b	0.44893917
108	0xbec585e8	-0.38578725
109	0x3ed3737f	0.41299054
110	0xbed70230	-0.41993856
111	0xbf64cd0a	-0.89375365
112	0x3f666b1b	0.9000718
113	0x3eadcb75	0.33944288
114	0x3f95c181	1.1699678
115	0xbf1e8421	-0.6192036
116	0xbe22e5c0	-0.15907955
117	0xbf7a50a2	-0.97779286
118	0xbf49a348	-0.7876477
119	0x3e1a445c	0.1506514
120	0x3dfe7f41	0.124266155
121	0x3e875e3e	0.2643909
122	0xbeb74ea8	-0.35802197
123	0xbefe2816	-0.49639958
124	0xbedda07f	-0.4328651
125	0xbeaead8b	-0.34116778
126	0xbf80a8d2	-1.005152
127	0x3e8f9b26	0.28048056
128	0x3f2df3e2	0.6795026
129	0xbec0dd90	-0.3766904
130	0xbf2891a0	-0.65847206
131	0x3e22af1a	0.15887108
132	0x3f1cbf0d	0.6122902
133	0xbfc04848	-1.5022058
134	0xbee0d5ab	-0.43913016
135	0xbf90e93d	-1.1321179
136	0x3f70c176	0.940452
137	0x3e7f32e0	0.24921751
138	0x3ea7330a	0.32656127
139	0x3f1336d1	0.5750552
140	0xbf012736	-0.50450456
141	0xbe2c1646	-0.16805372
142	0xbf27dde8	-0.6557298
143	0x3ebf4e42	0.37364393
144	0x3dd0fb49	0.10204179
145	0xbcdd40a2	-0.027008358
146	0x3f0a010f	0.53907865
147	0xbe946bab	-0.28988394
148	0xbfc3ed43	-1.5306782
149	0xbede7e0c	-0.4345554
150	0xbf729a5d	-0.9476679
151	0xbf6da379	-0.92827564
152	0xbec305a9	-0.38090256
153	0x3d93e12b	0.07220682
154	0xbe90d1ae	-0.28284973
155	0x3eb77cbb	0.3583735
156	0xbf43f72b	-0.76549023
157	0x3c6cb4e0	0.014447421
158	0xbe897624	-0.26847947
159	0xbf392b3a	-0.72331583
160	0x3e41bf0e	0.18920538
161	0x3e69cc5d	0.22831865
162	0xbe2d5270	-0.16925979
163	0x3edbaecc	0.42906797
164	0x3db763f0	0.089546084
165	0xbf3f98d8	-0.74842596
166	0xbe384b87	-0.17997561
167	0xbe830ce4	-0.25595772
168	0xbef6530e	-0.4811024
169	0x3f42464c	0.75888515
170	0xbe1009a6	-0.1406618
171	0xbfa65c06	-1.2996833
172	0x3f76ffba	0.9648396
173	0x3edb5088	0.42834878
174	0xbf31ade1	-0.69405943
175	0xbf925e8a	-1.1435101
176	0xbeb16039	-0.34643725
177	0x3f8ac66d	1.0841805
178	0x3f1b2635	0.60605174
179	0x3e9a7f50	0.30175257
180	0xbdb5e867	-0.08882218
181	0xbee42d7e	-0.44565958
182	0xbac03126	-0.0014663085
183	0xbf23ccf9	-0.6398464
184	0xbf52e790	-0.82384586
185	0x3e93b5ff	0.2884979
186	0xbf707b32	-0.9393798
187	0x3d8028a8	0.062577546
188	0x3cb2396c	0.021755897
189	0x3ebcea94	0.3689772
190	0xbfb6acf1	-1.4271528
191	0xbebf96fe	-0.37419885

state_net.0.bias f4 [64]
0	0x3f0349d8	0.5128455
1	0x3f5f20f3	0.8715965
2	0x3f459f3b	0.7719609
3	0x3ece8b71	0.4034076
4	0xbeb5f63d	-0.35539427
5	0x3ef9cef7	0.48790714
6	0x3f9c5a57	1.221507
7	0xbdba7744	-0.09104779
8	0xbe67d272	-0.22638872
9	0x3f6b2b6f	0.9186315
10	0x3f0b61da	0.54446185
11	0x3f709a09	0.9398504
12	0x3ed9fe35	0.42576757
13	0x3f7f6098	0.99756765
14	0x3e76c545	0.2409869
15	0xbf05a7e0	-0.5220928
16	0xbe36703e	-0.17816254
17	0x3f8f0d69	1.1175967
18	0x3f17b20a	0.5925604
19	0x3f87cdee	1.060972
20	0x3f5502dc	0.8320749
21	0x3f297c8e	0.6620568
22	0x3f6552e9	0.89579636
23	0xbea1c7dc	-0.31597793
24	0x3f576c4c	0.8414962
25	0x3e51ff58	0.20507562
26	0xbec7b271	-0.39003327
27	0x3e0c65fc	0.13710779
28	0x3f63fcfb	0.8905789
29	0xbf4ea44e	-0.8071946
30	0x3f58b668	0.8465333
31	0x3f45e165	0.7729705
32	0x3efe8fad	0.4971899
33	0x3f1a03a2	0.60161793
34	0x3f4cb33a	0.7996098
35	0x3f5bfb48	0.859303
36	0xbeca8bc8	-0.3955977
37	0x3f30171d	0.6878527
38	0x3e8cb605	0.2748262
39	0x3ea1eacc	0.31624448
40	0x3c8771d3	0.016533768
41	0x3f8645d3	1.0490059
42	0xbf2b3e37	-0.6689181
43	0x3e891df8	0.26780677
44	0xbef7864b	-0.48344645
45	0x3f50cc87	0.81562084
46	0x3f0d03cd	0.55083925
47	0xbe928690	-0.28618288
48	0x3e82ce90	0.2554822
49	0x3ea40ea0	0.32042408
50	0x3f4c24cc	0.7974365
51	0xbe6b8f85	-0.23003967
52	0x3f8aa80d	1.0832535
53	0x3f48acf6	0.7838892
54	0x3f4fe77d	0.812126
55	0x3f614f1e	0.8801135
56	0x3f12849b	0.5723359
57	0xbede810f	-0.4345784
58	0xbf358790	-0.70909977
59	0xbf30d20e	-0.6907052
60	0x3f4d54ef	0.80207723
61	0xbf0bf2da	-0.5466744
62	0xbed118b8	-0.4083917
63	0xbe736e94	-0.23772651

action_net.0.weight f4 [64, 1]
0	0xbf5905ca	-0.8477446
1	0xbf42b5e5	-0.760588
2	0x3ddb5480	0.107094765
3	0xbd42d981	-0.04757071
4	0xbeb6923b	-0.3565844
5	0xbf22b028	-0.63550043
6	0x3f45e33c	0.7729986
7	0x3efdb274	0.4955021
8	0xbebe4e8c	-0.37169302
9	0xbd5e0187	-0.054200675
10	0x3f79d3fe	0.975891
11	0x3ee9654f	0.45585105
12	0xbeb82f23	-0.35973462
13	0xbe3f18eb	-0.18661849
14	0x3f708527	0.93953174
15	0xbf3129e6	-0.69204557
16	0xbd7745e0	-0.060369372
17	0x3ee095cd	0.4386429
18	0x3ee12500	0.4397354
19	0x3e959a06	0.29219073
20	0x3d96e970	0.073687434
21	0xbec304fe	-0.38089746
22	0x3f0138de	0.504774
23	0x3edf4a88	0.4361155
24	0x3f508271	0.8144904
25	0xbf52343a	-0.8211094
26	0x3f1c1e81	0.60984045
27	0xbeaf59bb	-0.34248146
28	0x3f3ae49a	0.7300507
29	0xbf108748	-0.5645642
30	0xbf7b8de3	-0.98263377
31	0x3f656338	0.8960452
32	0xbf91cdfe	-1.1390989
33	0xbe8c8bae	-0.27450317
34	0x3db8a393	0.09015574
35	0xbee86da8	-0.4539616
36	0xbedd137a	-0.43178922
37	0xbefcf23d	-0.49403563
38	0x3e4e32a9	0.20136513
39	0x3ebef17b	0.3729361
40	0x3edf9e2d	0.43675366
41	0x3d45de60	0.048307776
42	0xbf4012e7	-0.7502884
43	0x3f2e13ec	0.6799915
44	0x3f0c9465	0.5491393
45	0xbf5995ba	-0.8499409
46	0xbf5c0428	-0.8594384
47	0xbf2b897e	-0.6700667
48	0x3d8aaa07	0.067707114
49	0xbf514bac	-0.8175609
50	0xbf261c40	-0.64886856
51	0xbf40d480	-0.7532425
52	0x3ebd262c	0.36943185
53	0x3f0436b1	0.5164595
54	0x3eb806b8	0.35942626
55	0x3d2d15dc	0.042257175
56	0xbf48a0ad	-0.7837017
57	0x3f58a917	0.8463301
58	0x3f24d6ba	0.64390147
59	0x3f658a86	0.89664495
60	0x3f45067c	0.7696302
61	0xbed54156	-0.4165141
62	0xbee8509f	-0.4537401
63	0x3f742155	0.9536336

action_net.0.bias f4 [64]
0	0xbe968a14	-0.2940222
1	0xbed3baa1	-0.41353324
2	0xbedfbef0	-0.4370036
3	0x3f851a14	1.0398583
4	0x3f0f2581	0.559166
5	0xbf7a44f8	-0.9776149
6	0xbea09176	-0.31360978
7	0x3f830a98	1.0237608
8	0xbf0d6aa0	-0.5524082
9	0x3f8f5763	1.1198543
10	0x3f023cc7	0.5087399
11	0xbea9f904	-0.33197796
12	0x3f02c492	0.5108119
13	0x3eddbbad	0.43307248
14	0x3f1d2d7e	0.6139754
15	0x3f4c41d7	0.79787964
16	0xbeb1bbd4	-0.34713614
17	0x3f7a03d1	0.97662073
18	0xbf5ef3a2	-0.87090504
19	0x3e87c7f4	0.2651974
20	0xbf3b1b02	-0.73088086
21	0x3f147a9c	0.5799959
22	0x3fad2dfb	1.3529657
23	0xbeeb068c	-0.45903432
24	0x3f4b66a0	0.7945347
25	0x3f8d0ecb	1.102014
26	0xbef9cfae	-0.4879126
27	0xbe109236	-0.14118275
28	0x3f415028	0.75512934
29	0xbdbdb94e	-0.0926386
30	0xbf062ca2	-0.52411854
31	0xbed51e56	-0.41624707
32	0xbf357f69	-0.7089754
33	0x3fa0c2d4	1.2559457
34	0x3f8bbbb9	1.0916663
35	0x3f91e526	1.1398056
36	0x3f78ccf7	0.9718775
37	0x3f3e15b1	0.7425185
38	0xbe0a8a99	-0.13529433
39	0x3f09721a	0.5368973
40	0x3f7518a9	0.95740753
41	0xbf2ddfa8	-0.679194
42	0x3f76bbbd	0.96380216
43	0x3f4589a4	0.7716315
44	0x3f2de31d	0.6792467
45	0x3f9a32a0	1.20467
46	0xbf65dc66	-0.89789426
47	0xbf43b5aa	-0.7644907
48	0x3f66ebc6	0.9020351
49	0x3fa25ca3	1.268452
50	0xbe6c7b55	-0.23093922
51	0xbf6dd306	-0.9290012
52	0x3f045bdb	0.5170266
53	0x3f591b26	0.8480705
54	0xbf1c4220	-0.610384
55	0x3f6fbcf9	0.93647724
56	0x3f24a7fe	0.64318836
57	0xbe8f612d	-0.28003827
58	0x3f998558	1.1993818
59	0xbd9627cc	-0.073318094
60	0xbf710d80	-0.94161224
61	0x3f2e22d1	0.68021876
62	0x3f97ff51	1.1874791
63	0xbdd249fd	-0.102680184

output_net.0.weight f4 [64, 128]
0	0x3d3debf1	0.04636759
1	0xbdb5b0ad	-0.08871589
2	0xbd7d65f4	-0.06186481
3	0x3d57b9d3	0.05266745
4	0x3d7261bd	0.05917524
5	0x3d4c326d	0.049852777
6	0x3d0d9bd6	0.034572445
7	0xbc2bfb79	-0.0104969675
8	0xbb6d0472	-0.003616598
9	0xbd3ce5fd	-0.04611777
10	0x3d925662	0.071453825
11	0xbd9e5796	-0.077315494
12	0x3d39d022	0.045364507
13	0x3cbaf302	0.022820953
14	0x3c8c02d8	0.0170912
15	0x3d8f03af	0.069831245
16	0xbc918f6d	-0.017768586
17	0xbd84bb97	-0.064810924
18	0xbc05fbd9	-0.008177721
19	0x39da0f40	0.00041591562
20	0x3d3f33c3	0.046680223
21	0xbcecdeb1	-0.028914781
22	0xbd1f873d	-0.038947333
23	0xbda89e8c	-0.082333654
24	0xbc5a7086	-0.013332492
25	0xbcd2985e	-0.02570742
26	0x3c4a62bb	0.012352641
27	0x3d27e048	0.040985376
28	0x3d1856ef	0.03719228
29	0x3cf2ea61	0.029652776
30	0xbda19353	-0.07889428
31	0x3d005d81	0.031339172
32	0xbd40e9ef	-0.047098096
33	0x3d7d7702	0.061881073
34	0xbda7b7b8	-0.081893384
35	0x3b9e67c7	0.0048341486
36	0xbcea7a8e	-0.028622892
37	0xbd4c0a66	-0.049814604
38	0xbd82e719	-0.06391735
39	0x3d8c2696	0.06843297
40	0xbd0d3a4b	-0.03447942
41	0xbd300f88	-0.04298356
42	0x3d9bdcf8	0.07610506
43	0xbcd9fb63	-0.026609128
44	0x3d1515c7	0.03639772
45	0xbda23f26	-0.07922201
46	0x3d4b2c24	0.049602643
47	0xbd8d6dfe	-0.06905745
48	0x3d113360	0.035449386
49	0xbdb91931	-0.09038008
50	0x3c9d9363	0.019235319
51	0xba1353a9	-0.00056200713
52	0xbcd06ec6	-0.025443446
53	0xbc59a8c9	-0.01328487
54	0x3d11c7c8	0.035590917
55	0x3c5a2c51	0.01331623
56	0xbd470fcb	-0.048599046
57	0xbda63425	-0.081154145
58	0xbd81d849	-0.06340081
59	0xbdad8ade	-0.084737524
60	0x3c98d04f	0.018654017
61	0xbd44a5ba	-0.04800961
62	0x3d04218c	0.032258555
63	0xbd97154a	-0.073771074
64	0xbd5fcb5b	-0.054637294
65	0xbce03b7d	-0.027372116
66	0x3d8f25a2	0.069896
67	0x3ca65fdd	0.020309383
68	0xbd9b9e01	-0.07598496
69	0xbd44bbb9	-0.04803059
70	0x3d90492e	0.07045208
71	0x3d412fc2	0.047164686
72	0x3dac1458	0.08402318
73	0xbda10f38	-0.07864231
74	0xbd024172	-0.031800695
75	0x3d9e7cb0	0.07738626
76	0xbd9f9588	-0.07792193
77	0x3b71142f	0.0036785712
78	0xbd4efdcb	-0.050535005
79	0xbd5bc744	-0.05365683
80	0x3d850bb7	0.06496375
81	0x3964d10c	0.0002182165
82	0x3bdec80d	0.0067987503
83	0xbd21f353	-0.039538693
84	0x3d9047fd	0.07044981
85	0xbbaadff4	-0.0052146856
86	0x3c672cb3	0.014109778
87	0x3d822742	0.06355144
88	0x3b4f9b86	0.0031678393
89	0xbd7af945	-0.06127288
90	0xbd55cf86	-0.052199863
91	0x3d78f21b	0.060777765
92	0x3d11ab35	0.035563666
93	0xbdb70a03	-0.089374565
94	0xbca265bc	-0.019823901
95	0xbd2575e2	-0.040395625
96	0xbd2803cd	-0.04101925
97	0xbd8dc729	-0.069227524
98	0xbc05624b	-0.008141111
99	0x3b6536fd	0.0034975403
100	0x3cee6420	0.029100478
101	0xbda8e04b	-0.082459055
102	0xbc9eaabe	-0.019368526
103	0x3d616b9b	0.05503426
104	0x3d3efbba	0.046626784
105	0x3d247c0e	0.04015737
106	0xbd4b62c1	-0.049654726
107	0xbd87d205	-0.06631855
108	0xbcd30991	-0.025761398
109	0xba0c58a7	-0.00053537864
110	0x3d06224f	0.032747563
111	0xbd3d126b	-0.046160143
112	0x3d999d89	0.075007506
113	0x3d4635fc	0.048391327
114	0x3d84f1d3	0.06491437
115	0x3db33a61	0.08751369
116	0x3d988213	0.07446685
117	0xbd7aaa07	-0.061197307
118	0xbc945f7a	-0.018111933
119	0x3d2de1e5	0.042451758
120	0x3d64f392	0.05589635
121	0xbd3febf3	-0.046855878
122	0xbda59960	-0.080858946
123	0xbdb94039	-0.090454526
124	0xbd997cf5	-0.07494537
125	0x3bc366fb	0.005963204
126	0x3c857b14	0.01629404
127	0xbd9d6435	-0.076851286
128	0x3e9fb308	0.31191278
129	0x3ee73e0e	0.4516453
130	0x3eb8e7c8	0.36114335
131	0xbc87d770	-0.01658222
132	0xbea1c84b	-0.31598124
133	0x3e7ec2b3	0.2487896
134	0x3e82d75f	0.2555494
135	0x3f1695f3	0.58822554
136	0xbe72c679	-0.23708524
137	0x3ed10fa1	0.40832236
138	0x3eb07ec4	0.34471714
139	0x3e6a979a	0.22909394
140	0x3eeb79ef	0.45991465
141	0x3ef316da	0.47478372
142	0xbc99f3a0	-0.018792927
143	0xbe1e7ec9	-0.15478052
144	0xbd2d0727	-0.04224315
145	0x3e10c0c5	0.14136036
146	0xbd3792d3	-0.044817757
147	0x3d0f2beb	0.034953993
148	0x3ecfe119	0.40601423
149	0x3e87a1df	0.26490685
150	0x3e9b8776	0.30376786
151	0xbd299ff5	-0.041412313
152	0x3e91a2c6	0.284445
153	0xbd4265f5	-0.047460515
154	0x3eaf3828	0.3422253
155	0x3deafc81	0.114739425
156	0x3eaaa54b	0.33329234
157	0x3f5d075c	0.86339355
158	0x3eb5aa1b	0.35481343
159	0x3ed21141	0.4102879
160	0x3ebdec38	0.37094283
161	0x3ead62ef	0.33864543
162	0x3ea258ef	0.31708476
163	0x3e380f51	0.17974593
164	0xbdf7c21f	-0.120975725
165	0x3e4b0cef	0.19829153
166	0x3e9300f7	0.28711674
167	0x3edbf8be	0.42963213
168	0xbe19bb13	-0.1501277
169	0x3dd55335	0.10416261
170	0xbe16df8a	-0.14733711
171	0x3edc8703	0.43071756
172	0x3e79eb2c	0.24406117
173	0x3dde0807	0.10841375
174	0xbe0f7169	-0.14008106
175	0xbe854e58	-0.26036334
176	0xbd0e0a85	-0.034678
177	0x3e6637cc	0.22482222
178	0x3ed2d141	0.41175273
179	0xbe7a39ed	-0.2443616
180	0x3e964b39	0.29354265
181	0x3ecee9ec	0.40412843
182	0x3e98a1f7	0.2981107
183	0x3edf3bbd	0.43600264
184	0x3e88fb17	0.26754066
185	0xbe7bfe94	-0.24608833
186	0xbea27785	-0.3173181
187	0x3f26d7d3	0.6517307
188	0x3e5fcfff	0.21856688
189	0xbf0038d7	-0.5008673
190	0x3f553969	0.83290726
191	0x3e656ff3	0.22405986
192	0xbd5621cb	-0.05227832
193	0xbe29a81a	-0.16568032
194	0xbcef5bee	-0.02921864
195	0x3e8ef8d3	0.27924213
196	0x3e8aa58b	0.27079424
197	0x3d72b63c	0.059255823
198	0x3bf376eb	0.0074299476
199	0x3e9b67a9	0.30352524
200	0x3cb5f0c5	0.022209534
201	0x3e8caff7	0.27478
202	0x3e0a14b6	0.13484463
203	0xbd3d6c36	-0.046245776
204	0x3ea38d46	0.3194372
205	0x3ea8c037	0.32959148
206	0x3e169998	0.14707029
207	0x3e70eddd	0.23528238
208	0xbd85862d	-0.065197326
209	0x3ec4f48e	0.3846783
210	0xbd2d54da	-0.04231725
211	0x3e4aff0d	0.19823857
212	0x3c5fd99d	0.013662723
213	0x3e60a9bb	0.21939747
214	0x3ecbb4ff	0.39786527
215	0xbd71d5b2	-0.059041686
216	0x3e829e05	0.25511184
217	0x3e96bdaf	0.29441592
218	0xbbc9e687	-0.006161514
219	0x3b0287eb	0.001991744
220	0x3e700566	0.2343956
221	0xbd196f8d	-0.0374599
222	0xbd5c3d8b	-0.05376963
223	0xbd6b31be	-0.057420485
224	0xbe241f46	-0.16027555
225	0x3ec6b9b1	0.38813546
226	0x3e9645b9	0.2935007
227	0x3eb151e9	0.34632805
228	0x3e7acbab	0.24491756
229	0x3ebde4fa	0.37088758
230	0x3c82d4e2	0.015970651
231	0x3e6d9fb9	0.2320546
232	0x3ea46c2f	0.32113788
233	0xbd8b9567	-0.068156056
234	0x3e544112	0.20727947
235	0x3e96785a	0.29388696
236	0x3ea3b891	0.3197675
237	0x3e7faa5b	0.24967329
238	0x3d3938e1	0.04522026
239	0xbda18970	-0.07887542
240	0x3eb06c45	0.34457603
241	0x3eb01bc3	0.3439618
242	0xbd9501b5	-0.07275716
243	0x3c2ec18a	0.0106662605
244	0x3ea8c601	0.32963565
245	0x3e90388e	0.28168148
246	0xbd290d25	-0.0412723
247	0x3e87c0f9	0.26514414
248	0x3e748e62	0.2388244
249	0xbd42426c	-0.047426626
250	0x3eb66c43	0.35629472
251	0x3d814bfc	0.06313321
252	0x3d12e74c	0.035865113
253	0x3eb09918	0.344918
254	0x3ea98013	0.33105525
255	0xbacf9a0a	-0.0015838754

output_net.0.bias f4 [64]
0	0xbd54b086	-0.05192616
1	0x3ebb3c69	0.36569527
2	0xbd3c4cd3	-0.045971703
3	0x3eb24594	0.3481871
4	0x3e678843	0.22610573
5	0x3e6ccda9	0.23125328
6	0x3e69b1f0	0.22821784
7	0x3ce077e4	0.027400918
8	0x3e27d49d	0.163897
9	0xbd1c90cd	-0.03822403
10	0x3e901431	0.28140405
11	0x3dbc94b2	0.09208049
12	0xbd857d09	-0.06517989
13	0x3ea31a0e	0.31855816
14	0xbc82d9b7	-0.015972955
15	0x3e3663aa	0.17811456
16	0xbd34f7b7	-0.04418155
17	0x3e585f17	0.21130024
18	0xbda54324	-0.08069447
19	0x3e6a3a04	0.22873694
20	0xbb6ce4b4	-0.003614706
21	0xbca651b9	-0.02030264
22	0x3e380b20	0.17972994
23	0x3e8cdc7f	0.27511975
24	0x3da1a9ee	0.0789374
25	0x3ea93006	0.3304445
26	0xbdc78475	-0.09742061
27	0x3d1b4278	0.037905186
28	0x3e93945a	0.2882412
29	0xbd0997c1	-0.03359199
30	0x3e205b5c	0.15659851
31	0x3e83bc7e	0.25729746
32	0x3e515f67	0.2044655
33	0x3e729eb0	0.23693347
34	0x3e7139f2	0.2355726
35	0x3e93d424	0.28872788
36	0x3e80d0a6	0.25159186
37	0x3cff8c05	0.031194696
38	0x3e7f30da	0.24920979
39	0x3e58caa6	0.21171054
40	0x3e906ac0	0.28206444
41	0x3e9a0936	0.30085152
42	0x3e3fec3e	0.18742463
43	0x3e8c4fc7	0.27404615
44	0x3e78a622	0.24282125
45	0xbd38a0df	-0.045075294
46	0x3c193fec	0.009353619
47	0xbcd97c7b	-0.026548615
48	0x3ea56eaf	0.32311007
49	0x3e9e4187	0.30909368
50	0x3e577e60	0.21044302
51	0x3e871641	0.26384166
52	0x3df72bbc	0.120688885
53	0x3e99cc41	0.30038646
54	0x3e31dd5d	0.173696
55	0x3e2eb97b	0.17062943
56	0x3e8edd5c	0.2790326
57	0x3eaa3071	0.33240083
58	0xbce3e405	-0.02781869
59	0x3e5a6aaa	0.21329752
60	0xbd8fd6c2	-0.07023384
61	0xbd85ccdd	-0.06533215
62	0x3e576e4f	0.21038173
63	0x3d4d20e2	0.050080188

output_net.2.weight f4 [1, 64]
0	0x3dd0e994	0.102008015
1	0xbec0ab93	-0.376309
2	0x3f4ee946	0.80824697
3	0xbece0674	-0.40239298
4	0xbed400b0	-0.41406775
5	0xbec93d33	-0.39304504
6	0xbeb8ba32	-0.36079556
7	0x3dd5eb7b	0.10445305
8	0xbefc829f	-0.49318406
9	0x3cfaf107	0.030632509
10	0xbeb6fd5e	-0.3574018
11	0x3f6150d0	0.88013935
12	0x3f8d2319	1.1026336
13	0xbedc9302	-0.43080908
14	0x3f8c4b27	1.0960435
15	0xbf01eb6f	-0.5074987
16	0x3f8c9ed0	1.0985966
17	0xbede9154	-0.43470252
18	0x3c96d051	0.01840988
19	0xbed47d8e	-0.4150204
20	0x3d8e1543	0.06937649
21	0x3de42355	0.111395516
22	0x3f5d6a60	0.8649044
23	0xbeec7eaa	-0.46190387
24	0x3f2c631e	0.6733874
25	0xbf0af05c	-0.5427301
26	0xbd80f640	-0.062969685
27	0x3df3bf0b	0.11901673
28	0xbec3c779	-0.38238123
29	0x3d8a6f44	0.067595035
30	0xbef4c170	-0.4780383
31	0xbeddb44a	-0.43301612
32	0xbee0e42c	-0.4392408
33	0x3f7b9e0a	0.98288023
34	0xbf0511dd	-0.5198038
35	0xbec74f6c	-0.38927782
36	0xbefc6e40	-0.49302864
37	0x3de25c0e	0.11052714
38	0xbef439a1	-0.47700217
39	0xbee2f3b0	-0.44326544
40	0xbf272bec	-0.65301394
41	0xbecaec35	-0.39633337
42	0xbee7c120	-0.4526453
43	0xbedc7ee9	-0.43065575
44	0xbf009b65	-0.50237113
45	0xbda8615a	-0.08221693
46	0x3d54bb82	0.051936634
47	0xbd8d5602	-0.0690117
48	0xbed75781	-0.42058948
49	0xbef309de	-0.47468466
50	0xbee67475	-0.45010725
51	0xbecefda8	-0.404279
52	0x3f6671d7	0.90017456
53	0xbec5d16e	-0.38636345
54	0xbedb7aa0	-0.42866993
55	0xbefbadc9	-0.49156025
56	0xbf0404ed	-0.51570016
57	0xbf05833b	-0.52153367
58	0x3f383b0c	0.719651
59	0xbec50186	-0.38477725
60	0x3f426215	0.7593091
61	0x3d192bce	0.03739529
62	0x3f10dfa9	0.5659128
63	0x3d0f67fc	0.035011277
