Q1/ckpt/critic2_ep300.pth (torch, 38344 bytes, 7 tensors)

state_net.0.weight f4 [64, 3]
0	0xbf677e9e	-0.9042758
1	0xbf3d8539	-0.74031407
2	0x3e9fa1d9	0.31178167
3	0x3f7b3d35	0.9814027
4	0x3fe83e7b	1.8144068
5	0x3eddaf84	0.4329797
6	0xbf5cd480	-0.8626175
7	0xbf39ea7e	-0.7262343
8	0xbe87b540	-0.2650547
9	0xbf99a4b2	-1.2003386
10	0x3fb2685c	1.3938098
11	0x3edc7478	0.4305761
12	0xbe0f195c	-0.13974518
13	0xbfb0c31a	-1.380954
14	0x3ec6fa71	0.38862947
15	0xbf30405c	-0.68848205
16	0x3e07df92	0.13268879
17	0x3e811962	0.25214678
18	0xbf1bd6df	-0.6087474
19	0xbe08cc93	-0.13359289
20	0xbe7e8f79	-0.24859418
21	0xbf85ff1d	-1.0468479
22	0xbf8cf6e3	-1.1012844
23	0xbeb15096	-0.34631795
24	0xbf59e9f7	-0.8512263
25	0xbfae3925	-1.3611189
26	0x3e222cb1	0.15837361
27	0xbfe928fa	-1.821563
28	0xbd635b33	-0.055506896
29	0x3e822d02	0.25424963
30	0xbf6bc8cf	-0.92103285
31	0x3eeb23de	0.45925802
32	0x3e87dd76	0.2653615
33	0xbf31c8c0	-0.69446945
34	0xbfe1b77d	-1.7634121
35	0xbef8cea9	-0.4859517
36	0xbedc5723	-0.4303523
37	0x3f516c98	0.81806326
38	0x3f31047c	0.6914747
39	0x3daee347	0.085394435
40	0xc00b1018	-2.1728573
41	0xbef3032f	-0.47463366
42	0x3f48a46a	0.78375876
43	0xc0265ec6	-2.5995345
44	0xbf12df6b	-0.5737216
45	0x3f1f1875	0.62146693
46	0x40184913	2.37946
47	0x3efef6c9	0.49797657
48	0xbf5b8de9	-0.8576341
49	0xbf89abb8	-1.0755529
50	0x3f3e4fb4	0.7434037
51	0x3f080af7	0.5314173
52	0xbe631e91	-0.22179629
53	0x3eb72a38	0.35774398
54	0x3f9da51a	1.231601
55	0xbebcb734	-0.36858523
56	0x3de6fef5	0.11279098
57	0xbe98d702	-0.29851538
58	0xbf730daf	-0.94942755
59	0x3e5c265d	0.2149901
60	0xbfd57b50	-1.6678257
61	0x3e2a0137	0.16602026
62	0xbeea6c5a	-0.4578579
63	0xbfa7b4a2	-1.3102
64	0xbf640552	-0.8907062
65	0xbebb1d40	-0.36545753
66	0xbf533f79	-0.82518727
67	0x3eb33927	0.3500454
68	0x3f4e0519	0.8047653
69	0xbf044f3d	-0.5168341
70	0x3fe0aea7	1.75533
71	0x3ec0ef53	0.3768259
72	0xbf41d0e4	-0.75709367
73	0x3f246352	0.6421405
74	0x3f35ef34	0.7106812
75	0xbf962d1f	-1.173252
76	0x3f06421f	0.5244464
77	0x3edbe99d	0.4295167
78	0xbf8eb9f7	-1.1150502
79	0xbf0379c7	-0.5135769
80	0xbeb1a43f	-0.34695622
81	0xbfa18e3a	-1.2621529
82	0x3f8058f0	1.0027142
83	0x3eca6a1b	0.39534077
84	0xbecfb451	-0.40567258
85	0x3dc53f55	0.0963122
86	0x3e89ee37	0.26939556
87	0xbf9a03a0	-1.2032356
88	0x3f9bff4e	1.2187288
89	0x3ed01d57	0.40647385
90	0xbf496aee	-0.78678787
91	0xc01abe76	-2.4178748
92	0xbeec61de	-0.46168417
93	0x3f85f1c4	1.0464406
94	0x3e36e2ac	0.17859906
95	0xbdac9ea8	-0.08428699
96	0x3fd0ab68	1.6302309
97	0xbf573e96	-0.84079874
98	0xbeef488d	-0.4673504
99	0xbf819bfd	-1.0125729
100	0xbf6d25ab	-0.926356
101	0x3e774f8d	0.2415144
102	0xbdcaceed	-0.09902749
103	0x3f86382a	1.048589
104	0xbe96c8e9	-0.29450157
105	0xbfcf2795	-1.6183954
106	0xbfc79f3d	-1.5595471
107	0xbf05e165	-0.5229705
108	0xbf6605a7	-0.89852375
109	0x3ee63314	0.44960845
110	0xbeb94084	-0.36182034
111	0xbf53d688	-0.82749224
112	0x3e28ee89	0.16497244
113	0x3eaac03f	0.33349797
114	0xbf812978	-1.009078
115	0xbfa3d7ee	-1.2800272
116	0xbeb8094e	-0.359446
117	0xbf961d8b	-1.1727766
118	0xbf088925	-0.53334266
119	0xbebbefc0	-0.36706352
120	0xbf08bfc3	-0.53417605
121	0x3fd9a1a2	1.7002451
122	0xbc92a36d	-0.017900193
123	0xbf0fe4f8	-0.56208754
124	0xbd91c198	-0.07117003
125	0x3f42e6ed	0.76133615
126	0x3df43cb0	0.11925638
127	0xbf4eef67	-0.8083405
128	0xbf33e98c	-0.7027824
129	0xbf6f90d6	-0.9358038
130	0xbfc93527	-1.5719346
131	0x3e9ffe41	0.31248668
132	0xbf74037b	-0.9531781
133	0xbd2c0c95	-0.042004187
134	0x3e83c257	0.25734207
135	0xbf628e7b	-0.8849866
136	0xbfcca0df	-1.5986594
137	0xbec3550b	-0.3815082
138	0xbf4ff3aa	-0.81231177
139	0x3f056adf	0.521162
140	0xbf0ce3fa	-0.55035365
141	0xbf50af89	-0.81517845
142	0x3fceb91b	1.615024
143	0x3ec81a5f	0.3908262
144	0xbf934e96	-1.1508358
145	0xbfdb9202	-1.7153933
146	0xbee2ffd7	-0.44335815
147	0xbef06103	-0.46949014
148	0xbd9caf42	-0.07650615
149	0x3f57f30b	0.8435523
150	0xbf5ae7d9	-0.8551002
151	0x3fa841d6	1.3145092
152	0x3eb38194	0.35059798
153	0x3f4cbd5d	0.79976445
154	0xbf609c9a	-0.87738955
155	0xbd982f3d	-0.07430885
156	0xbc81f4cb	-0.015863797
157	0xbef222b7	-0.4729211
158	0x3ee21e08	0.44163537
159	0xbf815594	-1.0104241
160	0x3f8a4984	1.0803685
161	0x3f154e42	0.58322537
162	0xbf0f7393	-0.5603573
163	0xbf1718f6	-0.5902246
164	0xbf0f5ddb	-0.5600259
165	0xc00bfacb	-2.1871822
166	0xbf641ac2	-0.8910333
167	0xbed052bb	-0.40688118
168	0xc002c518	-2.0432796
169	0x3e8cc8c2	0.27496916
170	0xbe8f0770	-0.27935362
171	0xbf3b461a	-0.7315384
172	0x3f832979	1.0247031
173	0x3e92e624	0.28691208
174	0xbf51b402	-0.81915295
175	0xbe703af8	-0.23459995
176	0xbe81eeaa	-0.253774
177	0xbfa04d4d	-1.252359
178	0x3f6699c9	0.9007841
179	0xbe8ddc6e	-0.27707237
180	0x3fdeebb7	1.7415684
181	0x3f1501ba	0.5820576
182	0x3e0970d2	0.13421944
183	0x3e02b1c4	0.12763125
184	0x3f946b7e	1.1595304
185	0x3bb05a86	0.005381885
186	0x3f06790b	0.52528447
187	0x3f8defcd	1.1088806
188	0x3efa3e7b	0.48875794
189	0xbd2cf7aa	-0.04222838
190	0x40066894	2.100133
191	0x3ecf89df	0.40534875

state_net.0.bias f4 [64]
0	0xbf63fee5	-0.89060813
1	0xbf63a43a	-0.88922465
2	0x3f6a0f3d	0.914295
3	0x3f8bbc7c	1.0916896
4	0x4001406b	2.0195568
5	0x3f91a4e4	1.1378446
6	0x3faee7e1	1.3664514
7	0x3f877d4e	1.0585115
8	0x3f5bf62a	0.8592249
9	0x3eb8c8c6	0.36090678
10	0x3f7255a3	0.9466192
11	0x3c092d2b	0.008372585
12	0xbf04a64b	-0.5181624
13	0xbdbe5c5b	-0.09294959
14	0xbf2b1819	-0.66833645
15	0xbf050121	-0.5195485
16	0xbef0f9b0	-0.47065496
17	0x3eee97e6	0.46600264
18	0x3ef24a9c	0.47322547
19	0x3f9d1b2f	1.2273921
20	0x3ea0ef3c	0.3143252
21	0x3fb12041	1.3837968
22	0xbf21c0e2	-0.6318494
23	0xbe773566	-0.24141464
24	0x3fdd454f	1.7286776
25	0xbf57d8d7	-0.84315246
26	0x3fcb99a8	1.5906267
27	0x3f967e3f	1.1757277
28	0x3fbd0849	1.4768153
29	0x3f8d06e3	1.1017727
30	0xbeb233de	-0.34805197
31	0x3fa713eb	1.3052953
32	0xbfc875f2	-1.5660994
33	0x3f82e1a6	1.0225112
34	0x3f961b51	1.1727086
35	0x3f48d08c	0.7844322
36	0xbe062511	-0.13100077
37	0x3fc8ca0d	1.5686661
38	0x3f78a0fc	0.9712064
39	0xbf890fea	-1.0707982
40	0x3ef62b7f	0.4808006
41	0xbeef6ec8	-0.46764207
42	0x3f8a38c8	1.0798578
43	0x3f6dca01	0.9288636
44	0x3f76434b	0.9619643
45	0x3f4ad186	0.7922596
46	0xbeda66d8	-0.4265659
47	0x3f3df570	0.7420263
48	0x3f88ad54	1.0677896
49	0xbeb95068	-0.36194158
50	0x3f41a6de	0.75645244
51	0x3fa648bf	1.299095
52	0x3f6b7591	0.9197627
53	0xbe651504	-0.22371298
54	0xbe8801a5	-0.26563755
55	0x3dc4714a	0.09591921
56	0x3eddd0ac	0.43323267
57	0x3f26eaba	0.65201914
58	0x3fa62add	1.2981831
59	0x3eaacb05	0.33358017
60	0x3f16c952	0.5890094
61	0x3f975a57	1.1824445
62	0x3e12662a	0.14296785
63	0x3d8af46a	0.067848995

action_net.0.weight f4 [64, 1]
0	0xbf825079	-1.0180808
1	0xbe272948	-0.16324341
2	0xbe82ec44	-0.2557088
3	0x3e03f657	0.1288694
4	0x3d768060	0.06018102
5	0x3f2bb599	0.6707397
6	0xbe937564	-0.288005
7	0x3c415db7	0.0118021285
8	0x3f00c62c	0.50302386
9	0xbd44aac0	-0.048014402
10	0xbf2c5e31	-0.67331225
11	0x3f286272	0.65775216
12	0xbfa4a61f	-1.2863196
13	0x3d89c710	0.06727421
14	0x3efd7883	0.49506006
15	0xbf0baa93	-0.5455715
16	0x3f3e4ed6	0.74339044
17	0x3f1f71e6	0.6228317
18	0x3f60cf74	0.8781655
19	0x3f6cbe39	0.92477757
20	0xbe914d98	-0.28379512
21	0xbd039660	-0.03212583
22	0x3f23c802	0.6397706
23	0xbfb7b17b	-1.4351038
24	0x3f2d8913	0.67787284
25	0x3f8379cf	1.0271548
26	0xbf2ce64b	-0.675389
27	0xbe50aeb2	-0.20379141
28	0xbe15b0dc	-0.14618248
29	0xbe97531a	-0.2955559
30	0x3fa1b856	1.263438
31	0x3e780b28	0.24223006
32	0x3f194639	0.59872776
33	0x3e437828	0.19088805
34	0xbf6c86d6	-0.92393243
35	0x3dd4cf70	0.10391128
36	0x3e305a98	0.17222059
37	0xbda142fb	-0.07874104
38	0xbf2d1fa0	-0.6762638
39	0xbeb5d6bb	-0.3551539
40	0x3dd384d0	0.10328066
41	0x3e3af37c	0.18256944
42	0x3db7a2e0	0.08966613
43	0x3ecd5f68	0.40111852
44	0xbe54ccf0	-0.20781302
45	0xbec3d1d8	-0.38246036
46	0x3f1ce632	0.6128875
47	0x3f267038	0.6501498
48	0x3f8c681a	1.0969269
49	0xbea061ed	-0.3132471
50	0xbf0d9612	-0.55307114
51	0x3f7e8959	0.99428326
52	0xbbf1d538	-0.007380154
53	0xbe6b5ca8	-0.22984564
54	0x3eacbdba	0.337385
55	0x3f1be86c	0.6090152
56	0x3f08cab4	0.534343
57	0xbefc778c	-0.49309957
58	0x3ef63578	0.48087668
59	0xbf677d2d	-0.9042538
60	0x3ea6a188	0.32545114
61	0xbf227dac	-0.6347301
62	0xbf7b0f0a	-0.9806982
63	0xbf4b545d	-0.79425603

action_net.0.bias f4 [64]
0	0xbf44db52	-0.76897156
1	0xbe543988	-0.20725071
2	0xbf265376	-0.649711
3	0x3f90b046	1.1303794
4	0xbef659b8	-0.48115325
5	0x3fbdf3fe	1.4840086
6	0xbec43f4c	-0.38329542
7	0x3fa9bf5d	1.3261524
8	0xbe9e3f08	-0.30907464
9	0xbdfa1c40	-0.122124195
10	0x3f8293bf	1.0201339
11	0x3f4c9602	0.79916394
12	0x3f449f9e	0.76806056
13	0xbf648b98	-0.89275503
14	0x3efe2484	0.49637234
15	0x3f9d4311	1.2286092
16	0xbf6e7504	-0.931473
17	0xbf38c1da	-0.72170794
18	0x3fa1cbc7	1.2640313
19	0xbe827e5f	-0.25487038
20	0x3f1893ba	0.5960041
21	0xbf79640a	-0.9741827
22	0x3f602f95	0.87572604
23	0xbd38a5d8	-0.045080036
24	0x3f7a855f	0.9785976
25	0x3f4dca81	0.8038712
26	0x3fadcdd8	1.3578444
27	0x3f9d005f	1.2265738
28	0x3f80df7a	1.00682
29	0x3f3352b4	0.7004807
30	0x3e64f717	0.22359882
31	0xbe85d224	-0.26136887
32	0xbf1b58c4	-0.6068232
33	0xbf32bfc0	-0.6982384
34	0x3f8d2049	1.1025478
35	0xbf3859b8	-0.720119
36	0xbf3c4562	-0.7354337
37	0x3f8ca340	1.098732
38	0xbf3df7f6	-0.74206483
39	0x3fb86db6	1.4408481
40	0xbf7a040e	-0.97662437
41	0x3f1562f9	0.58354145
42	0xbf0e6c18	-0.5563369
43	0xbf1ec634	-0.62021184
44	0xbf62a68e	-0.8853539
45	0xbee84dec	-0.4537195
46	0xbec57684	-0.38566983
47	0xbf7ca172	-0.98683846
48	0xbe4a4fa1	-0.19756939
49	0xbea96b54	-0.33089697
50	0xbf4aecde	-0.7926768
51	0xbf557942	-0.8338815
52	0x3fb55623	1.4166912
53	0xbebc5634	-0.36784518
54	0x3f32a1ec	0.69778323
55	0x3f32ea5d	0.6988886
56	0x3f966fae	1.1752832
57	0xbf4b0cbc	-0.79316306
58	0xbf517d8e	-0.81832206
59	0x3f8687bf	1.0510176
60	0xbeb8eef8	-0.3611982
61	0xbf76e462	-0.96442235
62	0xbf7b3b02	-0.98136914
63	0x3f5b049a	0.85553896

output_net.0.weight f4 [64, 128]
0	0xbeadb1ae	-0.3392462
1	0x3f1931d2	0.59841645
2	0x3ee71fc5	0.45141426
3	0x3e2c8884	0.16848952
4	0x3ee0f7d6	0.43939084
5	0x3f0aa7f3	0.5416252
6	0x3f29fb20	0.6639881
7	0x3ee38c4d	0.44442979
8	0x3f120e20	0.57052803
9	0x3f0f93c9	0.5608488
10	0x3ea748eb	0.3267282
11	0xbea5b743	-0.3236638
12	0xbe2aaa7d	-0.16666599
13	0x3f1556ad	0.5833538
14	0x3ee53d87	0.44773504
15	0x3e994e1f	0.29942414
16	0xbe0ec380	-0.13941765
17	0x3c814251	0.015778692
18	0x3f427048	0.7595258
19	0x3ed06234	0.40699923
20	0x3e27f30e	0.16401312
21	0x3edce781	0.43145373
22	0xbdac7312	-0.084203854
23	0xbed815b2	-0.42204052
24	0xbdf9ec7c	-0.12203309
25	0xbecb466c	-0.39702165
26	0x3f06c216	0.526399
27	0x3e9cd364	0.30630028
28	0x3ea1f1ab	0.3162969
29	0x3e651193	0.22369985
30	0xbf60d638	-0.8782687
31	0x3f0837e3	0.53210276
32	0x3f9981f5	1.1992785
33	0x3f008d6b	0.50215787
34	0x3e60d86a	0.21957555
35	0xbe5d4e1d	-0.21611829
36	0xbd8e8a56	-0.06959979
37	0x3ed5bca2	0.41745478
38	0x3eb9a2f7	0.36257145
39	0xbe83c082	-0.2573281
40	0x3eda2b37	0.42611095
41	0xbe2fd7f4	-0.17172223
42	0x3e100123	0.14062934
43	0x3f1cae7c	0.6120374
44	0x3ed41e17	0.41429207
45	0x3eb412e0	0.3517065
46	0xbe5f1c45	-0.21788128
47	0x3ea67cfc	0.3251723
48	0x3e931c09	0.28732327
49	0xbda3d5b3	-0.07999744
50	0x3ea0868b	0.31352648
51	0x3ef0bb0d	0.47017708
52	0xbd7fe241	-0.062471632
53	0x3d2a0957	0.041512813
54	0xbd81ce65	-0.06338195
55	0xbd745085	-0.059647102
56	0x3edb1c86	0.427952
57	0x3eb7f301	0.35927585
58	0x3f160e13	0.58615226
59	0x3ebcf4b3	0.3690544
60	0x3f1fd05c	0.62427306
61	0x3eb10ca7	0.34579965
62	0xbebc674f	-0.36797568
63	0x3e94b22a	0.29042178
64	0xbea284b8	-0.3174188
65	0xbd909959	-0.07060499
66	0xbd252f40	-0.040328264
67	0x3e95a104	0.29224408
68	0xbd0b6060	-0.034027457
69	0x3ea67253	0.32509097
70	0xbd5c0a0c	-0.05372052
71	0x3eccb2db	0.39980206
72	0xbe4a7945	-0.19772823
73	0x3d0a6919	0.033791635
74	0x3ebadbc7	0.36495802
75	0x3eaa2f48	0.33239198
76	0x3eb219d1	0.3478532
77	0xbc176792	-0.009241002
78	0x3deb5cfc	0.11492345
79	0x3ec9093c	0.39264858
80	0xbc884238	-0.016633138
81	0xbd2783c6	-0.040897153
82	0x3e998d4c	0.29990613
83	0x3d923878	0.07139677
84	0x3eee10ac	0.46497095
85	0xbd1ca2a5	-0.038241047
86	0x3ea391d8	0.31947207
87	0x3bdc2c09	0.0067191166
88	0x3eb2e218	0.3493812
89	0x3eafdb1e	0.3434686
90	0x3e84b2d5	0.25917688
91	0x3eabe320	0.3357172
92	0x3ec930d9	0.3929508
93	0x3eb26de7	0.34849474
94	0x3dd023f7	0.1016311
95	0xbbaa7c22	-0.005202786
96	0x3d4c9c97	0.049954023
97	0xbd85de32	-0.06536521
98	0x3e9e0141	0.30860332
99	0x3d765431	0.060138885
100	0x3d07e804	0.03318025
101	0x3ed1a334	0.40944827
102	0xbb8b3508	-0.004248265
103	0x3e9fa5f6	0.31181306
104	0x3d4384b5	0.04773398
105	0x3ec8133f	0.39077184
106	0x3d962caf	0.073327415
107	0xbcbe9ec4	-0.023269065
108	0xbd6f5beb	-0.05843727
109	0x3d050cba	0.03248284
110	0xbe632273	-0.2218111
111	0xbc985f3c	-0.018600099
112	0x3d8e92c7	0.06961589
113	0xbd92bb55	-0.07164637
114	0xbd8238cf	-0.06358492
115	0x3d7dabd9	0.061931465
116	0x3eb16994	0.34650862
117	0xbccb7c56	-0.024839561
118	0x3e8e434f	0.27785727
119	0x3e97dc5d	0.2966031
120	0x3e9f14ba	0.310705
121	0xbc4b6823	-0.012414965
122	0xbd2aada4	-0.041669503
123	0x3e962d95	0.2933165
124	0x3d7404af	0.05957478
125	0xbd489fcb	-0.048980515
126	0xbd615836	-0.055015765
127	0x3ecc4f9e	0.39904493
128	0x3ccd3345	0.025048861
129	0x3d01b490	0.03166634
130	0xbd100eb9	-0.03517029
131	0xbd8c4aba	-0.068501905
132	0xbd85bc72	-0.06530084
133	0x3d930829	0.07179291
134	0x3c63bbac	0.013899725
135	0xbd5e344f	-0.054249104
136	0x3d9c0cd6	0.07619636
137	0x3da5b2fb	0.080907784
138	0xbc35b0c7	-0.01108951
139	0x3cbeee3a	0.023306955
140	0x3b19e1fb	0.0023480642
141	0xbcb532b6	-0.022118907
142	0xbc876156	-0.016525906
143	0xbd7d7f55	-0.06188901
144	0x3d175f5a	0.03695617
145	0x3db0bea0	0.08630109
146	0x3d9ea47c	0.07746217
147	0x3d39de2d	0.0453779
148	0xbd93d833	-0.07218971
149	0xbd288f1d	-0.04115211
150	0xbd139961	-0.036034945
151	0x3db03753	0.08604302
152	0xbd997a6c	-0.07494053
153	0x3d89e63c	0.06733367
154	0xbd92dfe4	-0.0717161
155	0x3c87721b	0.016533902
156	0xbd967454	-0.073464066
157	0xbd45abf4	-0.04825969
158	0x3d818081	0.06323338
159	0xbd30b62f	-0.043142494
160	0xbd98e800	-0.074661255
161	0xbd8fe7e6	-0.07026653
162	0xbcd2dc22	-0.025739733
163	0xbd6904d5	-0.056889374
164	0xbbcc2506	-0.0062299995
165	0xbd102d16	-0.035199247
166	0xbda43834	-0.080185324
167	0x3d5d8d90	0.054090083
168	0x3c97aa1b	0.01851373
169	0x3d934729	0.07191307
170	0xbcb1cd42	-0.02170432
171	0x3b287836	0.0025706417
172	0xbacbc235	-0.0015545549
173	0xbcffc342	-0.031221036
174	0xbd9618de	-0.07328962
175	0xbd986a46	-0.07442145
176	0xbd4e4566	-0.050359152
177	0xbd9a4ef8	-0.07534593
178	0x3d98b3c6	0.07456164
179	0x3d347e12	0.044065543
180	0x3d7b6cd3	0.06138308
181	0xbdacb93a	-0.08433767
182	0xbd367f4e	-0.044555
183	0x3c899349	0.016793864
184	0xbd642439	-0.055698607
185	0x3d4c994c	0.049950883
186	0xbc02844c	-0.007966112
187	0xbc2aa8e7	-0.010416246
188	0x3ac1ce80	0.0014786273
189	0x3d74255b	0.059605937
190	0x3d0296d1	0.03188211
191	0xbcb1b51b	-0.021692803
192	0xbd38a652	-0.04508049
193	0x3d8ddb80	0.06926632
194	0xbd030deb	-0.031995695
195	0x3db416cc	0.08793411
196	0x3be95c45	0.007121595
197	0x3d866fdf	0.065643065
198	0x3b41849b	0.0029528502
199	0x3d6b7c74	0.057491735
200	0xbd8afb40	-0.067862034
201	0xbca245f3	-0.019808745
202	0xbd5bae06	-0.05363276
203	0xbd8e7c7d	-0.06957338
204	0xbd9040db	-0.0704362
205	0x3daab231	0.083347686
206	0x3d26d65d	0.040731777
207	0x3c720868	0.014772512
208	0xbbb7ba01	-0.00560689
209	0x3c441a76	0.011969199
210	0xbd4a544a	-0.04939679
211	0xbd69d9fe	-0.05709266
212	0xbd8134a7	-0.06308871
213	0x3da4d193	0.080477856
214	0xbd6286ff	-0.055304524
215	0xbd5f2f1a	-0.05448828
216	0xbd29ad67	-0.041425135
217	0xbc43e923	-0.01195744
218	0xbda5d9b3	-0.080981635
219	0x3d8e58c6	0.06950526
220	0xbd7eda8e	-0.06222015
221	0xbd35f100	-0.04441929
222	0xbd66da2f	-0.05636042
223	0xbce39b96	-0.02778415
224	0xbd95a326	-0.07306509
225	0xbcf378be	-0.02972066
226	0xbce8e952	-0.028431568
227	0xbd950f43	-0.072783016
228	0xbcb7461a	-0.022372294
229	0xbba393a9	-0.0049919677
230	0xbc28030d	-0.010254634
231	0xbcf0393b	-0.029324165
232	0xbc741756	-0.014898142
233	0xbd880824	-0.06642178
234	0xbd911411	-0.070839055
235	0xbd9539b8	-0.072863996
236	0x3d432c1f	0.0476495
237	0x3b9a0638	0.0047004484
238	0xbd08880b	-0.033332866
239	0xbd5a792a	-0.053338207
240	0xbcf259bf	-0.02958381
241	0xbc9fa4c3	-0.019487744
242	0xbbea0e48	-0.0071428157
243	0xbda46b5c	-0.0802829
244	0xbd605f91	-0.05477864
245	0x3da6fa8f	0.08153259
246	0xbd276040	-0.040863276
247	0xbc24f41b	-0.010067965
248	0x3d2f84db	0.04285131
249	0x3db0dbf9	0.086357065
250	0xbd20ab9e	-0.039226167
251	0xbbc41a5f	-0.005984589
252	0x3d47c558	0.048772186
253	0x3cac0a74	0.021001078
254	0x3d46c30d	0.04852586
255	0x3d066baf	0.03281754

output_net.0.bias f4 [64]
0	0x3eb4a4c0	0.35281944
1	0x3d179bdd	0.037013877
2	0x3ea2fcf4	0.31833613
3	0x3eddcd0d	0.43320504
4	0x3e6d544a	0.23176685
5	0x3e905186	0.28187197
6	0x3e02353c	0.1271562
7	0x3e9015a2	0.28141505
8	0x3c0c31f7	0.008556834
9	0x3ea12b1d	0.31478205
10	0x3d202a98	0.03910312
11	0xbb3d494b	-0.0028882797
12	0x3e95110a	0.29114562
13	0x3eabbb56	0.33541363
14	0x3d41095d	0.04712807
15	0x3ed08a02	0.40730292
16	0x3ed26f20	0.41100407
17	0xbd645317	-0.055743303
18	0xbc04767c	-0.0080848895
19	0xbda30d77	-0.079615526
20	0x3d4d701c	0.050155744
21	0x3ec96cae	0.3934073
22	0x3e1baf95	0.15203698
23	0xbdcddf8c	-0.10052404
24	0xbd217b24	-0.039424077
25	0x3e97e39a	0.29665834
26	0xbdedbc32	-0.11608161
27	0xbcc5ed1e	-0.024160918
28	0x3ec4301c	0.38317955
29	0x3d84a580	0.06476879
30	0x3edf3c81	0.43600848
31	0x3c503bff	0.012709617
32	0x3ea5630c	0.3230213
33	0x3ed78a26	0.42097586
34	0x3f03eeab	0.51536053
35	0x3ea27182	0.31727225
36	0x3e9b416a	0.30323344
37	0x3e8b9550	0.27262354
38	0x3ebb6904	0.36603558
39	0x3c27efcb	0.010250042
40	0x3d18b9f1	0.037286703
41	0x3eca4175	0.39503065
42	0x3edce79b	0.4314545
43	0x3d3e9b0c	0.046534583
44	0x3d9e88f4	0.077409655
45	0x3e884f8e	0.26623195
46	0x3d0c01ff	0.03418159
47	0x3dfcb7b6	0.123397276
48	0x3dbf6c68	0.09346849
49	0x3eb1f7a7	0.34759256
50	0x3d6e41b0	0.058168113
51	0x3e9a6083	0.30151758
52	0x3ecbf1d3	0.39832935
53	0x3f03a44e	0.51422584
54	0x3d6471db	0.055772644
55	0x3eacf4b9	0.3378046
56	0x3ac35bb5	0.001490465
57	0x3ec4fde9	0.38474968
58	0x3d93fc60	0.07225871
59	0x3ebacfc1	0.3648663
60	0x3ec986a3	0.39360532
61	0xbd2fc5a7	-0.042913105
62	0x3edba3d4	0.42898428
63	0x3ed17e45	0.40916649

output_net.2.weight f4 [1, 64]
0	0xbf2b3a30	-0.6688566
1	0x3decb704	0.11558345
2	0xbf3a22d7	-0.7270941
3	0xbf1d1f91	-0.6137629
4	0xbf2fefb0	-0.6872511
5	0xbf3bfb5c	-0.7343042
6	0x3fc18307	1.5118111
7	0xbf253903	-0.6454012
8	0x3fab5cf0	1.3387737
9	0x3ff8aa8f	1.942705
10	0x3dce413e	0.10071038
11	0x3ffc89ab	1.9729513
12	0xbf3f1cc3	-0.7465326
13	0x40a93dae	5.2887793
14	0x3f98ae09	1.1928111
15	0xbf374105	-0.71583587
16	0xbf3c1baa	-0.7347971
17	0x3dc21ad8	0.09477776
18	0x3d3f6f6b	0.046737116
19	0x3d985895	0.07438771
20	0x3db13e6a	0.08654483
21	0xbf28a3e4	-0.6587508
22	0x3faa6a54	1.3313699
23	0x3fe5e1e1	1.7959558
24	0x3d444172	0.047913976
25	0xbf2a9736	-0.6663698
26	0x3f98b2b9	1.1929542
27	0x3cebcc27	0.02878387
28	0xbf2d7167	-0.67751163
29	0x3fe45aae	1.7840173
30	0xbf281e20	-0.6567097
31	0x3ce8d686	0.028422605
32	0xbf3586a2	-0.7090856
33	0xbf2d7d47	-0.67769283
34	0xbf3acad9	-0.7296577
35	0xbf40870e	-0.7520608
36	0x3ff0a070	1.8798962
37	0xbf3d336d	-0.73906595
38	0xbf218c7e	-0.63105
39	0x3fd039c8	1.6267633
40	0x3daa1d19	0.08306331
41	0xbf3e2b93	-0.7428524
42	0xbf1ff420	-0.6248188
43	0x3fb9a948	1.4504786
44	0x3ffc9c35	1.9735171
45	0x3fbaac63	1.4583858
46	0x3dd6573f	0.104658596
47	0x3fa72079	1.3056785
48	0x3f8f420b	1.119203
49	0xbf39ac93	-0.7252895
50	0x3d383b25	0.04497828
51	0xbf3903e9	-0.7227159
52	0xbf30ff12	-0.69139206
53	0xbf2dc171	-0.67873293
54	0x3d810db3	0.06301441
55	0xbf33b235	-0.701938
56	0x3d6f9adf	0.058497306
57	0xbf1cba43	-0.6122171
58	0x3d2f958b	0.042867225
59	0xbf3d9fb8	-0.74071836
60	0x410ee2b5	8.930348
61	0x3dab297b	0.08357521
62	0xbf354e72	-0.70822823
63	0xbf4432f5	-0.76640254
