Q1/ckpt/critic1_ep400.pth (torch, 38344 bytes, 7 tensors)

state_net.0.weight f4 [64, 3]
0	0xbf3d7b0c	-0.7401588
1	0x3fd9f58d	1.7028061
2	0x3ed599a1	0.41718772
3	0xbf038893	-0.5138027
4	0x3f6dcc3e	0.92889774
5	0xbddf8101	-0.109132774
6	0xbf0c05a1	-0.5469609
7	0xbe0d64f4	-0.13808042
8	0xbe5339f5	-0.20627578
9	0x3f1a16d9	0.6019111
10	0x3ecbd58a	0.39811355
11	0x3f46822d	0.7754238
12	0xbe903d21	-0.28171638
13	0x3f348054	0.70508313
14	0xbf0db584	-0.55355096
15	0xbf5e6f1d	-0.86888295
16	0xbff76ff6	-1.9331043
17	0xbecaffcf	-0.3964829
18	0xbf807b0d	-1.0037552
19	0xbede555b	-0.43424496
20	0xbeb9b9b0	-0.3627448
21	0xbfa9cb69	-1.3265201
22	0x3d959040	0.07302904
23	0xbe721dc2	-0.23644164
24	0xbfc3d07d	-1.5298
25	0xbfd9020e	-1.6953752
26	0xbf0267ea	-0.5093981
27	0xbf1981f6	-0.5996393
28	0xbdc0711f	-0.09396576
29	0xbe6b45d0	-0.2297585
30	0xbf86afaf	-1.0522364
31	0xbfd3a6da	-1.6535294
32	0xbecaef87	-0.3963587
33	0xbf728e04	-0.9474795
34	0x3e5b0430	0.21388316
35	0x3e89b297	0.26894066
36	0xbf734ce8	-0.95039225
37	0xbf566258	-0.8374381
38	0x3e17fa69	0.14841618
39	0xbeb6b586	-0.35685366
40	0xbf92fcfd	-1.1483456
41	0x3e5fb095	0.21844704
42	0xbf9c8f0a	-1.2231152
43	0x3ff6a65b	1.9269518
44	0x3ec78482	0.38968283
45	0xbdaf7638	-0.0856747
46	0xbfd5be89	-1.6698772
47	0xbf1ebe2a	-0.6200892
48	0xbfae6967	-1.3625916
49	0xc009e9e0	-2.1548996
50	0xbf0e9cb6	-0.5570787
51	0x3f50d894	0.8158047
52	0xbf2391e2	-0.63894475
53	0x3ee4dea6	0.44701117
54	0xbed0dea5	-0.40794864
55	0x3d59a7cb	0.053138535
56	0xbf4e60c5	-0.8061641
57	0xbfa092bf	-1.2544783
58	0x3fa2f4d7	1.2730969
59	0x3ebd5cca	0.36984855
60	0xbf82a457	-1.0206403
61	0x3f565530	0.83723736
62	0x3e90aabf	0.2825527
63	0xbf80107c	-1.0005031
64	0x3fee2e74	1.8607926
65	0x3ef4aaef	0.47786662
66	0x3f0a21ac	0.5395763
67	0x3f93d0f7	1.1548146
68	0x3d3cbab5	0.046076495
69	0xbf8aa903	-1.0832828
70	0x3eace5f8	0.33769202
71	0x3f09047c	0.5352247
72	0xbf0b56c3	-0.5442926
73	0x3dd2ce92	0.102933064
74	0x3e795657	0.24349342
75	0x3f6b5f51	0.91942316
76	0x3fecdff3	1.8505844
77	0x3edca81c	0.43097007
78	0x3f96f842	1.1794512
79	0x4025d5bd	2.5911705
80	0x3f119e23	0.5688192
81	0x3db5a4ac	0.08869299
82	0x403339ea	2.8004098
83	0x3f178e73	0.59201735
84	0x3fae3a81	1.3611604
85	0x3eeac81d	0.458558
86	0x3e802e63	0.2503539
87	0x3fbe68c3	1.4875721
88	0xbf746a5e	-0.95474803
89	0xbeb7c43a	-0.35891896
90	0xbf9229b2	-1.1418974
91	0xbf2cf282	-0.6755754
92	0xbea7dec2	-0.32787138
93	0xbf438354	-0.76372266
94	0x3e20ec4e	0.15715143
95	0x3e6bbfaa	0.23022333
96	0xbf68dc81	-0.9096146
97	0x3ff7947c	1.9342189
98	0xbde03e48	-0.10949379
99	0xbf1b1e23	-0.6059286
100	0xbe377450	-0.17915463
101	0xbe54d2e4	-0.20783573
102	0xbe4210c5	-0.1895171
103	0xbe1dffc3	-0.15429597
104	0x3e31b305	0.17353447
105	0xbfa475a2	-1.2848399
106	0x3fbd4d67	1.4789246
107	0x3ed7a39d	0.42117015
108	0xbf36b01c	-0.7136247
109	0x3ea1276c	0.3147539
110	0xbf136b4f	-0.57585615
111	0xbf848229	-1.0352222
112	0x3fb8060d	1.4376847
113	0x3ec8b8f6	0.39203614
114	0x3facf806	1.3513191
115	0xbf54a30d	-0.83061296
116	0xbd428ade	-0.047495715
117	0xbf79c5b2	-0.97567284
118	0xbfdfee88	-1.7494669
119	0x3de4d5f4	0.11173621
120	0xbe936756	-0.28789777
121	0x3dead1ad	0.11465774
122	0xbeea13eb	-0.4571832
123	0xbf3ee003	-0.74560565
124	0xbe2601dd	-0.16211648
125	0xbe8df05c	-0.27722442
126	0xbf275e8a	-0.6537863
127	0x3f992038	1.1962957
128	0x3f586729	0.8453241
129	0xbf3662c8	-0.7124448
130	0xbf28b23b	-0.6589696
131	0x3e5004c3	0.20314316
132	0x3f82dbd6	1.0223339
133	0xc03d5f67	-2.958948
134	0xbf3104c0	-0.6914787
135	0xbf8899c7	-1.0671929
136	0x3fdf84cd	1.7462403
137	0x3eed6d44	0.46372426
138	0xbdd78586	-0.105235144
139	0x3f70ce11	0.9406443
140	0xbf1fdd32	-0.6244689
141	0xbf0245f8	-0.50888014
142	0xbf5495e2	-0.83041203
143	0x3ee72310	0.45143938
144	0x3f2a2d1b	0.66475075
145	0x3f6b3d52	0.9189044
146	0x3f1ddd5c	0.6166589
147	0xbf350392	-0.7070857
148	0xc0343e3d	-2.8162987
149	0xbf0a49ad	-0.5401867
150	0xbf9fa8ee	-1.2473428
151	0xbfe13b55	-1.7596232
152	0xbee254b3	-0.44205245
153	0xbe4d0571	-0.20021607
154	0xbd5aeffc	-0.053451523
155	0x3f0035ff	0.5008239
156	0xbf3e6fc2	-0.7438928
157	0xbe5b060e	-0.21389028
158	0xbe8e5fab	-0.27807364
159	0xbf3a8bf5	-0.7286981
160	0x3e142f0f	0.14471076
161	0x3e6dafa0	0.23211527
162	0x3e29765a	0.16549054
163	0x3f231288	0.6370015
164	0x3e0b94cc	0.1363098
165	0xbf348d9d	-0.70528585
166	0xbe686f16	-0.22698626
167	0xbe808ba0	-0.25106525
168	0xbf7efa2f	-0.996005
169	0x3f9171c2	1.1362841
170	0xbe719fae	-0.23596069
171	0xbfc89bd6	-1.5672557
172	0x4000fb8f	2.015354
173	0x3f1193e4	0.5686629
174	0xbf44ad11	-0.7682658
175	0xc0246568	-2.5686893
176	0xbf168d9c	-0.5880983
177	0x3fb219ab	1.3914083
178	0x3fa829d4	1.3137765
179	0x3ee34907	0.44391653
180	0x3f8a57e2	1.080807
181	0xbf84f286	-1.0386512
182	0xbdd00f5b	-0.10159179
183	0xbedda2dc	-0.43288314
184	0xbf876ac9	-1.0579463
185	0x3eb5fedb	0.35546002
186	0xbf9763ed	-1.182737
187	0xbde4d6f5	-0.11173812
188	0xbd0725f0	-0.032995164
189	0x3dc90513	0.09815421
190	0xc03934bf	-2.8938444
191	0xbf1ced00	-0.61299133

state_net.0.bias f4 [64]
0	0x3f1c7839	0.61120945
1	0x3f847bb7	1.0350255
2	0x3f8636d7	1.0485486
3	0x3f3deb46	0.74187124
4	0xbf1505d4	-0.5821202
5	0x3ef8f65e	0.48625463
6	0x3fd5aabc	1.6692729
7	0x3f350434	0.7070954
8	0x3f47c274	0.78031087
9	0x3f9b4941	1.213173
10	0x3f471d30	0.7777891
11	0x3fa0a884	1.2551427
12	0x3f804b51	1.0022985
13	0x3f9a3a3d	1.2049023
14	0x3f0330ba	0.51246226
15	0xbf31bbf4	-0.6942742
16	0x3f03fdc7	0.5155911
17	0x40088184	2.132905
18	0x3fad584d	1.3542572
19	0x3f909e7d	1.1298367
20	0x3f6e542d	0.9309719
21	0x3f599890	0.84998417
22	0x3f6b4efb	0.9191739
23	0xbed84500	-0.42240143
24	0x3fa17e54	1.2616677
25	0xbe081cbe	-0.13292214
26	0xbf565f1f	-0.83738893
27	0xbe5c41d3	-0.21509485
28	0x3f5d5906	0.86463964
29	0xbfb0942d	-1.379522
30	0x3f9c2600	1.2199097
31	0x3f8b5c83	1.0887607
32	0x3f37aa28	0.7174401
33	0x3f7eaa9c	0.9947908
34	0x3f968431	1.1759092
35	0x3f923126	1.1421249
36	0xbee8bdec	-0.454574
37	0x3f681e12	0.90670884
38	0x3f482ae4	0.78190446
39	0x3f88e415	1.0694605
40	0xbefc404f	-0.49267814
41	0x3fb61b55	1.4227091
42	0xbeeb1a92	-0.4591871
43	0x3f40afb6	0.75268114
44	0xbf4b43c4	-0.7940028
45	0x3f6bae7e	0.9206313
46	0x3f708be6	0.9396347
47	0xbed1780e	-0.40911907
48	0x3eedc8dd	0.4644231
49	0x3e98428e	0.29738277
50	0x3f751491	0.95734507
51	0xbe5fea80	-0.21866798
52	0x3fb15e9d	1.3856999
53	0x3f8f2412	1.1182883
54	0x3f6cdb1d	0.9252184
55	0x3f9b2180	1.2119598
56	0x3f61a719	0.88145596
57	0x3f0f94ea	0.560866
58	0xbd2fb57e	-0.042897694
59	0xbfaa8c71	-1.3324109
60	0x3f6fd521	0.93684584
61	0xbf57e0ba	-0.8432728
62	0xbeaf5447	-0.34243986
63	0xbee0f8d2	-0.43939835

action_net.0.weight f4 [64, 1]
0	0xbfaadc24	-1.3348432
1	0xbf9274ec	-1.1441932
2	0x3ddb5480	0.107094765
3	0xbd9e61d2	-0.077335015
4	0xbec2db51	-0.3805795
5	0xbf22b028	-0.63550043
6	0x3f3be8cf	0.7340211
7	0x3f094130	0.53615093
8	0xbebe4e8c	-0.37169302
9	0xbd218011	-0.039428774
10	0x3f859a05	1.0437628
11	0x3ec7f724	0.3905574
12	0xbed109b0	-0.40827703
13	0xbe2dd599	-0.16976012
14	0x3f64353e	0.8914374
15	0xbf370e2a	-0.7150599
16	0xbd7745e0	-0.060369372
17	0x3eefaba3	0.46810636
18	0x3ee12500	0.4397354
19	0x3e9e59c7	0.3092787
20	0x3d96e970	0.073687434
21	0xbed27905	-0.41107956
22	0x3f07dc23	0.53070277
23	0x3edf4a88	0.4361155
24	0x3f52b324	0.82304597
25	0xbf575b30	-0.84123516
26	0x3f2f5a0f	0.68496794
27	0xbea592b7	-0.32338497
28	0x3f40ae7f	0.7526626
29	0xbf807a56	-1.0037334
30	0xbf8d0bb2	-1.1019194
31	0x3f8e8c8d	1.1136643
32	0xbf91b760	-1.1384087
33	0xbe960274	-0.29298747
34	0x3da3e270	0.08002174
35	0xbeec873f	-0.46196935
36	0xbede2587	-0.43388006
37	0xbefd358e	-0.4945492
38	0x3e3478be	0.17624184
39	0x3eba5855	0.36395517
40	0x3ee7b38b	0.45254168
41	0x3d45de60	0.048307776
42	0xbf429415	-0.76007205
43	0x3f37125c	0.7151239
44	0x3f0b4560	0.5440273
45	0xbf58af07	-0.8464207
46	0xbf5c0428	-0.8594384
47	0xbf2b897e	-0.6700667
48	0x3db90229	0.09033615
49	0xbf5788b2	-0.84192955
50	0xbf82e1dc	-1.0225177
51	0xbf40d480	-0.7532425
52	0x3ec9d5d2	0.39420944
53	0x3f0aa711	0.54161173
54	0x3eb806b8	0.35942626
55	0x3d87ac9e	0.06624721
56	0xbf4c5212	-0.7981273
57	0x3f855e0c	1.0419326
58	0x3f2a80e6	0.66602933
59	0x3faab4a1	1.3336374
60	0x3f45067c	0.7696302
61	0xbedcc1a5	-0.4311649
62	0xbef4397f	-0.47700116
63	0x3fbe15fe	1.4850461

action_net.0.bias f4 [64]
0	0x3daa4c99	0.08315391
1	0xbed58bb9	-0.41708162
2	0xbedfbef0	-0.4370036
3	0x3f9343a5	1.1505018
4	0x3f349aff	0.70549005
5	0xbf7a44f8	-0.9776149
6	0xbeea2829	-0.45733765
7	0x3f8e0cfe	1.1097715
8	0xbf0d6aa0	-0.5524082
9	0x3f9c8179	1.2227012
10	0x3f3afdd4	0.7304356
11	0xbec8557d	-0.39127722
12	0x3f37e330	0.71831036
13	0x3f0b045f	0.54303545
14	0x3f54d939	0.83143955
15	0x3f6d23fa	0.9263302
16	0xbeb1bbd4	-0.34713614
17	0x3f892e0b	1.0717176
18	0xbf5ef3a2	-0.87090504
19	0x3f04b209	0.5183416
20	0xbf3b1b02	-0.73088086
21	0x3f341c69	0.7035585
22	0x3fbc2e2f	1.4701594
23	0xbeeb068c	-0.45903432
24	0x3f6fa557	0.93611664
25	0x3fa23b4e	1.2674348
26	0xbf024109	-0.50880486
27	0xbea59ee5	-0.3234779
28	0x3f5f5755	0.87242633
29	0x3eb2198a	0.3478511
30	0xbf190c50	-0.5978441
31	0xbebbed24	-0.3670436
32	0xbf616a9a	-0.88053286
33	0x3faffb45	1.3748556
34	0x3f9a935e	1.2076223
35	0x3fa42b0c	1.2825637
36	0x3f8c3e77	1.0956563
37	0x3f5cfb5e	0.86321056
38	0x3e9415b4	0.28922808
39	0x3f2fd104	0.6867831
40	0x3f86266d	1.0480477
41	0xbf2ddfa8	-0.679194
42	0x3f8eb55a	1.1149094
43	0x3f56e776	0.8394693
44	0x3f47feec	0.78123355
45	0x3fa57f3c	1.2929454
46	0xbf65dc66	-0.89789426
47	0xbf43b5aa	-0.7644907
48	0x3f870404	1.05481
49	0x3fafb4a6	1.3727005
50	0xbe0313d6	-0.12800536
51	0xbf6dd306	-0.9290012
52	0x3f2317af	0.63708013
53	0x3f7243b4	0.94634557
54	0xbf1c4220	-0.610384
55	0x3f84267d	1.0324246
56	0x3f586545	0.84529525
57	0x3e9010d6	0.28137845
58	0x3fa3e0c8	1.2802973
59	0x3ea1b113	0.3158041
60	0xbf710d80	-0.94161224
61	0x3f4b041a	0.79303133
62	0x3fad27d2	1.3527777
63	0x3eefde06	0.46849078

output_net.0.weight f4 [64, 128]
0	0x3d3debf1	0.04636759
1	0xbdb5b0ad	-0.08871589
2	0xbd7d65f4	-0.06186481
3	0x3d57b9d3	0.05266745
4	0x3d7261bd	0.05917524
5	0x3d4c326d	0.049852777
6	0x3d0d9bd6	0.034572445
7	0xbc2bfb79	-0.0104969675
8	0xbb6d0472	-0.003616598
9	0xbd3ce5fd	-0.04611777
10	0x3d925662	0.071453825
11	0xbd9e5796	-0.077315494
12	0x3d39d022	0.045364507
13	0x3cbaf302	0.022820953
14	0x3c8c02d8	0.0170912
15	0x3d8f03af	0.069831245
16	0xbc918f6d	-0.017768586
17	0xbd84bb97	-0.064810924
18	0xbc05fbd9	-0.008177721
19	0x39da0f40	0.00041591562
20	0x3d3f33c3	0.046680223
21	0xbcecdeb1	-0.028914781
22	0xbd1f873d	-0.038947333
23	0xbda89e8c	-0.082333654
24	0xbc5a7086	-0.013332492
25	0xbcd2985e	-0.02570742
26	0x3c4a62bb	0.012352641
27	0x3d27e048	0.040985376
28	0x3d1856ef	0.03719228
29	0x3cf2ea61	0.029652776
30	0xbda19353	-0.07889428
31	0x3d005d81	0.031339172
32	0xbd40e9ef	-0.047098096
33	0x3d7d7702	0.061881073
34	0xbda7b7b8	-0.081893384
35	0x3b9e67c7	0.0048341486
36	0xbcea7a8e	-0.028622892
37	0xbd4c0a66	-0.049814604
38	0xbd82e719	-0.06391735
39	0x3d8c2696	0.06843297
40	0xbd0d3a4b	-0.03447942
41	0xbd300f88	-0.04298356
42	0x3d9bdcf8	0.07610506
43	0xbcd9fb63	-0.026609128
44	0x3d1515c7	0.03639772
45	0xbda23f26	-0.07922201
46	0x3d4b2c24	0.049602643
47	0xbd8d6dfe	-0.06905745
48	0x3d113360	0.035449386
49	0xbdb91931	-0.09038008
50	0x3c9d9363	0.019235319
51	0xba1353a9	-0.00056200713
52	0xbcd06ec6	-0.025443446
53	0xbc59a8c9	-0.01328487
54	0x3d11c7c8	0.035590917
55	0x3c5a2c51	0.01331623
56	0xbd470fcb	-0.048599046
57	0xbda63425	-0.081154145
58	0xbd81d849	-0.06340081
59	0xbdad8ade	-0.084737524
60	0x3c98d04f	0.018654017
61	0xbd44a5ba	-0.04800961
62	0x3d04218c	0.032258555
63	0xbd97154a	-0.073771074
64	0xbd5fcb5b	-0.054637294
65	0xbce03b7d	-0.027372116
66	0x3d8f25a2	0.069896
67	0x3ca65fdd	0.020309383
68	0xbd9b9e01	-0.07598496
69	0xbd44bbb9	-0.04803059
70	0x3d90492e	0.07045208
71	0x3d412fc2	0.047164686
72	0x3dac1458	0.08402318
73	0xbda10f38	-0.07864231
74	0xbd024172	-0.031800695
75	0x3d9e7cb0	0.07738626
76	0xbd9f9588	-0.07792193
77	0x3b71142f	0.0036785712
78	0xbd4efdcb	-0.050535005
79	0xbd5bc744	-0.05365683
80	0x3d850bb7	0.06496375
81	0x3964d10c	0.0002182165
82	0x3bdec80d	0.0067987503
83	0xbd21f353	-0.039538693
84	0x3d9047fd	0.07044981
85	0xbbaadff4	-0.0052146856
86	0x3c672cb3	0.014109778
87	0x3d822742	0.06355144
88	0x3b4f9b86	0.0031678393
89	0xbd7af945	-0.06127288
90	0xbd55cf86	-0.052199863
91	0x3d78f21b	0.060777765
92	0x3d11ab35	0.035563666
93	0xbdb70a03	-0.089374565
94	0xbca265bc	-0.019823901
95	0xbd2575e2	-0.040395625
96	0xbd2803cd	-0.04101925
97	0xbd8dc729	-0.069227524
98	0xbc05624b	-0.008141111
99	0x3b6536fd	0.0034975403
100	0x3cee6420	0.029100478
101	0xbda8e04b	-0.082459055
102	0xbc9eaabe	-0.019368526
103	0x3d616b9b	0.05503426
104	0x3d3efbba	0.046626784
105	0x3d247c0e	0.04015737
106	0xbd4b62c1	-0.049654726
107	0xbd87d205	-0.06631855
108	0xbcd30991	-0.025761398
109	0xba0c58a7	-0.00053537864
110	0x3d06224f	0.032747563
111	0xbd3d126b	-0.046160143
112	0x3d999d89	0.075007506
113	0x3d4635fc	0.048391327
114	0x3d84f1d3	0.06491437
115	0x3db33a61	0.08751369
116	0x3d988213	0.07446685
117	0xbd7aaa07	-0.061197307
118	0xbc945f7a	-0.018111933
119	0x3d2de1e5	0.042451758
120	0x3d64f392	0.05589635
121	0xbd3febf3	-0.046855878
122	0xbda59960	-0.080858946
123	0xbdb94039	-0.090454526
124	0xbd997cf5	-0.07494537
125	0x3bc366fb	0.005963204
126	0x3c857b14	0.01629404
127	0xbd9d6435	-0.076851286
128	0x3ee9591c	0.45575798
129	0x3f0c7cbf	0.5487785
130	0x3f05424d	0.5205429
131	0xbde0372f	-0.109480254
132	0xbf073219	-0.5281082
133	0x3f206638	0.62655973
134	0x3ecac8ee	0.39606422
135	0x3f619731	0.88121325
136	0xbf7544f6	-0.9580835
137	0x3f1156d4	0.56773114
138	0x3f2fca30	0.6866789
139	0x3ecb49d0	0.39704752
140	0x3f2e1d34	0.6801331
141	0x3f250e2f	0.6447477
142	0xbf0a476b	-0.54015225
143	0xbe94463c	-0.28959835
144	0xbf1bb857	-0.60828155
145	0x3e3f7789	0.18697943
146	0xbe8df07b	-0.27722535
147	0x3e17dabc	0.14829534
148	0x3f044731	0.5167113
149	0x3eca32cc	0.3949188
150	0x3eb00060	0.34375286
151	0xbe569d1a	-0.20958367
152	0x3f001d57	0.5004477
153	0xbee93239	-0.4554613
154	0x3f777be0	0.96673393
155	0x3ef978f2	0.48725086
156	0x3f04f2c4	0.5193293
157	0x3fa04f77	1.2524251
158	0x3f1e79dd	0.619047
159	0x3f16d759	0.58922344
160	0x3f38bd8d	0.7216423
161	0x3ef301a3	0.47462186
162	0x3f11a075	0.56885463
163	0x3e955093	0.29163036
164	0xbeae8294	-0.34083998
165	0x3ea1ea78	0.31624198
166	0x3ec655cc	0.38737333
167	0x3f2bee38	0.6716037
168	0xbea70def	-0.32627818
169	0x3e782a2e	0.2423484
170	0xbec5fda6	-0.3867008
171	0x3f1df63a	0.61703837
172	0x3f2563cc	0.646054
173	0x3e657a07	0.22409831
174	0xbeb0aa07	-0.3450472
175	0xbedf2e41	-0.43589976
176	0xbdfc3cd7	-0.12316292
177	0x3f3f23cb	0.7466399
178	0x3f36630e	0.71244895
179	0xbec4be28	-0.38426328
180	0x3ee6b95f	0.45063302
181	0x3f15b47d	0.5847853
182	0x3e88d6d9	0.26726416
183	0x3f16118f	0.5862054
184	0x3efc853d	0.49320403
185	0xbf3fbf93	-0.74901694
186	0xbf95556a	-1.1666691
187	0x3fcda27e	1.6065214
188	0x3e6d8278	0.23194301
189	0xbf2d4d17	-0.67695755
190	0x3f5572a7	0.8337807
191	0x3f285bb6	0.6576494
192	0xbc09e9c2	-0.008417549
193	0xbe11ac11	-0.14225794
194	0xbcef5bee	-0.02921864
195	0x3e8b0158	0.27149463
196	0x3e826136	0.2546479
197	0x3d72b63c	0.059255823
198	0x3da92fe6	0.08261089
199	0x3e9c10db	0.3048161
200	0x3cb5f0c5	0.022209534
201	0x3e88d42f	0.26724383
202	0x3e17a071	0.14807297
203	0xbc6a37c0	-0.014295518
204	0x3e9b476f	0.30327937
205	0x3ea107c7	0.31451246
206	0x3e2957cc	0.16537398
207	0x3e5f33d7	0.21797119
208	0xbd85862d	-0.065197326
209	0x3ec532d2	0.38515335
210	0xbd2d54da	-0.04231725
211	0x3e4d5564	0.20052105
212	0x3c5fd99d	0.013662723
213	0x3e4ff6e4	0.20309025
214	0x3ecbb022	0.39782816
215	0xbd71d5b2	-0.059041686
216	0x3e868367	0.26272127
217	0x3e8eca0e	0.2788853
218	0xbdfac52b	-0.12244638
219	0xbe1c9f3c	-0.15295118
220	0x3e77202e	0.2413337
221	0xbca01d98	-0.019545361
222	0xbd04e021	-0.03244031
223	0x3c698a15	0.014254113
224	0xbd9af4cf	-0.07566225
225	0x3ec1a783	0.37823114
226	0x3e937577	0.28800556
227	0x3eab17ef	0.33416697
228	0x3e6d53cc	0.23176497
229	0x3eb5bc88	0.354954
230	0x3c12a28c	0.008949887
231	0x3e6fb3df	0.23408459
232	0x3ea4af55	0.32165018
233	0xbd8b9567	-0.068156056
234	0x3e43acbf	0.19108866
235	0x3e99cd3e	0.300394
236	0x3ea60338	0.3242433
237	0x3e6fbadb	0.23411123
238	0x3d3938e1	0.04522026
239	0xbda18970	-0.07887542
240	0x3ead8f5b	0.33898434
241	0x3ea88b94	0.3291899
242	0xbcbc6e8a	-0.023001928
243	0x3c2ec18a	0.0106662605
244	0x3ea9cddb	0.33164868
245	0x3e9185ab	0.28422293
246	0xbd290d25	-0.0412723
247	0x3e847663	0.25871572
248	0x3e5e6b14	0.21720535
249	0xbc5ce7d2	-0.013483005
250	0x3eb7971d	0.35857478
251	0x3dcb92f4	0.099401385
252	0x3d12e74c	0.035865113
253	0x3ea89871	0.32928804
254	0x3ea374dc	0.31925094
255	0x3cbde714	0.023181476

output_net.0.bias f4 [64]
0	0xbd54b086	-0.05192616
1	0x3eb8bbd0	0.3608079
2	0x3ce6cf5f	0.028175054
3	0x3eafdb72	0.3434711
4	0x3e62b1c6	0.22138128
5	0x3e67daed	0.22642107
6	0x3e64b251	0.22333647
7	0x3ce077e4	0.027400918
8	0x3e232b12	0.15934399
9	0xbd42c5c4	-0.047551885
10	0x3e8d9348	0.2765143
11	0x3e3bbf2e	0.18334648
12	0xbd94cf65	-0.0726612
13	0x3ea0b3af	0.31387088
14	0x3e749ad3	0.23887186
15	0x3e31bc7f	0.17357062
16	0xbcc0e21f	-0.023545323
17	0x3e538cbb	0.20659153
18	0xbdb8c74a	-0.09022386
19	0x3e6555d2	0.22396019
20	0xbc5754bd	-0.013142762
21	0xbca651b9	-0.02030264
22	0x3ed90d2a	0.42392856
23	0x3e8a794e	0.27045673
24	0x3eca9a7b	0.39570984
25	0x3ea6f046	0.3260519
26	0xbdc78475	-0.09742061
27	0x3d0ac575	0.033879716
28	0x3e9118b2	0.28339154
29	0xbd0997c1	-0.03359199
30	0x3e1badf4	0.15203077
31	0x3e8154a4	0.25259888
32	0x3e4c94d8	0.19978654
33	0x3ee5d7da	0.44891244
34	0x3e6c9168	0.23102343
35	0x3e9162a8	0.2839558
36	0x3e7cf36b	0.24702232
37	0x3cff8c05	0.031194696
38	0x3e7a7562	0.2445884
39	0x3e54026a	0.20704046
40	0x3e8e3838	0.27777267
41	0x3e978c39	0.2959917
42	0x3e3b2e01	0.18279268
43	0x3e89f1e2	0.26942354
44	0x3e740df8	0.23833454
45	0xbd38a0df	-0.045075294
46	0x3c193fec	0.009353619
47	0xbd0f7ec3	-0.035033
48	0x3ea2feca	0.31835014
49	0x3e9be38e	0.30447048
50	0x3e52aef7	0.20574556
51	0x3e84b870	0.25921965
52	0x3ecfb8d3	0.40570697
53	0x3e974f3e	0.29552644
54	0x3e2d0fd0	0.16900563
55	0x3e2a190e	0.1661112
56	0x3e8c89a8	0.27448773
57	0x3ea7e486	0.32791537
58	0xbd7083c6	-0.05871942
59	0x3e5567ce	0.2084038
60	0xbdc15a3c	-0.09441039
61	0xbd99510e	-0.07486163
62	0x3eedba95	0.46431413
63	0x3d4d20e2	0.050080188

output_net.2.weight f4 [1, 64]
0	0x3dd0e994	0.102008015
1	0xbf2d2d58	-0.67647314
2	0x400d63be	2.2092128
3	0xbf3943e6	-0.7236923
4	0xbf3aea26	-0.7301353
5	0xbf32649d	-0.69684774
6	0xbf2a245f	-0.6646175
7	0x3dd5eb7b	0.10445305
8	0xbf54b85d	-0.83093816
9	0x3cfa4bec	0.03055378
10	0xbf2fb0f3	-0.6862938
11	0x40b09905	5.518679
12	0x401adc29	2.4196875
13	0xbf4268bf	-0.7594108
14	0x405139d7	3.2691553
15	0xbf5624a8	-0.83649683
16	0x401af6dd	2.4213173
17	0xbf43734d	-0.7634781
18	0x3c118123	0.008880886
19	0xbf39bbef	-0.7255239
20	0x3d75acd7	0.059979286
21	0x3de42355	0.111395516
22	0x4072c87c	3.7934866
23	0xbf49fec5	-0.7890437
24	0x409440ac	4.6328945
25	0xbf655b55	-0.89592487
26	0xbd80f640	-0.062969685
27	0x3de50816	0.11183183
28	0xbf323e3e	-0.69626224
29	0x3d8a6f44	0.067595035
30	0xbf54c2fe	-0.83110034
31	0xbf42afbc	-0.760494
32	0xbf4414cf	-0.7659425
33	0x407949e4	3.895135
34	0xbf58dcef	-0.8471212
35	0xbf37036c	-0.71489596
36	0xbf52935e	-0.82256114
37	0x3de25c0e	0.11052714
38	0xbf4de7f3	-0.8043205
39	0xbf442d73	-0.7663185
40	0xbf7a11eb	-0.9768359
41	0xbf34c579	-0.7061382
42	0xbf481f1b	-0.78172463
43	0xbf446f18	-0.76732016
44	0xbf5aba03	-0.8544008
45	0xbda8615a	-0.08221693
46	0x3d54bb82	0.051936634
47	0xbd7f9292	-0.06239564
48	0xbf39c5b4	-0.72567296
49	0xbf4d4525	-0.8018363
50	0xbf4645fe	-0.7745055
51	0xbf40b2b6	-0.7527269
52	0x406809c2	3.6255956
53	0xbf329603	-0.6976015
54	0xbf405fa4	-0.75145936
55	0xbf554338	-0.8330569
56	0xbf56996c	-0.83827853
57	0xbf587965	-0.84560233
58	0x4005665b	2.0843723
59	0xbf3268f2	-0.69691384
60	0x4011a5c3	2.2757423
61	0x3ce4750b	0.027887842
62	0x403a8f7c	2.9150076
63	0x3d0f67fc	0.035011277
