Q1/ckpt/critic1_ep300.pth (torch, 38344 bytes, 7 tensors)

state_net.0.weight f4 [64, 3]
-0.69168097 1.609513 0.36116973 -0.3773228 1.0315907 -0.16496725 -0.45857185 -0.0571238
-0.18117088 0.45651245 0.40041524 0.775213 -0.4212237 0.7052202 -0.4728369 -0.60476196
-1.6889162 -0.34670287 -1.0111678 -0.36041918 -0.32233512 -1.3080282 0.3332127 -0.15305147
-1.2165405 -1.4896839 -0.39733756 -0.5203659 0.032784645 -0.19533728 -0.7407502 -1.5080898
-0.34196827 -0.77496266 0.16972601 0.2833128 -0.8628191 -0.77290064 0.21291919 -0.2186791
-1.1015593 0.21317565 -1.2371386 1.788317 0.3435509 -0.5140195 -1.1032469 -0.6716
-0.75569326 -1.94801 -0.54067016 0.69010806 -0.551319 0.3498579 -0.29762977 0.015058197
-0.69247496 -1.199256 1.1253376 0.3942766 -0.9681942 0.7494297 0.30080938 -0.9809482
1.6925873 0.43481812 0.6653303 0.91392356 0.0045489483 -0.8352893 0.20718743 0.51182896
-0.3739261 0.13801062 0.23946728 0.77345955 1.7125008 0.40172023 0.8815737 2.3904078
0.51643276 -0.012513465 2.5221639 0.5217209 1.1563109 0.45508537 0.14721537 1.4190573
-0.6708964 -0.39964432 -1.0795774 -0.58650595 -0.25892383 -0.6056747 0.13132237 0.238792
-0.76546484 1.7209842 -0.12247923 -0.59651494 -0.15960926 -0.17789097 -0.07056125 -0.12598538
0.1728489 -1.245015 1.2884946 0.42234695 -0.5424478 0.37371182 -0.48728886 -1.0274057
1.2450674 0.37407175 1.3179219 -0.68187904 -0.09595462 -0.9169253 -1.6232643 0.1485236
-0.29168475 0.05315652 -0.37258658 -0.6449319 -0.14345033 -0.25621796 -0.6380685 0.92997444
0.8187147 -0.6784355 -0.5367429 0.21266164 0.89752704 -2.6295686 -0.61117595 -1.0649179
1.5312572 0.42573127 -0.07614341 0.71910954 -0.49921584 -0.41807926 -0.88051474 0.4441748
0.5733043 0.80738896 0.61915654 -0.43631285 -2.5285594 -0.49072418 -1.0021544 -1.5443925
-0.38482267 -0.2088588 -0.15023896 0.47223938 -0.65551454 -0.15138645 -0.25339445 -0.57649565
0.11848631 0.23987226 0.1555895 0.45691976 0.06556351 -0.69415474 -0.19182785 -0.22233081
-0.85394734 1.0630879 -0.25634205 -1.4182354 1.8834746 0.5226041 -0.67236567 -2.327993
-0.48406526 1.2160621 1.1033362 0.36141115 0.476917 -0.58642334 -0.061137684 -0.36179554
-1.0847249 0.34261546 -0.94800603 0.007199076 0.024281558 0.40638712 -2.5556262 -0.54123354
00000000: 0112 31bf 8604 ce3f 3deb b83e 7430 c1be
00000010: 2a0b 843f 2ded 28be eec9 eabe a5fa 69bd
00000020: dc84 39be 00bc e93e 3a03 cd3e 5c74 463f
00000030: a2aa d7be 5089 343f ae17 f2be aed1 1abf
00000040: 682e d8bf 0a83 b1be f26d 81bf dd88 b8be
00000050: 1c09 a5be 786d a7bf db9a aa3e 86b9 1cbe
00000060: 99b7 9bbf f6ad bebf d46f cbbe b336 05bf
00000070: 3149 063d 7f06 48be cea1 3dbf 1609 c1bf
00000080: 7716 afbe f463 46bf a8cc 2d3e 600e 913e
00000090: b6e1 5cbf d1dc 45bf 7d07 5a3e 6aed 5fbe
000000a0: e5ff 8cbf b84a 5a3e 8f5a 9ebf 92e7 e43f
000000b0: e7e5 af3e c896 03bf 3237 8dbf faed 2bbf
000000c0: 1d75 41bf 6458 f9bf 5c69 0abf ecaa 303f
000000d0: 3e23 0dbf 9320 b33e ee62 98be a8b6 763c
000000e0: 0a46 31bf 3881 99bf 100b 903f 9fde c93e
000000f0: 93db 77bf a0da 3f3f b003 9a3e 6c1f 7bbf
00000100: b3a6 d83f 7ba0 de3e 1653 2a3f e5f6 693f
00000110: 580f 953b 85d5 55bf f128 543e 3907 033f
00000120: 3e73 bfbe a852 0d3e e936 753e 7201 463f
00000130: 3a33 db3f 46ae cd3e d0ae 613f 71fc 1840
00000140: f034 043f 4705 4dbc 226b 2140 808f 053f
00000150: ff01 943f f300 e93e a0bf 163e aba3 b53f
00000160: debf 2bbf 2e9e ccbe 982f 8abf 4125 16bf
00000170: aa91 84be 7f0d 1bbf 5f79 063e e485 743e
00000180: 81f5 43bf 3649 dc3f 64d6 fabd 34b5 18bf
00000190: 9c70 23be 0d29 36be 6b82 90bd 5002 01be
000001a0: 4dff 303e a75c 9fbf 64ed a43f dc3d d83e
000001b0: dcdd 0abf 2857 bf3e ed7d f9be 0882 83bf
000001c0: 5e5e 9f3f 5586 bf3e aab1 a83f a08f 2ebf
000001d0: db83 c4bd 9ebb 6abf 20c7 cfbf 9216 183e
000001e0: b457 95be a7ba 593d abc3 bebe 421a 25bf
000001f0: a5e4 12be 002f 83be 7558 23bf ce12 6e3f
00000200: 4997 513f f3ad 2dbf fc67 09bf f9c3 593e
00000210: 55c4 653f da4a 28c0 0776 1cbf 3b4f 88bf
00000220: 3c00 c43f 73f9 d93e 13f1 9bbd 9017 383f
00000230: 3899 ffbe 7c0e d6be 6a69 61bf e16a e33e
00000240: 12c4 123f 0bb1 4e3f 0b81 1e3f 6664 dfbe
00000250: ebd3 21c0 3340 fbbe 9846 80bf a7ae c5bf
00000260: 7a07 c5be 15df 55be 3ed8 19be 5cc9 f13e
00000270: cdcf 27bf 0d05 1bbe ebbc 81be 3895 13bf
00000280: f3a8 f23d 13a1 753e db52 1f3e 63f1 e93e
00000290: 2946 863d 20b4 31bf 856e 44be b0aa 63be
000002a0: 4b9c 5abf 4413 883f 443f 83be bd88 b5bf
000002b0: b215 f13f 62c9 053f 2820 2cbf d6fd 14c0
000002c0: 67d7 f7be eca7 9b3f 1f3a 8d3f e20a b93e
000002d0: 772e f43e d71f 16bf 826b 7abd 443d b9be
000002e0: 44d8 8abf 4b6b af3e 86b0 72bf 3ae6 eb3b
000002f0: 1eea c63c f911 d03e 618f 23c0 488e 0abf

state_net.0.bias f4 [64]
0.5948532 1.0575627 1.0448269 0.63700646 -0.5309904 0.4944893 1.6083115 0.35378006
0.36525407 1.2130493 0.65322864 1.2913114 0.86469465 1.2426782 0.58305687 -0.6527143
-0.01576395 2.0283396 1.1848495 1.1149677 0.9100806 0.8728927 0.9472682 -0.42295164
1.2971097 0.04876554 -0.7777611 -0.053584006 0.92632055 -1.3799826 1.1218802 1.1190088
0.70826095 0.94867164 1.1870626 1.1472725 -0.442577 0.935936 0.7617889 0.87691826
-0.33561766 1.4132009 -0.55109435 0.68763304 -0.8963718 0.9605993 0.81044924 -0.34331015
0.4057093 0.2899455 0.91562337 -0.25552204 1.3786882 1.1464189 0.9662225 1.1718678
0.81867594 0.42423433 -0.3001278 -1.2429377 0.93561137 -0.6897728 -0.524924 -0.47980925
00000000: 4d48 183f 375e 873f e3bc 853f db12 233f
00000010: fdee 07bf b42d fd3e 27dd cd3f a922 b53e
00000020: 9502 bb3e 3345 9b3f fe39 273f b149 a53f
00000030: a15c 5d3f 1410 9f3f 3743 153f 4918 27bf
00000040: 6623 81bc 51d0 0140 26a9 973f 43b7 8e3f
00000050: 0bfb 683f e575 5f3f 2b80 723f 1e8d d8be
00000060: b107 a63f 60be 473d 5a1b 47bf e77a 5bbd
00000070: 5823 6d3f 45a3 b0bf c599 8f3f ae3b 8f3f
00000080: 9750 353f 25dc 723f abf1 973f d3d9 923f
00000090: 7499 e2be 8099 6f3f 9904 433f b77d 603f
000000a0: 14d6 abbe c4e3 b43f 8514 0dbf b808 303f
000000b0: 9f78 65bf d6e9 753f 9a79 4f3f 59c6 afbe
000000c0: 21b9 cf3e bd73 943e 4b66 6a3f c9d3 82be
000000d0: db78 b03f dbbd 923f 5c5a 773f c4ff 953f
000000e0: bf94 513f 3e35 d93e 5aaa 99be 9518 9fbf
000000f0: 3a84 6f3f f394 30bf 6b61 06bf 8fa9 f5be

action_net.0.weight f4 [64, 1]
-1.2744024 -0.9915815 0.107094765 -0.0620517 -0.37418872 -0.63550043 0.75827646 0.522598
-0.37169302 -0.04474611 1.1109902 0.3905574 -0.3831229 -0.184374 1.0224253 -0.7028784
-0.060369372 0.45223665 0.4397354 0.3253737 0.073687434 -0.3933934 0.5154019 0.4361155
0.82177943 -0.8345376 0.68568504 -0.3549524 0.7470591 -0.96622306 -1.055149 1.0027503
-1.1810322 -0.28206438 0.0870869 -0.45135108 -0.4396183 -0.49414447 0.20866607 0.387107
0.45014146 0.048307776 -0.7590294 0.6996305 0.5518726 -0.84430987 -0.8594384 -0.6700667
0.08501137 -0.83406067 -0.9240951 -0.7532425 0.3747244 0.5256232 0.35942626 0.05325091
-0.7719846 0.999419 0.65005004 1.1241488 0.7696302 -0.42450365 -0.46603513 1.3704308
00000000: 9e1f a3bf 49d8 7dbf 8054 db3d ec29 7ebd
00000010: aa95 bfbe 28b0 22bf 681e 423f fcc8 053f
00000020: 8c4e bebe b247 37bd ed34 8e3f 24f7 c73e
00000030: af28 c4be 8acc 3cbe d5de 823f d7ef 33bf
00000040: e045 77bd 908b e73e 0025 e13e 6297 a63e
00000050: 70e9 963d dc6a c9be 61f1 033f 884a df3e
00000060: 2360 523f 42a4 55bf 0e89 2f3f 52bc b5be
00000070: 443f 3f3f 655a 77bf 1f0f 87bf 1f5a 803f
00000080: 102c 97bf be6a 90be 9e5a b23d 7d17 e7be
00000090: a615 e1be 8100 fdbe 8fac 553e e432 c63e
000000a0: f178 e63e 60de 453d c04f 42bf fc1a 333f
000000b0: 8647 0d3f b124 58bf 2804 5cbf 7e89 2bbf
000000c0: 711a ae3d 0085 55bf 7f91 6cbf 80d4 40bf
000000d0: e0db bf3e 3e8f 063f b806 b83e a01d 5a3d
000000e0: c8a0 45bf ecd9 7f3f ae69 263f 1ce4 8f3f
000000f0: 7c06 453f 8b58 d9be 289c eebe 476a af3f

action_net.0.bias f4 [64]
-0.034684405 -0.33782795 -0.4370036 1.1541513 0.6926083 -0.9776149 -0.21910237 1.1364185
-0.5524082 1.2291455 0.63599765 -0.39127722 0.6711021 0.54828286 0.7266045 0.91842836
-0.34713614 1.0906653 -0.87090504 0.46696436 -0.73088086 0.6986594 1.4794445 -0.45903432
0.94551104 1.2415909 -0.4615185 -0.28095433 0.88375944 0.17280884 -0.6522846 -0.34841514
-0.81765234 1.3805896 1.2128183 1.276384 1.0973092 0.8603453 0.26351076 0.6860498
1.069835 -0.679194 1.1007382 0.86890817 0.7915226 1.303942 -0.89789426 -0.7644907
1.0369416 1.3812693 -0.088296235 -0.9290012 0.6450864 0.9688531 -0.610384 1.0482749
0.8056998 0.19487903 1.3009411 0.16797134 -0.94161224 0.7976584 1.3348523 0.33348075
00000000: 3c11 0ebd c9f7 acbe f0be dfbe 3bbb 933f
00000010: c74e 313f f844 7abf 5f5c 60be 2976 913f
00000020: a06a 0dbf a454 9d3f bed0 223f 7d55 c8be
00000030: 59cd 2b3f 445c 0c3f c102 3a3f 1f1e 6b3f
00000040: d4bb b1be ec9a 8b3f a2f3 5ebf f415 ef3e
00000050: 021b 3bbf 58db 323f 705e bd3f 8c06 ebbe
00000060: 030d 723f 73ec 9e3f 274c ecbe 3fd9 8fbe
00000070: 0f3e 623f cdf4 303e 20fc 26bf 7863 b2be
00000080: aa51 51bf 29b7 b03f a13d 9b3f 8d60 a33f
00000090: a174 8c3f 973f 5c3f e2ea 863e f6a0 2f3f
000000a0: 5af0 883f a8df 2dbf fde4 8c3f c470 5e3f
000000b0: 3aa1 4a3f 92e7 a63f 66dc 65bf aab5 43bf
000000c0: 81ba 843f 6fcd b03f a8d4 b4bd 06d3 6dbf
000000d0: 6224 253f c206 783f 2042 1cbf df2d 863f
000000e0: 5842 4e3f 5e8e 473e 3d85 a63f ae00 2c3e
000000f0: 800d 71bf 5733 4c3f 71dc aa3f fdbd aa3e

output_net.0.weight f4 [64, 128]
0.04636759 -0.08871589 -0.06186481 0.05266745 0.05917524 0.049852777 0.034572445 -0.0104969675
-0.003616598 -0.04611777 0.071453825 -0.077315494 0.045364507 0.022820953 0.0170912 0.069831245
-0.017768586 -0.064810924 -0.008177721 0.00041591562 0.046680223 -0.028914781 -0.038947333 -0.082333654
-0.013332492 -0.02570742 0.012352641 0.040985376 0.03719228 0.029652776 -0.07889428 0.031339172
-0.047098096 0.061881073 -0.081893384 0.0048341486 -0.028622892 -0.049814604 -0.06391735 0.06843297
-0.03447942 -0.04298356 0.07610506 -0.026609128 0.03639772 -0.07922201 0.049602643 -0.06905745
0.035449386 -0.09038008 0.019235319 -0.00056200713 -0.025443446 -0.01328487 0.035590917 0.01331623
-0.048599046 -0.081154145 -0.06340081 -0.084737524 0.018654017 -0.04800961 0.032258555 -0.073771074
-0.054637294 -0.027372116 0.069896 0.020309383 -0.07598496 -0.04803059 0.07045208 0.047164686
0.08402318 -0.07864231 -0.031800695 0.07738626 -0.07792193 0.0036785712 -0.050535005 -0.05365683
0.06496375 0.0002182165 0.0067987503 -0.039538693 0.07044981 -0.0052146856 0.014109778 0.06355144
0.0031678393 -0.06127288 -0.052199863 0.060777765 0.035563666 -0.089374565 -0.019823901 -0.040395625
-0.04101925 -0.069227524 -0.008141111 0.0034975403 0.029100478 -0.082459055 -0.019368526 0.05503426
0.046626784 0.04015737 -0.049654726 -0.06631855 -0.025761398 -0.00053537864 0.032747563 -0.046160143
0.075007506 0.048391327 0.06491437 0.08751369 0.07446685 -0.061197307 -0.018111933 0.042451758
0.05589635 -0.046855878 -0.080858946 -0.090454526 -0.07494537 0.005963204 0.01629404 -0.076851286
0.43717656 0.59147173 0.49661976 -0.116897196 -0.44968596 0.45575228 0.36080945 0.8210048
-0.6263836 0.54838157 0.53066605 0.37024307 0.6163179 0.6557588 -0.42752665 -0.20991196
-0.3489211 0.22891337 -0.13508295 0.1464481 0.5138308 0.3785343 0.4074425 -0.1739986
0.49382746 -0.28175995 0.76392645 0.38773483 0.52602947 1.6024066 0.51169586 0.5658411
0.6653928 0.4441634 0.57533056 0.28956273 -0.25994503 0.31059632 0.39468905 0.6007269
-0.2335045 0.21644257 -0.3205128 0.5762766 0.6475911 0.21240735 -0.21245077 -0.45049804
-0.14462036 0.5382402 0.5721343 -0.37273112 0.42351913 0.5637009 0.31846064 0.5560628
0.484627 -0.60447603 -0.95455426 1.2739341 0.25920513 -0.6491558 0.75791687 0.6166781
-0.023203177 -0.18567224 -0.02921864 0.31863552 0.30285704 0.059255823 0.07038452 0.3467837
0.022209534 0.31428838 0.157758 -0.014295518 0.35081077 0.36327547 0.18640347 0.26535517
-0.065197326 0.42764023 -0.04231725 0.23851198 0.013662723 0.2512906 0.44092998 -0.059041686
0.29864806 0.32634324 -0.11698669 -0.17062397 0.27790985 -0.005373562 -0.14673689 -0.0052347276
-0.27934143 0.42605117 0.3341352 0.38223493 0.28005135 0.40311813 0.04510924 0.27456337
0.3641179 -0.068156056 0.23863177 0.33750212 0.36298478 0.28201684 0.04522026 -0.07887542
0.3849285 0.37711248 -0.04692935 0.0106662605 0.3719798 0.3249958 -0.0412723 0.30522013
0.26309937 -0.023239104 0.39995798 0.08567793 0.035865113 0.37762403 0.36720854 0.018440051
00000000: f1eb 3d3d adb0 b5bd f465 7dbd d3b9 573d
00000010: bd61 723d 6d32 4c3d d69b 0d3d 79fb 2bbc
00000020: 7204 6dbb fde5 3cbd 6256 923d 9657 9ebd
00000030: 22d0 393d 02f3 ba3c d802 8c3c af03 8f3d
00000040: 6d8f 91bc 97bb 84bd d9fb 05bc 400f da39
00000050: c333 3f3d b1de ecbc 3d87 1fbd 8c9e a8bd
00000060: 8670 5abc 5e98 d2bc bb62 4a3c 48e0 273d
00000070: ef56 183d 61ea f23c 5393 a1bd 815d 003d
00000080: efe9 40bd 0277 7d3d b8b7 a7bd c767 9e3b
00000090: 8e7a eabc 660a 4cbd 19e7 82bd 9626 8c3d
000000a0: 4b3a 0dbd 880f 30bd f8dc 9b3d 63fb d9bc
000000b0: c715 153d 263f a2bd 242c 4b3d fe6d 8dbd
000000c0: 6033 113d 3119 b9bd 6393 9d3c a953 13ba
000000d0: c66e d0bc c9a8 59bc c8c7 113d 512c 5a3c
000000e0: cb0f 47bd 2534 a6bd 49d8 81bd de8a adbd
000000f0: 4fd0 983c baa5 44bd 8c21 043d 4a15 97bd
00000100: 5bcb 5fbd 7d3b e0bc a225 8f3d dd5f a63c
00000110: 019e 9bbd b9bb 44bd 2e49 903d c22f 413d
00000120: 5814 ac3d 380f a1bd 7241 02bd b07c 9e3d
00000130: 8895 9fbd 2f14 713b cbfd 4ebd 44c7 5bbd
00000140: b70b 853d 0cd1 6439 0dc8 de3b 53f3 21bd
00000150: fd47 903d f4df aabb b32c 673c 4227 823d
00000160: 869b 4f3b 45f9 7abd 86cf 55bd 1bf2 783d
00000170: 35ab 113d 030a b7bd bc65 a2bc e275 25bd
00000180: cd03 28bd 29c7 8dbd 4b62 05bc fd36 653b
00000190: 2064 ee3c 4be0 a8bd beaa 9ebc 9b6b 613d
000001a0: bafb 3e3d 0e7c 243d c162 4bbd 05d2 87bd
000001b0: 9109 d3bc a758 0cba 4f22 063d 6b12 3dbd
000001c0: 899d 993d fc35 463d d3f1 843d 613a b33d
000001d0: 1382 983d 07aa 7abd 7a5f 94bc e5e1 2d3d
000001e0: 92f3 643d f3eb 3fbd 6099 a5bd 3940 b9bd
000001f0: f57c 99bd fb66 c33b 147b 853c 3564 9dbd
00000200: 9bd5 df3e b16a 173f f244 fe3e cc67 efbd
00000210: 3d3d e6be 5d58 e93e 04bc b83e 5f2d 523f
00000220: ad5a 20bf bc62 0c3f bbd9 073f 8090 bd3e
00000230: 03c7 1d3f cfdf 273f c6e4 dabe 29f3 56be
00000240: c9a5 b2be 4468 6a3e 2f53 0abe 7ef6 153e
00000250: 6a8a 033f 3fcf c13e 4e9c d03e b02c 32be
00000260: f4d6 fc3e d742 90be af90 433f 2e85 c63e
00000270: dea9 063f a91b cd3f 80fe 023f f6da 103f
00000280: 2f57 2a3f 6369 e33e dd48 133f 9141 943e
00000290: 8417 85be 7b06 9f3e af14 ca3e 3dc9 193f
000002a0: ce1b 6fbe 1fa3 5d3e 411a a4be dd86 133f
000002b0: 88c8 253f 5081 593e b28c 59be aea7 e6be
000002c0: 5c17 14be 1cca 093f 6577 123f 9dd6 bebe
000002d0: 80d7 d83e b44e 103f 460d a33e 225a 0e3f
000002e0: 0821 f83e f1be 1abf ab5d 74bf 4610 a33f
000002f0: 89b6 843e 132f 26bf d706 423f 9ede 1d3f
00000300: 9714 bebc dd20 3ebe ee5b efbc 3224 a33e
00000310: 1410 9b3e 3cb6 723d c225 903d a28d b13e
00000320: c5f0 b53c 68ea a03e 508b 213e c037 6abc
00000330: 789d b33e 3eff b93e 8de0 3e3e a2dc 873e
00000340: 2d86 85bd a9f3 da3e da54 2dbd 7c3c 743e
00000350: 9dd9 5f3c 29a9 803e 93c1 e13e b2d5 71bd
00000360: 66e8 983e 7616 a73e b896 efbd 0db8 2ebe
00000370: 334a 8e3e b514 b0bb 3242 16be 1488 abbb
00000380: d705 8fbe 6123 da3e c513 ab3e 4cb4 c33e
00000390: e462 8f3e 8065 ce3e 77c4 383d 9293 8c3e
000003a0: a96d ba3e 6795 8bbd e35b 743e 14cd ac3e
000003b0: 24d9 b93e 8364 903e e138 393d 7089 a1bd
000003c0: 5915 c53e e314 c13e fd38 40bd 8ac1 2e3c
000003d0: 2374 be3e d965 a63e 250d 29bd d045 9c3e
000003e0: f6b4 863e ef5f bebc 4bc7 cc3e e977 af3d
000003f0: 4ce7 123d f057 c13e c202 bc3e 970f 973c

output_net.0.bias f4 [64]
-0.05192616 0.4071505 0.046244815 0.3897612 0.26766232 0.2727377 0.2696943 0.027400918
0.2055451 -0.047551885 0.3228987 0.1378931 -0.032266416 0.3601403 0.2097462 0.21975294
-0.008692631 0.2528677 -0.08069447 0.27025142 -0.013142762 -0.02030264 0.34535098 0.3166938
0.33665642 0.37218377 -0.09742061 0.033879716 0.32973477 -0.03359199 0.19825312 0.29887336
0.24604893 0.38120833 0.2771981 0.33028084 0.29321766 0.031194696 0.29080874 0.2532925
0.32381013 0.3423235 0.22903246 0.3156802 0.28451985 -0.045075294 0.009353619 -0.026548615
0.36462578 0.35069007 0.25199988 0.305508 0.34693855 0.34186822 0.21527365 0.21230541
0.32066044 0.37406567 -0.020955883 0.25475863 -0.084927045 -0.07486163 0.4121732 0.050080188
00000000: 86b0 54bd 0876 d03e 346b 3d3d c88e c73e
00000010: 090b 893e 47a4 8b3e 5f15 8a3e e477 e03c
00000020: 6a7a 523e c4c5 42bd fa52 a53e d933 0d3e
00000030: ca29 04bd 4f64 b83e b5c7 563e ea06 613e
00000040: 896b 0ebc e077 813e 2443 a5bd 655e 8a3e
00000050: bd54 57bc b951 a6bc d8d1 b03e b125 a23e
00000060: 3b5e ac3e df8e be3e 7584 c7bd 75c5 0a3d
00000070: ffd2 a83e c197 09bd de02 4b3e ee05 993e
00000080: 40f4 7b3e bd2d c33e e9ec 8d3e 921a a93e
00000090: a020 963e 058c ff3c e2e4 943e 8eaf 813e
000000a0: 71ca a53e 0745 af3e 7c87 6a3e d6a0 a13e
000000b0: 96ac 913e dfa0 38bd ec3f 193c 7b7c d9bc
000000c0: 3bb0 ba3e a68d b33e 2106 813e 8b6b 9c3e
000000d0: eea1 b13e 5a09 af3e b270 5c3e 9766 593e
000000e0: 9b2d a43e 8985 bf3e acab abbc b96f 823e
000000f0: 3bee adbd 0e51 99bd 5e08 d33e e220 4d3d

output_net.2.weight f4 [1, 64]
0.102008015 -0.6174614 1.850796 -0.6608652 -0.6676183 -0.63695097 -0.6072855 0.10445305
-0.7568759 0.03055378 -0.61423576 3.039999 2.055631 -0.69008565 2.8337686 -0.76636827
2.136898 -0.6909182 0.01840988 -0.66207784 0.059979286 0.111395516 2.7481084 -0.7177491
3.667838 -0.82308096 -0.062969685 0.11183183 -0.63099474 0.067595035 -0.75069225 -0.6902372
-0.6963574 2.7793977 -0.7758617 -0.6473312 -0.75253075 0.11052714 -0.7328769 -0.6996629
-0.91297704 -0.6396757 -0.7128261 -0.69855094 -0.77732915 -0.08221693 0.051936634 -0.0690117
-0.665677 -0.73186314 -0.7036483 -0.6812154 2.9491365 -0.6327425 -0.6846628 -0.7603645
-0.7697809 -0.7822101 1.6499016 -0.62798876 1.4506775 0.027887842 1.973954 0.035011277
00000000: 94e9 d03d f311 1ebf e2e6 ec3f 762e 29bf
00000010: 08e9 2abf 380f 23bf 1077 1bbf 7beb d53d
00000020: 9ec2 41bf ec4b fa3c 8e3e 1dbf 588f 4240
00000030: 758f 0340 74a9 30bf 775c 3540 b630 44bf
00000040: f0c2 0840 04e0 30bf 51d0 963c ef7d 29bf
00000050: d7ac 753d 5523 e43d 02e1 2f40 68be 37bf
00000060: dcbd 6a40 6fb5 52bf 40f6 80bd 1608 e53d
00000070: df88 21bf 446f 8a3d 5e2d 40bf 63b3 30bf
00000080: 7b44 32bf a7e1 3140 df9e 46bf 7fb7 25bf
00000090: dba5 40bf 0e5c e23d d29d 3bbf 1c1d 33bf
000000a0: ddb8 69bf c9c1 23bf c57b 36bf 3cd4 32bf
000000b0: 0bff 46bf 5a61 a8bd 82bb 543d 0256 8dbd
000000c0: cf69 2abf 625b 3bbf 4c22 34bf 2264 2ebf
000000d0: a7be 3c40 6afb 21bf 1046 2fbf 3fa7 42bf
000000e0: 5c10 45bf ec3e 48bf fa2f d33f dfc3 20bf
000000f0: cdaf b93f 0b75 e43c 86aa fc3f fc67 0f3d
