Q1/ckpt/critic1_ep100.pth (torch, 38344 bytes, 7 tensors)

state_net.0.weight f4 [64, 3]
000000 52 28 39 bf 87 50 9e 3f f3 d9 a8 3e f1 cb 9b be
       -0.7232715 1.2368325 0.32978782 -0.30429032
000010 fe 9e 69 3f a0 6d 5c be 82 45 cb be 96 97 35 bd
       0.9125823 -0.21526194 -0.39701468 -0.044334017
000020 23 e0 41 be 6d 26 80 be 24 b7 9b 3c 6e f7 3f 3f
       -0.18933158 -0.25029317 0.019008227 0.7498692
000030 32 ac b8 bd 5f 5d 42 3f d5 a7 f0 be e1 97 02 bf
       -0.09017219 0.75923723 -0.47003046 -0.51013
000040 fc 88 85 bf 9b 97 94 be 0e 6c 79 bf 20 97 04 bf
       -1.0432429 -0.29021916 -0.97430503 -0.517931
000050 6c 67 b5 be 46 4d 79 bf c9 d0 52 3e 64 81 10 be
       -0.35430467 -0.97383535 0.20587458 -0.14111859
000060 a7 25 7b bf b5 01 9e bf 35 e4 7a be 20 9d e9 be
       -0.9810433 -1.2344271 -0.24501117 -0.4562769
000070 4b 40 b7 3d e6 89 4a be 9e 64 11 bf 78 52 82 bf
       0.0894781 -0.19779167 -0.56794155 -1.0181417
000080 b8 11 98 be bd 35 4b bf 9f 7c aa 3e c2 bd 96 3e
       -0.29701018 -0.79378873 0.33298203 0.2944165
000090 4a 09 32 bf c3 16 32 bf de de 4e 3e 18 65 62 be
       -0.69545424 -0.6956598 0.20202205 -0.22108877
0000a0 58 f8 8f bf 59 3a 55 3e 05 7a 7f bf 4b 6e da 3f
       -1.1247663 0.20823039 -0.9979556 1.7064909
0000b0 c4 25 88 3e 1d fd 67 bf ef bd 85 be 4e 1d 2f bf
       0.26591313 -0.90620595 -0.2612147 -0.6840409
0000c0 b3 dd f0 be b7 6d 54 bf 07 9e 21 bf 9d 4e 54 be
       -0.47044143 -0.8297991 -0.63131756 -0.20733114
0000d0 ba 76 3f bf 19 15 da 3e 46 e9 9a be f8 8b 4b 3e
       -0.7479054 0.4259422 -0.30256099 0.19877613
0000e0 62 18 43 bf fe 14 73 bf cf ce 47 3f ba 05 c4 3e
       -0.7620908 -0.94953907 0.7804994 0.3828562
0000f0 69 3c 41 bf c9 a3 03 3f 83 ae 95 3e 9a 7f 73 bf
       -0.75482804 0.5142179 0.29234704 -0.9511658
000100 2c 7d aa 3f c0 3b cb 3e 20 67 ee 3e 74 41 50 3f
       1.331945 0.39694023 0.46563053 0.81349874
000110 4c c4 84 bc ca b7 27 bf 3e 84 9f 3d e7 89 eb 3e
       -0.016206883 -0.65514815 0.07788895 0.4600365
000120 d9 31 04 bf 88 9a ce 3d 7d 64 78 3e a6 d7 c1 3e
       -0.5163856 0.10088068 0.24257083 0.3785984
000130 8d 28 00 3f 55 bb cb 3e 95 c8 08 3f 1e 05 dd 3f
       0.50061876 0.3979136 0.53431064 1.7267187
000140 e8 ab c0 3e 0c c0 0c be 93 ed f3 3f 52 0f c1 3e
       0.37631154 -0.13745135 1.9056877 0.37707
000150 98 6b 5f 3f 04 d1 cc 3e 94 1d 53 3c 3f 70 8a 3f
       0.8727355 0.40003216 0.01288547 1.0815505
000160 c1 e6 11 bf f2 d4 af be b5 f4 34 bf 90 91 09 bf
       -0.5699273 -0.34342152 -0.70685893 -0.53737736
000170 3b 42 8f be 44 9b 1c bf e5 9f 6b 3e 16 d8 76 3e
       -0.27980217 -0.61174417 0.23010214 0.24105868
000180 e2 98 57 bf b9 d3 90 3f 6c 12 fe bd ab 2b 06 bf
       -0.84217656 1.1314613 -0.124058574 -0.5241038
000190 c6 b6 a4 be 3e 14 4d be 63 ff 23 be 12 07 58 be
       -0.32170695 -0.20027253 -0.16015391 -0.21096447
0001a0 9e fc 25 3e 80 79 8f bf 13 19 70 3f e6 e4 cb 3e
       0.16209647 -1.1208954 0.9378826 0.39823073
0001b0 76 64 95 be 66 2e ae 3e 9a 09 e9 be d9 54 64 bf
       -0.29178208 0.34019774 -0.45515138 -0.8919197
0001c0 5a 71 70 3f d0 0b b4 3e 9b 49 bc 3f b1 02 f4 be
       0.9392296 0.35165262 1.4709963 -0.47658303
0001d0 f8 67 2b be d3 7c 88 bf 5a 69 8c bf 47 66 0b 3e
       -0.1673888 -1.0663093 -1.0969651 0.13613234
0001e0 11 fb 6a 3c e4 d4 1d 3e 9b 50 c3 be 86 cf 1f bf
       0.014342085 0.15413243 -0.38147435 -0.6242603
0001f0 39 d9 bf be 20 d1 95 be 5d 31 6c bf 6e 40 0c 3f
       -0.37470415 -0.29261112 -0.9226282 0.5478581
000200 03 aa 38 3f 05 36 e5 be e4 ce 1b bf 79 f9 27 3e
       0.7213442 -0.44767776 -0.60862565 0.1640376
000210 92 ad 7c 3f 4e 14 f4 bf 39 f9 e6 be cc 17 7f bf
       0.9870235 -1.9068696 -0.45112017 -0.99645686
000220 75 2a 89 3f 90 9d c3 3e 42 fc b1 3c 95 fd 28 3f
       1.0716082 0.38206148 0.021726731 0.66011935
000230 90 f7 ff be 66 c1 84 be e6 87 44 bf a7 82 c8 3e
       -0.49993563 -0.259288 -0.76769865 0.3916218
000240 17 16 6e bd 23 e2 81 3d 98 22 19 3f e6 bb b0 bd
       -0.058126535 0.0634196 0.5981841 -0.08629589
000250 e5 b5 fc bf a8 7a c7 be 8f a9 4d bf 1c aa 8a bf
       -1.974301 -0.38960767 -0.8033685 -1.0833163
000260 5f 60 b6 be c4 3d 52 be 1f 74 87 be 77 87 c7 3e
       -0.356204 -0.20531374 -0.2645578 0.3897054
000270 4c e6 1a bf 9f 66 ee bd 6c 93 88 be e2 40 19 bf
       -0.60507655 -0.11640667 -0.26674974 -0.5986463
000280 44 84 58 3e 6e 4a 78 3e 0f 87 d8 bc 8b b2 f3 3e
       0.21144205 0.24247143 -0.026431588 0.47597155
000290 a0 48 6a 3d a1 9a 11 bf ea e2 6b be b3 57 76 be
       0.057198167 -0.5687657 -0.2303578 -0.24056892
0002a0 dc a3 17 bf 6b 11 49 3f aa 41 39 be f1 ee a0 bf
       -0.59234405 0.785422 -0.18091455 -1.2572919
0002b0 16 cf c4 3f 13 9d d7 3e 86 49 c9 be 1a 89 f7 bf
       1.5375698 0.42112026 -0.39313906 -1.9338715
0002c0 8e 0a ae be 3c 54 73 3f f0 db 3c 3f bc 7b a1 3e
       -0.33992428 0.95050406 0.737731 0.31539714
0002d0 92 a3 98 3d 90 6a 08 bf 68 b5 18 bc ea f7 14 bf
       0.074530736 -0.532876 -0.009320594 -0.58190787
0002e0 26 f1 56 bf 30 4e 9f 3e aa 6e 73 bf e9 97 1c bc
       -0.83961713 0.3111434 -0.95090735 -0.009557703
0002f0 69 95 61 3b 43 83 23 3f 78 4c e9 bf e3 c3 c7 be
       0.003442133 0.63872164 -1.8226461 -0.39016637

state_net.0.bias f4 [64]
000000 10 7b 07 3f ca 66 7e 3f ba f6 75 3f 35 4e b5 3e
       0.52922153 0.99375594 0.960796 0.3541123
000010 14 0c 98 be b0 aa 26 3f cf 57 b9 3f 84 d4 5a bc
       -0.29696715 0.651042 1.4479922 -0.013356332
000020 3d 7f 27 be 6a ab 8f 3f eb b0 34 3f 1c d9 8c 3f
       -0.16357131 1.1224186 0.70582455 1.1003757
000030 e1 ef 21 3f ac 42 8a 3f 5c 08 bb 3e 14 9a 0f bf
       0.6325665 1.0801597 0.36529815 -0.5609448
000040 3c 84 2c be 4d 0b b3 3f 5f 60 22 3f dc 40 95 3f
       -0.16847318 1.3987824 0.634283 1.1660419
000050 78 95 72 3f e1 42 45 3f d7 c0 75 3f 39 58 a0 be
       0.9475932 0.77055174 0.95997375 -0.3131731
000060 c2 52 89 3f fd 31 7f 3e 74 db 04 bf ba 36 29 bd
       1.0728381 0.24921413 -0.5189736 -0.041311957
000070 64 98 6b 3f c7 0b 89 bf 6c 78 86 3f 14 8c 71 3f
       0.92029405 -1.0706719 1.05055 0.9435437
000080 55 95 05 3f 12 19 51 3f ba 31 81 3f 6e 5d 8b 3f
       0.5218099 0.8167888 1.00933 1.0887887
000090 73 ed c5 be d1 bc 63 3f fd 99 c7 3e cd 5c d9 3e
       -0.38657722 0.88959986 0.3898467 0.42453614
0000a0 64 6a 97 bd 0e 4b a0 3f 25 f6 1e bf 81 b3 07 3f
       -0.07393339 1.2522905 -0.62094337 0.53008276
0000b0 67 e1 00 bf 24 d5 6b 3f bf 90 0c 3f a9 0b 83 be
       -0.50343937 0.921221 0.54908365 -0.25594833
0000c0 d8 fa 70 3e 28 c8 78 3e d4 7b 7a 3f 62 20 23 be
       0.2353319 0.24295104 0.97845197 -0.15930322
0000d0 bb 52 a4 3f 8e 3d 78 3f 86 bf 61 3f 10 81 8b 3f
       1.2837747 0.96968925 0.88182867 1.0898762
0000e0 63 15 2e 3f 91 04 44 be 71 19 10 bf bb cf 85 bf
       0.68001384 -0.19142367 -0.5628882 -1.0454019
0000f0 a6 77 59 3f 0b 01 1d bf a9 c0 13 bf 73 2e 71 be
       0.84948194 -0.61329716 -0.5771585 -0.23552875

action_net.0.weight f4 [64, 1]
000000 31 82 55 bf 2a 0d 4b bf 80 54 db 3d b2 56 51 bd
       -0.8340178 -0.7931696 0.107094765 -0.05110807
000010 38 b0 bb be 28 b0 22 bf 1d c6 6e 3f 42 f5 fd 3e
       -0.36657882 -0.63550043 0.93271047 0.4960118
000020 8c 4e be be 36 e0 6a bd c5 ef 77 3f 22 f8 03 3f
       -0.37169302 -0.05734273 0.96850234 0.51550496
000030 84 5c bc be 0c 47 44 be f4 ed 61 3f 4a 5b 33 bf
       -0.36789334 -0.19167727 0.8825371 -0.7006117
000040 e0 45 77 bd f6 71 dd 3e 00 25 e1 3e 9c 72 9b 3e
       -0.060369372 0.43251008 0.4397354 0.30360878
000050 70 e9 96 3d 08 e0 c7 be de 1b 00 3f 88 4a df 3e
       0.073687434 -0.3903811 0.5004252 0.4361155
000060 b3 c0 50 3f df 4d 54 bf b8 fd 1e 3f 10 87 9a be
       0.81544036 -0.8293132 0.62105894 -0.3018117
000070 6e d0 3a 3f 43 03 04 bf ca aa 79 bf b1 38 6a 3f
       0.7297429 -0.51567477 -0.9752623 0.91492754
000080 15 54 96 bf 5b e3 8e be 12 32 ad 3d 1d 2b eb be
       -1.174441 -0.27907833 0.08456816 -0.4593133
000090 1d 88 e0 be 82 b4 00 bf 22 18 fe 3e 76 a6 be 3e
       -0.43853846 -0.50275433 0.49627787 0.37236375
0000a0 28 a3 de 3e 60 de 45 3d 52 74 42 bf 71 ba 2d 3f
       0.43483853 0.048307776 -0.7595874 0.6786261
0000b0 04 9d 0b 3f 26 b1 5b bf 28 04 5c bf 7e 89 2b bf
       0.5453646 -0.8581718 -0.8594384 -0.6700667
0000c0 63 91 7e 3d c2 d0 52 bf 3b 16 28 bf 80 d4 40 bf
       0.06215037 -0.8234979 -0.6565892 -0.7532425
0000d0 25 b1 bc 3e 3a d6 04 3f b8 06 b8 3e de f0 23 3d
       0.368539 0.51889384 0.35942626 0.04002463
0000e0 ff 34 4b bf b9 07 96 3f f6 68 24 3f 94 3d 74 3f
       -0.7937774 1.1721107 0.6422266 0.9540646
0000f0 7c 06 45 3f 7e c5 d6 be ff a5 ea be 29 28 7f 3f
       0.7696302 -0.4194755 -0.4582977 0.99670655

action_net.0.bias f4 [64]
000000 7a cb a1 be ec 53 ee be f0 be df be 6b 3a 8b 3f
       -0.31600553 -0.46548402 -0.4370036 1.0877203
000010 22 ca 1b 3f f8 44 7a bf 2b 7d 03 be 87 d7 88 3f
       0.60855305 -0.9776149 -0.12840717 1.0690774
000020 a0 6a 0d bf bc 13 95 3f e8 9b 12 3f 49 5e 91 be
       -0.5524082 1.1646647 0.57269144 -0.28392246
000030 1c ed 10 3f a0 98 f5 3e 26 4a 37 3f e3 80 58 3f
       0.566118 0.47968006 0.71597517 0.84571666
000040 d4 bb b1 be 11 c7 82 3f a2 f3 5e bf 46 6b a3 3e
       -0.34713614 1.0217 -0.87090504 0.3191778
000050 02 1b 3b bf 86 f9 20 3f 37 61 b3 3f 8c 06 eb be
       -0.73088086 0.6288074 1.4014043 -0.45903432
000060 3a 9b 59 3f 38 99 93 3f b0 47 f8 be 10 27 61 be
       0.8500248 1.1531134 -0.48492193 -0.21987557
000070 29 7a 4d 3f af 01 6a bd ab 1a 12 bf 74 e0 e4 be
       0.80264527 -0.05713051 -0.5707194 -0.44702494
000080 66 04 2f bf db 00 a7 3f 25 e1 91 3f 9f 82 98 3f
       -0.68366086 1.3047136 1.1396834 1.1914862
000090 2e 9b 82 3f 85 2b 4a 3f eb 31 db 3d 6b 0a 17 3f
       1.0203607 0.78972656 0.107028805 0.5900027
0000a0 d4 74 80 3f a8 df 2d bf 7c b8 81 3f 97 6e 50 3f
       1.0035653 -0.679194 1.0134425 0.81418747
0000b0 1b 83 39 3f af aa 9f 3f 66 dc 65 bf aa b5 43 bf
       0.72465676 1.2473963 -0.89789426 -0.7644907
0000c0 99 ff 72 3f a6 88 a8 3f a2 38 7d be 06 d3 6d bf
       0.9492126 1.3166702 -0.24728635 -0.9290012
0000d0 d4 ea 10 3f 2d 58 65 3f 20 42 1c bf c7 78 7b 3f
       0.5660832 0.8958767 -0.610384 0.98231167
0000e0 10 02 33 3f 2f a7 cb 3c 94 0d 9f 3f 64 e3 93 3c
       0.6992502 0.024859993 1.2426019 0.018052764
0000f0 80 0d 71 bf ce 6f 3a 3f 6f f4 9e 3f f9 6b 78 bc
       -0.94161224 0.7282685 1.2418345 -0.015162461

output_net.0.weight f4 [64, 128]
000000 f1 eb 3d 3d ad b0 b5 bd f4 65 7d bd d3 b9 57 3d
       0.04636759 -0.08871589 -0.06186481 0.05266745
000010 bd 61 72 3d 6d 32 4c 3d d6 9b 0d 3d 79 fb 2b bc
       0.05917524 0.049852777 0.034572445 -0.0104969675
000020 72 04 6d bb fd e5 3c bd 62 56 92 3d 96 57 9e bd
       -0.003616598 -0.04611777 0.071453825 -0.077315494
000030 22 d0 39 3d 02 f3 ba 3c d8 02 8c 3c af 03 8f 3d
       0.045364507 0.022820953 0.0170912 0.069831245
000040 6d 8f 91 bc 97 bb 84 bd d9 fb 05 bc 40 0f da 39
       -0.017768586 -0.064810924 -0.008177721 0.00041591562
000050 c3 33 3f 3d b1 de ec bc 3d 87 1f bd 8c 9e a8 bd
       0.046680223 -0.028914781 -0.038947333 -0.082333654
000060 86 70 5a bc 5e 98 d2 bc bb 62 4a 3c 48 e0 27 3d
       -0.013332492 -0.02570742 0.012352641 0.040985376
000070 ef 56 18 3d 61 ea f2 3c 53 93 a1 bd 81 5d 00 3d
       0.03719228 0.029652776 -0.07889428 0.031339172
000080 ef e9 40 bd 02 77 7d 3d b8 b7 a7 bd c7 67 9e 3b
       -0.047098096 0.061881073 -0.081893384 0.0048341486
000090 8e 7a ea bc 66 0a 4c bd 19 e7 82 bd 96 26 8c 3d
       -0.028622892 -0.049814604 -0.06391735 0.06843297
0000a0 4b 3a 0d bd 88 0f 30 bd f8 dc 9b 3d 63 fb d9 bc
       -0.03447942 -0.04298356 0.07610506 -0.026609128
0000b0 c7 15 15 3d 26 3f a2 bd 24 2c 4b 3d fe 6d 8d bd
       0.03639772 -0.07922201 0.049602643 -0.06905745
0000c0 60 33 11 3d 31 19 b9 bd 63 93 9d 3c a9 53 13 ba
       0.035449386 -0.09038008 0.019235319 -0.00056200713
0000d0 c6 6e d0 bc c9 a8 59 bc c8 c7 11 3d 51 2c 5a 3c
       -0.025443446 -0.01328487 0.035590917 0.01331623
0000e0 cb 0f 47 bd 25 34 a6 bd 49 d8 81 bd de 8a ad bd
       -0.048599046 -0.081154145 -0.06340081 -0.084737524
0000f0 4f d0 98 3c ba a5 44 bd 8c 21 04 3d 4a 15 97 bd
       0.018654017 -0.04800961 0.032258555 -0.073771074
000100 5b cb 5f bd 7d 3b e0 bc a2 25 8f 3d dd 5f a6 3c
       -0.054637294 -0.027372116 0.069896 0.020309383
000110 01 9e 9b bd b9 bb 44 bd 2e 49 90 3d c2 2f 41 3d
       -0.07598496 -0.04803059 0.07045208 0.047164686
000120 58 14 ac 3d 38 0f a1 bd 72 41 02 bd b0 7c 9e 3d
       0.08402318 -0.07864231 -0.031800695 0.07738626
000130 88 95 9f bd 2f 14 71 3b cb fd 4e bd 44 c7 5b bd
       -0.07792193 0.0036785712 -0.050535005 -0.05365683
000140 b7 0b 85 3d 0c d1 64 39 0d c8 de 3b 53 f3 21 bd
       0.06496375 0.0002182165 0.0067987503 -0.039538693
000150 fd 47 90 3d f4 df aa bb b3 2c 67 3c 42 27 82 3d
       0.07044981 -0.0052146856 0.014109778 0.06355144
000160 86 9b 4f 3b 45 f9 7a bd 86 cf 55 bd 1b f2 78 3d
       0.0031678393 -0.06127288 -0.052199863 0.060777765
000170 35 ab 11 3d 03 0a b7 bd bc 65 a2 bc e2 75 25 bd
       0.035563666 -0.089374565 -0.019823901 -0.040395625
000180 cd 03 28 bd 29 c7 8d bd 4b 62 05 bc fd 36 65 3b
       -0.04101925 -0.069227524 -0.008141111 0.0034975403
000190 20 64 ee 3c 4b e0 a8 bd be aa 9e bc 9b 6b 61 3d
       0.029100478 -0.082459055 -0.019368526 0.05503426
0001a0 ba fb 3e 3d 0e 7c 24 3d c1 62 4b bd 05 d2 87 bd
       0.046626784 0.04015737 -0.049654726 -0.06631855
0001b0 91 09 d3 bc a7 58 0c ba 4f 22 06 3d 6b 12 3d bd
       -0.025761398 -0.00053537864 0.032747563 -0.046160143
0001c0 89 9d 99 3d fc 35 46 3d d3 f1 84 3d 61 3a b3 3d
       0.075007506 0.048391327 0.06491437 0.08751369
0001d0 13 82 98 3d 07 aa 7a bd 7a 5f 94 bc e5 e1 2d 3d
       0.07446685 -0.061197307 -0.018111933 0.042451758
0001e0 92 f3 64 3d f3 eb 3f bd 60 99 a5 bd 39 40 b9 bd
       0.05589635 -0.046855878 -0.080858946 -0.090454526
0001f0 f5 7c 99 bd fb 66 c3 3b 14 7b 85 3c 35 64 9d bd
       -0.07494537 0.005963204 0.01629404 -0.076851286
000200 6c 5f b5 3e 3f b7 08 3f d5 51 e2 3e d7 16 6f bd
       0.35424364 0.5340461 0.44203058 -0.05837139
000210 da 23 b4 be fb 4d 97 3e ea ab a0 3e 34 67 3b 3f
       -0.35183603 0.29551682 0.3138116 0.7320435
000220 b6 96 99 be 68 8a fb 3e 77 c0 c8 3e 98 f5 9d 3e
       -0.29997796 0.49129033 0.3920934 0.30851436
000230 d5 64 06 3f 9e 34 11 3f 4a a3 47 be d0 64 20 be
       0.5249761 0.5672091 -0.19495884 -0.15663457
000240 36 09 c1 bd 2d 94 41 3e 6c 63 44 bd 71 78 da 3d
       -0.09425585 0.18904181 -0.04794638 0.106675036
000250 45 98 f6 3e dd 42 a0 3e d9 e0 c1 3e 14 b4 92 bd
       0.48163047 0.31301013 0.37866858 -0.071632534
000260 58 9b c1 3e 50 cb 3c bd ca f4 ef 3e 3e ea 42 3e
       0.3781383 -0.04609233 0.46866447 0.19034669
000270 ba 0b e7 3e 6e b5 a5 3f 43 80 d2 3e 68 9d fb 3e
       0.45126134 1.2945993 0.4111348 0.4914353
000280 28 99 e7 3e e5 a5 ca 3e 1e f4 e0 3e 38 31 7a 3e
       0.45234036 0.39579692 0.43936247 0.24432838
000290 d3 73 1d be ff b2 85 3e 51 45 d2 3e af db fe 3e
       -0.15376215 0.26113126 0.4106851 0.4977698
0002a0 dc a0 37 be 14 22 2b 3e 60 40 45 be 94 b8 f8 3e
       -0.17932457 0.16712219 -0.19262838 0.48578322
0002b0 67 b5 c0 3e 12 10 1f 3e 00 3b 0c be fc 2c a1 be
       0.376384 0.15533474 -0.13694382 -0.31479633
0002c0 47 12 99 bd 4f 07 93 3e 12 7a eb 3e 9b b2 8c be
       -0.07474189 0.28716514 0.4599157 -0.27480015
0002d0 c6 6e bd 3e ec cc f8 3e 02 1b a6 3e 91 1b 01 3f
       0.36998576 0.48593843 0.3244248 0.5043269
0002e0 0f fe ae 3e f0 44 ae be 3d 40 10 bf c4 2b 6e 3f
       0.34178206 -0.3403697 -0.5634802 0.9303553
0002f0 13 67 80 3e c5 2c 07 bf d1 95 8c 3f fd f0 ab 3e
       0.2507864 -0.5280269 1.098322 0.33582297
000300 c4 75 3b bd 9d da 39 be ee 5b ef bc 66 3f a2 3e
       -0.045766607 -0.181498 -0.02921864 0.31688994
000310 36 b4 9b 3e 3c b6 72 3d 88 8e 2d 3c e8 82 af 3e
       0.30410928 0.059255823 0.010593064 0.3427956
000320 c5 f0 b5 3c 04 f5 9f 3e 49 da 28 3e 2d 66 93 bc
       0.022209534 0.3124162 0.16489519 -0.017993057
000330 30 5b b4 3e 44 9f ba 3e 34 9e 3f 3e 8f 83 88 3e
       0.3522582 0.36449635 0.18712693 0.2666287
000340 2d 86 85 bd e4 0a d9 3e da 54 2d bd 4f 98 71 3e
       -0.065197326 0.4239112 -0.04231725 0.23593257
000350 9d d9 5f 3c 15 4d 81 3e 7e c8 df 3e b2 d5 71 bd
       0.013662723 0.2525412 0.4370765 -0.059041686
000360 14 37 96 3e 57 59 a7 3e d3 47 e2 3b f5 0b 4d ba
       0.29338896 0.32685348 0.006905535 -0.0007821911
000370 04 b1 8b 3e 19 d5 0e bd f9 85 8d bd 8e 0a 0d bd
       0.2728349 -0.034871195 -0.06910319 -0.034433894
000380 1d 41 2f be 62 79 d9 3e 7e e0 a9 3e 23 67 c3 3e
       -0.17114682 0.4247542 0.33179086 0.38164625
000390 6d 48 8f 3e 5c d5 ce 3e eb 2b 2c 3d 27 d0 8a 3e
       0.27984944 0.40397155 0.04203407 0.27111933
0003a0 97 83 b8 3e 67 95 8b bd 93 29 75 3e d0 46 aa 3e
       0.36037895 -0.068156056 0.2394164 0.3325715
0003b0 2e 9f b7 3e c9 97 90 3e e1 38 39 3d 70 89 a1 bd
       0.35863632 0.28240803 0.04522026 -0.07887542
0003c0 51 fe c3 3e 7b 27 c1 3e 7d fa 88 bd 8a c1 2e 3c
       0.38279966 0.37725434 -0.06688402 0.0106662605
0003d0 2e bd bc 3e 1a 4f a4 3e 25 0d 29 bd f2 40 9b 3e
       0.36863083 0.320916 -0.0412723 0.30322987
0003e0 8f 92 88 3e 4f 0b 39 bd e8 8c ca 3e a4 fd 86 3d
       0.26674315 -0.0451768 0.39560628 0.06591347
0003f0 4c e7 12 3d ae c4 c1 3e 62 a8 bb 3e 90 0a 5c 39
       0.035865113 0.37845367 0.36651903 0.0002098477

output_net.0.bias f4 [64]
000000 86 b0 54 bd 60 ba ce 3e f6 95 f4 bc 6c c7 c5 3e
       -0.05192616 0.40376568 -0.029856663 0.3862871
000010 55 41 87 3e c1 e2 89 3e f5 5d 88 3e e4 77 e0 3c
       0.26417032 0.26930812 0.26634184 0.027400918
000020 cf bd 4e 3e c4 c5 42 bd 97 9c a3 3e 8e 93 f4 3d
       0.20189594 -0.047551885 0.31955406 0.11942206
000030 e0 20 9e bc a7 95 b6 3e 44 1c 57 3d e3 45 5d 3e
       -0.019302785 0.3566105 0.05251719 0.21608691
000040 a3 6e 55 bd c5 51 7f 3e 24 43 a5 bd ad 96 88 3e
       -0.052107465 0.24933536 -0.08069447 0.26677456
000050 b4 e4 6c bb b9 51 a6 bc fe f2 4b 3e 1f 51 a0 3e
       -0.003614706 -0.02030264 0.19916913 0.3131189
000060 1a 03 0f 3e a5 a4 bc 3e 75 84 c7 bd 78 42 1b 3d
       0.13966027 0.36844364 -0.09742061 0.037905186
000070 3b 14 a7 3e c1 97 09 bd c3 4b 47 3e 86 37 97 3e
       0.32632622 -0.03359199 0.19462495 0.2953455
000080 ec 53 78 3e 46 25 88 3e 5a 0b 8c 3e 52 57 a7 3e
       0.24250764 0.26590937 0.2735241 0.32683808
000090 6b 43 94 3e 05 8c ff 3c b4 0b 93 3e 2f bd 7f 3e
       0.28957686 0.031194696 0.28719866 0.24974512
0000a0 9b ce a3 3e 0f 84 ad 3e 40 de 66 3e 33 d0 9f 3e
       0.31993565 0.33889815 0.22545719 0.3121353
0000b0 32 cb 8f 3e df a0 38 bd ec 3f 19 3c 7b 7c d9 bc
       0.28084713 -0.045075294 0.009353619 -0.026548615
0000c0 39 e6 b8 3e 33 b5 b1 3e 53 69 7e 3e 26 a0 9a 3e
       0.36113146 0.34708557 0.24844866 0.3020031
0000d0 a9 04 39 3e 91 4a ad 3e b5 d4 58 3e 7d a8 55 3e
       0.18068184 0.33845952 0.21174891 0.20865054
0000e0 0b 4c a2 3e a0 a1 bd 3e 82 3a c8 bc b3 b1 80 3e
       0.3169864 0.37037373 -0.024441961 0.25135574
0000f0 5d c3 54 bd dd cc 85 bd 71 07 86 3e e2 20 4d 3d
       -0.051944125 -0.06533215 0.26177552 0.050080188

output_net.2.weight f4 [1, 64]
000000 94 e9 d0 3d 88 1f f5 be 93 2a 9e 3f 7c 3d 03 bf
       0.102008015 -0.4787562 1.2356743 -0.5126569
000010 18 ae 05 bf 96 7e fe be 00 d6 ee be 7b eb d5 3d
       -0.5221877 -0.49705952 -0.46647644 0.10445305
000020 fb e0 1a bf ec 4b fa 3c 25 4b ee be 34 50 97 3f
       -0.6049954 0.03055378 -0.46541706 1.1821351
000030 3d 29 b7 3f 60 81 0a bf 62 9c c7 3f 60 26 1e bf
       1.430946 -0.5410366 1.5594599 -0.61777306
000040 82 fc bc 3f 2c 20 0b bf 51 d0 96 3c fa 17 05 bf
       1.4764559 -0.54345965 0.01840988 -0.5198971
000050 43 15 8e 3d 55 23 e4 3d 01 bf 93 3f 4f ad 11 bf
       0.06937649 0.111395516 1.1542665 -0.5690507
000060 cf 9d bb 3f 55 4f 29 bf 40 f6 80 bd 0b bf f3 3d
       1.4657534 -0.66136676 -0.062969685 0.11901673
000070 51 1a fa be 44 6f 8a 3d 2a 9a 17 bf c5 e8 0a bf
       -0.48848203 0.067595035 -0.5921961 -0.5426143
000080 8a 61 0c bf 45 6d a8 3f af dc 20 bf 0b a7 ff be
       -0.5483633 1.3158346 -0.62836736 -0.4993213
000090 1e 53 1a bf 0e 5c e2 3d 5e f4 15 bf 0e 69 0d bf
       -0.60283077 0.11052714 -0.58576 -0.55238426
0000a0 69 6a 43 bf 2d 2a 00 bf 15 30 10 bf 1f 68 0b bf
       -0.76334244 -0.50064355 -0.5632337 -0.5445575
0000b0 b6 59 1e bf 5a 61 a8 bd 82 bb 54 3d 02 56 8d bd
       -0.6185564 -0.08221693 0.051936634 -0.0690117
0000c0 66 3a 06 bf 17 75 15 bf e0 96 0e bf 91 77 05 bf
       -0.5243286 -0.5838179 -0.55698967 -0.5213557
0000d0 52 ba a6 3f 2b 81 fb be 50 b3 09 bf 3b 1f 1b bf
       1.302561 -0.49121985 -0.53789234 -0.6059453
0000e0 ea 05 20 bf e5 01 22 bf fd 8f 89 3f c6 29 fa be
       -0.62509024 -0.6328414 1.0747067 -0.48859996
0000f0 9f 05 7b 3f ce 2b 19 3d 24 61 5d 3f fc 67 0f 3d
       0.9805545 0.03739529 0.8647635 0.035011277
