Q1/ckpt/critic1_ep450.pth (torch, 38344 bytes, 7 tensors)

state_net.0.weight f4 [64, 3]
-0.778565 1.7057214 0.41906217 -0.519337 0.94753706 -0.13174878 -0.5590605 -0.11382881
-0.21213254 0.6188466 0.43806222 0.7901154 -0.15651484 0.8495336 -0.54069763 -0.8846339
-1.9562261 -0.39927578 -1.0413076 -0.43411055 -0.3693651 -1.3424039 0.014029442 -0.24265188
-1.6626538 -1.6881405 -0.5336487 -0.59666514 -0.060510743 -0.23535168 -1.127486 -1.6329583
-0.4038665 -0.95103073 0.28027347 0.2858115 -0.960186 -0.79820454 0.15374035 -0.3359743
-1.1437991 0.19782299 -1.2635189 1.9745677 0.3729845 0.00871069 -1.7679973 -0.63263386
-1.4826523 -2.1620784 -0.57970464 0.8196497 -0.61605906 0.42891756 -0.48394576 0.2626996
-0.81537026 -1.2236829 1.3202091 0.41332233 -1.0038841 0.8544099 0.30659428 -1.0275846
1.8816905 0.48030403 0.68057144 1.1317855 0.0440821 -1.1894618 0.32694393 0.5292383
-0.6360189 0.1371029 0.25206786 0.91946334 1.8832998 0.44852093 1.2645032 2.5444093
0.5709436 0.13193658 2.8746414 0.5888264 1.4732354 0.4447426 0.26015866 1.5127789
-1.0819496 -0.41548866 -1.1680262 -0.69278014 -0.34269732 -0.7813577 0.21185996 0.24272491
-0.92523533 2.046468 -0.091306135 -0.6020929 -0.21101703 -0.21689841 -0.24446192 -0.18835072
0.17613396 -1.2581992 1.5479519 0.45433038 -0.7359149 0.2936897 -0.60688955 -1.0194201
1.4932486 0.41180497 1.3640708 -0.8500133 -0.051965155 -0.9804337 -1.7416463 0.09214523
-0.21351646 0.059442658 -0.48403102 -0.73384184 -0.10828749 -0.28228372 -0.58152646 1.2738432
0.8394673 -0.73698676 -0.5993139 0.2078028 1.0662684 -3.1112912 -0.70512754 -1.0801764
1.7869488 0.46963853 -0.18994544 1.0964292 -0.63266045 -0.53618807 -0.83213896 0.45333114
0.6904931 0.96185595 0.62095445 -0.6548914 -2.847211 -0.5470143 -1.3211645 -1.7415321
-0.45104933 -0.05757907 -0.100811325 0.5078036 -0.7538143 -0.18752974 -0.28421873 -0.7542098
0.19300564 0.24353395 0.2500496 0.7311503 0.10513263 -0.7132737 -0.24572395 -0.2596498
-1.0305585 1.1440107 -0.2199076 -1.6140316 2.0712674 0.5814699 -0.8032596 -2.6348317
-0.5955311 1.4800627 1.2633867 0.44621062 1.1202713 -1.112608 -0.099118225 -0.44629622
-1.0458056 0.35730267 -1.1997904 -0.08633416 -0.05149474 0.10609899 -2.9425704 -0.61270744
00000000: 0950 47bf 1455 da3f 518f d63e 45f3 04bf
00000010: ca91 723f 27e9 06be 971e 0fbf 141f e9bd
00000020: 4639 59be bb6c 1e3f b149 e03e 0145 4a3f
00000030: 6d45 20be 097b 593f 296b 0abf 5e77 62bf
00000040: 9e65 fabf e06d ccbe 9149 85bf bd43 debe
00000050: 6c1d bdbe e4d3 abbf bfdb 653c bc79 78be
00000060: d7d1 d4bf fd14 d8bf 349d 08bf 0cbf 18bf
00000070: 1dda 77bd 0800 71be 7651 90bf c704 d1bf
00000080: 97c7 cebe c076 73bf 0180 8f3e e355 923e
00000090: c0ce 75bf 2257 4cbf 1c6e 1d3e d304 acbe
000000a0: 0268 92bf 1c92 4a3e fdba a1bf a2be fc3f
000000b0: d3f7 be3e 48b7 0e3c bc4d e2bf 4bf4 21bf
000000c0: 8dc7 bdbf 7e5f 0ac0 8667 14bf 90d4 513f
000000d0: 0cb6 1dbf 159b db3e bdc7 f7be 9080 863e
000000e0: 1bbc 50bf a4a1 9cbf 9dfc a83f fc9e d33e
000000f0: 467f 80bf 9bba 5a3f edf9 9c3e e487 83bf
00000100: 3cdb f03f 69ea f53e ee39 2e3f 59de 903f
00000110: 6f8f 343d 4940 98bf 3265 a73e 297c 073f
00000120: 22d2 22bf b464 0c3e 0a0f 813e f361 6b3f
00000130: f80f f13f 89a4 e53e 3edb a13f 9ad7 2240
00000140: 5c29 123f 621a 073e 20fa 3740 54bd 163f
00000150: fa92 bc3f 4db5 e33e 8433 853e bda2 c13f
00000160: 537d 8abf eeba d4be e281 95bf 0a5a 31bf
00000170: 0676 afbe 0f07 48bf d1f1 583e e18c 783e
00000180: 39dc 6cbf 55f9 0240 b6fe babd c322 1abf
00000190: d914 58be 9e1a 5ebe 3a54 7abe 03df 40be
000001a0: 765c 343e ac0c a1bf 4a23 c63f fe9d e83e
000001b0: eb64 3cbf 7f5e 963e 1d5d 1bbf 5c7c 82bf
000001c0: c522 bf3f 1ad8 d23e df99 ae3f 799a 59bf
000001d0: 6ad9 54bd b4fd 7abf 44ee debf a3b6 bc3d
000001e0: 0fa4 5abe 257a 733d ead2 f7be 0fdd 3bbf
000001f0: d5c5 ddbd 7e87 90be ebde 14bf 4b0d a33f
00000200: 54e7 563f 2aab 3cbf a36c 19bf 42ca 543e
00000210: 7c7b 883f 651f 47c0 3d83 34bf 3843 8abf
00000220: bdba e43f 7674 f03e 0f81 42be cb57 8c3f
00000230: 09f6 21bf 9f43 09bf 0f07 55bf 051b e83e
00000240: 28c4 303f 313c 763f dff6 1e3f f6a6 27bf
00000250: b438 36c0 2109 0cbf eb1b a9bf 86ea debf
00000260: f0ef e6be 08d8 6bbd 2b76 cebd 6bff 013f
00000270: f9f9 40bf cc07 40be 1e85 91be e513 41bf
00000280: 45a3 453e f760 793e 8006 803e ab2c 3b3f
00000290: c74f d73d 1b99 36bf 0f9f 7bbe d2f0 84be
000002a0: 57e9 83bf f16e 923f 752f 61be 9698 cebf
000002b0: a58f 0440 36db 143f 6ca2 4dbf 15a1 28c0
000002c0: ba74 18bf b272 bd3f a8b6 a13f b875 e43e
000002d0: 0d65 8f3f f069 8ebf 7ffe cabd f080 e4be
000002e0: f5dc 85bf 60f0 b63e bb92 99bf f7cf b0bd
000002f0: 26ec 52bd 6d4a d93d 1353 3cc0 65da 1cbf

state_net.0.bias f4 [64]
0.63386095 1.0424778 1.0731757 0.7569562 -0.5670957 0.47853264 1.6835725 0.78379875
0.82546145 1.2451453 0.8237537 1.2551038 1.0238739 1.2381945 0.54304194 -0.6180086
0.57285017 2.18583 1.3747568 1.0723177 0.9009675 0.85655904 0.97505516 -0.42955786
1.2341363 -0.15555525 -0.87313926 -0.25010362 0.84682757 -1.3805752 1.2530406 1.083953
0.6848952 1.0194746 1.1645005 1.0880429 -0.32565954 0.8665729 0.84635556 1.1101245
-0.46211514 1.4613553 -0.37509882 0.7695284 -0.817576 0.9077499 0.97209144 -0.41889596
0.52054405 0.3274287 0.995322 -0.17175601 1.4113951 1.1095608 0.9349139 1.2333869
0.9277243 0.58047646 -0.06796255 -1.3553511 1.0161785 -0.900472 -0.40045628 -0.4410532
00000000: b644 223f ea6f 853f d25d 893f e2c7 413f
00000010: 2f2d 11bf 3b02 f53e 4e7f d73f 09a7 483f
00000020: 7151 533f ec60 9f3f 86e1 523f 3ea7 a03f
00000030: 4d0e 833f 287d 9e3f cc04 0b3f d035 1ebf
00000040: 4fa6 123f a4e4 0b40 08f8 af3f b541 893f
00000050: cea5 663f 7447 5b3f 379d 793f 02ef dbbe
00000060: 2ef8 9d3f e049 1fbe 0e86 5fbf 950d 80be
00000070: b1c9 583f b0b6 b0bf a263 a03f f9be 8a3f
00000080: 4b55 2f3f 257e 823f 5a0e 953f fd44 8b3f
00000090: d9bc a6be b9d7 5d3f c2aa 583f 8f18 8e3f
000000a0: 5b9a ecbe b10d bb3f f40c c0be d0ff 443f
000000b0: a94c 51bf 4c62 683f fcda 783f 8879 d6be
000000c0: 6042 053f bca4 a73e 6ccd 7e3f cfe0 2fbe
000000d0: 98a8 b43f 1706 8e3f 8456 6f3f 9fdf 9d3f
000000e0: 577f 6d3f 1b9a 143f f32f 8bbd 257c adbf
000000f0: 2312 823f 5585 66bf 9b08 cdbe bad1 e1be

action_net.0.weight f4 [64, 1]
-1.3839549 -1.2253089 0.107094765 -0.068889715 -0.38695636 -0.63550043 0.70579046 0.55084354
-0.37169302 -0.020954598 0.99773264 0.3905574 -0.41257972 -0.16756013 0.89560306 -0.7232763
-0.060369372 0.47822294 0.4397354 0.3106225 0.073687434 -0.41293904 0.53933036 0.4361155
0.8334569 -0.8349187 0.6500847 -0.32338497 0.7768935 -1.0216298 -1.1621625 1.1400378
-1.2794482 -0.2919075 0.085124746 -0.45777863 -0.41947544 -0.48398355 0.18345058 0.3625102
0.46353522 0.048307776 -0.7627109 0.74204314 0.5530683 -0.8545542 -0.8594384 -0.6700667
0.099215545 -0.8464715 -1.0754433 -0.7532425 0.40529308 0.54237926 0.35942626 0.075751714
-0.7982352 1.1092921 0.6804795 1.5417938 0.7696302 -0.41565132 -0.47028777 1.5579358
00000000: 6f25 b1bf ecd6 9cbf 8054 db3d 0d16 8dbd
00000010: 251f c6be 28b0 22bf afae 343f 1504 0d3f
00000020: 8c4e bebe faa8 abbc 686b 7f3f 24f7 c73e
00000030: a63d d3be e294 2bbe 3e46 653f a328 39bf
00000040: e045 77bd a3d9 f43e 0025 e13e ea09 9f3e
00000050: 70e9 963d bf6c d3be 8e11 0a3f 884a df3e
00000060: 6e5d 553f 3bbd 55bf f36b 263f b792 a5be
00000070: 7ee2 463f c4c4 82bf bec1 94bf c2ec 913f
00000080: f5c4 a3bf e674 95be e255 ae3d f661 eabe
00000090: 7cc5 d6be b1cc f7be 78da 3b3e f09a b93e
000000a0: 7d54 ed3e 60de 453d 0641 43bf 8af6 3d3f
000000b0: e295 0d3f 10c4 5abf 2804 5cbf 7e89 2bbf
000000c0: 8531 cb3d 5bb2 58bf 20a8 89bf 80d4 40bf
000000d0: 9382 cf3e 5ed9 0a3f b806 b83e b723 9b3d
000000e0: 2459 4cbf 49fd 8d3f e833 2e3f 8059 c53f
000000f0: 7c06 453f 40d0 d4be 8fc9 f0be 716a c73f

action_net.0.bias f4 [64]
0.05084389 -0.43325543 -0.4370036 1.1609159 0.720098 -0.9776149 -0.5126326 1.1179925
-0.5524082 1.2312793 0.791684 -0.39127722 0.7352046 0.5518329 0.8571956 0.9402463
-0.34713614 1.0795668 -0.87090504 0.53604597 -0.73088086 0.71740365 1.4850606 -0.45903432
0.9538253 1.2823987 -0.52334225 -0.3234779 0.88290083 0.32638633 -0.5799556 -0.38715085
-0.79831576 1.3858298 1.2229506 1.2961612 1.1112283 0.875588 0.2994676 0.70783216
1.0589737 -0.679194 1.1309355 0.8435629 0.7910891 1.302689 -0.89789426 -0.7644907
1.0712298 1.381028 -0.14199206 -0.9290012 0.6518961 0.95446897 -0.610384 1.0425324
0.8602273 0.3158397 1.286028 0.4159723 -0.94161224 0.8028586 1.3684496 0.5300847
00000000: af41 503d a8d3 ddbe f0be dfbe e498 943f
00000010: 5858 383f f844 7abf e43b 03bf 611a 8f3f
00000020: a06a 0dbf 8f9a 9d3f cdab 4a3f 7d55 c8be
00000030: 5e36 3c3f ec44 0d3f 2c71 5b3f fbb3 703f
00000040: d4bb b1be 3f2f 8a3f a2f3 5ebf 4f3a 093f
00000050: 021b 3bbf c4a7 373f 7716 be3f 8c06 ebbe
00000060: e52d 743f a425 a43f c2f9 05bf e59e a5be
00000070: ca05 623f 1c1c a73e f877 14bf a338 c6be
00000080: 6c5e 4cbf df62 b13f a589 9c3f 9ce8 a53f
00000090: bb3c 8e3f 8926 603f d153 993e 7d34 353f
000000a0: 738c 873f a8df 2dbf 7fc2 903f bdf3 573f
000000b0: d184 4a3f 83be a63f 66dc 65bf aab5 43bf
000000c0: 0f1e 893f 87c5 b03f 5e66 11be 06d3 6dbf
000000d0: aae2 263f 1458 743f 2042 1cbf b471 853f
000000e0: db37 5c3f beb5 a13e 919c a43f 52fa d43e
000000f0: 800d 71bf 2488 4d3f 5b29 af3f a2b3 073f

output_net.0.weight f4 [64, 128]
0.04636759 -0.08871589 -0.06186481 0.05266745 0.05917524 0.049852777 0.034572445 -0.0104969675
-0.003616598 -0.04611777 0.071453825 -0.077315494 0.045364507 0.022820953 0.0170912 0.069831245
-0.017768586 -0.064810924 -0.008177721 0.00041591562 0.046680223 -0.028914781 -0.038947333 -0.082333654
-0.013332492 -0.02570742 0.012352641 0.040985376 0.03719228 0.029652776 -0.07889428 0.031339172
-0.047098096 0.061881073 -0.081893384 0.0048341486 -0.028622892 -0.049814604 -0.06391735 0.06843297
-0.03447942 -0.04298356 0.07610506 -0.026609128 0.03639772 -0.07922201 0.049602643 -0.06905745
0.035449386 -0.09038008 0.019235319 -0.00056200713 -0.025443446 -0.01328487 0.035590917 0.01331623
-0.048599046 -0.081154145 -0.06340081 -0.084737524 0.018654017 -0.04800961 0.032258555 -0.073771074
-0.054637294 -0.027372116 0.069896 0.020309383 -0.07598496 -0.04803059 0.07045208 0.047164686
0.08402318 -0.07864231 -0.031800695 0.07738626 -0.07792193 0.0036785712 -0.050535005 -0.05365683
0.06496375 0.0002182165 0.0067987503 -0.039538693 0.07044981 -0.0052146856 0.014109778 0.06355144
0.0031678393 -0.06127288 -0.052199863 0.060777765 0.035563666 -0.089374565 -0.019823901 -0.040395625
-0.04101925 -0.069227524 -0.008141111 0.0034975403 0.029100478 -0.082459055 -0.019368526 0.05503426
0.046626784 0.04015737 -0.049654726 -0.06631855 -0.025761398 -0.00053537864 0.032747563 -0.046160143
0.075007506 0.048391327 0.06491437 0.08751369 0.07446685 -0.061197307 -0.018111933 0.042451758
0.05589635 -0.046855878 -0.080858946 -0.090454526 -0.07494537 0.005963204 0.01629404 -0.076851286
0.45910147 0.56202465 0.5421467 -0.1120677 -0.5313959 0.61939335 0.41769013 0.87922704
-1.0235599 0.5912109 0.6862396 0.40825874 0.6687591 0.64411306 -0.5822303 -0.32857504
-0.6636191 0.17475554 -0.2889374 0.13959274 0.50593275 0.39990297 0.33425948 -0.18793109
0.50343907 -0.48620048 0.9764789 0.5149791 0.5149656 1.3804575 0.65016925 0.59938323
0.74637794 0.49514604 0.56568146 0.2880625 -0.33749655 0.31831425 0.40456688 0.65645176
-0.3288115 0.26512644 -0.37596485 0.6073234 0.6970647 0.22874786 -0.3704636 -0.4308957
-0.12594104 0.74271166 0.71299624 -0.3764174 0.47226036 0.59402174 0.24466993 0.60720485
0.488084 -0.79478127 -1.2215064 1.6206464 0.251859 -0.6887903 0.8368556 0.6126423
-0.008306619 -0.12885651 -0.02921864 0.2575894 0.24027546 0.059255823 0.13075852 0.2928628
0.022209534 0.25336757 0.145145 -0.014295518 0.28911373 0.30013582 0.15624385 0.2035558
-0.065197326 0.37303326 -0.04231725 0.1899693 0.013662723 0.18868166 0.3854627 -0.059041686
0.25297147 0.2644642 -0.0072437027 -0.15295118 0.23142196 -0.032034915 -0.0039977613 0.0076445113
-0.026267612 0.3639629 0.27450874 0.3197394 0.21725205 0.3404348 -0.000619671 0.22275917
0.3095234 -0.068156056 0.17666972 0.29020178 0.31349462 0.21941005 0.04522026 -0.07887542
0.32563987 0.3145985 -0.017171748 0.0106662605 0.32059607 0.27283084 -0.0412723 0.24511322
0.20327652 -0.010989066 0.34676245 0.101741135 0.035865113 0.3147509 0.30487826 0.024949942
00000000: f1eb 3d3d adb0 b5bd f465 7dbd d3b9 573d
00000010: bd61 723d 6d32 4c3d d69b 0d3d 79fb 2bbc
00000020: 7204 6dbb fde5 3cbd 6256 923d 9657 9ebd
00000030: 22d0 393d 02f3 ba3c d802 8c3c af03 8f3d
00000040: 6d8f 91bc 97bb 84bd d9fb 05bc 400f da39
00000050: c333 3f3d b1de ecbc 3d87 1fbd 8c9e a8bd
00000060: 8670 5abc 5e98 d2bc bb62 4a3c 48e0 273d
00000070: ef56 183d 61ea f23c 5393 a1bd 815d 003d
00000080: efe9 40bd 0277 7d3d b8b7 a7bd c767 9e3b
00000090: 8e7a eabc 660a 4cbd 19e7 82bd 9626 8c3d
000000a0: 4b3a 0dbd 880f 30bd f8dc 9b3d 63fb d9bc
000000b0: c715 153d 263f a2bd 242c 4b3d fe6d 8dbd
000000c0: 6033 113d 3119 b9bd 6393 9d3c a953 13ba
000000d0: c66e d0bc c9a8 59bc c8c7 113d 512c 5a3c
000000e0: cb0f 47bd 2534 a6bd 49d8 81bd de8a adbd
000000f0: 4fd0 983c baa5 44bd 8c21 043d 4a15 97bd
00000100: 5bcb 5fbd 7d3b e0bc a225 8f3d dd5f a63c
00000110: 019e 9bbd b9bb 44bd 2e49 903d c22f 413d
00000120: 5814 ac3d 380f a1bd 7241 02bd b07c 9e3d
00000130: 8895 9fbd 2f14 713b cbfd 4ebd 44c7 5bbd
00000140: b70b 853d 0cd1 6439 0dc8 de3b 53f3 21bd
00000150: fd47 903d f4df aabb b32c 673c 4227 823d
00000160: 869b 4f3b 45f9 7abd 86cf 55bd 1bf2 783d
00000170: 35ab 113d 030a b7bd bc65 a2bc e275 25bd
00000180: cd03 28bd 29c7 8dbd 4b62 05bc fd36 653b
00000190: 2064 ee3c 4be0 a8bd beaa 9ebc 9b6b 613d
000001a0: bafb 3e3d 0e7c 243d c162 4bbd 05d2 87bd
000001b0: 9109 d3bc a758 0cba 4f22 063d 6b12 3dbd
000001c0: 899d 993d fc35 463d d3f1 843d 613a b33d
000001d0: 1382 983d 07aa 7abd 7a5f 94bc e5e1 2d3d
000001e0: 92f3 643d f3eb 3fbd 6099 a5bd 3940 b9bd
000001f0: f57c 99bd fb66 c33b 147b 853c 3564 9dbd
00000200: 590f eb3e d9e0 0f3f 20ca 0a3f c083 e5bd
00000210: 9009 08bf 9090 1e3f 7bdb d53e 0615 613f
00000220: 0304 83bf 9959 173f 66ad 2f3f 4a07 d13e
00000230: cc33 2b3f 98e4 243f 0c0d 15bf fd3a a8be
00000240: f1e2 29bf 1ef3 323e 9aef 93be 66f1 0e3e
00000250: cf84 013f 15c0 cc3e 0f24 ab3e 0271 40be
00000260: 62e1 003f 45ef f8be 85fa 793f acd5 033f
00000270: c9d4 033f d5b2 b03f 7e71 263f 2e71 193f
00000280: a012 3f3f c883 fd3e 80d0 103f ee7c 933e
00000290: 59cc acbe 16fa a23e 6423 cf3e 390d 283f
000002a0: fb59 a8be a7be 873e 777e c0be 8c79 1b3f
000002b0: d572 323f e13c 6a3e 68ad bdbe 5c9e dcbe
000002c0: b0f6 00be 5a22 3e3f ec86 363f c8b9 c0be
000002d0: 1ccc f13e cf11 183f c18a 7a3e c771 1b3f
000002e0: 25e6 f93e c976 4bbf 525a 9cbf 5771 cf3f
000002f0: aaf3 803e 9054 30bf 2b3c 563f 20d6 1c3f
00000300: 7c18 08bc f6f2 03be ee5b efbc c2e2 833e
00000310: c50a 763e 3cb6 723d 90e5 053e 1df2 953e
00000320: c5f0 b53c 65b9 813e e4a0 143e c037 6abc
00000330: b706 943e 67ab 993e 63fe 1f3e ee70 503e
00000340: 2d86 85bd 37fe be3e da54 2dbd 5087 423e
00000350: 9dd9 5f3c c435 413e 5e5b c53e b2d5 71bd
00000360: 7a85 813e da67 873e 955c edbb 3c9f 1cbe
00000370: e1f9 6c3e 0b37 03bd a7ff 82bb cf7e fa3b
00000380: 2d2f d7bc 5859 ba3e 698c 8c3e e2b4 a33e
00000390: 5277 5e3e 784d ae3e 6b71 22ba fb1a 643e
000003a0: da79 9e3e 6795 8bbd e8e8 343e 5495 943e
000003b0: 5e82 a03e 07ad 603e e138 393d 7089 a1bd
000003c0: 45ba a63e 0e13 a13e c4ab 8cbc 8ac1 2e3c
000003d0: 2b25 a43e 7cb0 8b3e 250d 29bd f6fe 7a3e
000003e0: b827 503e 7c0b 34bc d98a b13e a85d d03d
000003f0: 4ce7 123d 0827 a13e 0119 9c3e d263 cc3c

output_net.0.bias f4 [64]
-0.05192616 0.34695703 0.035218697 0.32964802 0.20756085 0.2125824 0.2094785 0.027400918
0.1455701 -0.047551885 0.2626625 0.19993821 -0.079591595 0.30006513 0.25906464 0.15979978
-0.049463537 0.19278303 -0.09022386 0.21013753 -0.013142762 -0.02030264 0.43541783 0.2566622
0.4247837 0.31230018 -0.09742061 0.033879716 0.26955023 -0.03359199 0.13825396 0.23878968
0.1859826 0.45661202 0.217254 0.27012378 0.23324594 0.031194696 0.23080324 0.19323583
0.26405436 0.28215522 0.16899735 0.2556215 0.22456847 -0.045075294 0.009353619 -0.035033
0.304528 0.29068545 0.1919463 0.24540724 0.42861757 0.28168607 0.15519635 0.15233676
0.26071596 0.31414747 -0.05533045 0.19456127 -0.0903044 -0.07486163 0.4650288 0.050080188
00000000: 86b0 54bd 5aa4 b13e 7b41 103d a0c7 a83e
00000010: d58a 543e 33af 593e 8881 563e e477 e03c
00000020: 5410 153e c4c5 42bd b37b 863e 9abc 4c3e
00000030: eb00 a3bd 23a2 993e 1fa4 843e 8ea2 233e
00000040: 479a 4abd ea68 453e 4ac7 b8bd 4b2e 573e
00000050: bd54 57bc b951 a6bc 16ef de3e 3a69 833e
00000060: 407d d93e cfe5 9f3e 7584 c7bd 75c5 0a3d
00000070: 7d02 8a3e c197 09bd 7292 0d3e 4885 743e
00000080: 3972 3e3e 0dc9 e93e d577 5e3e aa4d 8a3e
00000090: 06d8 6e3e 058c ff3c af57 6c3e 9ddf 453e
000000a0: 2232 873e a676 903e a40d 2d3e d2e0 823e
000000b0: 47f5 653e dfa0 38bd ec3f 193c c37e 0fbd
000000c0: 18eb 9b3e b9d4 943e 928d 443e 094c 7b3e
000000d0: c373 db3e 2839 903e cbeb 1e3e 2bfe 1b3e
000000e0: 907c 853e f0d7 a03e 2fa2 62bd 123b 473e
000000f0: 83f1 b8bd 0e51 99bd 4118 ee3e e220 4d3d

output_net.2.weight f4 [1, 64]
0.102008015 -0.688158 2.3839364 -0.7361714 -0.74330413 -0.7089332 -0.67576563 0.10445305
-0.84651595 0.03055378 -0.70170224 6.346114 2.5451057 -0.77374595 3.3877223 -0.8511936
2.6330986 -0.7794397 0.008880886 -0.7381009 0.059979286 0.111395516 4.020535 -0.8047638
4.909948 -0.91077584 -0.062969685 0.11183183 -0.7105349 0.067595035 -0.8484251 -0.77605575
-0.7805442 4.1708474 -0.8630106 -0.72976667 -0.8371797 0.11052714 -0.8190926 -0.78036654
-0.9899472 -0.7205885 -0.79627484 -0.78171986 -0.8704891 -0.08221693 0.051936634 -0.06239564
-0.73812836 -0.81728923 -0.78978366 -0.7676181 3.7896595 -0.71144867 -0.76554596 -0.84939
-0.853495 -0.8588717 2.2337952 -0.7120995 2.75725 0.027887842 3.170152 0.035011277
00000000: 94e9 d03d 1f2b 30bf 6a92 1840 bb75 3cbf
00000010: 2e49 3ebf a57c 35bf fafe 2cbf 7beb d53d
00000020: 45b5 58bf ec4b fa3c c2a2 33bf 5e13 cb40
00000030: 03e3 2240 3714 46bf 71d0 5840 d3e7 59bf
00000040: b084 2840 5c89 47bf 2381 113c 2ef4 3cbf
00000050: d7ac 753d 5523 e43d 39a8 8040 0005 4ebf
00000060: 4b1e 9d40 9b28 69bf 40f6 80bd 1608 e53d
00000070: 9de5 35bf 446f 8a3d 6332 59bf 97ab 46bf
00000080: bfd1 47bf 9577 8540 43ee 5cbf fdd1 3abf
00000090: 6951 56bf 0e5c e23d 0db0 51bf 1ac6 47bf
000000a0: 2e6d 7dbf 7d78 38bf abd8 4bbf cb1e 48bf
000000b0: 60d8 5ebf 5a61 a8bd 82bb 543d 9292 7fbd
000000c0: fbf5 3cbf de39 51bf 432f 4abf 9f82 44bf
000000d0: c889 7240 8021 36bf d2fa 43bf 9f71 59bf
000000e0: a67e 5abf 04df 5bbf 80f6 0e40 274c 36bf
000000f0: c976 3040 0b75 e43c c5e3 4a40 fc67 0f3d
