Q1/ckpt/critic2_ep250.pth (torch, 38344 bytes, 7 tensors)

state_net.0.weight f4 [64, 3]
000000 4c 24 50 bf ff 4d 42 bf d6 4f 9f 3e a6 5a 69 3f
       -0.81305385 -0.7590026 0.31115597 0.91153944
000010 7a fc da 3f 77 61 d2 3e 22 dd 4e bf f5 d1 29 bf
       1.71083 0.41089985 -0.8080617 -0.66335994
000020 f3 a2 7e be 44 c6 92 bf 7b 26 a4 3f a4 4d d5 3e
       -0.24866848 -1.1466756 1.2824243 0.41660798
000030 de 4c d5 bd 4b e1 b0 bf 02 1e ca 3e 00 85 22 bf
       -0.10415052 -1.3818754 0.3947602 -0.6348419
000040 14 3c 27 3e 9c ed 81 3e 89 6f ff be 18 66 14 be
       0.16331512 0.25376594 -0.49889782 -0.1449207
000050 90 bd 77 be 5a 51 7b bf 36 23 84 bf 43 e8 a8 be
       -0.24193406 -0.9817101 -1.0323246 -0.32989702
000060 ce 0d 57 bf 9b a2 a7 bf b5 bc 02 3e 55 23 cf bf
       -0.8400544 -1.3096498 0.12767299 -1.6182657
000070 c4 05 28 be 43 e1 8d 3e d2 c8 66 bf 9c 9c fe 3e
       -0.1640845 0.27710924 -0.9015018 0.49728858
000080 46 57 8a 3e 58 f8 09 bf b2 37 c3 bf 2e 92 01 bf
       0.2701971 -0.5389457 -1.5251372 -0.5061368
000090 2a 54 ac be 29 be 64 3f 1c a3 29 3f ca bf 23 3e
       -0.33657962 0.8935266 0.6626451 0.1599113
0000a0 3a 5b f3 bf 77 ae df be 6e ed 3d 3f e5 f6 15 c0
       -1.9012215 -0.43687794 0.74190414 -2.3431942
0000b0 8b eb 08 bf c4 33 09 3f 42 a8 10 40 49 ba f4 3e
       -0.5348441 0.53594613 2.2602696 0.47798374
0000c0 b7 53 49 bf 77 b2 92 bf a7 15 39 3f 11 e8 d6 3e
       -0.78643364 -1.1460713 0.72298664 0.41973928
0000d0 bd 3d c0 be a2 fc a4 3e c0 a8 a0 3f a8 d4 a5 be
       -0.37547103 0.32223994 1.2551498 -0.32388806
0000e0 ab 0b cd 3d c6 ff 9a be cd 27 73 bf b1 d4 5b 3e
       0.10011991 -0.30273265 -0.94982606 0.21467854
0000f0 22 94 b7 bf c2 4e 9e 3e 1a e0 d6 be 36 3b 88 bf
       -1.4342082 0.30919462 -0.4196785 -1.064307
000100 0b 74 4f bf fa db bd be 83 d8 2a bf 27 dc ac 3e
       -0.8103644 -0.3708189 -0.6673662 0.33761713
000110 dd 30 4b 3f 69 75 e1 be 40 e8 d8 3f 1b 9f be 3e
       0.79371434 -0.4403489 1.6945877 0.37230763
000120 33 4f 5d bf 1e 55 e7 3e 15 9b 35 3f 8b 4a 81 bf
       -0.86448973 0.45182127 0.7093976 -1.0100874
000130 1b 0c 04 3f b1 b6 cb 3e d1 c1 82 bf ab 16 0b bf
       0.5158097 0.3978782 -1.0215398 -0.54331464
000140 21 59 b3 be 5f b9 9a bf f5 ba 70 3f 9b 10 c7 3e
       -0.35028937 -1.2087821 0.94035274 0.38879856
000150 18 99 ae be 51 78 53 3d 8e c2 89 3e 9a 3d 93 bf
       -0.34101176 0.051628415 0.26906246 -1.1503174
000160 f3 24 92 3f 8e 19 cc 3e 53 c2 34 bf eb a9 16 c0
       1.1417526 0.39863247 -0.70609015 -2.354121
000170 ea fd d1 be b2 04 87 3f 15 db 50 3e 0e 0d c0 bd
       -0.41014034 1.0548308 0.20396073 -0.0937749
000180 a7 50 ca 3f 1e 94 39 bf fc fe e7 be 0f 95 7a bf
       1.5805863 -0.72491634 -0.45311725 -0.97883695
000190 c8 3c 6d bf f8 08 63 3e f8 dc 3c be 51 16 64 3f
       -0.9267087 0.2217139 -0.18443668 0.8909655
0001a0 91 84 82 be b9 cf ca bf 2b 96 a7 bf 4d 8c f9 be
       -0.25491765 -1.5844642 -1.3092703 -0.48739854
0001b0 98 63 5c bf 07 3d 01 3f 78 42 a9 be 12 89 40 bf
       -0.8608947 0.50483745 -0.33058524 -0.7520915
0001c0 dd 48 3f 3e 73 0e ac 3e 1f 8a 6a bf d3 c3 97 bf
       0.18680139 0.33604774 -0.91617006 -1.1856636
0001d0 4d b9 ad be ab 6a 9c bf 3f 62 1b bf 9a 07 a9 be
       -0.33930436 -1.2220052 -0.60696787 -0.33013612
0001e0 ae 04 e9 be d7 3c d5 3f df be 3c bd 9e 26 ed be
       -0.45511383 1.6659192 -0.046080466 -0.46318525
0001f0 60 9a 16 be 5f 4c 3f 3f f7 42 0f bb 8b aa 36 bf
       -0.14707327 0.7472591 -0.0021859983 -0.7135398
000200 61 8e 32 bf 46 09 6f bf 33 06 bb bf b8 69 96 3e
       -0.697485 -0.93373525 -1.4611267 0.29377532
000210 4e 33 67 bf d2 8f 2e 3e 96 09 83 3e 69 c1 4d bf
       -0.9031266 0.1704705 0.2559325 -0.80373245
000220 9d 2d b9 bf 92 b1 b6 be c9 b4 47 bf b6 06 05 3f
       -1.4467045 -0.3568235 -0.7801023 0.51963365
000230 02 73 08 bf 46 88 43 bf 57 21 c5 3f 6b 9c c3 3e
       -0.5330049 -0.7637981 1.54008 0.38205275
000240 84 44 84 bf c3 67 cd bf 96 03 d8 be 5a 58 d5 be
       -1.0333409 -1.604729 -0.42190236 -0.4166897
000250 0c cf 06 be 0e 40 53 3f 1f 5c 51 bf 1f fd 9c 3f
       -0.1316492 0.82519615 -0.8178119 1.2264746
000260 66 f5 ae 3e e4 a3 5a 3f 41 6c 4e bf 64 17 95 bd
       0.341716 0.8540633 -0.8063393 -0.07279852
000270 6c c0 dc bd f0 75 f8 be e6 7b e7 3e 9d 33 65 bf
       -0.10778889 -0.4852748 0.45211715 -0.8953188
000280 33 c9 87 3f 6c 98 12 3f df b0 04 bf 37 af ea be
       1.0608276 0.5726383 -0.51832384 -0.45836803
000290 92 a1 0f bf ee 5f 04 c0 44 e8 43 bf 10 7e b7 be
       -0.5610591 -2.068355 -0.76526284 -0.35838366
0002a0 55 f5 f3 bf 9e e1 c8 3e 1e 09 a4 be 02 69 38 bf
       -1.9059244 0.39234632 -0.32038206 -0.7203523
0002b0 b6 a1 72 3f 9a 7f 8d 3e 42 4c 30 bf 93 05 a0 be
       0.94778 0.27636415 -0.6886636 -0.31254253
0002c0 61 a7 85 be 97 e9 9b bf 30 8f 47 3f 7b be 90 be
       -0.26104262 -1.2180661 0.7795286 -0.28270325
0002d0 16 f0 e2 3f 7b 9f 05 3f a2 72 11 3e 1d 2d ad 3d
       1.7729518 0.5219647 0.14203885 0.0845587
0002e0 4e 0e 94 3f a0 db 30 3a d4 78 e9 3e 56 aa 5e 3f
       1.1566865 0.0006746594 0.45599997 0.8697866
0002f0 23 49 ec 3e b7 ac 6f bd 45 2d fd 3f e0 e5 bf 3e
       0.4614955 -0.058514323 1.977944 0.37480068

state_net.0.bias f4 [64]
000000 22 04 58 bf 10 41 5a bf eb e0 5a 3f 39 df 8e 3f
       -0.84381306 -0.8525553 0.8549945 1.1161872
000010 14 ef 01 40 ee c3 91 3f de 86 ae 3f df 54 7e 3f
       2.0302172 1.1387918 1.3634908 0.99348253
000020 56 13 47 3f e4 dc b6 3e 0e 3c 66 3f 9d 17 f8 bd
       0.7776388 0.357154 0.89935386 -0.12113879
000030 df 62 f1 be fc 98 08 be 4d 82 2b bf bd 84 01 bf
       -0.47145745 -0.13339609 -0.669957 -0.5059317
000040 01 aa e9 be 2c 34 e7 3e 02 b0 fa 3e d8 45 9c 3f
       -0.45637515 0.4515699 0.48962408 1.2208815
000050 b3 3e ce 3e 30 25 ba 3f 1d 1a 18 bf 17 86 aa be
       0.4028221 1.4542599 -0.59414846 -0.33305427
000060 f4 7e cf 3f 29 69 67 bf 2d b1 c9 3f 37 59 98 3f
       1.6210618 -0.90394837 1.5757195 1.1902226
000070 9b b4 be 3f 9e 64 8f 3f 18 80 d1 be 9b 8b a9 3f
       1.4898866 1.1202581 -0.4091804 1.3245729
000080 49 17 bf bf a2 c0 77 3f 03 2b 99 3f 7d 6a 1b 3f
       -1.4928981 0.9677831 1.1966251 0.60709363
000090 12 bc d4 bd 97 7b ca 3f 6e 98 68 3f 3e f9 86 bf
       -0.10387434 1.5818967 0.9085759 -1.0544813
0000a0 8f f7 f2 3e 28 78 db be 29 ad 88 3f 0e 60 5c 3f
       0.47454497 -0.4286511 1.0677844 0.8608407
0000b0 fc 65 68 3f 3c 4d 45 3f 49 fb de be df 0a 3c 3f
       0.90780616 0.77070975 -0.4355109 0.7345409
0000c0 8f b9 80 3f 09 61 b3 be 6c 17 43 3f b6 5c a7 3f
       1.0056628 -0.3503497 0.76207614 1.3075168
0000d0 5d af 56 3f a8 ee 4e be c6 45 93 be 77 b6 00 3e
       0.83861333 -0.20208228 -0.2876417 0.12569605
0000e0 b8 4e b0 3e 88 93 26 3f eb 28 a5 3f de e6 c4 3e
       0.34435058 0.65068865 1.2903112 0.38457388
0000f0 67 b2 17 3f df 13 94 3f 5b 80 ec 3d 82 ad 71 3d
       0.59256595 1.1568564 0.11547919 0.05900336

action_net.0.weight f4 [64, 1]
000000 a5 ac 80 bf 48 29 27 be 44 ec 82 be 1e cf 11 3e
       -1.0052687 -0.16324341 -0.2557088 0.14239165
000010 60 80 76 3d a9 4e 2e 3f 64 75 93 be 39 c7 99 3c
       0.06018102 0.68088776 -0.288005 0.018771755
000020 2a f1 ec 3e c0 aa 44 bd aa d6 27 bf cb 8b 28 3f
       0.46277744 -0.048014402 -0.65561926 0.6583831
000030 28 3b 8f bf 10 c7 89 3d ca df f2 3e 66 dc 07 bf
       -1.1189928 0.06727421 0.47436363 -0.53070676
000040 d6 4e 3e 3f e6 71 1f 3f 23 a3 60 3f ba a6 5a 3f
       0.74339044 0.6228317 0.87748927 0.85410655
000050 33 48 8f be 60 96 03 bd e2 5c 21 3f 4e 2a 9f bf
       -0.2798477 -0.03212583 0.6303235 -1.2434785
000060 34 25 2e 3f 2a 3e 79 3f c6 95 2b bf 52 d8 4c be
       0.6802552 0.9736048 -0.6702541 -0.20004395
000070 a1 08 04 be 69 79 94 be 10 57 97 3f 28 0b 78 3e
       -0.12893917 -0.2899888 1.1823444 0.24223006
000080 39 46 19 3f 28 78 43 3e e0 82 68 bf 70 cf d4 3d
       0.59872776 0.19088805 -0.908247 0.10391128
000090 98 5a 30 3e 0d 60 79 bd a0 1f 2d bf c7 2e ae be
       0.17222059 -0.060882617 -0.6762638 -0.34020063
0000a0 d0 84 d3 3d 16 09 43 3e e0 a2 b7 3d 68 5f cd 3e
       0.10328066 0.19046435 0.08966613 0.40111852
0000b0 f0 cc 54 be d8 d1 c3 be f6 1c 10 3f 38 70 26 3f
       -0.20781302 -0.38246036 0.5629419 0.6501498
0000c0 8f f6 6f 3f ed 61 a0 be 12 96 0d bf d5 e2 69 3f
       0.93735594 -0.3132471 -0.55307114 0.91361743
0000d0 2e a7 09 bc a8 5c 6b be b7 6e ab 3e a3 81 19 3f
       -0.008401675 -0.22984564 0.33482906 0.59963435
0000e0 f7 b1 08 3f 8c 77 fc be 78 35 f6 3e 73 2c 63 bf
       0.5339655 -0.49309957 0.48087668 -0.887397
0000f0 88 a1 a6 3e ac 7d 22 bf 0a 0f 7b bf 4a b8 46 bf
       0.32545114 -0.6347301 -0.9806982 -0.7762495

action_net.0.bias f4 [64]
000000 c5 72 3d bf 88 39 54 be 76 53 26 bf ea 78 8e 3f
       -0.7400325 -0.20725071 -0.649711 1.113065
000010 b8 59 f6 be da cb bb 3f 4c 3f c4 be de b5 a7 3f
       -0.48115325 1.4671586 -0.38329542 1.3102376
000020 e6 90 a5 be 40 1c fa bd b4 64 80 3f 1d ec 47 3f
       -0.3233711 -0.122124195 1.0030732 0.78094655
000030 6c b6 4e 3f 98 8b 64 bf 66 77 f2 3e d8 bb 9a 3f
       0.80747104 -0.89275503 0.4735672 1.2088575
000040 04 75 6e bf da c1 38 bf 00 84 9f 3f ea 49 99 be
       -0.931473 -0.72170794 1.2462158 -0.29939204
000050 98 e1 16 3f 0a 64 79 bf 1e c6 5c 3f 09 1b 3e be
       0.5893798 -0.9741827 0.862398 -0.18565
000060 20 f1 77 3f 9d 6f 53 3f 83 be ad 3f d4 27 9c 3f
       0.968523 0.82592183 1.3573765 1.2199655
000070 c7 8a 7d 3f ce 98 31 3f 5d 2d 23 3e 24 d2 85 be
       0.9903988 0.69373786 0.15935273 -0.26136887
000080 c4 58 1b bf c0 bf 32 bf 10 c2 8b 3f b8 59 38 bf
       -0.6068232 -0.6982384 1.0918598 -0.720119
000090 62 45 3c bf 87 5d 8a 3f f6 f7 3d bf e3 f1 b5 3f
       -0.7354337 1.0809792 -0.74206483 1.4214443
0000a0 0e 04 7a bf f9 40 14 3f 18 6c 0e bf 34 c6 1e bf
       -0.97662437 0.5791164 -0.5563369 -0.62021184
0000b0 8e a6 62 bf ec 4d e8 be 84 60 d1 be 72 a1 7c bf
       -0.8853539 -0.4537195 -0.40893948 -0.98683846
0000c0 0c 79 8e be 54 6b a9 be de ec 4a bf ad e0 69 bf
       -0.27826726 -0.33089697 -0.7926768 -0.91358453
0000d0 f2 35 b4 3f 34 56 bc be e9 db 2b 3f 50 da 2f 3f
       1.4078963 -0.36784518 0.6713243 0.68692493
0000e0 e1 a2 94 3f bc 0c 4b bf 8e 7d 51 bf a9 52 84 3f
       1.1612207 -0.79316306 -0.81832206 1.0337726
0000f0 f8 ee b8 be 62 e4 76 bf 02 3b 7b bf 3d da 54 3f
       -0.3611982 -0.96442235 -0.98136914 0.83145505

output_net.0.weight f4 [64, 128]
000000 99 1a a0 be 6c 7e 15 3f b0 f3 d3 3e e6 be 25 3e
       -0.31270292 0.5839603 0.41396856 0.16186103
000010 7a ce e2 3e 77 18 08 3f 1e 37 25 3f 0c 89 d0 3e
       0.44298154 0.5316233 0.6453723 0.40729558
000020 99 8d 0a 3f ad a3 09 3f 40 28 a3 3e 11 c5 7c be
       0.5412231 0.53765374 0.31866646 -0.2468455
000030 d5 19 11 be 70 4d f1 3e 08 85 ba 3e d0 ca 87 3e
       -0.1417001 0.47129393 0.3642962 0.2652192
000040 ef b1 fe bd b1 e5 41 3d f3 3a 4a 3f 9b ec d2 3e
       -0.12436282 0.04733819 0.789962 0.4119614
000050 e6 54 2b 3e fc d0 cd 3e 55 f4 4e bd 90 04 d0 be
       0.16731605 0.40198505 -0.050525982 -0.4062848
000060 ba fc ad bd 82 52 cb be 51 88 02 3f 48 f4 99 3e
       -0.084954694 -0.39711386 0.5098925 0.30069184
000070 e7 a8 9e 3e dc c6 5e 3e 28 66 4b bf 80 32 0d 3f
       0.30988237 0.21755546 -0.79452753 0.5515518
000080 40 8d 7d 3f c0 58 f6 3e 8f 91 79 3e f7 87 99 bd
       0.99043655 0.48114586 0.24371932 -0.07496636
000090 4b d3 6b bd 1d 18 d1 3e fa fd a6 3e 5e 1f a9 be
       -0.05757455 0.4083871 0.32615644 -0.33031744
0000a0 bc 05 ca 3e f2 29 14 be 5c 1e 16 3e db 05 14 3f
       0.394575 -0.14469126 0.14660019 0.57821435
0000b0 59 f3 c0 3e cb c7 a1 3e 3d e9 4e be a2 7b a1 3e
       0.3768566 0.31597742 -0.20206161 0.31539637
0000c0 85 67 81 3e 7c 5a 57 bd 64 1b 9b 3e 69 d7 f1 3e
       0.25274292 -0.052576527 0.30294335 0.47234657
0000d0 34 ce 19 bd 98 6f 55 3d 1e a1 5d bd e1 32 2e bc
       -0.037550166 0.052108377 -0.05410873 -0.010632248
0000e0 f2 15 de 3e 38 f5 b2 3e c0 ae 10 3f ff 12 bb 3e
       0.43376118 0.34952712 0.5651665 0.3653793
0000f0 4f c9 29 3f 2b 20 bf 3e d3 1b 95 be 7d c4 74 3e
       0.663228 0.3732923 -0.2912279 0.2390308
000100 3f ce 8c be 59 99 90 bd 40 2f 25 bd d9 6e 9d 3e
       -0.27501103 -0.07060499 -0.040328264 0.30748633
000110 60 60 0b bd 6e 05 ae 3e 0c 0a 5c bd 9b 78 d4 3e
       -0.034027457 0.33988518 -0.05372052 0.41498265
000120 26 ec 26 be 19 69 0a 3d a0 0f c2 3e 25 6b b1 3e
       -0.16301021 0.033791635 0.37902546 0.34652057
000130 1d eb b9 3e 92 67 17 bc 52 d9 03 3e b6 7d d0 3e
       0.3631219 -0.009241002 0.1287587 0.4072091
000140 38 42 88 bc c6 83 27 bd 6d e1 a0 3e ba 1d 90 3d
       -0.016633138 -0.040897153 0.31421986 0.0703692
000150 ff b1 f5 3e a5 a2 1c bd 3f ed aa 3e 5f ee 7c bc
       0.47987363 -0.038241047 0.3338413 -0.0154376915
000160 05 46 ba 3e 50 9a b9 3e 95 17 8c 3e 53 9d b3 3e
       0.36381546 0.36250544 0.27361742 0.35080966
000170 ef f7 d0 3e 41 11 ba 3e ff 8a b5 3d 22 7c aa bb
       0.40814158 0.3634129 0.08864402 -0.005202786
000180 97 9c 4c 3d 32 de 85 bd f1 e5 a4 3e 31 54 76 3d
       0.049954023 -0.06536521 0.3220668 0.060138885
000190 04 e8 07 3d 98 6b d9 3e 08 35 8b bb b3 48 a7 3e
       0.03318025 0.424649 -0.004248265 0.32672653
0001a0 b5 84 43 3d dc 02 d0 3e af 2c 96 3d c4 9e be bc
       0.04773398 0.40627182 0.073327415 -0.023269065
0001b0 eb 5b 6f bd ba 0c 05 3d 04 29 3a be 3c 5f 98 bc
       -0.05843727 0.03248284 -0.18179709 -0.018600099
0001c0 aa 80 82 3d 55 bb 92 bd cf 38 82 bd 86 83 9b 3d
       0.06372197 -0.07164637 -0.06358492 0.075934455
0001d0 e5 2b b9 3e 56 7c cb bc e0 ef 95 3e 6a 15 9f 3e
       0.361663 -0.024839561 0.29284573 0.31071025
0001e0 8e b2 a6 3e 23 68 4b bc a4 ad 2a bd e5 07 9d 3e
       0.325581 -0.012414965 -0.041669503 0.30670086
0001f0 af 04 74 3d cb 9f 48 bd 36 58 61 bd 85 0c d3 3e
       0.05957478 -0.048980515 -0.055015765 0.4122049
000200 45 33 cd 3c 90 b4 01 3d b9 0e 10 bd ba 4a 8c bd
       0.025048861 0.03166634 -0.03517029 -0.068501905
000210 72 bc 85 bd 29 08 93 3d ac bb 63 3c 4f 34 5e bd
       -0.06530084 0.07179291 0.013899725 -0.054249104
000220 d6 0c 9c 3d fb b2 a5 3d c7 b0 35 bc 3a ee be 3c
       0.07619636 0.080907784 -0.01108951 0.023306955
000230 fb e1 19 3b b6 32 b5 bc 56 61 87 bc 55 7f 7d bd
       0.0023480642 -0.022118907 -0.016525906 -0.06188901
000240 5a 5f 17 3d a0 be b0 3d 7c a4 9e 3d 2d de 39 3d
       0.03695617 0.08630109 0.07746217 0.0453779
000250 33 d8 93 bd 1d 8f 28 bd 61 99 13 bd 53 37 b0 3d
       -0.07218971 -0.04115211 -0.036034945 0.08604302
000260 6c 7a 99 bd 3c e6 89 3d e4 df 92 bd 1b 72 87 3c
       -0.07494053 0.06733367 -0.0717161 0.016533902
000270 54 74 96 bd f4 ab 45 bd 81 80 81 3d 2f b6 30 bd
       -0.073464066 -0.04825969 0.06323338 -0.043142494
000280 00 e8 98 bd e6 e7 8f bd 22 dc d2 bc d5 04 69 bd
       -0.074661255 -0.07026653 -0.025739733 -0.056889374
000290 06 25 cc bb 16 2d 10 bd 34 38 a4 bd 90 8d 5d 3d
       -0.0062299995 -0.035199247 -0.080185324 0.054090083
0002a0 1b aa 97 3c 29 47 93 3d 42 cd b1 bc 36 78 28 3b
       0.01851373 0.07191307 -0.02170432 0.0025706417
0002b0 35 c2 cb ba 42 c3 ff bc de 18 96 bd 46 6a 98 bd
       -0.0015545549 -0.031221036 -0.07328962 -0.07442145
0002c0 66 45 4e bd f8 4e 9a bd c6 b3 98 3d 12 7e 34 3d
       -0.050359152 -0.07534593 0.07456164 0.044065543
0002d0 d3 6c 7b 3d 3a b9 ac bd 4e 7f 36 bd 49 93 89 3c
       0.06138308 -0.08433767 -0.044555 0.016793864
0002e0 39 24 64 bd 4c 99 4c 3d 4c 84 02 bc e7 a8 2a bc
       -0.055698607 0.049950883 -0.007966112 -0.010416246
0002f0 80 ce c1 3a 5b 25 74 3d d1 96 02 3d 1b b5 b1 bc
       0.0014786273 0.059605937 0.03188211 -0.021692803
000300 52 a6 38 bd 80 db 8d 3d eb 0d 03 bd cc 16 b4 3d
       -0.04508049 0.06926632 -0.031995695 0.08793411
000310 45 5c e9 3b df 6f 86 3d 9b 84 41 3b 74 7c 6b 3d
       0.007121595 0.065643065 0.0029528502 0.057491735
000320 40 fb 8a bd f3 45 a2 bc 06 ae 5b bd 7d 7c 8e bd
       -0.067862034 -0.019808745 -0.05363276 -0.06957338
000330 db 40 90 bd 31 b2 aa 3d 5d d6 26 3d 68 08 72 3c
       -0.0704362 0.083347686 0.040731777 0.014772512
000340 01 ba b7 bb 76 1a 44 3c 4a 54 4a bd fe d9 69 bd
       -0.00560689 0.011969199 -0.04939679 -0.05709266
000350 a7 34 81 bd 93 d1 a4 3d ff 86 62 bd 1a 2f 5f bd
       -0.06308871 0.080477856 -0.055304524 -0.05448828
000360 67 ad 29 bd 23 e9 43 bc b3 d9 a5 bd c6 58 8e 3d
       -0.041425135 -0.01195744 -0.080981635 0.06950526
000370 8e da 7e bd 00 f1 35 bd 2f da 66 bd 96 9b e3 bc
       -0.06222015 -0.04441929 -0.05636042 -0.02778415
000380 26 a3 95 bd be 78 f3 bc 52 e9 e8 bc 43 0f 95 bd
       -0.07306509 -0.02972066 -0.028431568 -0.072783016
000390 1a 46 b7 bc a9 93 a3 bb 0d 03 28 bc 3b 39 f0 bc
       -0.022372294 -0.0049919677 -0.010254634 -0.029324165
0003a0 56 17 74 bc 24 08 88 bd 11 14 91 bd b8 39 95 bd
       -0.014898142 -0.06642178 -0.070839055 -0.072863996
0003b0 1f 2c 43 3d 38 06 9a 3b 0b 88 08 bd 2a 79 5a bd
       0.0476495 0.0047004484 -0.033332866 -0.053338207
0003c0 bf 59 f2 bc c3 a4 9f bc 48 0e ea bb 5c 6b a4 bd
       -0.02958381 -0.019487744 -0.0071428157 -0.0802829
0003d0 91 5f 60 bd 8f fa a6 3d 40 60 27 bd 1b f4 24 bc
       -0.05477864 0.08153259 -0.040863276 -0.010067965
0003e0 db 84 2f 3d f9 db b0 3d 9e ab 20 bd 5f 1a c4 bb
       0.04285131 0.086357065 -0.039226167 -0.005984589
0003f0 58 c5 47 3d 74 0a ac 3c 0d c3 46 3d af 6b 06 3d
       0.048772186 0.021001078 0.04852586 0.03281754

output_net.0.bias f4 [64]
000000 20 3f bc 3e dd 9b 17 3d 18 93 aa 3e d1 6b e5 3e
       0.3676691 0.037013877 0.3331535 0.4480882
000010 95 86 7c 3e 32 e8 97 3e 44 2a f2 3d 4a b2 97 3e
       0.24660714 0.29669338 0.11824468 0.2962821
000020 84 0f 03 bd 9b 61 97 3e 98 2a 20 3d 44 6b 04 bd
       -0.03199722 0.29566655 0.03910312 -0.03232886
000030 cd a6 9c 3e e9 4b 97 3e 5f 57 77 3d 30 21 d8 3e
       0.3059601 0.29550102 0.060386058 0.4221282
000040 fc 05 da 3e 17 53 64 bd 7c 76 04 bc 77 0d a3 bd
       0.4258269 -0.055743303 -0.0080848895 -0.079615526
000050 1c 70 4d 3d be 07 d1 3e 9c b5 06 3e ba 85 be bd
       0.050155744 0.4082622 0.13155216 -0.0930285
000060 24 7b 21 bd c5 7e 9f 3e 6c 9f fb bd 1e ed c5 bc
       -0.039424077 0.31151405 -0.12286267 -0.024160918
000070 26 ca cb 3e 2b 00 12 3d 63 d8 e6 3e ff 3b 50 3c
       0.39802665 0.03564469 0.45086965 0.012709617
000080 76 fa ac 3e 32 24 df 3e aa b9 07 3f 26 06 aa 3e
       0.33784837 0.43582302 0.53017676 0.33207816
000090 71 a3 8b 3e c0 2b 93 3e 37 06 c3 3e 4f a7 8e 3c
       0.27273133 0.28744316 0.3809068 0.017413763
0000a0 f1 b9 18 3d 35 d7 d1 3e dc 85 e4 3e f5 2a 8c 3d
       0.037286703 0.40984502 0.44633377 0.06844131
0000b0 12 df 8b 3d c8 5c 90 3e ff 01 0c 3d 5f 86 cd 3d
       0.06829657 0.28195786 0.03418159 0.10035395
0000c0 60 cf 02 3e 61 8e b9 3e b0 41 6e 3d ea f6 a1 3e
       0.1277442 0.3624144 0.058168113 0.31633693
0000d0 92 8a d3 3e ee 70 07 3f db 71 64 3d ea 8c b4 3e
       0.41316658 0.5290669 0.055772644 0.3526376
0000e0 b5 5b c3 3a 78 9d cc 3e 60 fc 93 3d 3f 65 c2 3e
       0.001490465 0.3996389 0.07225871 0.3796787
0000f0 cc f1 9e 3e a7 c5 2f bd 8b 3b e3 3e 5b 12 d9 3e
       0.3104385 -0.042913105 0.44381365 0.42396817

output_net.2.weight f4 [1, 64]
000000 9b db 26 bf 04 b7 ec 3d 9c dd 35 bf 34 2b 19 bf
       -0.6517884 0.11558345 -0.71041274 -0.5983155
000010 96 7e 2b bf 8a 22 37 bf 83 c7 ae 3f 39 cd 20 bf
       -0.6699003 -0.7153708 1.3654636 -0.62813145
000020 9f 2e a8 3f 57 57 d4 3f 3e 41 ce 3d c5 15 e2 3f
       1.3139228 1.6589154 0.10071038 1.7662894
000030 5b 4d 3a bf 70 3e 87 40 a0 37 93 3f 5e fe 32 bf
       -0.72774285 4.226372 1.150135 -0.69919384
000040 f4 2c 37 bf d8 1a c2 3d 6b 6f 3f 3d 95 58 98 3d
       -0.7155297 0.09477776 0.046737116 0.07438771
000050 6a 3e b1 3d 67 6f 24 bf 8f 71 9d 3f e2 2e 9d 3f
       0.08654483 -0.64232486 1.230028 1.2279932
000060 72 41 44 3d 1a 0c 26 bf 3f 77 9a 3f 27 cc eb 3c
       0.047913976 -0.64862216 1.2067641 0.02878387
000070 3a f4 28 bf 75 17 a3 3f 48 6e 23 bf 86 d6 e8 3c
       -0.6599766 1.2741534 -0.6384015 0.028422605
000080 95 30 31 bf ae e7 28 bf 2b 50 36 bf 08 3b 3c bf
       -0.69214755 -0.65978515 -0.71216077 -0.73527575
000090 46 d9 cb 3f 46 47 38 bf d3 5c 1d bf c6 fb b2 3f
       1.5925682 -0.71983755 -0.61469764 1.3983085
0000a0 19 1d aa 3d d9 76 39 bf d0 84 1b bf cc 08 a7 3f
       0.08306331 -0.7244697 -0.6074953 1.304956
0000b0 85 3d c9 3f 33 cf b2 3f 3f 57 d6 3d d0 88 98 3f
       1.5721899 1.3969482 0.104658596 1.1916752
0000c0 1a 74 87 3f 81 1a 35 bf 25 3b 38 3d b4 d2 34 bf
       1.0582306 -0.70743567 0.04497828 -0.7063401
0000d0 56 bf 2c bf 73 32 29 bf b3 0d 81 3d 0f 43 2f bf
       -0.67479455 -0.66092604 0.06301441 -0.684617
0000e0 df 9a 6f 3d 15 29 18 bf 8b 95 2f 3d 9b 1a 39 bf
       0.058497306 -0.59437686 0.042867225 -0.7230622
0000f0 b5 0e f1 40 7b 29 ab 3d 8b eb 30 bf ea 9b 3f bf
       7.5330453 0.08357521 -0.6910941 -0.7484728
