Q1/ckpt/critic2_ep50.pth (torch, 38332 bytes, 7 tensors)

state_net.0.weight f4 [64, 3]
000000 3a 08 5d bf b0 38 1b bf 10 0a 89 3e 12 b6 f7 3e
       -0.8634068 -0.60633373 0.2676549 0.48381096
000010 d6 96 aa 3f d7 89 ad 3e f1 b8 37 bf 36 75 a1 be
       1.3327281 0.33894226 -0.71766573 -0.31534737
000020 eb d9 6e be c8 00 2f bf c8 03 47 3f 6a 82 c7 3e
       -0.23325317 -0.6836057 0.77740145 0.38966686
000030 68 7f 31 bf aa e0 90 bf b6 fc a7 3e 9e dd 4c bf
       -0.6933503 -1.1318562 0.3280999 -0.8002566
000040 ae c5 48 3e 3e e4 7b 3e be 88 0d bf 72 88 a0 bc
       0.19606659 0.24598786 -0.55286777 -0.019596312
000050 8e 1a 81 be 06 dc 5a bf e9 5e 27 bf ba 81 a6 be
       -0.25215572 -0.8549198 -0.65379196 -0.3252085
000060 19 71 46 bf 7f 11 56 bf c3 0a 83 3d b0 9f 60 bf
       -0.77516323 -0.83620447 0.06398537 -0.87743664
000070 14 b4 a2 be ec c0 2f 3e 18 82 4e bf ec d6 a6 3e
       -0.31778014 0.17163438 -0.8066726 0.32585847
000080 49 e9 78 3e 9a 08 1b bf 32 52 da be 59 40 fd be
       0.24307741 -0.6056 -0.42640835 -0.49463156
000090 fa 2f 70 bf d7 bc 2d 3f e8 3d 05 3f d3 7e 4f be
       -0.93823206 0.6786627 0.52047586 -0.20263223
0000a0 2d fd 9d bf 52 29 a4 be a5 8e b3 3e e0 ce bd bf
       -1.2342888 -0.32062775 0.35069767 -1.4828758
0000b0 13 35 b7 be 28 8b 76 3e 35 04 e0 3f d3 6a dc 3e
       -0.3578268 0.24076521 1.7501284 0.4305025
0000c0 82 66 23 bf 78 8f 7b bf 54 32 20 3f 6d f7 c4 3e
       -0.6382829 -0.9826579 0.62576795 0.3847002
0000d0 65 e2 2b bf 6f dd 44 3e ae bf 87 3f d1 21 98 be
       -0.67142326 0.19225095 1.0605371 -0.297133
0000e0 68 76 b3 3d d2 95 a7 be 40 9a 8a bf 01 31 b1 3d
       0.087628186 -0.3273149 -1.0828323 0.08651925
0000f0 eb b0 ae be b9 d0 3a 3f 82 ba ef be 2e 3d 7a bf
       -0.34119353 0.72974735 -0.46821982 -0.977496
000100 0d 54 1b bf df bb cb be 73 58 19 bf 1d e5 60 3e
       -0.60675126 -0.39791772 -0.5990059 0.219624
000110 44 aa 32 3f 2c e1 28 bf fd 16 88 3f 04 4d af 3e
       0.69791055 -0.65968585 1.0632015 0.34238446
000120 5a db 3c bf 9c d3 ce 3d 73 43 34 3f 49 ce 5e bf
       -0.73772204 0.10098955 0.7041542 -0.87033516
000130 f4 c7 b1 3e f5 f6 b1 3e 40 e6 93 bf 1a 24 dd be
       0.34722865 0.34758726 -1.1554642 -0.43191606
000140 88 3e c6 be d4 fe 92 bf 1f b4 0f 3f c9 03 ba 3e
       -0.38719583 -1.1484017 0.5613422 0.36331013
000150 04 b2 39 bf 4e bd 9a 3d a0 3d 8a 3e 82 35 88 bf
       -0.72537255 0.07555638 0.2700014 -1.0641329
000160 9e a0 45 3f 1c 1a c7 3e c7 89 5d bf 61 2d 8c bf
       0.7719821 0.38887107 -0.86538357 -1.0951349
000170 c4 da b3 be 37 b1 2f 3f cd 40 ea bd b2 1b ba bd
       -0.35127842 0.68629783 -0.11438141 -0.09087314
000180 d5 30 9f 3f 3d 83 47 bf bb 52 b1 be 1b 06 52 bf
       1.2436777 -0.7793463 -0.3463343 -0.82040566
000190 85 1f 4d bf c6 d0 5e 3e 85 5d 54 be a0 0a 14 3f
       -0.8012622 0.21759328 -0.207388 0.5782871
0001a0 ad 5e 25 be d9 04 a3 bf 70 71 5a be da 46 14 bf
       -0.16149397 -1.2735854 -0.21332335 -0.5792061
0001b0 73 1d e2 be 39 d3 4e 3f ae 52 92 be 9d 8a 87 bf
       -0.44163093 0.8079105 -0.28578705 -1.0589176
0001c0 0a 44 44 3e b4 1a ad 3e aa ca 4f bf 30 3b 51 bf
       0.1916658 0.33809435 -0.81168616 -0.8173094
0001d0 21 6d a5 be 45 a3 8b bf 21 9d de be a8 e1 a9 be
       -0.3230982 -1.0909201 -0.43479255 -0.33179975
0001e0 4a 01 88 be 04 18 67 3f 7d e4 37 3d 9e 63 15 bf
       -0.26563483 0.9027102 0.044895638 -0.5835513
0001f0 6c ef cd bd 1a 59 26 3f 69 b7 c0 3c 47 52 17 bc
       -0.10055432 0.6497971 0.023524957 -0.009235925
000200 a1 69 f8 be 20 32 7f bf d3 57 78 bf c1 e6 30 3e
       -0.48518088 -0.9968586 -0.9700901 0.17275526
000210 71 b4 48 bf 58 7a 5f 3e e2 00 6a 3e 18 db 14 bf
       -0.7840033 0.21824014 0.228519 -0.5814681
000220 9b 5d 86 bf 01 16 b3 be 9d 32 98 be ad c9 46 3f
       -1.0497316 -0.34977725 -0.29726115 0.7765148
000230 f3 2c 0b bf e9 11 12 bf de b3 ae 3f 8d 7d ba 3e
       -0.5436546 -0.5705858 1.3648641 0.36423913
000240 86 48 79 bf d9 2d 89 bf a1 91 c9 be cf 5c e3 be
       -0.97376287 -1.0717117 -0.3936892 -0.44406745
000250 78 45 5d be cb 0a 3c 3f d3 e6 26 bf 7f 6a 87 3f
       -0.21608531 0.7345397 -0.6519596 1.0579375
000260 08 d8 a3 3e d7 f6 c0 3e b8 cb 7b bf 72 ab 53 bd
       0.32000756 0.37688324 -0.98357725 -0.051677175
000270 76 19 3b be 0d c8 24 bf 86 b5 d8 3e bf bf 8c bf
       -0.18271431 -0.64367753 0.4232599 -1.0996016
000280 7f b0 28 3f 8e 47 fa 3e 55 da 1f bf 05 1e d3 3d
       0.6589431 0.48882717 -0.62442523 0.1030846
000290 e1 33 03 bf ab fd 9a bf 99 d3 61 3d 85 c6 ff be
       -0.51251036 -1.2108663 0.055133436 -0.49956146
0002a0 da 47 93 bf 20 64 60 3e 7e 92 58 be f9 d9 37 bf
       -1.1506302 0.21913195 -0.21149632 -0.71816975
0002b0 26 77 34 3f 92 50 72 3e 24 2e 5b bf de b6 7a be
       0.70494306 0.23663548 -0.8561728 -0.24483821
0002c0 88 46 91 be b1 7f 59 bf 78 d3 4f 3f 9e a3 0f be
       -0.28374124 -0.84960467 0.8118205 -0.14027259
0002d0 8f 7b ab 3f de 36 18 3f a8 be f0 3d 97 2e b3 3c
       1.3397082 0.5945872 0.11755115 0.021872802
0002e0 f6 99 84 3f e7 94 0c 3d 6e 24 8d 3e 6c b5 4a 3e
       1.0359485 0.03432169 0.27566856 0.1979577
0002f0 16 9f bd 3e 3c 55 64 be fd 01 af 3f f3 41 a6 3e
       0.37035435 -0.2229814 1.3672482 0.3247219

state_net.0.bias f4 [64]
000000 6d 15 2d bf af ab 82 be dd 32 26 3f 08 d9 6e 3f
       -0.6761082 -0.2552161 0.6492136 0.93299913
000010 37 90 aa 3f 00 9a 53 3f 08 e4 7b 3f 82 aa 4d 3f
       1.3325261 0.8265686 0.98394823 0.803383
000020 90 16 05 3f 9b c1 75 3e 72 05 39 3f 57 2c c3 be
       0.5198755 0.23999636 0.72273934 -0.38119766
000030 80 15 1a bf a8 8a 64 3e 62 b0 24 be 23 46 24 be
       -0.60189056 0.22318518 -0.1608291 -0.1604238
000040 87 05 b9 be 7c 90 11 3f bc ae 83 3e 22 4d 61 3f
       -0.3613703 0.5686109 0.2571925 0.8800832
000050 ff 55 e9 3e 86 01 91 3f ab 67 ac be 2c f4 1c bf
       0.45573422 1.132859 -0.33672842 -0.61310077
000060 42 07 73 3f 60 ee 2f bf 18 22 96 3f a5 53 85 3f
       0.9493295 -0.68723106 1.1729155 1.0416151
000070 7e b1 86 3f a8 a9 74 3f 1b 08 2c bf ec 70 95 3f
       1.0522916 0.95571375 -0.6719987 1.1675086
000080 c1 13 22 bf 60 55 dc 3e 08 9a 47 3f 6f 8d 59 3e
       -0.6331139 0.43033886 0.7796941 0.21245359
000090 54 84 e6 bd f5 3b 98 3f e8 bd 29 3f 00 41 52 bf
       -0.11255708 1.1893297 0.663054 -0.8213043
0000a0 f7 04 39 3f 7a ba 3c be d5 e9 f7 3e 0f a0 fb 3e
       0.722732 -0.1843051 0.48420587 0.49145553
0000b0 6d f2 37 3f c8 42 15 3f 30 8e af be 74 8c c4 3e
       0.7185429 0.58305025 -0.34288168 0.38388407
0000c0 71 5e 42 3f 6e 5e 3d be 68 36 eb 3e fc 5e 94 3f
       0.75925356 -0.18493053 0.45939946 1.1591487
0000d0 a9 b7 0d 3f d8 4e ff bd 36 db cb be 3e 56 66 3e
       0.5535837 -0.1246621 -0.39815682 0.22493836
0000e0 4b 76 24 3e f4 98 ea 3e 13 84 64 3f bc a4 e4 3e
       0.1606075 0.4581982 0.8926403 0.44656932
0000f0 77 01 99 3e 05 61 88 3f b6 50 fb 3c 7b 32 1e 3e
       0.2988393 1.0654608 0.030678134 0.15448944

action_net.0.weight f4 [64, 1]
000000 76 9e 62 bf 48 29 27 be 44 ec 82 be 0b ad 1e 3e
       -0.8852304 -0.16324341 -0.2557088 0.15495698
000010 60 80 76 3d 78 04 34 3f 64 75 93 be 27 0b 5f 3d
       0.06018102 0.7031932 -0.288005 0.054453995
000020 04 52 d0 3e c0 aa 44 bd 28 c1 1b bf 3c a4 28 3f
       0.40687573 -0.048014402 -0.6084161 0.658756
000030 7f d9 6b bf 10 c7 89 3d 31 af f2 3e da ef f2 be
       -0.9212875 0.06727421 0.47399285 -0.47448617
000040 d6 4e 3e 3f e6 71 1f 3f f3 1c 61 3f 51 d1 2e 3f
       0.74339044 0.6228317 0.879348 0.6828814
000050 85 96 73 be 60 96 03 bd 90 4f 25 3f 5a 08 62 bf
       -0.23787887 -0.03212583 0.6457453 -0.88293993
000060 44 e0 30 3f 97 9b 7c 3f 73 09 22 bf 05 79 2c be
       0.690922 0.9867491 -0.6329567 -0.1684304
000070 3e c5 bc bd 89 6d 7a be c1 7f 84 3f 28 0b 78 3e
       -0.092173085 -0.24455847 1.0351487 0.24223006
000080 39 46 19 3f 28 78 43 3e 02 02 5b bf 70 cf d4 3d
       0.59872776 0.19088805 -0.8554994 0.10391128
000090 98 5a 30 3e d9 68 5f bc a0 1f 2d bf 49 fc 96 be
       0.17222059 -0.0136358375 -0.6762638 -0.29489353
0000a0 d0 84 d3 3d 2c ff 55 3e e0 a2 b7 3d 68 5f cd 3e
       0.10328066 0.20898122 0.08966613 0.40111852
0000b0 f0 cc 54 be d8 d1 c3 be 12 e6 03 3f 38 70 26 3f
       -0.20781302 -0.38246036 0.51522934 0.6501498
0000c0 8d 5c 2f 3f 47 46 a6 be 12 96 0d bf d5 e2 69 3f
       0.68500596 -0.32475492 -0.55307114 0.91361743
0000d0 e8 32 14 3d a8 5c 6b be f5 f9 b7 3e 7b b2 18 3f
       0.03618136 -0.22984564 0.3593289 0.5964734
0000e0 50 3b 0a 3f 8c 77 fc be 78 35 f6 3e 32 57 54 bf
       0.53996754 -0.49309957 0.48087668 -0.8294555
0000f0 88 a1 a6 3e ac 7d 22 bf 0a 0f 7b bf 12 de 34 bf
       0.32545114 -0.6347301 -0.9806982 -0.7065135

action_net.0.bias f4 [64]
000000 74 c5 37 bf 88 39 54 be 76 53 26 bf 2f 9b 84 3f
       -0.71785665 -0.20725071 -0.649711 1.0359858
000010 b8 59 f6 be 12 94 b2 3f 4c 3f c4 be f1 13 9d 3f
       -0.48115325 1.3951437 -0.38329542 1.2271711
000020 c4 6c b6 be 40 1c fa bd a4 e8 69 3f ac 70 33 3f
       -0.35629857 -0.122124195 0.91370606 0.700938
000030 5f 68 3f 3f 98 8b 64 bf 4b 8f ba 3e 53 a9 8f 3f
       0.7476863 -0.89275503 0.3643745 1.1223549
000040 04 75 6e bf da c1 38 bf f9 0d 97 3f 59 a6 ef be
       -0.931473 -0.72170794 1.1801139 -0.468066
000050 7c 16 00 3f 0a 64 79 bf ed 5b 48 3f 3e 0e 1a bf
       0.5003431 -0.9741827 0.7826527 -0.6017798
000060 be f9 66 3f e4 fd 3e 3f 42 32 a4 3f 78 a0 92 3f
       0.90224826 0.74606156 1.2827837 1.1455221
000070 03 a6 69 3f b1 dc 1a 3f d8 f5 4e 3e 24 d2 85 be
       0.9126894 0.60493 0.2021097 -0.26136887
000080 c4 58 1b bf c0 bf 32 bf 5d b3 80 3f b8 59 38 bf
       -0.6068232 -0.6982384 1.0054737 -0.720119
000090 62 45 3c bf 9a 97 7e 3f f6 f7 3d bf 61 3f ac 3f
       -0.7354337 0.99450076 -0.74206483 1.3456842
0000a0 0e 04 7a bf 52 d3 02 3f 18 6c 0e bf 34 c6 1e bf
       -0.97662437 0.511037 -0.5563369 -0.62021184
0000b0 8e a6 62 bf ec 4d e8 be 7b 29 dc be 72 a1 7c bf
       -0.8853539 -0.4537195 -0.43000397 -0.98683846
0000c0 87 71 03 bf 10 20 a3 be de ec 4a bf ad e0 69 bf
       -0.51345104 -0.318604 -0.7926768 -0.91358453
0000d0 3e f8 a8 3f 34 56 bc be b8 cb 15 3f 36 80 1d 3f
       1.3200758 -0.36784518 0.58513975 0.6152376
0000e0 5f a8 8a 3f bc 0c 4b bf 8e 7d 51 bf 5f f8 71 3f
       1.0832633 -0.79316306 -0.81832206 0.9451961
0000f0 f8 ee b8 be 62 e4 76 bf 02 3b 7b bf 9c 14 39 3f
       -0.3611982 -0.96442235 -0.98136914 0.7229707

output_net.0.weight f4 [64, 128]
000000 c1 8a 69 be 69 5a 8c 3e 09 34 87 3e 53 11 94 3d
       -0.22806837 0.27412727 0.26406887 0.07229867
000010 c6 50 4e 3e c1 d6 de 3e 6c c4 e6 3e 30 0a 7d 3e
       0.20148 0.4352322 0.45071733 0.24710917
000020 42 fb b2 3e 6d 44 bb 3e 17 99 7f 3e 41 c3 19 bd
       0.3495732 0.36575642 0.24960743 -0.037539724
000030 a5 33 64 bd a5 88 6e 3e 5f 3a be bc b4 01 10 3e
       -0.055713315 0.23294313 -0.023221193 0.1406315
000040 39 e5 74 3c 71 bb 73 bc ba fa 19 3f 7b 3b 6c 3e
       0.014947229 -0.0148762325 0.60148203 0.23069565
000050 79 e3 00 3e e5 15 80 3e 29 47 12 3d df 50 6a be
       0.12586774 0.25016704 0.035712395 -0.22882412
000060 35 2c bd bc b3 31 8b be 22 01 b6 3e 9b 0d 6a 3e
       -0.023092369 -0.27186355 0.3554774 0.22856753
000070 77 1f 0c 3e d9 71 0a 3e 26 b9 90 be cd 76 95 3e
       0.13683878 0.13519992 -0.28266257 0.291922
000080 bd c5 c2 3e f0 ac 97 3e 21 73 b1 3d d9 cc 3f 3d
       0.38041487 0.29624128 0.08664537 0.046826217
000090 92 c6 0f bc 96 48 94 3e 8e ba 29 3e d6 92 84 be
       -0.00877537 0.2896163 0.16575071 -0.25893277
0000a0 2d 7e 6b 3e 30 f8 59 bd e7 8d e1 3c 05 09 bf 3e
       0.22997351 -0.053215206 0.027533485 0.3731157
0000b0 16 4b 96 3e 70 b2 27 3e 36 13 27 be 1f 72 73 3e
       0.2935416 0.16376662 -0.16315922 0.23774002
0000c0 b7 85 bf 3d aa ea 28 3d ed 20 5c 3e 3c 15 9d 3e
       0.09351676 0.041239418 0.21496935 0.30680263
0000d0 53 c0 1c 3d 68 fd 1e 3c 15 fa cc bb 4f c2 20 bc
       0.038269352 0.009703971 -0.006255398 -0.009811952
0000e0 60 a1 aa 3e 84 9c 83 3e 9e cd ce 3e 37 a6 a0 3e
       0.33326244 0.2570535 0.40391248 0.31376812
0000f0 fa da a8 3e 32 35 95 3e 7c 5e b1 bd 80 06 22 3e
       0.32979566 0.29142147 -0.086605996 0.15822792
000100 25 40 35 be 59 99 90 bd 40 2f 25 bd 9b 59 84 3e
       -0.1770025 -0.07060499 -0.040328264 0.25849614
000110 60 60 0b bd 26 63 95 3e 0c 0a 5c bd f3 44 bb 3e
       -0.034027457 0.29177207 -0.05372052 0.36576042
000120 bb 59 48 bc 19 69 0a 3d a6 4d aa 3e 80 b6 9a 3e
       -0.012228425 0.033791635 0.33262366 0.3021736
000130 dd 2f a6 3e 92 67 17 bc 97 00 b3 3d 25 f3 b7 3e
       0.32458392 -0.009241002 0.08740347 0.35927692
000140 38 42 88 bc c6 83 27 bd d0 27 89 3e 6c 3f 8d bc
       -0.016633138 -0.040897153 0.26788187 -0.017242156
000150 cf e2 dd 3e a5 a2 1c bd 72 aa 93 3e 89 96 6e bd
       0.43337104 -0.038241047 0.28840977 -0.05824903
000160 55 c6 a2 3e 1c ad a5 3e 46 64 67 3e 27 98 9a 3e
       0.3179194 0.32358634 0.22596845 0.30194208
000170 a1 09 b8 3e 97 ea a1 3e 16 6c 93 3d 22 7c aa bb
       0.35944846 0.3162429 0.0719835 -0.005202786
000180 97 9c 4c 3d 32 de 85 bd 1c b2 8d 3e 31 54 76 3d
       0.049954023 -0.06536521 0.2767495 0.060138885
000190 04 e8 07 3d 0f 5b c0 3e 08 35 8b bb b2 45 8e 3e
       0.03318025 0.37569472 -0.004248265 0.27787548
0001a0 b5 84 43 3d b3 dd b7 3e af 2c 96 3d c4 9e be bc
       0.04773398 0.3591133 0.073327415 -0.023269065
0001b0 eb 5b 6f bd ba 0c 05 3d 3e 0f 73 bd 3c 5f 98 bc
       -0.05843727 0.03248284 -0.059340708 -0.018600099
0001c0 88 6d 38 ba a9 d8 71 bd cf 38 82 bd 86 83 9b 3d
       -0.00070353644 -0.059044514 -0.06358492 0.075934455
0001d0 f7 ef 9f 3e 56 7c cb bc 1f fb 7b 3e e2 ab 88 3e
       0.31237766 -0.024839561 0.24607514 0.26693636
0001e0 e1 27 8e 3e 23 68 4b bc a4 ad 2a bd 13 f1 85 3e
       0.277648 -0.012414965 -0.041669503 0.26160488
0001f0 af 04 74 3d cb 9f 48 bd 36 58 61 bd 9d 6a bc 3e
       0.05957478 -0.048980515 -0.055015765 0.3680009
000200 45 33 cd 3c 90 b4 01 3d b9 0e 10 bd ba 4a 8c bd
       0.025048861 0.03166634 -0.03517029 -0.068501905
000210 72 bc 85 bd 29 08 93 3d ac bb 63 3c 4f 34 5e bd
       -0.06530084 0.07179291 0.013899725 -0.054249104
000220 d6 0c 9c 3d fb b2 a5 3d c7 b0 35 bc 3a ee be 3c
       0.07619636 0.080907784 -0.01108951 0.023306955
000230 fb e1 19 3b b6 32 b5 bc 56 61 87 bc 55 7f 7d bd
       0.0023480642 -0.022118907 -0.016525906 -0.06188901
000240 5a 5f 17 3d a0 be b0 3d 7c a4 9e 3d 2d de 39 3d
       0.03695617 0.08630109 0.07746217 0.0453779
000250 33 d8 93 bd 1d 8f 28 bd 61 99 13 bd 53 37 b0 3d
       -0.07218971 -0.04115211 -0.036034945 0.08604302
000260 6c 7a 99 bd 3c e6 89 3d e4 df 92 bd 1b 72 87 3c
       -0.07494053 0.06733367 -0.0717161 0.016533902
000270 54 74 96 bd f4 ab 45 bd 81 80 81 3d 2f b6 30 bd
       -0.073464066 -0.04825969 0.06323338 -0.043142494
000280 00 e8 98 bd e6 e7 8f bd 22 dc d2 bc d5 04 69 bd
       -0.074661255 -0.07026653 -0.025739733 -0.056889374
000290 06 25 cc bb 16 2d 10 bd 34 38 a4 bd 90 8d 5d 3d
       -0.0062299995 -0.035199247 -0.080185324 0.054090083
0002a0 1b aa 97 3c 29 47 93 3d 42 cd b1 bc 36 78 28 3b
       0.01851373 0.07191307 -0.02170432 0.0025706417
0002b0 35 c2 cb ba 42 c3 ff bc de 18 96 bd 46 6a 98 bd
       -0.0015545549 -0.031221036 -0.07328962 -0.07442145
0002c0 66 45 4e bd f8 4e 9a bd c6 b3 98 3d 12 7e 34 3d
       -0.050359152 -0.07534593 0.07456164 0.044065543
0002d0 d3 6c 7b 3d 3a b9 ac bd 4e 7f 36 bd 49 93 89 3c
       0.06138308 -0.08433767 -0.044555 0.016793864
0002e0 39 24 64 bd 4c 99 4c 3d 4c 84 02 bc e7 a8 2a bc
       -0.055698607 0.049950883 -0.007966112 -0.010416246
0002f0 80 ce c1 3a 5b 25 74 3d d1 96 02 3d 1b b5 b1 bc
       0.0014786273 0.059605937 0.03188211 -0.021692803
000300 52 a6 38 bd 80 db 8d 3d eb 0d 03 bd cc 16 b4 3d
       -0.04508049 0.06926632 -0.031995695 0.08793411
000310 45 5c e9 3b df 6f 86 3d 9b 84 41 3b 74 7c 6b 3d
       0.007121595 0.065643065 0.0029528502 0.057491735
000320 40 fb 8a bd f3 45 a2 bc 06 ae 5b bd 7d 7c 8e bd
       -0.067862034 -0.019808745 -0.05363276 -0.06957338
000330 db 40 90 bd 31 b2 aa 3d 5d d6 26 3d 68 08 72 3c
       -0.0704362 0.083347686 0.040731777 0.014772512
000340 01 ba b7 bb 76 1a 44 3c 4a 54 4a bd fe d9 69 bd
       -0.00560689 0.011969199 -0.04939679 -0.05709266
000350 a7 34 81 bd 93 d1 a4 3d ff 86 62 bd 1a 2f 5f bd
       -0.06308871 0.080477856 -0.055304524 -0.05448828
000360 67 ad 29 bd 23 e9 43 bc b3 d9 a5 bd c6 58 8e 3d
       -0.041425135 -0.01195744 -0.080981635 0.06950526
000370 8e da 7e bd 00 f1 35 bd 2f da 66 bd 96 9b e3 bc
       -0.06222015 -0.04441929 -0.05636042 -0.02778415
000380 26 a3 95 bd be 78 f3 bc 52 e9 e8 bc 43 0f 95 bd
       -0.07306509 -0.02972066 -0.028431568 -0.072783016
000390 1a 46 b7 bc a9 93 a3 bb 0d 03 28 bc 3b 39 f0 bc
       -0.022372294 -0.0049919677 -0.010254634 -0.029324165
0003a0 56 17 74 bc 24 08 88 bd 11 14 91 bd b8 39 95 bd
       -0.014898142 -0.06642178 -0.070839055 -0.072863996
0003b0 1f 2c 43 3d 38 06 9a 3b 0b 88 08 bd 2a 79 5a bd
       0.0476495 0.0047004484 -0.033332866 -0.053338207
0003c0 bf 59 f2 bc c3 a4 9f bc 48 0e ea bb 5c 6b a4 bd
       -0.02958381 -0.019487744 -0.0071428157 -0.0802829
0003d0 91 5f 60 bd 8f fa a6 3d 40 60 27 bd 1b f4 24 bc
       -0.05477864 0.08153259 -0.040863276 -0.010067965
0003e0 db 84 2f 3d f9 db b0 3d 9e ab 20 bd 5f 1a c4 bb
       0.04285131 0.086357065 -0.039226167 -0.005984589
0003f0 58 c5 47 3d 74 0a ac 3c 0d c3 46 3d af 6b 06 3d
       0.048772186 0.021001078 0.04852586 0.03281754

output_net.0.bias f4 [64]
000000 79 85 a2 3e dd 9b 17 3d 45 cf 90 3e a2 b6 cb 3e
       0.31742457 0.037013877 0.28283134 0.39787775
000010 30 0b 49 3e 2f 4a 7c 3e ae 14 7c 3d 20 ea 7b 3e
       0.19633174 0.24637674 0.06154316 0.2460103
000020 f8 5a 80 bd 5f 3f 40 3e 98 2a 20 3d a1 0a de bd
       -0.06267351 0.18774174 0.03910312 -0.10841871
000030 15 e0 82 3e dc f5 f6 3d 44 34 3c 3c 22 63 be 3e
       0.25561586 0.12058613 0.0114870705 0.37185007
000040 15 40 c0 3e 17 53 64 bd 38 f2 b3 3a 77 0d a3 bd
       0.3754889 -0.055743303 0.0013728803 -0.079615526
000050 1c 70 4d 3d 72 4b b7 3e 3f 7e 55 3d 2e bd 73 bd
       0.050155744 0.35799748 0.05212235 -0.059506588
000060 24 7b 21 bd cc bf 85 3e a4 64 a8 bd 1e ed c5 bc
       -0.039424077 0.26122892 -0.08222321 -0.024160918
000070 e3 09 b2 3e 56 c1 c3 bc 9a 1c cd 3e 0f 2c b6 3c
       0.34773168 -0.0238959 0.40060884 0.022237806
000080 cb 39 93 3e 2c 67 c5 3e 43 b3 f5 3e b1 41 90 3e
       0.2875503 0.38555276 0.47988328 0.2817512
000090 33 81 f9 3d 51 cc 72 3e 90 4d a9 3e 5e 1d e6 bd
       0.12182846 0.23710753 0.33066988 -0.1123607
0000a0 f1 b9 18 3d a7 17 b8 3e b9 cd ca 3e 90 af 23 bd
       0.037286703 0.35955545 0.3961008 -0.03996235
0000b0 92 ba bc 3c 27 ec f3 3d ff 01 0c 3d bc a4 0d b8
       0.023038182 0.11910277 0.03418159 -3.377044e-05
0000c0 a5 76 8c 3d 4c cb 9f 3e b0 41 6e 3d 8e 36 88 3e
       0.06858567 0.3120979 0.058168113 0.26604122
0000d0 23 cd b9 3e 3c 23 f5 3e db 71 64 3d 3b ca 9a 3e
       0.3628932 0.47878444 0.055772644 0.30232415
0000e0 b5 5b c3 3a 94 e0 b2 3e 60 fc 93 3d 9e a3 a8 3e
       0.001490465 0.34936965 0.07225871 0.3293733
0000f0 7c bf 6f 3e a7 c5 2f bd 9d 7b c9 3e 13 49 bf 3e
       0.23412889 -0.042913105 0.39352122 0.3736044

output_net.2.weight f4 [1, 64]
000000 be 63 ee be 04 b7 ec 3d 39 77 04 bf 9e 3f d5 be
       -0.46560472 0.11558345 -0.5174442 -0.416501
000010 b2 4b f5 be bc 75 05 bf a5 30 5b 3f 68 4a df be
       -0.47909313 -0.52132773 0.856211 -0.43611455
000020 fa 2e 48 3f 94 4d 47 3f 3e 41 ce 3d 12 db 84 3f
       0.7819668 0.7785275 0.10071038 1.0379355
000030 92 d3 07 bf e0 12 a1 3f 80 1f 53 3f 69 2d 03 bf
       -0.53057206 1.2583885 0.8246994 -0.51241165
000040 57 13 04 bf d8 1a c2 3d 11 ff 40 3d 95 58 98 3d
       -0.5159201 0.09477776 0.04711825 0.07438771
000050 6a 3e b1 3d da ff e8 be 87 2f 62 3f 9e 6f 9a 3d
       0.08654483 -0.455077 0.8835377 0.075408205
000060 72 41 44 3d be bb e9 be eb 60 31 3f 27 cc eb 3c
       0.047913976 -0.45651048 0.6928851 0.02878387
000070 cf 42 ee be cf 1b 19 3f ee 7b e5 be 68 58 1b 3d
       -0.46535346 0.5980806 -0.44821113 0.037926108
000080 3f 75 00 bf b9 fd f0 be 78 fb 05 bf 99 6f 0b bf
       -0.50178903 -0.47068575 -0.52336836 -0.5446716
000090 10 ef 7e 3f 9e 97 05 bf 44 40 db be c4 bb 43 3f
       0.9958353 -0.52184474 -0.42822468 0.7645838
0000a0 19 1d aa 3d 32 53 09 bf 87 d8 d7 be 56 3e 14 3f
       0.08306331 -0.5364257 -0.42157385 0.5790762
0000b0 f7 98 62 3f fc 1e 61 3f 3f 57 d6 3d 4d 45 45 3f
       0.88514656 0.87937903 0.104658596 0.7705887
0000c0 4f 4c 29 3f 62 99 03 bf 25 3b 38 3d 89 64 04 bf
       0.6613206 -0.5140592 0.04497828 -0.51715904
0000d0 b8 45 f9 be ac d0 ef be b3 0d 81 3d 22 c6 fa be
       -0.48686004 -0.46838892 0.06301441 -0.48979288
0000e0 df 9a 6f 3d f2 c9 cc be 8b 95 2f 3d c9 98 08 bf
       0.058497306 -0.39997822 0.042867225 -0.5335813
0000f0 a3 d2 be 3f 7b 29 ab 3d 90 38 00 bf 01 66 0c bf
       1.4908031 0.08357521 -0.5008631 -0.54843146
