Q1/ckpt/critic1_ep150.pth (torch, 38344 bytes, 7 tensors)

state_net.0.weight f4 [64, 3]
0	0xbf3ba791	-0.7330256
1	0x3fa58645	1.2931601
2	0x3ea94b61	0.33065322
3	0xbeba086e	-0.36334556
4	0x3f4a62bd	0.7905691
5	0xbe808b3b	-0.25106224
6	0xbedc7911	-0.43061116
7	0xbd1d24a3	-0.038365018
8	0xbe3728e2	-0.1788669
9	0xbe15b804	-0.14620978
10	0x3e07d558	0.13264978
11	0x3f49d133	0.7883484
12	0xbe5ea37d	-0.21742053
13	0x3f43fe1b	0.7655961
14	0xbee742f4	-0.4516827
15	0xbf1201e8	-0.5703416
16	0xbf8caebc	-1.0990825
17	0xbe8f5f92	-0.28002602
18	0xbf6d9f15	-0.92820865
19	0xbee8624e	-0.453875
20	0xbeac03e9	-0.33596733
21	0xbf88112b	-1.0630239
22	0x3e2a5ad5	0.16636212
23	0xbe14b3c8	-0.14521706
24	0xbf7cd1c7	-0.98757595
25	0xbfae45ca	-1.3615048
26	0xbe4b1dd4	-0.19835597
27	0xbee8dbee	-0.45480293
28	0x3d803d03	0.06261637
29	0xbe432ebd	-0.19060798
30	0xbf198143	-0.5996286
31	0xbf8caae0	-1.0989647
32	0xbe92e8d9	-0.28693274
33	0xbf5a2a05	-0.85220367
34	0x3e7c8435	0.24659808
35	0x3e94800e	0.29003948
36	0xbf3c5ad5	-0.735761
37	0xbf23b292	-0.6394435
38	0x3e4e3377	0.2013682
39	0xbdd1d819	-0.102462955
40	0xbf92ed92	-1.1478751
41	0x3e84caad	0.2593588
42	0xbf938777	-1.1525716
43	0x3fd96c48	1.698617
44	0x3e99befa	0.30028516
45	0xbf5bad7e	-0.85811603
46	0xbeed7862	-0.46380907
47	0xbf2fe96e	-0.6871556
48	0xbeebe6c0	-0.46074486
49	0xbf64cd82	-0.8937608
50	0xbf21c2fe	-0.6318816
51	0xbe82ca91	-0.2554517
52	0xbf522e35	-0.82101756
53	0x3eb85fee	0.3601069
54	0xbeb49c24	-0.35275376
55	0x3e9204e8	0.28519368
56	0xbf3fb752	-0.748891
57	0xbf8e45c7	-1.1115044
58	0x3f63fbb1	0.89055926
59	0x3ec3dfbc	0.38256633
60	0xbf5dc68b	-0.8663108
61	0x3f1c48ae	0.610484
62	0x3e9630ff	0.29334256
63	0xbf80ebdd	-1.007198
64	0x3fafbb9c	1.3729129
65	0x3ecb7b61	0.39742568
66	0x3f07b643	0.53012484
67	0x3f52277c	0.820915
68	0xbbb3d993	-0.0054885834
69	0xbf27f1e0	-0.65603447
70	0x3e202792	0.15640095
71	0x3eef4887	0.4673502
72	0xbed473fb	-0.41494736
73	0x3cf82d94	0.03029517
74	0x3e6c679a	0.23086396
75	0x3ef2f5d9	0.47453192
76	0x3f2c675e	0.67345226
77	0x3ed3bdbb	0.4135569
78	0x3f1a6be3	0.6032087
79	0x3fe6bc65	1.8026243
80	0x3ecae1c7	0.3962538
81	0xbe36bf32	-0.17846373
82	0x4006585c	2.099143
83	0x3ec7ea00	0.39045715
84	0x3f7c895b	0.9864709
85	0x3f0893e8	0.5335069
86	0x3d24de81	0.04025126
87	0x3f998943	1.1995014
88	0xbf096073	-0.53662795
89	0xbeb88c38	-0.36044478
90	0xbf386ccf	-0.7204103
91	0xbeeb3d48	-0.4594519
92	0xbe851a3a	-0.25996572
93	0xbf1e6c94	-0.6188443
94	0x3e1b3dc9	0.15160288
95	0x3e72f2af	0.23725389
96	0xbf576aef	-0.8414754
97	0x3f9308c9	1.1487056
98	0xbe0715d0	-0.13191915
99	0xbefb56a1	-0.4908953
100	0xbe5d4da2	-0.21611646
101	0xbe41e204	-0.18933874
102	0xbdd9d517	-0.10636347
103	0xbe387f31	-0.1801727
104	0x3e29366f	0.16524671
105	0xbf995db0	-1.1981716
106	0x3f7c2ddb	0.9850747
107	0x3ecf5df7	0.40501377
108	0xbeb7ba3b	-0.3588427
109	0x3e731a51	0.23740508
110	0xbeee84f1	-0.465858
111	0xbf798211	-0.9746409
112	0x3f7d478c	0.98937297
113	0x3eb49eb0	0.3527732
114	0x3fbeeaf5	1.4915453
115	0xbefb8cbe	-0.49130815
116	0xbe2a4a3b	-0.16629879
117	0xbf630c87	-0.8869099
118	0xbfa70901	-1.3049623
119	0x3e403f4a	0.18774143
120	0xbde9e4bc	-0.11420581
121	0x3c1b9ddf	0.009498089
122	0xbec7181f	-0.3888559
123	0xbf21e4b7	-0.63239616
124	0xbe8c28b6	-0.2737481
125	0xbe8ba6ca	-0.27275687
126	0xbf70f2ac	-0.9412029
127	0x3f4bc247	0.7959332
128	0x3f3a0314	0.72660947
129	0xbebc54cb	-0.36783442
130	0xbf2e0f2e	-0.6799191
131	0x3e2d4b87	0.16923343
132	0x3f81e6c2	1.0148547
133	0xc0003385	-2.0031445
134	0xbef23727	-0.47307703
135	0xbf870a4b	-1.0550016
136	0x3f969b91	1.1766225
137	0x3ec793d1	0.38979962
138	0xbdf4ea16	-0.11958711
139	0x3f2f14e9	0.6839128
140	0xbefde185	-0.4958612
141	0xbe866b14	-0.2625357
142	0xbf561538	-0.8362613
143	0x3ec6106b	0.386844
144	0x3c549ba4	0.012976561
145	0x3e4c15db	0.19930212
146	0x3f22da0b	0.6361396
147	0x3d82931a	0.06375714
148	0xc0018ed7	-2.0243433
149	0xbecb8180	-0.39747238
150	0xbf436f4b	-0.76341695
151	0xbf98ce3d	-1.1937939
152	0xbeb345f3	-0.35014305
153	0xbdef2163	-0.1167629
154	0xbe70a958	-0.235021
155	0x3ecf063a	0.40434438
156	0xbf1df59c	-0.61702895
157	0xbe1bc697	-0.15212475
158	0xbe83ac61	-0.25717452
159	0xbf1a81f1	-0.60354525
160	0x3e0904e2	0.13380769
161	0x3e74a990	0.23892808
162	0x3d644217	0.05572709
163	0x3efeb090	0.49744081
164	0x3d60a39b	0.054843526
165	0xbf130138	-0.57423735
166	0xbe533bc9	-0.20628275
167	0xbe6c2113	-0.23059492
168	0xbf1f7e69	-0.6230226
169	0x3f45a427	0.772036
170	0xbe5bb71e	-0.21456572
171	0xbf9f2bba	-1.2435219
172	0x3fdc6881	1.7219392
173	0x3ed13110	0.40857744
174	0xbeb81e4c	-0.35960615
175	0xc00259d0	-2.0367317
176	0xbea51723	-0.32244214
177	0x3f613861	0.8797665
178	0x3f53e35b	0.8276879
179	0x3ea473d7	0.3211963
180	0x3e03def6	0.12878022
181	0xbf0942b8	-0.5361743
182	0xbc9c67e9	-0.019092517
183	0xbedc2cd7	-0.4300296
184	0xbf5450ca	-0.82935774
185	0x3eb01ce0	0.3439703
186	0xbf6e04b0	-0.929759
187	0xbd837fea	-0.06420882
188	0x3b9624bc	0.004582016
189	0x3f2a5c02	0.6654664
190	0xbff84a43	-1.9397663
191	0xbed16d3d	-0.40903655

state_net.0.bias f4 [64]
0	0x3f1938a6	0.59852064
1	0x3f8c9f79	1.0986167
2	0x3f7fcd14	0.999223
3	0x3e9e09c5	0.3086683
4	0xbeb2d3de	-0.34927267
5	0x3f273df7	0.65328926
6	0x3fc3b1b0	1.5288601
7	0x3d95bc97	0.07311361
8	0xbe29e841	-0.16592504
9	0x3f95b11f	1.1694678
10	0x3f312abf	0.6920585
11	0x3f9600d3	1.1719002
12	0x3f386137	0.7202334
13	0x3f8de9b3	1.1086944
14	0x3ef6acdd	0.4817876
15	0xbf1b66b1	-0.6070357
16	0xbe975093	-0.2955366
17	0x3fcef21d	1.6167637
18	0x3f1efe0f	0.6210641
19	0x3f918ac2	1.137047
20	0x3f6d5a01	0.9271546
21	0x3f5b18c2	0.8558465
22	0x3f7df922	0.9920827
23	0xbec9e68c	-0.39433706
24	0x3f98cb61	1.1937066
25	0x3ed78d06	0.4209978
26	0xbf22dd65	-0.6361907
27	0x3c922f5e	0.017844852
28	0x3f68c498	0.9092498
29	0xbf9cb273	-1.2241958
30	0x3f8e3c06	1.1112068
31	0x3f83fa9a	1.0310853
32	0x3f1b5766	0.60680234
33	0x3f644e63	0.8918211
34	0x3f8e2ef6	1.1108081
35	0x3f942227	1.1572922
36	0xbeb5f88c	-0.3554119
37	0x3f6d32f8	0.926559
38	0x3ec41643	0.38298234
39	0x3edcf325	0.43154255
40	0xbdc68e96	-0.09695165
41	0x3faa6a15	1.3313624
42	0xbf1de903	-0.6168367
43	0x3f19b030	0.60034466
44	0xbf2b5b5c	-0.6693628
45	0x3f74c6d0	0.95615864
46	0x3f11a2bb	0.5688893
47	0xbeb4892b	-0.352609
48	0x3e5267c7	0.205474
49	0x3e073ade	0.1320605
50	0x3f7888b7	0.9708361
51	0xbe4d1322	-0.2002683
52	0x3fa9ed08	1.3275461
53	0x3f8771c6	1.0581596
54	0x3f67bd4c	0.9052322
55	0x3f9171b4	1.1362824
56	0x3f44a206	0.7680973
57	0x39ce1e6b	0.00039314045
58	0xbf02348d	-0.50861436
59	0xbf916da9	-1.1361591
60	0x3f5db84a	0.8660933
61	0xbf341426	-0.70343244
62	0xbf08ca90	-0.53434086
63	0xbeaefc42	-0.34176832

action_net.0.weight f4 [64, 1]
0	0xbf83637a	-1.0264733
1	0xbf69f67c	-0.9139173
2	0x3ddb5480	0.107094765
3	0xbd470979	-0.04859302
4	0xbebc139c	-0.3673371
5	0xbf22b028	-0.63550043
6	0x3f721dfe	0.94577014
7	0x3f012291	0.5044337
8	0xbebe4e8c	-0.37169302
9	0xbd4fc6bb	-0.050726634
10	0x3f7340e1	0.9502087
11	0x3f1761bf	0.59133524
12	0xbeba600d	-0.36401406
13	0xbe407050	-0.18792844
14	0x3f613e97	0.8798613
15	0xbf332e97	-0.69992965
16	0xbd7745e0	-0.060369372
17	0x3edf8dff	0.43663022
18	0x3ee12500	0.4397354
19	0x3ea2722e	0.31727737
20	0x3d96e970	0.073687434
21	0xbec7bed6	-0.39012784
22	0x3f02328d	0.50858384
23	0x3edf4a88	0.4361155
24	0x3f53bbee	0.8270863
25	0xbf53089e	-0.82435024
26	0x3f187d0d	0.5956581
27	0xbea1515f	-0.31507394
28	0x3f3caa10	0.73696995
29	0xbf20c1a5	-0.6279548
30	0xbf818fef	-1.012205
31	0x3f69559e	0.91146266
32	0xbf9a62a3	-1.2061352
33	0xbe8ea90a	-0.27863342
34	0x3db52446	0.08844809
35	0xbee85c05	-0.45382705
36	0xbede9217	-0.43470833
37	0xbf000d50	-0.50020313
38	0x3ee2e252	0.44313294
39	0x3ec2dd3b	0.3805941
40	0x3ee1d484	0.4410745
41	0x3d45de60	0.048307776
42	0xbf422ad0	-0.75846577
43	0x3f2f51d3	0.6848423
44	0x3f0caeed	0.54954416
45	0xbf5b67e7	-0.8570542
46	0xbf5c0428	-0.8594384
47	0xbf2b897e	-0.6700667
48	0x3d92ad1e	0.07161926
49	0xbf530fff	-0.82446283
50	0xbf4e1ff5	-0.8051751
51	0xbf40d480	-0.7532425
52	0x3ec1b062	0.37829882
53	0x3f0635c9	0.5242582
54	0x3eb806b8	0.35942626
55	0x3d3aac6c	0.04557459
56	0xbf4c7dd1	-0.7987948
57	0x3f9a2cd8	1.2044935
58	0x3f25f1d8	0.6482215
59	0x3f774dd3	0.96603125
60	0x3f45067c	0.7696302
61	0xbed57866	-0.4169342
62	0xbee82344	-0.45339406
63	0x3f81fb59	1.015483

action_net.0.bias f4 [64]
0	0xbe6e3a91	-0.23264529
1	0xbed3cf82	-0.41369253
2	0xbedfbef0	-0.4370036
3	0x3f8d460c	1.1037002
4	0x3f1ff3bc	0.62481284
5	0xbf7a44f8	-0.9776149
6	0x3bc2dda2	0.005946831
7	0x3f8b114f	1.0864657
8	0xbf0d6aa0	-0.5524082
9	0x3f970594	1.1798577
10	0x3f1b8a72	0.60758126
11	0xbe3c209b	-0.18371813
12	0x3f158879	0.58411366
13	0x3efd58dd	0.4948186
14	0x3f3f6038	0.74756193
15	0x3f5c6082	0.8608476
16	0xbeb1bbd4	-0.34713614
17	0x3f84bed4	1.0370736
18	0xbf5ef3a2	-0.87090504
19	0x3eafde8d	0.3434948
20	0xbf3b1b02	-0.73088086
21	0x3f24c644	0.6436503
22	0x3fb57ae1	1.4178125
23	0xbeeb068c	-0.45903432
24	0x3f5f31bc	0.87185264
25	0x3f95b153	1.169474
26	0xbf043ea4	-0.5165808
27	0xbe847e44	-0.25877583
28	0x3f5226e4	0.8209059
29	0x3ce4276c	0.027850829
30	0xbf18691d	-0.5953539
31	0xbee9c4a4	-0.45657837
32	0xbf30dbf5	-0.6908563
33	0x3fa926e8	1.3214998
34	0x3f93ee9a	1.155719
35	0x3f9abf0c	1.2089553
36	0x3f849cfa	1.0360405
37	0x3f4def12	0.8044292
38	0x3eb2ad73	0.34897956
39	0x3f1c2422	0.60992634
40	0x3f828bf7	1.0198964
41	0xbf2ddfa8	-0.679194
42	0x3f83c525	1.0294539
43	0x3f547c06	0.83001745
44	0x3f3db3e3	0.7410261
45	0x3fa14dc1	1.2601854
46	0xbf65dc66	-0.89789426
47	0xbf43b5aa	-0.7644907
48	0x3f76e490	0.9644251
49	0x3faa8413	1.3321556
50	0xbe38079a	-0.1797165
51	0xbf6dd306	-0.9290012
52	0x3f155cc0	0.5834465
53	0x3f69f830	0.9139433
54	0xbf1c4220	-0.610384
55	0x3f7f7337	0.9978518
56	0x3f366a98	0.712564
57	0x3e66a23b	0.22522824
58	0x3fa0fe46	1.2577598
59	0x3dd27b30	0.102774024
60	0xbf710d80	-0.94161224
61	0x3f3eb17c	0.7448957
62	0x3fa146bb	1.259971
63	0x3da23455	0.07920138

output_net.0.weight f4 [64, 128]
0	0x3d3debf1	0.04636759
1	0xbdb5b0ad	-0.08871589
2	0xbd7d65f4	-0.06186481
3	0x3d57b9d3	0.05266745
4	0x3d7261bd	0.05917524
5	0x3d4c326d	0.049852777
6	0x3d0d9bd6	0.034572445
7	0xbc2bfb79	-0.0104969675
8	0xbb6d0472	-0.003616598
9	0xbd3ce5fd	-0.04611777
10	0x3d925662	0.071453825
11	0xbd9e5796	-0.077315494
12	0x3d39d022	0.045364507
13	0x3cbaf302	0.022820953
14	0x3c8c02d8	0.0170912
15	0x3d8f03af	0.069831245
16	0xbc918f6d	-0.017768586
17	0xbd84bb97	-0.064810924
18	0xbc05fbd9	-0.008177721
19	0x39da0f40	0.00041591562
20	0x3d3f33c3	0.046680223
21	0xbcecdeb1	-0.028914781
22	0xbd1f873d	-0.038947333
23	0xbda89e8c	-0.082333654
24	0xbc5a7086	-0.013332492
25	0xbcd2985e	-0.02570742
26	0x3c4a62bb	0.012352641
27	0x3d27e048	0.040985376
28	0x3d1856ef	0.03719228
29	0x3cf2ea61	0.029652776
30	0xbda19353	-0.07889428
31	0x3d005d81	0.031339172
32	0xbd40e9ef	-0.047098096
33	0x3d7d7702	0.061881073
34	0xbda7b7b8	-0.081893384
35	0x3b9e67c7	0.0048341486
36	0xbcea7a8e	-0.028622892
37	0xbd4c0a66	-0.049814604
38	0xbd82e719	-0.06391735
39	0x3d8c2696	0.06843297
40	0xbd0d3a4b	-0.03447942
41	0xbd300f88	-0.04298356
42	0x3d9bdcf8	0.07610506
43	0xbcd9fb63	-0.026609128
44	0x3d1515c7	0.03639772
45	0xbda23f26	-0.07922201
46	0x3d4b2c24	0.049602643
47	0xbd8d6dfe	-0.06905745
48	0x3d113360	0.035449386
49	0xbdb91931	-0.09038008
50	0x3c9d9363	0.019235319
51	0xba1353a9	-0.00056200713
52	0xbcd06ec6	-0.025443446
53	0xbc59a8c9	-0.01328487
54	0x3d11c7c8	0.035590917
55	0x3c5a2c51	0.01331623
56	0xbd470fcb	-0.048599046
57	0xbda63425	-0.081154145
58	0xbd81d849	-0.06340081
59	0xbdad8ade	-0.084737524
60	0x3c98d04f	0.018654017
61	0xbd44a5ba	-0.04800961
62	0x3d04218c	0.032258555
63	0xbd97154a	-0.073771074
64	0xbd5fcb5b	-0.054637294
65	0xbce03b7d	-0.027372116
66	0x3d8f25a2	0.069896
67	0x3ca65fdd	0.020309383
68	0xbd9b9e01	-0.07598496
69	0xbd44bbb9	-0.04803059
70	0x3d90492e	0.07045208
71	0x3d412fc2	0.047164686
72	0x3dac1458	0.08402318
73	0xbda10f38	-0.07864231
74	0xbd024172	-0.031800695
75	0x3d9e7cb0	0.07738626
76	0xbd9f9588	-0.07792193
77	0x3b71142f	0.0036785712
78	0xbd4efdcb	-0.050535005
79	0xbd5bc744	-0.05365683
80	0x3d850bb7	0.06496375
81	0x3964d10c	0.0002182165
82	0x3bdec80d	0.0067987503
83	0xbd21f353	-0.039538693
84	0x3d9047fd	0.07044981
85	0xbbaadff4	-0.0052146856
86	0x3c672cb3	0.014109778
87	0x3d822742	0.06355144
88	0x3b4f9b86	0.0031678393
89	0xbd7af945	-0.06127288
90	0xbd55cf86	-0.052199863
91	0x3d78f21b	0.060777765
92	0x3d11ab35	0.035563666
93	0xbdb70a03	-0.089374565
94	0xbca265bc	-0.019823901
95	0xbd2575e2	-0.040395625
96	0xbd2803cd	-0.04101925
97	0xbd8dc729	-0.069227524
98	0xbc05624b	-0.008141111
99	0x3b6536fd	0.0034975403
100	0x3cee6420	0.029100478
101	0xbda8e04b	-0.082459055
102	0xbc9eaabe	-0.019368526
103	0x3d616b9b	0.05503426
104	0x3d3efbba	0.046626784
105	0x3d247c0e	0.04015737
106	0xbd4b62c1	-0.049654726
107	0xbd87d205	-0.06631855
108	0xbcd30991	-0.025761398
109	0xba0c58a7	-0.00053537864
110	0x3d06224f	0.032747563
111	0xbd3d126b	-0.046160143
112	0x3d999d89	0.075007506
113	0x3d4635fc	0.048391327
114	0x3d84f1d3	0.06491437
115	0x3db33a61	0.08751369
116	0x3d988213	0.07446685
117	0xbd7aaa07	-0.061197307
118	0xbc945f7a	-0.018111933
119	0x3d2de1e5	0.042451758
120	0x3d64f392	0.05589635
121	0xbd3febf3	-0.046855878
122	0xbda59960	-0.080858946
123	0xbdb94039	-0.090454526
124	0xbd997cf5	-0.07494537
125	0x3bc366fb	0.005963204
126	0x3c857b14	0.01629404
127	0xbd9d6435	-0.076851286
128	0x3ec45b58	0.3835094
129	0x3f153dc8	0.58297396
130	0x3eed64b6	0.463659
131	0xbda64987	-0.08119493
132	0xbeb5c7f1	-0.35504106
133	0x3ea09d99	0.31370237
134	0x3ea83e83	0.32860193
135	0x3f464887	0.7745442
136	0xbea1b34e	-0.3158211
137	0x3f03a2bb	0.5142018
138	0x3ed1cbf2	0.4097591
139	0x3eb3b7ac	0.35101068
140	0x3f0cdf65	0.55028373
141	0x3f1b8e95	0.6076444
142	0xbe8fe145	-0.28101555
143	0xbe38f2e3	-0.18061404
144	0xbe001462	-0.12507775
145	0x3e5f9fa5	0.21838243
146	0xbd4b15e5	-0.049581427
147	0x3e12b53c	0.14326948
148	0x3f03bec0	0.51462936
149	0x3eb1d52b	0.34732947
150	0x3ed6e7c4	0.41973698
151	0xbda25a50	-0.07927382
152	0x3edcd65c	0.43132293
153	0xbda99060	-0.082794905
154	0x3ef9f004	0.4881593
155	0x3e6291c4	0.22125918
156	0x3f0522aa	0.5200602
157	0x3fc4472c	1.533422
158	0x3ed820cf	0.4221253
159	0x3f0961bc	0.53664756
160	0x3efa04d4	0.4883181
161	0x3ed2873d	0.41118804
162	0x3f039863	0.514044
163	0x3e914ac8	0.28377366
164	0xbe2fee80	-0.17180824
165	0x3e98f068	0.29870915
166	0x3ec649ed	0.38728276
167	0x3f004457	0.5010428
168	0xbe471837	-0.19442831
169	0x3e3d8df0	0.18511176
170	0xbe5e4800	-0.21707153
171	0x3f041ec9	0.51609474
172	0x3ee0f46d	0.43936482
173	0x3e459a17	0.19297062
174	0xbe138f02	-0.14410022
175	0xbead65b0	-0.33866644
176	0xbdd3c46e	-0.103402
177	0x3e9795e2	0.2960654
178	0x3ef26cb6	0.47348565
179	0xbe912b9f	-0.28353593
180	0x3ec7ec90	0.3904767
181	0x3f0842e5	0.5322707
182	0x3eae6fd3	0.3406969
183	0x3f0623ef	0.5239858
184	0x3ec89e88	0.3918345
185	0xbebb49f1	-0.3657985
186	0xbf18e580	-0.5972519
187	0x3f82f06f	1.0229625
188	0x3e84a43f	0.2590656
189	0xbf0f80f7	-0.5605616
190	0x3f687d14	0.90815854
191	0x3ec6734a	0.38759834
192	0xbd361be8	-0.044460207
193	0xbe4e1b71	-0.20127656
194	0xbcef5bee	-0.02921864
195	0x3ea88bcf	0.32919165
196	0x3ea17b81	0.31539539
197	0x3d72b63c	0.059255823
198	0x3c4e3e38	0.012588076
199	0x3eb5d151	0.35511258
200	0x3cb5f0c5	0.022209534
201	0x3ea64402	0.3247376
202	0x3e2e1931	0.17001797
203	0xbc42caba	-0.011889154
204	0x3eba12f9	0.363426
205	0x3ec080a1	0.37598136
206	0x3e4e020e	0.20117971
207	0x3e8e2315	0.2776114
208	0xbd85862d	-0.065197326
209	0x3edf5ad8	0.43623996
210	0xbd2d54da	-0.04231725
211	0x3e7cc81b	0.24685709
212	0x3c5fd99d	0.013662723
213	0x3e8711c2	0.26380736
214	0x3ee628f1	0.4495311
215	0xbd71d5b2	-0.059041686
216	0x3e9c1d4d	0.30491105
217	0x3ead2340	0.33815956
218	0xbbbc2da1	-0.005742744
219	0x3d14e38d	0.03634982
220	0x3e91a14c	0.28443372
221	0xbd1015b7	-0.03517696
222	0xbdcb6217	-0.099308185
223	0xbcc9cdeb	-0.024634322
224	0xbe499114	-0.19684249
225	0x3edfb662	0.43693835
226	0x3eb038a8	0.34418225
227	0x3ec981a8	0.39356732
228	0x3e95531a	0.29164964
229	0x3ed4a3b9	0.4153116
230	0x3d44a931	0.048012916
231	0x3e90e6ae	0.28300995
232	0x3ebed1b7	0.37269375
233	0xbd8b9567	-0.068156056
234	0x3e8051a2	0.2506228
235	0x3eb04975	0.34431043
236	0x3ebdad25	0.3704616
237	0x3e966bdf	0.29379174
238	0x3d3938e1	0.04522026
239	0xbda18970	-0.07887542
240	0x3eca4dd2	0.39512497
241	0x3ec70d9a	0.38877565
242	0xbd87b470	-0.066262126
243	0x3c2ec18a	0.0106662605
244	0x3ec2cba8	0.38046002
245	0x3eaa875a	0.3330639
246	0xbd290d25	-0.0412723
247	0x3ea1904a	0.31555396
248	0x3e8d6ea4	0.27623475
249	0xbd318b5e	-0.0433458
250	0x3ed0db06	0.40792102
251	0x3d854b70	0.06508529
252	0x3d12e74c	0.035865113
253	0x3ec79df7	0.38987705
254	0x3ec1c7dc	0.37847793
255	0xba4c699d	-0.000779772

output_net.0.bias f4 [64]
0	0xbd54b086	-0.05192616
1	0x3ed535e0	0.41642666
2	0xbb663234	-0.0035125138
3	0x3ecc45e3	0.3989707
4	0x3e8dc006	0.27685565
5	0x3e905f91	0.2819791
6	0x3e8ed8d2	0.27899796
7	0x3ce077e4	0.027400918
8	0x3e5bc346	0.2146121
9	0xbd42c5c4	-0.047551885
10	0x3eaa1781	0.33221057
11	0x3df6b040	0.12045336
12	0xbb23d827	-0.0025000663
13	0x3ebd1578	0.36930442
14	0x3dd88f0c	0.10574159
15	0x3e6a4bcd	0.22880478
16	0xbd1a3258	-0.037645668
17	0x3e8628a7	0.2620289
18	0xbda54324	-0.08069447
19	0x3e8f14a6	0.2794544
20	0xbb6ce4b4	-0.003614706
21	0xbca651b9	-0.02030264
22	0x3e4cf147	0.20013915
23	0x3ea6d191	0.3258176
24	0x3e02a2a1	0.1275735
25	0x3ec329f8	0.38117957
26	0xbdc78475	-0.09742061
27	0x3d0ac575	0.033879716
28	0x3ead90b5	0.33899465
29	0xbd0997c1	-0.03359199
30	0x3e545058	0.20733774
31	0x3e9db735	0.30803838
32	0x3e82a9da	0.2552021
33	0x3e86dec3	0.2634183
34	0x3e928e3c	0.2862414
35	0x3eadd4de	0.33951467
36	0x3e9ac598	0.30228877
37	0x3cff8c05	0.031194696
38	0x3e998d2e	0.29990524
39	0x3e865ec3	0.26244172
40	0x3eaa5662	0.3326903
41	0x3eb400d8	0.35156894
42	0x3e73e045	0.23816021
43	0x3ea650b3	0.32483444
44	0x3e964ea1	0.29356864
45	0xbd38a0df	-0.045075294
46	0x3c193fec	0.009353619
47	0xbcd97c7b	-0.026548615
48	0x3ebf64b0	0.37381506
49	0x3eb8367a	0.35979062
50	0x3e85b48f	0.26114318
51	0x3ea11fd2	0.3146959
52	0x3e5b4875	0.21414359
53	0x3eb3c68d	0.3511242
54	0x3e65d393	0.2244399
55	0x3e62ae7e	0.22136876
56	0x3ea8cf2c	0.3297056
57	0x3ec42557	0.38309738
58	0xbc0fb010	-0.008770004
59	0x3e872d93	0.26401958
60	0xbd2f6ffd	-0.04283141
61	0xbd85ccdd	-0.06533215
62	0x3e956845	0.29181114
63	0x3d4d20e2	0.050080188

output_net.2.weight f4 [1, 64]
0	0x3dd0e994	0.102008015
1	0xbf057426	-0.52130353
2	0x3faf69c7	1.3704156
3	0xbf0edfe0	-0.55810356
4	0xbf110e54	-0.5666249
5	0xbf0a5dc8	-0.5404935
6	0xbf027aa7	-0.509684
7	0x3dd5eb7b	0.10445305
8	0xbf26a154	-0.6508992
9	0x3cfa4bec	0.03055378
10	0xbf025d7b	-0.5092389
11	0x3faf5954	1.3699136
12	0x3fc8d0f9	1.5688773
13	0xbf161148	-0.5862012
14	0x3fe72ccb	1.8060545
15	0xbf299858	-0.66248083
16	0x3fe5fa00	1.7966919
17	0xbf167de3	-0.5878584
18	0x3c96d051	0.01840988
19	0xbf0ff4c6	-0.5623287
20	0x3d8e1543	0.06937649
21	0x3de42355	0.111395516
22	0x3fae3f83	1.3613132
23	0xbf1cdf61	-0.6127835
24	0x3fe5ffc9	1.7968684
25	0xbf35a387	-0.7095265
26	0xbd80f640	-0.062969685
27	0x3de50816	0.11183183
28	0xbf083410	-0.5320444
29	0x3d8a6f44	0.067595035
30	0xbf235676	-0.63803804
31	0xbf1653c0	-0.5872154
32	0xbf17b61c	-0.5926225
33	0x3fc27421	1.519169
34	0xbf2c11a7	-0.67214435
35	0xbf0b52c4	-0.54423165
36	0xbf25cf3d	-0.64769346
37	0x3de25c0e	0.11052714
38	0xbf2139f0	-0.6297903
39	0xbf18cfdb	-0.5969216
40	0xbf4f55a5	-0.8099006
41	0xbf0afa17	-0.54287857
42	0xbf1bf0c9	-0.60914284
43	0xbf175855	-0.5911916
44	0xbf2a61cd	-0.6655548
45	0xbda8615a	-0.08221693
46	0x3d54bb82	0.051936634
47	0xbd8d5602	-0.0690117
48	0xbf116319	-0.56791836
49	0xbf20bf22	-0.62791646
50	0xbf19b3ff	-0.6004028
51	0xbf11b464	-0.5691588
52	0x3fc313f4	1.5240464
53	0xbf08aa18	-0.5338454
54	0xbf152468	-0.58258677
55	0xbf2722c7	-0.6528744
56	0xbf2b8553	-0.6700031
57	0xbf2da36d	-0.6782749
58	0x3f966efe	1.1752622
59	0xbf07cbb8	-0.53045225
60	0x3f8a7478	1.0816793
61	0x3d192bce	0.03739529
62	0x3f838dc3	1.0277637
63	0x3d0f67fc	0.035011277
