Q1/ckpt/critic1_ep500.pth (torch, 38344 bytes, 7 tensors)

state_net.0.weight f4 [64, 3]
0	0xbf536877	-0.82581276
1	0x3fdb37fc	1.712646
2	0x3ed9f944	0.42572987
3	0xbf0a44e5	-0.54011375
4	0x3f8289fb	1.0198358
5	0xbe146420	-0.1449132
6	0xbf11390a	-0.5672766
7	0xbddcd827	-0.10783415
8	0xbe5e3750	-0.21700788
9	0x3f184130	0.5947447
10	0x3ed7dbc1	0.42159846
11	0x3f50d016	0.81567514
12	0xbd70c799	-0.0587841
13	0x3f830ac4	1.023766
14	0xbf09cb81	-0.5382615
15	0xbf47715f	-0.77907366
16	0xbffd67eb	-1.9797338
17	0xbeceae47	-0.40367338
18	0xbf89769b	-1.073932
19	0xbed248fe	-0.41071314
20	0xbebf84d5	-0.3740603
21	0xbfb43d6e	-1.4081247
22	0xbceba08d	-0.02876308
23	0xbe75bf61	-0.23998787
24	0xbfd72872	-1.6809218
25	0xbfd80c5f	-1.6878775
26	0xbf0d32df	-0.5515575
27	0xbf181543	-0.5940744
28	0xbd1fafe4	-0.0389861
29	0xbe74d5c6	-0.23909673
30	0xbf93adbb	-1.1537393
31	0xbfce8ea0	-1.6137276
32	0xbed3440b	-0.4126285
33	0xbf7b5ed7	-0.9819159
34	0x3ea0c449	0.31399754
35	0x3e99c28e	0.30031246
36	0xbf743c8f	-0.95404905
37	0xbf2fb6d6	-0.6863836
38	0x3e3e31cc	0.18573684
39	0xbeab5da5	-0.33469883
40	0xbf920503	-1.140778
41	0x3e3665ad	0.17812224
42	0xbfa4649c	-1.2843204
43	0x3ffe41de	1.9863851
44	0x3ebf9257	0.37416336
45	0x3df7acd2	0.1209351
46	0xbfe959f3	-1.8230575
47	0xbf2800ae	-0.6562604
48	0xbfbd8c91	-1.4808522
49	0xc00bbc46	-2.1833663
50	0xbf19888c	-0.5997398
51	0x3f58518a	0.8449942
52	0xbf198ca1	-0.5998021
53	0x3ecf40c6	0.40479106
54	0xbf0b4f41	-0.54417807
55	0x3eddc574	0.43314707
56	0xbf4f158c	-0.8089225
57	0xbf9b372c	-1.2126212
58	0x3fb30560	1.3986015
59	0x3ed6b755	0.41936746
60	0xbf8194ed	-1.0123574
61	0x3f5f7f3c	0.8730352
62	0x3e9d4c3d	0.30722228
63	0xbf8a9fd7	-1.0830029
64	0x3ff4fbcc	1.9139342
65	0x3ef22e1e	0.4730081
66	0x3f593e24	0.84860444
67	0x3f95a1be	1.1689985
68	0x3d8a7c67	0.06762009
69	0xbfbd8dc6	-1.4808891
70	0x3eaac798	0.33355403
71	0x3ef5bd3f	0.47995946
72	0xbf3b97f4	-0.7327874
73	0x3e4127ba	0.1886281
74	0x3e857612	0.26066643
75	0x3f67b2bc	0.905071
76	0x3ff49161	1.9106866
77	0x3eed3b0b	0.4633411
78	0x3fa4c8b4	1.287375
79	0x402080b2	2.507855
80	0x3f14504a	0.5793501
81	0x3dad9e74	0.08477488
82	0x403c707b	2.9443653
83	0x3f14a3ab	0.5806224
84	0x3fc677b6	1.5505283
85	0x3f0f2e2e	0.5592984
86	0x3e833f50	0.2563424
87	0x3fc3caba	1.5296242
88	0xbf90115a	-1.1255295
89	0xbee21047	-0.44153044
90	0xbf966bd8	-1.1751661
91	0xbf21e090	-0.6323328
92	0xbeb0c79e	-0.34527296
93	0xbf5228d4	-0.8209355
94	0x3e7f876c	0.24954003
95	0x3e8239a6	0.25434607
96	0xbf6d1147	-0.9260449
97	0x40028867	2.0395753
98	0xbd931ba4	-0.071830064
99	0xbf1d0b4b	-0.61345357
100	0xbe413793	-0.18868856
101	0xbe6116cc	-0.21981353
102	0xbea14913	-0.31501064
103	0xbe3f0e96	-0.18657908
104	0x3e369703	0.17831044
105	0xbfa1058b	-1.2579817
106	0x3fcee81f	1.6164588
107	0x3eeba00f	0.46020553
108	0xbf3d22c7	-0.7388119
109	0x3ea69bf2	0.32540852
110	0xbf1fc654	-0.62412
111	0xbf849ff5	-1.0361315
112	0x3fc57e9d	1.5429264
113	0x3ed11e01	0.40843204
114	0x3fa7e249	1.3115932
115	0xbf568c60	-0.83807945
116	0xbd8032a6	-0.062596604
117	0xbf8046c3	-1.0021595
118	0xbfdfd39f	-1.7486457
119	0x3d5b70dc	0.053574428
120	0xbe253cfd	-0.16136546
121	0x3d936896	0.071976826
122	0xbf014938	-0.5050235
123	0xbf3b7435	-0.7322419
124	0xbdcab1cb	-0.098971926
125	0xbe92a9cf	-0.2864518
126	0xbf0712e0	-0.52763176
127	0x3facad8b	1.3490461
128	0x3f52f20b	0.8240058
129	0xbf47b81e	-0.78015316
130	0xbee9421b	-0.45558247
131	0x3e59fedc	0.21288627
132	0x3f91e95f	1.1399344
133	0xc04dc626	-3.215219
134	0xbf31a153	-0.69386786
135	0xbf8f5d87	-1.1200417
136	0x3fe97040	1.8237381
137	0x3eee5d0e	0.4655537
138	0xbe9474b6	-0.28995293
139	0x3f9907a1	1.1955453
140	0xbf219f29	-0.63133484
141	0xbf191042	-0.5979043
142	0xbf4bb750	-0.7957659
143	0x3eebad86	0.46030825
144	0x3f2fa7a4	0.68615174
145	0x3f7b7941	0.98231894
146	0x3f20bfcd	0.62792665
147	0xbf16227e	-0.5864638
148	0xc0381ab1	-2.876629
149	0xbf0bc674	-0.5459969
150	0xbfabc547	-1.3419579
151	0xbfdc614e	-1.7217195
152	0xbeec4859	-0.46148947
153	0x3df15119	0.11783046
154	0xbe2b6eea	-0.16741529
155	0x3f03cf1b	0.5148789
156	0xbf440e5c	-0.7658441
157	0xbe34640d	-0.17616291
158	0xbe93e04c	-0.28882062
159	0xbf4cfc8a	-0.80072844
160	0x3e694634	0.22780687
161	0x3e820ff0	0.25402784
162	0x3e8e480b	0.2778934
163	0x3f60d46c	0.8782413
164	0x3dc66c0e	0.096885785
165	0xbf3a619e	-0.728052
166	0xbe60af10	-0.21941781
167	0xbe86c48e	-0.26321834
168	0xbf88cd30	-1.0687618
169	0x3f84c3d3	1.0372261
170	0xbe49147e	-0.19636723
171	0xbfd58e7c	-1.6684108
172	0x4006a659	2.103903
173	0x3f152a42	0.58267605
174	0xbf478eac	-0.77952075
175	0xc02c7589	-2.6946738
176	0xbf1a0510	-0.60163975
177	0x3fc2b60f	1.521181
178	0x3fa465f3	1.2843612
179	0x3ee97a03	0.456009
180	0x3f91e96d	1.1399361
181	0xbf85bc79	-1.0448142
182	0xbdd166de	-0.102246985
183	0xbf1aae41	-0.6042214
184	0xbf80f0e6	-1.0073516
185	0x3ea990e8	0.33118367
186	0xbf9cf9bc	-1.2263713
187	0xbe140197	-0.14453731
188	0xbd2067e2	-0.03916157
189	0x3de330aa	0.11093266
190	0xc03e64e1	-2.9749072
191	0xbf1c8e50	-0.6115465

state_net.0.bias f4 [64]
0	0x3f20f9f4	0.628814
1	0x3f873f24	1.0566144
2	0x3f8bf625	1.0934492
3	0x3f446edb	0.7673165
4	0xbf11115c	-0.56667113
5	0x3f031182	0.5119859
6	0x3fd91713	1.6960167
7	0x3f4b955c	0.7952478
8	0x3f6419ed	0.8910206
9	0x3fa2d8a1	1.272236
10	0x3f5d52d7	0.8645453
11	0x3fa2674d	1.2687775
12	0x3f8459dc	1.0339923
13	0x3f9e759e	1.2379644
14	0x3f132582	0.5747911
15	0xbf0d92fa	-0.55302393
16	0x3f208512	0.6270305
17	0x400e2a89	2.2213461
18	0x3fb1179f	1.3835334
19	0x3f83735e	1.0269582
20	0x3f61e50a	0.8824011
21	0x3f57f7cd	0.8436249
22	0x3f6c499e	0.9229983
23	0xbf00729c	-0.5017488
24	0x3f9bf740	1.218483
25	0xbe40e411	-0.18837
26	0xbf682b98	-0.9069152
27	0xbe8320e1	-0.25611022
28	0x3f45e15c	0.77296996
29	0xbfb1c3f1	-1.3887922
30	0x3fa60b6d	1.2972237
31	0x3f8bb885	1.0915686
32	0x3f2e60f2	0.68116677
33	0x3f855f43	1.0419697
34	0x3f933632	1.1500914
35	0x3f8729d8	1.0559645
36	0xbeb3fdde	-0.35154623
37	0x3f58a95a	0.8463341
38	0x3f6b61ef	0.9194631
39	0x3f88faf1	1.0701581
40	0xbf083dfa	-0.5321957
41	0x3fbe3bb8	1.4861975
42	0xbe931adf	-0.2873144
43	0x3f48fa9d	0.78507406
44	0xbf4a230b	-0.7895972
45	0x3f657b77	0.8964152
46	0x3f79eaba	0.9762379
47	0xbec99a98	-0.39375758
48	0x3f12a7f2	0.57287514
49	0x3eb9eae0	0.36312008
50	0x3f84513c	1.0337291
51	0xbd88fd27	-0.0668891
52	0x3fb74cc1	1.4320298
53	0x3f8e727d	1.1128689
54	0x3f603df0	0.8759451
55	0x3fa074ce	1.2535646
56	0x3f805fea	1.0029271
57	0x3f179e19	0.5922561
58	0xbd83832b	-0.06421503
59	0xbfaa6431	-1.3311826
60	0x3f8b8d9b	1.090259
61	0xbf787b9d	-0.9706362
62	0xbed43a26	-0.41450614
63	0xbedb60da	-0.4284733

action_net.0.weight f4 [64, 1]
0	0xbfb014bd	-1.3756329
1	0xbfa1de0e	-1.2645891
2	0x3ddb5480	0.107094765
3	0xbd7f25d7	-0.062291946
4	0xbec60818	-0.3867805
5	0xbf22b028	-0.63550043
6	0x3f40ba3e	0.75284183
7	0x3f0e88c9	0.5567747
8	0xbebe4e8c	-0.37169302
9	0xbc360352	-0.01110919
10	0x3f7b9db8	0.98287535
11	0x3ec7f724	0.3905574
12	0xbed20920	-0.41022587
13	0xbe2ade83	-0.16686444
14	0x3f671ef2	0.90281594
15	0xbf37d17e	-0.71804035
16	0xbd7745e0	-0.060369372
17	0x3ef265ed	0.47343388
18	0x3ee12500	0.4397354
19	0x3ea09e7a	0.31370908
20	0x3d96e970	0.073687434
21	0xbed1a9ed	-0.40949956
22	0x3f0a12c6	0.53934896
23	0x3edf4a88	0.4361155
24	0x3f57bf8c	0.8427665
25	0xbf5432f1	-0.8289023
26	0x3f25b8db	0.6473519
27	0xbea592b7	-0.32338497
28	0x3f49d525	0.7884086
29	0xbf7bf72a	-0.9842402
30	0xbf959fd3	-1.16894
31	0x3f9ac979	1.2092735
32	0xbfa96f3e	-1.3237073
33	0xbe96ca29	-0.2945111
34	0x3dbc5aa1	0.091969736
35	0xbee96c5d	-0.45590487
36	0xbed2e6e8	-0.41191792
37	0xbef1d11a	-0.47229844
38	0x3e3ada84	0.1824742
39	0x3ebba427	0.36648676
40	0x3eee30a3	0.46521482
41	0x3d45de60	0.048307776
42	0xbf43f9e0	-0.76553154
43	0x3f439c0c	0.76409984
44	0x3f103f6f	0.5634679
45	0xbf5c9c46	-0.86175954
46	0xbf5c0428	-0.8594384
47	0xbf2b897e	-0.6700667
48	0x3dd00467	0.1015709
49	0xbf59b27b	-0.85037965
50	0xbf8b6534	-1.089026
51	0xbf40d480	-0.7532425
52	0x3ed4b774	0.41546214
53	0x3f098a83	0.5372698
54	0x3eb806b8	0.35942626
55	0x3d9c33f9	0.076271005
56	0xbf4a3846	-0.78992116
57	0x3f912a51	1.1341039
58	0x3f31a4d6	0.69392145
59	0x3fd02f48	1.6264429
60	0x3f45067c	0.7696302
61	0xbece6804	-0.40313733
62	0xbeedd08f	-0.4644818
63	0x3fc8b94b	1.5681547

action_net.0.bias f4 [64]
0	0x3d9f560c	0.07780084
1	0xbeb898c9	-0.36054066
2	0xbedfbef0	-0.4370036
3	0x3f936ba1	1.1517221
4	0x3f3859d6	0.7201208
5	0xbf7a44f8	-0.9776149
6	0xbf00a380	-0.5024948
7	0x3f8d2575	1.1027056
8	0xbf0d6aa0	-0.5524082
9	0x3f9c293f	1.2200087
10	0x3f44a088	0.7680745
11	0xbec8557d	-0.39127722
12	0x3f3d78bb	0.74012345
13	0x3f0a52ca	0.54032576
14	0x3f5a1e35	0.8520234
15	0x3f703f31	0.9384642
16	0xbeb1bbd4	-0.34713614
17	0x3f886d60	1.0658379
18	0xbf5ef3a2	-0.87090504
19	0x3f0aaff1	0.54174715
20	0xbf3b1b02	-0.73088086
21	0x3f36f6a9	0.71470124
22	0x3fbcfd33	1.476477
23	0xbeeb068c	-0.45903432
24	0x3f72187f	0.9456863
25	0x3fa41d21	1.282139
26	0xbf01e89b	-0.5074555
27	0xbea59ee5	-0.3234779
28	0x3f5ea40c	0.86969066
29	0x3eaee23a	0.34156972
30	0xbf21be2d	-0.6318081
31	0xbec6ac3d	-0.38803282
32	0xbf52387b	-0.8211743
33	0x3fb0af8a	1.380357
34	0x3f9bf78a	1.2184918
35	0x3fa5a0a5	1.293965
36	0x3f8e176d	1.1100899
37	0x3f5eb3e1	0.86993223
38	0x3ea05eb8	0.31322265
39	0x3f34a00d	0.7055672
40	0x3f85c711	1.0451375
41	0xbf2ddfa8	-0.679194
42	0x3f90e813	1.1320823
43	0x3f517011	0.81811625
44	0x3f46e061	0.77686125
45	0x3fa5e3e9	1.2960178
46	0xbf65dc66	-0.89789426
47	0xbf43b5aa	-0.7644907
48	0x3f890247	1.070382
49	0x3faf88ab	1.3713583
50	0xbd6cef42	-0.05784536
51	0xbf6dd306	-0.9290012
52	0x3f247a5c	0.64249206
53	0x3f704dca	0.93868697
54	0xbf1c4220	-0.610384
55	0x3f841bcd	1.0320984
56	0x3f5cda58	0.86270666
57	0x3e92dbcf	0.28683326
58	0x3fa21074	1.2661271
59	0x3e80b587	0.25138494
60	0xbf710d80	-0.94161224
61	0x3f4b6b01	0.7946015
62	0x3faed7b9	1.3659583
63	0x3f044071	0.5166083

output_net.0.weight f4 [64, 128]
0	0x3d3debf1	0.04636759
1	0xbdb5b0ad	-0.08871589
2	0xbd7d65f4	-0.06186481
3	0x3d57b9d3	0.05266745
4	0x3d7261bd	0.05917524
5	0x3d4c326d	0.049852777
6	0x3d0d9bd6	0.034572445
7	0xbc2bfb79	-0.0104969675
8	0xbb6d0472	-0.003616598
9	0xbd3ce5fd	-0.04611777
10	0x3d925662	0.071453825
11	0xbd9e5796	-0.077315494
12	0x3d39d022	0.045364507
13	0x3cbaf302	0.022820953
14	0x3c8c02d8	0.0170912
15	0x3d8f03af	0.069831245
16	0xbc918f6d	-0.017768586
17	0xbd84bb97	-0.064810924
18	0xbc05fbd9	-0.008177721
19	0x39da0f40	0.00041591562
20	0x3d3f33c3	0.046680223
21	0xbcecdeb1	-0.028914781
22	0xbd1f873d	-0.038947333
23	0xbda89e8c	-0.082333654
24	0xbc5a7086	-0.013332492
25	0xbcd2985e	-0.02570742
26	0x3c4a62bb	0.012352641
27	0x3d27e048	0.040985376
28	0x3d1856ef	0.03719228
29	0x3cf2ea61	0.029652776
30	0xbda19353	-0.07889428
31	0x3d005d81	0.031339172
32	0xbd40e9ef	-0.047098096
33	0x3d7d7702	0.061881073
34	0xbda7b7b8	-0.081893384
35	0x3b9e67c7	0.0048341486
36	0xbcea7a8e	-0.028622892
37	0xbd4c0a66	-0.049814604
38	0xbd82e719	-0.06391735
39	0x3d8c2696	0.06843297
40	0xbd0d3a4b	-0.03447942
41	0xbd300f88	-0.04298356
42	0x3d9bdcf8	0.07610506
43	0xbcd9fb63	-0.026609128
44	0x3d1515c7	0.03639772
45	0xbda23f26	-0.07922201
46	0x3d4b2c24	0.049602643
47	0xbd8d6dfe	-0.06905745
48	0x3d113360	0.035449386
49	0xbdb91931	-0.09038008
50	0x3c9d9363	0.019235319
51	0xba1353a9	-0.00056200713
52	0xbcd06ec6	-0.025443446
53	0xbc59a8c9	-0.01328487
54	0x3d11c7c8	0.035590917
55	0x3c5a2c51	0.01331623
56	0xbd470fcb	-0.048599046
57	0xbda63425	-0.081154145
58	0xbd81d849	-0.06340081
59	0xbdad8ade	-0.084737524
60	0x3c98d04f	0.018654017
61	0xbd44a5ba	-0.04800961
62	0x3d04218c	0.032258555
63	0xbd97154a	-0.073771074
64	0xbd5fcb5b	-0.054637294
65	0xbce03b7d	-0.027372116
66	0x3d8f25a2	0.069896
67	0x3ca65fdd	0.020309383
68	0xbd9b9e01	-0.07598496
69	0xbd44bbb9	-0.04803059
70	0x3d90492e	0.07045208
71	0x3d412fc2	0.047164686
72	0x3dac1458	0.08402318
73	0xbda10f38	-0.07864231
74	0xbd024172	-0.031800695
75	0x3d9e7cb0	0.07738626
76	0xbd9f9588	-0.07792193
77	0x3b71142f	0.0036785712
78	0xbd4efdcb	-0.050535005
79	0xbd5bc744	-0.05365683
80	0x3d850bb7	0.06496375
81	0x3964d10c	0.0002182165
82	0x3bdec80d	0.0067987503
83	0xbd21f353	-0.039538693
84	0x3d9047fd	0.07044981
85	0xbbaadff4	-0.0052146856
86	0x3c672cb3	0.014109778
87	0x3d822742	0.06355144
88	0x3b4f9b86	0.0031678393
89	0xbd7af945	-0.06127288
90	0xbd55cf86	-0.052199863
91	0x3d78f21b	0.060777765
92	0x3d11ab35	0.035563666
93	0xbdb70a03	-0.089374565
94	0xbca265bc	-0.019823901
95	0xbd2575e2	-0.040395625
96	0xbd2803cd	-0.04101925
97	0xbd8dc729	-0.069227524
98	0xbc05624b	-0.008141111
99	0x3b6536fd	0.0034975403
100	0x3cee6420	0.029100478
101	0xbda8e04b	-0.082459055
102	0xbc9eaabe	-0.019368526
103	0x3d616b9b	0.05503426
104	0x3d3efbba	0.046626784
105	0x3d247c0e	0.04015737
106	0xbd4b62c1	-0.049654726
107	0xbd87d205	-0.06631855
108	0xbcd30991	-0.025761398
109	0xba0c58a7	-0.00053537864
110	0x3d06224f	0.032747563
111	0xbd3d126b	-0.046160143
112	0x3d999d89	0.075007506
113	0x3d4635fc	0.048391327
114	0x3d84f1d3	0.06491437
115	0x3db33a61	0.08751369
116	0x3d988213	0.07446685
117	0xbd7aaa07	-0.061197307
118	0xbc945f7a	-0.018111933
119	0x3d2de1e5	0.042451758
120	0x3d64f392	0.05589635
121	0xbd3febf3	-0.046855878
122	0xbda59960	-0.080858946
123	0xbdb94039	-0.090454526
124	0xbd997cf5	-0.07494537
125	0x3bc366fb	0.005963204
126	0x3c857b14	0.01629404
127	0xbd9d6435	-0.076851286
128	0x3eeef897	0.46674034
129	0x3f19e7e5	0.6011947
130	0x3f1000bb	0.56251115
131	0xbe01538f	-0.12629531
132	0xbf0fe07d	-0.56201917
133	0x3f1c79b1	0.61123186
134	0x3ee01c91	0.43771794
135	0x3f628489	0.8848348
136	0xbf865eb4	-1.0497651
137	0x3f1cab35	0.6119874
138	0x3f309fa0	0.6899357
139	0x3edbc490	0.42923403
140	0x3f2839e4	0.65713334
141	0x3f2224c3	0.63337344
142	0xbf1b57d7	-0.6068091
143	0xbebedded	-0.3727869
144	0xbf2fe630	-0.68710613
145	0x3e0d2398	0.13783109
146	0xbe8f6c82	-0.28012472
147	0x3e072087	0.13196002
148	0x3efbccc5	0.49179664
149	0x3ecff21e	0.40614408
150	0x3ea7da17	0.32783577
151	0xbe3f7325	-0.18696268
152	0x3f03f45a	0.51544726
153	0xbf035033	-0.5129425
154	0x3f7f133c	0.99638724
155	0x3f0bb6bf	0.54575723
156	0x3efc940f	0.4933171
157	0x3faba01f	1.340824
158	0x3f2b22de	0.6685008
159	0x3f1e817a	0.61916316
160	0x3f3bc208	0.73342943
161	0x3f03cbf6	0.51483095
162	0x3f0f25f5	0.5591729
163	0x3e91d5bf	0.28483388
164	0xbea909ba	-0.33015233
165	0x3ea3e378	0.32009482
166	0x3ec1a711	0.37822774
167	0x3f234762	0.63780797
168	0xbeaeef65	-0.3416702
169	0x3e926f7d	0.28600684
170	0xbeb5ed2e	-0.35532516
171	0x3f1a44b1	0.60261065
172	0x3f3608f6	0.71107423
173	0x3e6ee771	0.23330475
174	0xbebd9d4d	-0.37034073
175	0xbedc3cc9	-0.43015125
176	0xbe0bb0a6	-0.13641605
177	0x3f3b4040	0.7314491
178	0x3f37e4a2	0.7183324
179	0xbebf73a5	-0.37392917
180	0x3efc66b3	0.49297103
181	0x3f1cc30c	0.6123512
182	0x3e6770c9	0.22601618
183	0x3f2092f7	0.6272425
184	0x3ef5140a	0.4786685
185	0xbf50ba05	-0.81533843
186	0xbfa1fa83	-1.2654575
187	0x3fcd6037	1.6044987
188	0x3e70793b	0.23483746
189	0xbf319d44	-0.69380593
190	0x3f5da7b0	0.86583996
191	0x3f115b20	0.5677967
192	0xbbcbf57a	-0.0062243314
193	0xbe03d4d2	-0.12874153
194	0xbcef5bee	-0.02921864
195	0x3e72111c	0.23639339
196	0x3e60cee0	0.21953917
197	0x3d72b63c	0.059255823
198	0x3e1c82c8	0.15284264
199	0x3e8c0870	0.27350187
200	0x3cb5f0c5	0.022209534
201	0x3e6dc46c	0.2321946
202	0x3e053d72	0.13011721
203	0xbc6a37c0	-0.014295518
204	0x3e897dec	0.26853883
205	0x3e8eda37	0.2790086
206	0x3e0f08d4	0.13968211
207	0x3e3bdc4b	0.18345754
208	0xbd85862d	-0.065197326
209	0x3eb4f5fb	0.35343918
210	0xbd2d54da	-0.04231725
211	0x3e2fc4b5	0.17164882
212	0x3c5fd99d	0.013662723
213	0x3e2c0eeb	0.16802566
214	0x3ebb2692	0.36552864
215	0xbd71d5b2	-0.059041686
216	0x3e717f14	0.23583633
217	0x3e79c93a	0.24393168
218	0x3db20579	0.0869245
219	0xbe1c9f3c	-0.15295118
220	0x3e5b6df2	0.2142866
221	0xbd44e3ae	-0.048068695
222	0xbc5e09ec	-0.01355217
223	0xbb94a08b	-0.00453574
224	0xbd228f1a	-0.039687254
225	0x3eaf69c8	0.34260392
226	0x3e81d3ef	0.25357005
227	0x3e98d1c3	0.29847535
228	0x3e48b30f	0.19599555
229	0x3ea3a320	0.31960392
230	0xbc93f998	-0.018063352
231	0x3e50b094	0.20379859
232	0x3e9472a7	0.28993723
233	0xbd8b9567	-0.068156056
234	0x3e1ffdb2	0.15624121
235	0x3e8bc5a9	0.2729924
236	0x3e973bed	0.29537907
237	0x3e4b8426	0.1987463
238	0x3d3938e1	0.04522026
239	0xbda18970	-0.07887542
240	0x3e9c0f9c	0.3048066
241	0x3e9677eb	0.29388365
242	0xbc4a889b	-0.012361671
243	0x3c2ec18a	0.0106662605
244	0x3e9ab5ba	0.3021677
245	0x3e82086b	0.25397047
246	0xbd290d25	-0.0412723
247	0x3e6589ce	0.2241585
248	0x3e3c740f	0.18403648
249	0xbc906c24	-0.01762969
250	0x3ea7b1e6	0.32752913
251	0x3dc78144	0.09741452
252	0x3d12e74c	0.035865113
253	0x3e96745c	0.2938565
254	0x3e9137cf	0.2836289
255	0x3c8312a4	0.0160001

output_net.0.bias f4 [64]
0	0xbd54b086	-0.05192616
1	0x3ea6bc13	0.32565364
2	0x3ce26a85	0.027638683
3	0x3e9de209	0.30836514
4	0x3e3ec0b5	0.186282
5	0x3e43dff7	0.19128405
6	0x3e40aea0	0.18816614
7	0x3ce077e4	0.027400918
8	0x3dfea0ce	0.12433015
9	0xbd42c5c4	-0.047551885
10	0x3e772686	0.2413579
11	0x3e4e1aec	0.20127457
12	0xbda01e03	-0.07818224
13	0x3e8ebe4b	0.27879557
14	0x3e90b5d9	0.2826374
15	0x3e0de259	0.13855876
16	0xbd9bb108	-0.076021254
17	0x3e2fa0c8	0.17151177
18	0xbdb8c74a	-0.09022386
19	0x3e416382	0.18885615
20	0xbc5754bd	-0.013142762
21	0xbca651b9	-0.02030264
22	0x3ee4974c	0.4464668
23	0x3e710d38	0.23540199
24	0x3ee87629	0.4540265
25	0x3e9507a2	0.29107386
26	0xbdc78475	-0.09742061
27	0x3d0ac575	0.033879716
28	0x3e7e3630	0.24825358
29	0xbd0997c1	-0.03359199
30	0x3defa28c	0.11700925
31	0x3e5ebce3	0.21751742
32	0x3e28ab08	0.16471493
33	0x3eeaa8af	0.4583182
34	0x3e48b87b	0.19601624
35	0x3e7ece49	0.24883379
36	0x3e591750	0.212003
37	0x3cff8c05	0.031194696
38	0x3e569466	0.20955047
39	0x3e301841	0.17196752
40	0x3e78af38	0.2428559
41	0x3e858fa0	0.2608614
42	0x3e174816	0.14773592
43	0x3e6ffae5	0.23435552
44	0x3e50364d	0.20333214
45	0xbd38a0df	-0.045075294
46	0x3c193fec	0.009353619
47	0xbd0f7ec3	-0.035033
48	0x3e910586	0.28324527
49	0x3e89f34e	0.2694344
50	0x3e2ec7ad	0.17068358
51	0x3e658325	0.22413309
52	0x3ee29621	0.44255164
53	0x3e8551ba	0.26038915
54	0x3e09232a	0.1339232
55	0x3e063ca7	0.13109075
56	0x3e7538fc	0.23947519
57	0x3e95f7ed	0.29290715
58	0xbd900e02	-0.07033922
59	0x3e316bc7	0.1732627
60	0xbdd7857c	-0.10523507
61	0xbd99510e	-0.07486163
62	0x3ef01e1b	0.4689797
63	0x3d4d20e2	0.050080188

output_net.2.weight f4 [1, 64]
0	0x3dd0e994	0.102008015
1	0xbf303b04	-0.6884005
2	0x401f185f	2.4858625
3	0xbf3c8c47	-0.73651546
4	0xbf3e77f2	-0.7440177
5	0xbf35dc43	-0.7103922
6	0xbf2d065c	-0.6758783
7	0x3dd5eb7b	0.10445305
8	0xbf59297c	-0.84828925
9	0x3cfa4bec	0.03055378
10	0xbf3435d9	-0.70394665
11	0x40df7e06	6.9841337
12	0x40286f29	2.6317847
13	0xbf469bc3	-0.77581424
14	0x40600fa7	3.5009553
15	0xbf5a9687	-0.85385936
16	0x40365ab3	2.8492858
17	0xbf486df5	-0.7829278
18	0x3c118123	0.008880886
19	0xbf3d14c5	-0.73859817
20	0x3d75acd7	0.059979286
21	0x3de42355	0.111395516
22	0x408425ed	4.1296296
23	0xbf4e9962	-0.80702794
24	0x40a51122	5.1583414
25	0xbf6a2289	-0.91458946
26	0xbd80f640	-0.062969685
27	0x3de50816	0.11183183
28	0xbf364be5	-0.71209556
29	0x3d8a6f44	0.067595035
30	0xbf5a1e57	-0.85202545
31	0xbf4761ed	-0.778838
32	0xbf485a19	-0.7826248
33	0x408a6b80	4.3256226
34	0xbf5d8ef6	-0.86546266
35	0xbf3b8942	-0.73256314
36	0xbf56b89c	-0.8387544
37	0x3de25c0e	0.11052714
38	0xbf52598f	-0.82167906
39	0xbf484b35	-0.78239757
40	0xbf7dfdb8	-0.9921527
41	0xbf38fed5	-0.7226384
42	0xbf4c685d	-0.79846746
43	0xbf489995	-0.7835935
44	0xbf5f9f51	-0.8735247
45	0xbda8615a	-0.08221693
46	0x3d54bb82	0.051936634
47	0xbd7f9292	-0.06239564
48	0xbf3d44c4	-0.73933053
49	0xbf51b259	-0.8191276
50	0xbf4ac3c5	-0.7920497
51	0xbf4516d6	-0.7698797
52	0x407bacd2	3.932423
53	0xbf3685c2	-0.7129785
54	0xbf4488c0	-0.76771164
55	0xbf5a7433	-0.85333556
56	0xbf5b2fa4	-0.8561957
57	0xbf5c7266	-0.8611206
58	0x40141cbd	2.314254
59	0xbf36eef2	-0.7145835
60	0x404c3632	3.1908078
61	0x3ce4750b	0.027887842
62	0x40545f6b	3.3183239
63	0x3d0f67fc	0.035011277
