Q1/ckpt/critic2_ep200.pth (torch, 38344 bytes, 7 tensors)

state_net.0.weight f4 [64, 3]
-0.7849067 -0.80735725 0.30104002 0.8348751 1.6685555 0.40354615 -0.7073554 -0.61258966
-0.24879858 -1.1373488 1.2213516 0.40651563 -0.18648025 -1.3689493 0.39751095 -0.7415406
0.13672175 0.25081912 -0.4514758 -0.13702184 -0.24536258 -0.9364302 -0.97223973 -0.3237919
-0.8179068 -1.1963613 0.113557525 -1.4517294 -0.25269973 0.2516115 -0.8882844 0.4710477
0.26227102 -0.5459206 -1.2663091 -0.51647377 -0.3528354 0.91462755 0.64489746 0.16492547
-1.7906237 -0.37517235 0.7375704 -2.2151315 -0.48673514 0.41928995 2.266016 0.47383144
-0.85268456 -1.0783902 0.6757975 0.359515 -0.4681858 0.26550463 1.2876102 -0.27119288
0.097468436 -0.38442916 -0.8857246 0.22993518 -1.1601548 0.44157407 -0.39127016 -1.0162215
-0.7918717 -0.37294266 -0.6227075 0.36412254 0.7678705 -0.4488088 1.64655 0.37400538
-0.92720914 0.16574141 0.68648374 -0.8777235 0.5017841 0.3960934 -0.9549882 -0.54430497
-0.35443568 -1.201437 0.8746888 0.37973315 -0.3757905 -0.04598498 0.25968802 -1.1442904
1.0863504 0.39076698 -0.6321566 -2.1877291 -0.3959989 1.0280039 0.20896095 -0.11456258
1.7006562 -0.6175981 -0.42903444 -0.90884936 -0.9483443 0.20974632 -0.21100603 0.7333226
-0.29784098 -1.5609233 -1.0270123 -0.49652722 -0.796213 0.5923122 -0.29187715 -0.81339514
0.11955772 0.32922396 -0.8647828 -1.113542 -0.32797956 -1.171208 -0.5864691 -0.32993272
-0.50391364 1.4837557 -0.07872539 -0.48305872 -0.041899703 0.7135242 -0.21882015 -0.65655154
-0.6192101 -0.82265425 -1.4546258 0.2754378 -0.87281364 0.29605618 0.2444206 -0.76128906
-1.3435497 -0.34341848 -0.67734855 0.5067881 -0.5355894 -0.71335995 1.560608 0.37797666
-0.9706832 -1.5190167 -0.40994027 -0.4542055 -0.057900168 0.79104096 -0.7826054 1.2184291
0.3332914 0.80404145 -0.800919 -0.072445154 -0.2320311 -0.56844324 0.45899478 -0.9025237
1.0172083 0.5334769 -0.5981363 -0.38266373 -0.54727143 -1.8017054 -0.60449946 -0.3775891
-1.7418416 0.3560615 -0.28759792 -0.6840053 0.9241729 0.2699695 -0.5898605 -0.3200058
-0.2639893 -1.096076 0.79536086 -0.26691157 1.8032073 0.5534776 0.146904 0.09386978
1.1660252 0.002108137 0.43531358 0.5835874 0.43267104 -0.073473945 1.9452047 0.37253335
00000000: a5ef 48bf f7ae 4ebf eb21 9a3e 60ba 553f
00000010: 3a93 d53f 9a9d ce3e 3e15 35bf add2 1cbf
00000020: 0ec5 7ebe a594 91bf 4055 9c3f d122 d03e
00000030: aef4 3ebe bb39 afbf 8e86 cb3e 9bd5 3dbf
00000040: c900 0c3e 5d6b 803e d627 e7be 744f 0cbe
00000050: 5440 7bbe e4b9 6fbf b4e4 78bf 0dc8 a5be
00000060: 5762 51bf 5e22 99bf d990 e83d 45d2 b9bf
00000070: dc61 81be 39d3 803e 9b66 63bf 2a2d f13e
00000080: 6348 863e 74c1 0bbf 6b16 a2bf a037 04bf
00000090: d7a6 b4be 0825 6a3f 0018 253f 39e2 283e
000000a0: 2833 e5bf 9716 c0be 6ad1 3c3f b7c4 0dc0
000000b0: 5935 f9be 2cad d63e 6806 1140 099a f23e
000000c0: 8949 5abf b108 8abf 1101 2d3f 5a12 b83e
000000d0: 0db6 efbe 39f0 873e 69d0 a43f cbd9 8abe
000000e0: 889d c73d e6d3 c4be d9be 62bf 2174 6b3e
000000f0: f47f 94bf ff15 e23e 9054 c8be 8c13 82bf
00000100: 1bb8 4abf 57f2 bebe c269 1fbf 456e ba3e
00000110: 2993 443f 44ca e5be 27c2 d23f a27d bf3e
00000120: 945d 6dbf 1eb8 293e 66bd 2f3f 7db2 60bf
00000130: ec74 003f c1cc ca3e 1b7a 74bf 9257 0bbf
00000140: 9878 b5be b0c8 99bf 9beb 5f3f 626c c23e
00000150: 9d67 c0be bf5a 3cbd d4f5 843e 1c78 92bf
00000160: 880d 8b3f 9c12 c83e 04d5 21bf c103 0cc0
00000170: 5ec0 cabe a295 833f dcf9 553e c99f eabd
00000180: 1aaf d93f e91a 1ebf 67aa dbbe 5aaa 68bf
00000190: b1c6 72bf bdc7 563e f711 58be 08bb 3b3f
000001a0: 9d7e 98be 56cc c7bf 2475 83bf d138 febe
000001b0: 9dd4 4bbf c6a1 173f ec70 95be aa3a 50bf
000001c0: aeda f43d 0b90 a83e 6862 5dbf 8b88 8ebf
000001d0: f0ec a7be 25ea 95bf d722 16bf f1ec a8be
000001e0: 7c00 01bf b5eb bd3f c73a a1bd 7953 f7be
000001f0: 069f 2bbd 86a9 363f 6412 60be c313 28bf
00000200: 8e84 1ebf 7899 52bf 2e31 babf 2f06 8d3e
00000210: b770 5fbf ad94 973e 6549 7a3e d7e3 42bf
00000220: 70f9 abbf 8cd4 afbe b766 2dbf ddbc 013f
00000230: 631c 09bf c29e 36bf 01c2 c73f 2886 c13e
00000240: b27e 78bf 246f c2bf b1e3 d1be a08d e8be
00000250: ba28 6dbd a981 4a3f d458 48bf 7cf5 9b3f
00000260: 2ca5 aa3e a9d5 4d3f 0709 4dbf 205e 94bd
00000270: 9099 6dbe 7f85 11bf 5d01 eb3e cb0b 67bf
00000280: e233 823f f191 083f 761f 19bf 80ec c3be
00000290: fb19 0cbf 489e e6bf 7ac0 1abf 5c53 c1be
000002a0: aaf4 debf b14d b63e 0940 93be f91a 2fbf
000002b0: 9896 6c3f 7139 8a3e 1901 17bf cdd7 a3be
000002c0: 9b29 87be 384c 8cbf c59c 4b3f a2a8 88be
000002d0: 7fcf e63f b5b0 0d3f 016e 163e cd3e c03d
000002e0: 5040 953f ab28 0a3b 6ce1 de3e fc65 153f
000002f0: 0f87 dd3e 8279 96bd 78fc f83f b1bc be3e

state_net.0.bias f4 [64]
-0.8111687 -0.81473756 0.85353297 1.0997813 1.9782287 1.0669067 1.3296851 0.96594363
0.74626815 0.3589623 0.8999259 -0.29348618 -0.48883417 -0.12729695 -0.5607884 -0.42362976
-0.48165032 0.45734158 0.43230665 1.184965 0.39772755 1.4143106 -0.573581 -0.38281715
1.5760975 -0.908457 1.5424466 1.1979645 1.4469842 1.1195757 -0.4408953 1.3228436
-1.2826388 0.90688205 1.1753366 0.33990186 -0.07069763 1.533782 0.88239354 -1.0346377
0.5190168 -0.46203732 1.1024116 0.7876302 0.88895935 0.7668148 -0.39125693 0.6626296
0.9837342 -0.39942005 0.7338256 1.2927221 0.73918784 -0.20704518 -0.35155988 0.17129262
0.2354729 0.6475237 1.2740444 0.43952036 0.5785458 1.1545935 0.12062522 0.04535825
00000000: c0a8 4fbf a492 50bf 2381 5a3f a2c5 8c3f
00000010: 9936 fd3f 6690 883f 1f33 aa3f 1548 773f
00000020: 6e0b 3f3f e8c9 b73e 8b61 663f d243 96be
00000030: 7948 fabe 225a 02be d48f 0fbf 00e6 d8be
00000040: df9a f6be ad28 ea3e 4c57 dd3e efac 973f
00000050: f2a2 cb3e 2108 b53f 34d6 12bf 9c00 c4be
00000060: 90bd c93f a390 68bf e46e c53f e756 993f
00000070: c736 b93f 424e 8f3f 07bd e1be f052 a93f
00000080: 822d a4bf 6c29 683f 6e71 963f 9e07 ae3e
00000090: ebc9 90bd f852 c43f 8be4 613f 026f 84bf
000000a0: 49de 043f 2890 ecbe d31b 8d3f 22a2 493f
000000b0: d792 633f fa4d 443f d452 c8be 18a2 293f
000000c0: 01d6 7b3f c980 ccbe ffdb 3b3f eb77 a53f
000000d0: 6a3b 3d3f a703 54be a8ff b3be 5567 2f3e
000000e0: cf1f 713e 1dc4 253f e313 a33f d008 e13e
000000f0: 941b 143f b8c9 933f 5b0a f73d 93c9 393d

action_net.0.weight f4 [64, 1]
-0.9369225 -0.16324341 -0.2557088 0.14330828 0.06018102 0.6897814 -0.288005 0.021855056
0.42261118 -0.048014402 -0.65676343 0.6651931 -1.0352428 0.06727421 0.50615215 -0.533251
0.74339044 0.6228317 0.89156085 0.84441966 -0.27574146 -0.03212583 0.63983816 -1.308549
0.6881306 0.9888784 -0.671078 -0.20256342 -0.120503165 -0.28605157 1.1272299 0.24223006
0.59872776 0.19088805 -0.91008 0.10391128 0.17222059 -0.055541843 -0.6762638 -0.33431405
0.10328066 0.19046418 0.08966613 0.40111852 -0.20781302 -0.38246036 0.53116333 0.6501498
0.91354364 -0.3132471 -0.55307114 0.91361743 -0.0054952055 -0.22984564 0.33830553 0.6107042
0.539036 -0.49309957 0.48087668 -0.8863643 0.32545114 -0.6347301 -0.9806982 -0.7791394
00000000: 27da 6fbf 4829 27be 44ec 82be 68bf 123e
00000010: 6080 763d 8495 303f 6475 93be 6009 b33c
00000020: 7e60 d83e c0aa 44bd a621 28bf 184a 2a3f
00000030: d682 84bf 10c7 893d 3093 013f 2383 08bf
00000040: d64e 3e3f e671 1f3f 553d 643f e32b 583f
00000050: fc2d 8dbe 6096 03bd 6fcc 233f 897e a7bf
00000060: 5429 303f 2327 7d3f c5cb 2bbf c96c 4fbe
00000070: 5dca f6bd 5a75 92be 1249 903f 280b 783e
00000080: 3946 193f 2878 433e 01fb 68bf 70cf d43d
00000090: 985a 303e d87f 63bd a01f 2dbf 362b abbe
000000a0: d084 d33d 0b09 433e e0a2 b73d 685f cd3e
000000b0: f0cc 54be d8d1 c3be 52fa 073f 3870 263f
000000c0: ffdd 693f ed61 a0be 1296 0dbf d5e2 693f
000000d0: 2011 b4bb a85c 6bbe 6236 ad3e 1c57 1c3f
000000e0: 43fe 093f 8c77 fcbe 7835 f63e c5e8 62bf
000000f0: 88a1 a63e ac7d 22bf 0a0f 7bbf ae75 47bf

action_net.0.bias f4 [64]
-0.76351917 -0.20725071 -0.649711 1.122997 -0.48115325 1.4779792 -0.38329542 1.3192269
-0.36024478 -0.122124195 1.0102481 0.7938817 0.8538265 -0.89275503 0.4776559 1.2177655
-0.931473 -0.72170794 1.2604097 -0.29203522 0.59361786 -0.9741827 0.87352914 -0.17652117
0.97852457 0.8323171 1.3624079 1.2269436 0.9992384 0.69867086 0.17276183 -0.26136887
-0.6068232 -0.6982384 1.0963411 -0.720119 -0.7354337 1.089582 -0.74206483 1.4304831
-0.97662437 0.5877959 -0.5563369 -0.62021184 -0.8853539 -0.4537195 -0.437047 -0.98683846
-0.28756988 -0.33089697 -0.7926768 -0.91358453 1.4146307 -0.36784518 0.6858576 0.6985798
1.1715012 -0.79316306 -0.81832206 1.039367 -0.3611982 -0.96442235 -0.98136914 0.83748215
00000000: fe75 43bf 8839 54be 7653 26bf 5ebe 8f3f
00000010: b859 f6be 6c2e bd3f 4c3f c4be 6ddc a83f
00000020: 0172 b8be 401c fabd cf4f 813f d53b 4b3f
00000030: 6094 5a3f 988b 64bf 508f f43e bddf 9b3f
00000040: 0475 6ebf dac1 38bf 1b55 a13f a485 95be
00000050: 57f7 173f 0a64 79bf 9b9f 5f3f f7c1 34be
00000060: 9680 7a3f bc12 553f 6263 ae3f 7d0c 9d3f
00000070: 16ce 7f3f 18dc 323f 7ae8 303e 24d2 85be
00000080: c458 1bbf c0bf 32bf e854 8c3f b859 38bf
00000090: 6245 3cbf 6c77 8b3f f6f7 3dbf 121a b73f
000000a0: 0e04 7abf cb79 163f 186c 0ebf 34c6 1ebf
000000b0: 8ea6 62bf ec4d e8be a0c4 dfbe 72a1 7cbf
000000c0: 5c3c 93be 546b a9be deec 4abf ade0 69bf
000000d0: 9e12 b53f 3456 bcbe 5d94 2f3f 20d6 323f
000000e0: c0f3 953f bc0c 4bbf 8e7d 51bf fa09 853f
000000f0: f8ee b8be 62e4 76bf 023b 7bbf 3b65 563f

output_net.0.weight f4 [64, 128]
-0.30021554 0.55929637 0.3885074 0.16120027 0.41995662 0.5177118 0.62043446 0.38079137
0.5067046 0.49736974 0.32283875 -0.18528774 -0.14502238 0.39289376 0.2730508 0.25877106
-0.0808565 0.07773689 0.78698546 0.39889175 0.15958774 0.37559858 -0.044457715 -0.4103158
-0.05509787 -0.40721637 0.4828433 0.30426753 0.28443444 0.21840216 -0.69016814 0.5447876
0.87036073 0.45281357 0.24648498 0.011536067 -0.038750414 0.38984767 0.2998241 -0.35791084
0.3683334 -0.1267168 0.12636763 0.544158 0.3715529 0.2904695 -0.17715397 0.3130025
0.22779597 -0.03169735 0.30159032 0.4492541 -0.019351345 0.032173973 -0.043329738 0.009473966
0.4277301 0.3485851 0.54240113 0.3684232 0.68253183 0.3859083 -0.22087613 0.23369704
-0.14744145 -0.07060499 -0.040328264 0.31055775 -0.034027457 0.34182656 -0.05372052 0.41834095
-0.17069775 0.033791635 0.3841496 0.34756303 0.36943337 -0.009241002 0.12971517 0.41179806
-0.016633138 -0.040897153 0.3154805 0.0747247 0.48492593 -0.038241047 0.33516288 -0.018901218
0.36518362 0.36694878 0.27832344 0.35471648 0.4120189 0.3682257 0.08244081 -0.005202786
0.049954023 -0.06536521 0.3274826 0.060138885 0.03318025 0.42827487 -0.004248265 0.33077043
0.04773398 0.4090939 0.073327415 -0.023269065 -0.05843727 0.03248284 -0.1867003 -0.018600099
0.06750085 -0.07164637 -0.06358492 0.075934455 0.36506867 -0.024839561 0.29497382 0.31173795
0.32761678 -0.012414965 -0.041669503 0.31217223 0.05957478 -0.048980515 -0.055015765 0.41785422
0.025048861 0.03166634 -0.03517029 -0.068501905 -0.06530084 0.07179291 0.013899725 -0.054249104
0.07619636 0.080907784 -0.01108951 0.023306955 0.0023480642 -0.022118907 -0.016525906 -0.06188901
0.03695617 0.08630109 0.07746217 0.0453779 -0.07218971 -0.04115211 -0.036034945 0.08604302
-0.07494053 0.06733367 -0.0717161 0.016533902 -0.073464066 -0.04825969 0.06323338 -0.043142494
-0.074661255 -0.07026653 -0.025739733 -0.056889374 -0.0062299995 -0.035199247 -0.080185324 0.054090083
0.01851373 0.07191307 -0.02170432 0.0025706417 -0.0015545549 -0.031221036 -0.07328962 -0.07442145
-0.050359152 -0.07534593 0.07456164 0.044065543 0.06138308 -0.08433767 -0.044555 0.016793864
-0.055698607 0.049950883 -0.007966112 -0.010416246 0.0014786273 0.059605937 0.03188211 -0.021692803
-0.04508049 0.06926632 -0.031995695 0.08793411 0.007121595 0.065643065 0.0029528502 0.057491735
-0.067862034 -0.019808745 -0.05363276 -0.06957338 -0.0704362 0.083347686 0.040731777 0.014772512
-0.00560689 0.011969199 -0.04939679 -0.05709266 -0.06308871 0.080477856 -0.055304524 -0.05448828
-0.041425135 -0.01195744 -0.080981635 0.06950526 -0.06222015 -0.04441929 -0.05636042 -0.02778415
-0.07306509 -0.02972066 -0.028431568 -0.072783016 -0.022372294 -0.0049919677 -0.010254634 -0.029324165
-0.014898142 -0.06642178 -0.070839055 -0.072863996 0.0476495 0.0047004484 -0.033332866 -0.053338207
-0.02958381 -0.019487744 -0.0071428157 -0.0802829 -0.05477864 0.08153259 -0.040863276 -0.010067965
0.04285131 0.086357065 -0.039226167 -0.005984589 0.048772186 0.021001078 0.04852586 0.03281754
00000000: dab5 99be 0c2e 0f3f 71ea c63e af11 253e
00000010: 8e04 d73e c388 043f cbd4 1e3f 16f7 c23e
00000020: 65b7 013f 3fa7 fe3e 1f4b a53e 12bc 3dbe
00000030: bf80 14be 5f29 c93e 51cd 8b3e a47d 843e
00000040: 1898 a5bd 8534 9f3d e177 493f 8a3b cc3e
00000050: f86a 233e 754e c03e 4b19 36bd ea14 d2be
00000060: 4eae 61bd aa7e d0be 3d37 f73e f4c8 9b3e
00000070: 64a1 913e d1a4 5f3e dcae 30bf 3377 0b3f
00000080: f6cf 5e3f 2ed7 e73e 8f66 7c3e c601 3d3c
00000090: c1b8 1ebd 1d9a c73e 8b82 993e 1740 b7be
000000a0: 3296 bc3e 0cc2 01be 8466 013e f04d 0b3f
000000b0: 2f3c be3e 6bb8 943e da67 35be dd41 a03e
000000c0: 5943 693e 15d5 01bd 0c6a 9a3e a204 e63e
000000d0: b686 9ebc dbc8 033d 867a 31bd b238 1b3c
000000e0: 71ff da3e bf79 b23e cdda 0a3f f7a1 bc3e
000000f0: 68ba 2e3f c695 c53e 5a2d 62be 474e 6f3e
00000100: e4fa 16be 5999 90bd 402f 25bd 6d01 9f3e
00000110: 6060 0bbd e403 af3e 0c0a 5cbd c930 d63e
00000120: 64cb 2ebe 1969 0a3d 42af c43e c8f3 b13e
00000130: 5f26 bd3e 9267 17bc 0ed4 043e 32d7 d23e
00000140: 3842 88bc c683 27bd a986 a13e 4309 993d
00000150: 3648 f83e a5a2 1cbd 789a ab3e bad6 9abc
00000160: 59f9 ba3e b6e0 bb3e 6980 8e3e 669d b53e
00000170: 24f4 d23e 1488 bc3e bad6 a83d 227c aabb
00000180: 979c 4c3d 32de 85bd cdab a73e 3154 763d
00000190: 04e8 073d d846 db3e 0835 8bbb be5a a93e
000001a0: b584 433d c174 d13e af2c 963d c49e bebc
000001b0: eb5b 6fbd ba0c 053d 5d2e 3fbe 3c5f 98bc
000001c0: e33d 8a3d 55bb 92bd cf38 82bd 8683 9b3d
000001d0: 48ea ba3e 567c cbbc cf06 973e 1e9c 9f3e
000001e0: 63bd a73e 2368 4bbc a4ad 2abd 0ad5 9f3e
000001f0: af04 743d cb9f 48bd 3658 61bd fdf0 d53e
00000200: 4533 cd3c 90b4 013d b90e 10bd ba4a 8cbd
00000210: 72bc 85bd 2908 933d acbb 633c 4f34 5ebd
00000220: d60c 9c3d fbb2 a53d c7b0 35bc 3aee be3c
00000230: fbe1 193b b632 b5bc 5661 87bc 557f 7dbd
00000240: 5a5f 173d a0be b03d 7ca4 9e3d 2dde 393d
00000250: 33d8 93bd 1d8f 28bd 6199 13bd 5337 b03d
00000260: 6c7a 99bd 3ce6 893d e4df 92bd 1b72 873c
00000270: 5474 96bd f4ab 45bd 8180 813d 2fb6 30bd
00000280: 00e8 98bd e6e7 8fbd 22dc d2bc d504 69bd
00000290: 0625 ccbb 162d 10bd 3438 a4bd 908d 5d3d
000002a0: 1baa 973c 2947 933d 42cd b1bc 3678 283b
000002b0: 35c2 cbba 42c3 ffbc de18 96bd 466a 98bd
000002c0: 6645 4ebd f84e 9abd c6b3 983d 127e 343d
000002d0: d36c 7b3d 3ab9 acbd 4e7f 36bd 4993 893c
000002e0: 3924 64bd 4c99 4c3d 4c84 02bc e7a8 2abc
000002f0: 80ce c13a 5b25 743d d196 023d 1bb5 b1bc
00000300: 52a6 38bd 80db 8d3d eb0d 03bd cc16 b43d
00000310: 455c e93b df6f 863d 9b84 413b 747c 6b3d
00000320: 40fb 8abd f345 a2bc 06ae 5bbd 7d7c 8ebd
00000330: db40 90bd 31b2 aa3d 5dd6 263d 6808 723c
00000340: 01ba b7bb 761a 443c 4a54 4abd fed9 69bd
00000350: a734 81bd 93d1 a43d ff86 62bd 1a2f 5fbd
00000360: 67ad 29bd 23e9 43bc b3d9 a5bd c658 8e3d
00000370: 8eda 7ebd 00f1 35bd 2fda 66bd 969b e3bc
00000380: 26a3 95bd be78 f3bc 52e9 e8bc 430f 95bd
00000390: 1a46 b7bc a993 a3bb 0d03 28bc 3b39 f0bc
000003a0: 5617 74bc 2408 88bd 1114 91bd b839 95bd
000003b0: 1f2c 433d 3806 9a3b 0b88 08bd 2a79 5abd
000003c0: bf59 f2bc c3a4 9fbc 480e eabb 5c6b a4bd
000003d0: 915f 60bd 8ffa a63d 4060 27bd 1bf4 24bc
000003e0: db84 2f3d f9db b03d 9eab 20bd 5f1a c4bb
000003f0: 58c5 473d 740a ac3c 0dc3 463d af6b 063d

output_net.0.bias f4 [64]
0.37075827 0.037013877 0.3362155 0.45120752 0.24968791 0.29975408 0.09106272 0.29938385
-0.027709125 0.26514146 0.03910312 -0.058918588 0.30901673 0.30080485 0.009727617 0.4251962
0.4288884 -0.055743303 -0.0080848895 -0.079615526 0.050155744 0.41135675 0.12777112 -0.07786105
-0.039424077 0.31460676 -0.11723978 -0.024160918 0.40111166 0.034382816 0.4539663 0.022237806
0.34091783 0.43890828 0.53323585 0.33512756 0.26061526 0.29050303 0.38401496 -0.033124033
0.037286703 0.4129028 0.44944772 0.05910973 0.07294778 0.27661014 0.03418159 0.09962821
0.11491379 0.36547825 0.058168113 0.31940144 0.4162452 0.5321524 0.055772644 0.35571155
0.001490465 0.40276268 0.07225871 0.3827347 0.33923504 -0.042913105 0.44688514 0.4270151
00000000: 07d4 bd3e dd9b 173d 7024 ac3e ac04 e73e
00000010: 30ae 7f3e 5e79 993e 177f ba3d d748 993e
00000020: 3ffe e2bc 9fc0 873e 982a 203d 9e54 71bd
00000030: 7137 9e3e 1803 9a3e 9560 1f3c 51b3 d93e
00000040: 4397 db3e 1753 64bd 7c76 04bc 770d a3bd
00000050: 1c70 4d3d 5a9d d23e 6fd6 023e 9d75 9fbd
00000060: 247b 21bd 2314 a13e 691b f0bd 1eed c5bc
00000070: 825e cd3e ffd4 0c3d 456e e83e 0f2c b63c
00000080: c88c ae3e 96b8 e03e 2582 083f d795 ab3e
00000090: 5d6f 853e d0bc 943e 9c9d c43e 11ad 07bd
000000a0: f1b9 183d ff67 d33e 031e e63e 0b1d 723d
000000b0: a565 953d d89f 8d3e ff01 0c3d e009 cc3d
000000c0: ec57 eb3d f71f bb3e b041 6e3d 9688 a33e
000000d0: 171e d53e 243b 083f db71 643d d31f b63e
000000e0: b55b c33a e936 ce3e 60fc 933d cdf5 c33e
000000f0: 37b0 ad3e a7c5 2fbd 21ce e43e b9a1 da3e

output_net.2.weight f4 [1, 64]
-0.62927467 0.11558345 -0.687765 -0.5770846 -0.6467734 -0.69162667 1.2459912 -0.6053742
1.2253519 1.4988414 0.10071038 1.6000124 -0.7041497 3.6317887 1.1034185 -0.6768844
-0.6908903 0.09477776 0.046737116 0.07438771 0.08654483 -0.6206411 1.1468501 0.58390266
0.047913976 -0.6259176 1.1824869 0.02878387 -0.63638073 0.9832849 -0.61513424 0.037926108
-0.6693539 -0.6365855 -0.6891539 -0.71324563 1.3940984 -0.69568884 -0.5928713 1.2315083
0.08306331 -0.7011776 -0.58514833 1.150675 1.3119055 1.3169423 0.104658596 1.1036774
1.0059937 -0.68439907 0.04497828 -0.6840858 -0.65243787 -0.63733155 0.06301441 -0.6617011
0.058497306 -0.570703 0.042867225 -0.70034903 6.300903 0.08357521 -0.6682487 -0.7242728
00000000: 2518 21bf 04b7 ec3d 5e11 30bf d1bb 13bf
00000010: f192 25bf 720e 31bf a47c 9f3f cef9 1abf
00000020: 55d8 9c3f 09da bf3f 3e41 ce3d 35cd cc3f
00000030: 2843 34bf 3a6f 6840 d13c 8d3f 4c48 2dbf
00000040: 30de 30bf d81a c23d 6b6f 3f3d 9558 983d
00000050: 6a3e b13d 56e2 1ebf fccb 923f a57a 153f
00000060: 7241 443d 233c 20bf bb5b 973f 27cc eb3c
00000070: d9e9 22bf 8fb8 7b3f 7079 1dbf 6858 1b3d
00000080: c75a 2bbf 44f7 22bf 646c 30bf 4497 36bf
00000090: d171 b23f aa18 32bf 6ac6 17bf 10a2 9d3f
000000a0: 191d aa3d 6080 33bf 48cc 15bf 5249 933f
000000b0: 85ec a73f 9191 a83f 3f57 d63d 4d45 8d3f
000000c0: 67c4 803f c734 2fbf 253b 383d 3f20 2fbf
000000d0: 2b06 27bf 2928 23bf b30d 813d 3e65 29bf
000000e0: df9a 6f3d 9819 12bf 8b95 2f3d 134a 33bf
000000f0: ffa0 c940 7b29 ab3d 5912 2bbf f169 39bf
