Q1/ckpt/critic2_ep400.pth (torch, 38344 bytes, 7 tensors)

state_net.0.weight f4 [64, 3]
-1.1339624 -0.7091119 0.3090615 1.2224354 2.0038254 0.48814988 -0.98927885 -0.8071225
-0.31388786 -1.1956196 1.6050997 0.46651542 -0.2603393 -1.2192004 0.39882785 -0.8124439
0.17701484 0.24388967 -0.7585563 -0.21240287 -0.28507373 -1.1270642 -1.1778119 -0.39737424
-0.9162476 -1.3618623 0.14780493 -2.2177684 0.05176652 0.2590382 -0.97223455 0.41446862
0.24885058 -0.97575873 -2.0004256 -0.47911665 -0.3611748 0.9296605 0.7631153 -0.23168573
-2.5465062 -0.4974732 0.87919015 -2.9608274 -0.66633654 0.8318966 2.6369343 0.5481717
-1.1301475 -0.95780396 0.73436147 0.6488158 -0.07042072 0.37714404 1.3240298 -0.42908397
0.092178844 -0.43561047 -0.9012467 0.18960117 -2.0033336 -0.2680389 -0.59071827 -1.4037952
-1.031235 -0.43523848 -1.0152233 0.38864204 0.83800685 -0.88824266 1.9300772 0.3915199
-0.7194968 0.7610244 0.6225414 -1.6429466 0.5237503 0.45123434 -1.3462645 -0.66440827
-0.3922759 -1.268155 1.1377733 0.402812 -0.574539 0.045564353 0.26618522 -1.2072568
1.3991475 0.42621502 -0.5761568 -2.609592 -0.57024974 1.0085602 0.09188005 -0.05524458
1.6942133 -1.3373046 -0.44523022 -1.0864614 -0.9692287 0.16795804 -0.02373885 1.3811464
-0.45422792 -1.6330761 -1.9231777 -0.5948662 -0.9792203 0.42478043 -0.48991767 -0.970924
0.1640782 0.31990227 -1.2514071 -1.3948864 -0.41923818 -1.0807819 -0.50360125 -0.48428738
-0.64344233 1.8298856 -0.058562066 -0.53534466 0.07277983 0.8105836 0.47891557 -0.8538757
-0.86452615 -0.9457477 -1.6805257 0.2854323 -1.0105368 -0.11457757 0.21795912 -1.1328336
-1.8286704 -0.43372384 -0.93277985 0.49710286 -0.6724317 -0.79114217 1.8273755 0.44579265
-1.4445188 -1.8592381 -0.5049338 -0.5046192 0.11770145 0.88350815 -0.84563756 1.5136148
0.3930054 0.825383 -1.1322838 -0.08185707 0.056019034 -0.4820257 0.37595162 -1.1436803
1.091404 0.64279306 -0.4247003 -0.5626502 -0.6861051 -2.2441366 -1.016259 -0.5469181
-2.146989 -0.2388279 -0.36783472 -0.73556364 1.1813713 0.3194705 -0.80064064 -0.27972174
-0.29258743 -1.4454457 0.81795746 -0.26658192 1.8740402 0.61436933 0.16152635 0.19399382
1.1631745 0.03752769 0.52792835 1.2898281 0.48966843 0.004523619 2.3749294 0.47802162
00000000: ae25 91bf 5c88 35bf 4f3d 9e3e c378 9c3f
00000010: ad3e 0040 c8ee f93e 6141 7dbf 959f 4ebf
00000020: e9b5 a0be 100a 99bf e873 cd3f 1cdb ee3e
00000030: 314b 85be c20e 9cbf 2a33 cc3e 53fc 4fbf
00000040: 6143 353e 37be 793e bf30 42bf 2380 59be
00000050: 2ff5 91be a443 90bf 8ac2 96bf a374 cbbe
00000060: 348f 6abf 8151 aebf 2d5a 173e ebef 0dc0
00000070: 2109 543d a8a0 843e 5de4 78bf 3b35 d43e
00000080: b0d2 7e3e 53cb 79bf f906 00c0 c74e f5be
00000090: e7eb b8be 3bfe 6d3f 865b 433f 063f 6dbe
000000a0: f5f9 22c0 cfb4 febe 9b12 613f 327e 3dc0
000000b0: 0895 2abf 2df7 543f 88c3 2840 fb54 0c3f
000000c0: aca8 90bf a432 75bf 1dff 3b3f cb18 263f
000000d0: bd38 90bd 0619 c13e cf79 a93f e5b0 dbbe
000000e0: 43c8 bc3d 5608 dfbe 1bb8 66bf cf26 423e
000000f0: 9e36 00c0 653c 89be 5039 17bf 90af b3bf
00000100: 82ff 83bf 94d7 debe d6f2 81bf 17fc c63e
00000110: 9e87 563f df63 63bf c50c f73f 4c75 c83e
00000120: f130 38bf 7fd2 423f e05e 1f3f 134c d2bf
00000130: 8014 063f 3008 e73e 6552 acbf a916 2abf
00000140: 63d8 c8be e752 a2bf 8ea2 913f 603d ce3e
00000150: fd14 13bf b0a1 3a3d 6e49 883e 6487 9abf
00000160: 4417 b33f db38 da3e 037f 13bf 8e03 27c0
00000170: e3fb 11bf 8018 813f 9c2b bc3d 2448 62bd
00000180: fbdb d83f cc2c abbf 37f5 e3be 2b11 8bbf
00000190: 5f1f 78bf 31fd 2b3e fa77 c2bc 68c9 b03f
000001a0: 9090 e8be a308 d1bf b02a f6bf 2749 18bf
000001b0: 2eae 7abf d27c d93e 7dd6 fabe 7a8e 78bf
000001c0: 1e04 283e 3bca a33e 1c2e a0bf a38b b2bf
000001d0: 63a6 d6be 1057 8abf 03ec 00bf 84f4 f7be
000001e0: a3b8 24bf b139 ea3f c7de 6fbd 590c 09bf
000001f0: 970d 953d 6882 4f3f 6c34 f53e 9997 5abf
00000200: 9651 5dbf 851c 72bf 771b d7bf 2f24 923e
00000210: 4559 81bf a5a7 eabd ad30 5f3e b100 91bf
00000220: df11 eabf 0d11 debe a9ca 6ebf 4484 fe3e
00000230: 7c24 2cbf 4b88 4abf 71e7 e93f ef3e e43e
00000240: fee5 b8bf 84fb edbf 5743 01bf b92e 01bf
00000250: 750d f13d 972d 623f b47b 58bf 21be c13f
00000260: 0138 c93e 4d4c 533f adee 90bf aea4 a7bd
00000270: 3774 653d 13cc f6be bb7c c03e 1e64 92bf
00000280: 20b3 8b3f 168e 243f 5172 d9be d809 10bf
00000290: 95a4 2fbf ef9f 0fc0 c614 82bf d302 0cbf
000002a0: 4568 09c0 4d8f 74be d554 bcbe e64d 3cbf
000002b0: 2d37 973f a391 a33e c9f6 4cbf b037 8fbe
000002c0: 05ce 95be 5d04 b9bf a965 513f 6d7d 88be
000002d0: 8de0 ef3f 4f47 1d3f 2a67 253e 51a6 463e
000002e0: e7e2 943f a3b6 193d 5026 073f 1619 a53f
000002f0: d2b5 fa3e de3a 943b d8fe 1740 40bf f43e

state_net.0.bias f4 [64]
-0.9899408 -0.9373717 1.0339645 1.061647 2.0226412 1.122938 1.3726766 1.233618
1.0110078 0.5076681 1.0035858 0.26042783 -0.36941934 -0.17817768 -0.6504321 -0.52951777
-0.5617886 0.48907244 0.30462822 1.2357287 0.21749982 1.4867887 -0.6154733 -0.1314408
1.8682419 -0.85869014 1.4862247 1.1981046 1.4411211 1.0824785 -0.23593771 1.2347217
-1.5498135 1.1624148 1.3544812 0.9611577 -0.1892484 1.5485045 1.1120275 -1.1391636
0.4696176 -0.39335832 1.3022451 1.0579637 1.0419174 0.8286849 -0.46302143 0.6883145
1.1939871 -0.3055235 0.7065248 1.1452243 1.0249822 -0.13950607 -0.081886604 0.22590585
0.8092807 0.625145 1.3699312 0.37025464 0.4712965 1.2573421 0.12708522 -0.034430668
00000000: c36c 7dbf 97f7 6fbf f358 843f 0de4 873f
00000010: f472 0140 6fbc 8f3f deb3 af3f 32e7 9d3f
00000020: b468 813f 89f6 013f 8075 803f cc56 853e
00000030: 8824 bdbe 3674 36be b882 26bf 7a8e 07bf
00000040: 61d1 0fbf b467 fa3e 3bf8 9b3e 5c2c 9e3f
00000050: 46b8 5e3e 184f be3f a88f 1dbf 6b98 06be
00000060: 8d22 ef3f 1ed3 5bbf 9c3c be3f 7e5b 993f
00000070: a876 b83f a88e 8a3f a899 71be 5c0b 9e3f
00000080: 4a60 c6bf 02ca 943f a45f ad3f 6e0e 763f
00000090: 55ca 41be 6535 c63f eb56 8e3f 1dd0 91bf
000000a0: b871 f03e 4366 c9be f8af a63f 5b6b 873f
000000b0: 8d5d 853f b224 543f 2511 edbe 6135 303f
000000c0: 92d4 983f 946d 9cbe cfde 343f b696 923f
000000d0: 9e32 833f aeda 0ebe 2ab4 a7bd dd53 673e
000000e0: 052d 4f3f 8109 203f e859 af3f 0492 bd3e
000000f0: c64d f13e 96f0 a03f a122 023e 2c07 0dbd

action_net.0.weight f4 [64, 1]
-1.1040286 -0.16324341 -0.2557088 0.107705675 0.06018102 0.6598241 -0.288005 -0.022869397
0.48476753 -0.048014402 -0.7559774 0.69230574 -1.4067869 0.06727421 0.5580295 -0.6107454
0.74339044 0.6228317 0.8809393 0.94514126 -0.35013732 -0.03212583 0.6566506 -1.9104332
0.6874887 1.0755575 -0.7572717 -0.25655735 -0.19279988 -0.36110842 1.2853198 0.24223006
0.59872776 0.19088805 -1.0134559 0.10391128 0.17222059 -0.12905306 -0.6762638 -0.40217623
0.10328066 0.16525465 0.08966613 0.40111852 -0.20781302 -0.38246036 0.59475 0.6501498
1.2326791 -0.3132471 -0.55307114 1.0129093 -0.052859925 -0.22984564 0.33791962 0.65526354
0.5318209 -0.49309957 0.48087668 -0.9949433 0.32545114 -0.6347301 -0.9806982 -0.8897721
00000000: cf50 8dbf 4829 27be 44ec 82be cb94 dc3d
00000010: 6080 763d 3bea 283f 6475 93be 9a58 bbbc
00000020: 7333 f83e c0aa 44bd bc87 41bf f33a 313f
00000030: 9811 b4bf 10c7 893d 05db 0e3f cf59 1cbf
00000040: d64e 3e3f e671 1f3f 3d85 613f c7f4 713f
00000050: 3345 b3be 6096 03bd 411a 283f 1389 f4bf
00000060: 42ff 2f3f deab 893f 8fdc 41bf 7c5b 83be
00000070: 556d 45be 34e3 b8be 5c85 a43f 280b 783e
00000080: 3946 193f 2878 433e ecb8 81bf 70cf d43d
00000090: 985a 303e 7c26 04be a01f 2dbf 0bea cdbe
000000a0: d084 d33d 8438 293e e0a2 b73d 685f cd3e
000000b0: f0cc 54be d8d1 c3be 8941 183f 3870 263f
000000c0: 6ec8 9d3f ed61 a0be 1296 0dbf 03a7 813f
000000d0: a683 58bd a85c 6bbe cd03 ad3e 5abf 273f
000000e0: 6a25 083f 8c77 fcbe 7835 f63e 9bb4 7ebf
000000f0: 88a1 a63e ac7d 22bf 0a0f 7bbf 1bc8 63bf

action_net.0.bias f4 [64]
-0.6849374 -0.20725071 -0.649711 1.1301585 -0.48115325 1.4967605 -0.38329542 1.3301013
-0.31835622 -0.122124195 1.0139099 0.815649 0.8191954 -0.89275503 0.5594412 1.2289783
-0.931473 -0.72170794 1.2747059 -0.3030481 0.56746006 -0.9741827 0.885391 0.061777424
0.9766958 0.851074 1.3198763 1.211188 1.0062336 0.6800997 0.4168259 -0.26136887
-0.6068232 -0.6982384 1.0806681 -0.720119 -0.7354337 1.1045084 -0.74206483 1.4494658
-0.97662437 0.55699825 -0.5563369 -0.62021184 -0.8853539 -0.4537195 -0.39378753 -0.98683846
0.068075754 -0.33089697 -0.7926768 -0.8380875 1.4071203 -0.36784518 0.7216357 0.7054986
1.1798377 -0.79316306 -0.81832206 1.0478797 -0.3611982 -0.96442235 -0.98136914 0.8645762
00000000: 0f58 2fbf 8839 54be 7653 26bf 09a9 903f
00000010: b859 f6be d995 bf3f 4c3f c4be c240 aa3f
00000020: 96ff a2be 401c fabd cdc7 813f 5fce 503f
00000030: cab6 513f 988b 64bf 8a37 0f3f 294f 9d3f
00000040: 0475 6ebf dac1 38bf 9029 a33f 1f29 9bbe
00000050: 1045 113f 0a64 79bf fca8 623f 530a 7d3d
00000060: bc08 7a3f fcdf 593f b5f1 a83f 3508 9b3f
00000070: 43cc 803f 041b 2e3f 346a d53e 24d2 85be
00000080: c458 1bbf c0bf 32bf 5553 8a3f b859 38bf
00000090: 6245 3cbf 8860 8d3f f6f7 3dbf 1888 b93f
000000a0: 0e04 7abf 7097 0e3f 186c 0ebf 34c6 1ebf
000000b0: 8ea6 62bf ec4d e8be 859e c9be 72a1 7cbf
000000c0: 4d6b 8b3d 546b a9be deec 4abf e78c 56bf
000000d0: 851c b43f 3456 bcbe 1ebd 383f 8e9b 343f
000000e0: ec04 973f bc0c 4bbf 8e7d 51bf ec20 863f
000000f0: f8ee b8be 62e4 76bf 023b 7bbf de54 5d3f

output_net.0.weight f4 [64, 128]
-0.38987747 0.7921859 0.5392557 0.1893145 0.42633897 0.5617203 0.69213516 0.51987344
0.6214607 0.61849487 0.3646214 -0.44975036 -0.24337612 0.6992826 0.4860905 0.470622
-0.11766827 -0.008350483 0.7272743 0.3974382 0.15097068 0.5255106 -0.08566504 -0.57244414
-0.15411575 -0.42110723 0.54039526 0.3227764 0.31405205 0.24275684 -1.0064597 0.43844634
1.0928279 0.5630303 0.09012116 -0.44255129 -0.164465 0.43294826 0.44374275 -0.24637528
0.47666726 -0.18685226 0.05151267 0.65271616 0.46264833 0.4338289 -0.3234526 0.35518667
0.36724773 -0.110522136 0.3391352 0.42805237 -0.086125776 0.03602388 -0.10736977 -0.07543124
0.5125802 0.38242796 0.6244333 0.4107001 0.5575771 0.24514136 -0.3663322 0.38501483
-0.025538884 -0.07060499 -0.040328264 0.23090862 -0.034027457 0.26681978 -0.05372052 0.3380474
-0.12274693 0.033791635 0.30645382 0.27951807 0.3171543 -0.009241002 0.065722056 0.33200032
-0.016633138 -0.040897153 0.24487305 0.061914645 0.40438727 -0.038241047 0.26508927 -0.0043012067
0.29425174 0.31701493 0.1987729 0.27361044 0.33091858 0.28752786 0.10663337 -0.005202786
0.049954023 -0.06536521 0.2523522 0.060138885 0.03318025 0.34756443 -0.004248265 0.25001094
0.04773398 0.33028248 0.073327415 -0.023269065 -0.05843727 0.03248284 -0.14704417 -0.018600099
0.057470534 -0.07164637 -0.06358492 0.14795215 0.28471896 -0.024839561 0.22032553 0.24459912
0.252504 -0.012414965 -0.041669503 0.23739888 0.05957478 -0.048980515 -0.055015765 0.3443091
0.025048861 0.03166634 -0.03517029 -0.068501905 -0.06530084 0.07179291 0.013899725 -0.054249104
0.07619636 0.080907784 -0.01108951 0.023306955 0.0023480642 -0.022118907 -0.016525906 -0.06188901
0.03695617 0.08630109 0.07746217 0.0453779 -0.07218971 -0.04115211 -0.036034945 0.08604302
-0.07494053 0.06733367 -0.0717161 0.016533902 -0.073464066 -0.04825969 0.06323338 -0.043142494
-0.074661255 -0.07026653 -0.025739733 -0.056889374 -0.0062299995 -0.035199247 -0.080185324 0.054090083
0.01851373 0.07191307 -0.02170432 0.0025706417 -0.0015545549 -0.031221036 -0.07328962 -0.07442145
-0.050359152 -0.07534593 0.07456164 0.044065543 0.06138308 -0.08433767 -0.044555 0.016793864
-0.055698607 0.049950883 -0.007966112 -0.010416246 0.0014786273 0.059605937 0.03188211 -0.021692803
-0.04508049 0.06926632 -0.031995695 0.08793411 0.007121595 0.065643065 0.0029528502 0.057491735
-0.067862034 -0.019808745 -0.05363276 -0.06957338 -0.0704362 0.083347686 0.040731777 0.014772512
-0.00560689 0.011969199 -0.04939679 -0.05709266 -0.06308871 0.080477856 -0.055304524 -0.05448828
-0.041425135 -0.01195744 -0.080981635 0.06950526 -0.06222015 -0.04441929 -0.05636042 -0.02778415
-0.07306509 -0.02972066 -0.028431568 -0.072783016 -0.022372294 -0.0049919677 -0.010254634 -0.029324165
-0.014898142 -0.06642178 -0.070839055 -0.072863996 0.0476495 0.0047004484 -0.033332866 -0.053338207
-0.02958381 -0.019487744 -0.0071428157 -0.0802829 -0.05477864 0.08153259 -0.040863276 -0.010067965
0.04285131 0.086357065 -0.039226167 -0.005984589 0.048772186 0.021001078 0.04852586 0.03281754
00000000: 059e c7be b2cc 4a3f a90c 0a3f a9db 413e
00000010: 1a49 da3e e7cc 0f3f c52f 313f 6d16 053f
00000020: 0c18 1f3f ae55 1e3f a8af ba3e ae45 e6be
00000030: 9737 79be 2f04 333f dbe0 f83e 5ef5 f03e
00000040: 10fc f0bd 77d0 08bc a62e 3a3f 057d cb3e
00000050: 0f98 1a3e dd87 063f 2771 afbd b38b 12bf
00000060: 85d0 1dbe 5e9b d7be 5857 0a3f f342 a53e
00000070: 6ecb a03e 4095 783e acd3 80bf 0a7c e03e
00000080: c9e1 8b3f c122 103f 7191 b83d 1596 e2be
00000090: 8369 28be 65ab dd3e 4032 e33e cd49 7cbe
000000a0: bb0d f43e 3356 3fbe f3fe 523d 6818 273f
000000b0: 3ee0 ec3e d21e de3e 949b a5be 07db b53e
000000c0: e507 bc3e 6e59 e2bd 21a3 ad3e ae29 db3e
000000d0: b662 b0bd c78d 133d afe4 dbbd b27b 9abd
000000e0: 7538 033f 99cd c33e dcda 1f3f 4947 d23e
000000f0: 5fbd 0e3f 5606 7b3e e58f bbbe aa20 c53e
00000100: ec36 d1bc 5999 90bd 402f 25bd 4f73 6c3e
00000110: 6060 0bbd 9a9c 883e 0c0a 5cbd 8c14 ad3e
00000120: be62 fbbd 1969 0a3d 84e7 9c3e fe1c 8f3e
00000130: 0c62 a23e 9267 17bc 4999 863d f2fb a93e
00000140: 3842 88bc c683 27bd 00c0 7a3e 369a 7d3d
00000150: d90b cf3e a5a2 1cbd c8b9 873e 23f1 8cbb
00000160: 2aa8 963e c84f a23e 208b 4b3e ab16 8c3e
00000170: 296e a93e da36 933e 9962 da3d 227c aabb
00000180: 979c 4c3d 32de 85bd 4f34 813e 3154 763d
00000190: 04e8 073d f7f3 b13e 0835 8bbb 6f01 803e
000001a0: b584 433d c91a a93e af2c 963d c49e bebc
000001b0: eb5b 6fbd ba0c 053d bf92 16be 3c5f 98bc
000001c0: 3966 6b3d 55bb 92bd cf38 82bd c580 173e
000001d0: afc6 913e 567c cbbc 049d 613e 3178 7a3e
000001e0: 3448 813e 2368 4bbc a4ad 2abd b118 733e
000001f0: af04 743d cb9f 48bd 3658 61bd 4849 b03e
00000200: 4533 cd3c 90b4 013d b90e 10bd ba4a 8cbd
00000210: 72bc 85bd 2908 933d acbb 633c 4f34 5ebd
00000220: d60c 9c3d fbb2 a53d c7b0 35bc 3aee be3c
00000230: fbe1 193b b632 b5bc 5661 87bc 557f 7dbd
00000240: 5a5f 173d a0be b03d 7ca4 9e3d 2dde 393d
00000250: 33d8 93bd 1d8f 28bd 6199 13bd 5337 b03d
00000260: 6c7a 99bd 3ce6 893d e4df 92bd 1b72 873c
00000270: 5474 96bd f4ab 45bd 8180 813d 2fb6 30bd
00000280: 00e8 98bd e6e7 8fbd 22dc d2bc d504 69bd
00000290: 0625 ccbb 162d 10bd 3438 a4bd 908d 5d3d
000002a0: 1baa 973c 2947 933d 42cd b1bc 3678 283b
000002b0: 35c2 cbba 42c3 ffbc de18 96bd 466a 98bd
000002c0: 6645 4ebd f84e 9abd c6b3 983d 127e 343d
000002d0: d36c 7b3d 3ab9 acbd 4e7f 36bd 4993 893c
000002e0: 3924 64bd 4c99 4c3d 4c84 02bc e7a8 2abc
000002f0: 80ce c13a 5b25 743d d196 023d 1bb5 b1bc
00000300: 52a6 38bd 80db 8d3d eb0d 03bd cc16 b43d
00000310: 455c e93b df6f 863d 9b84 413b 747c 6b3d
00000320: 40fb 8abd f345 a2bc 06ae 5bbd 7d7c 8ebd
00000330: db40 90bd 31b2 aa3d 5dd6 263d 6808 723c
00000340: 01ba b7bb 761a 443c 4a54 4abd fed9 69bd
00000350: a734 81bd 93d1 a43d ff86 62bd 1a2f 5fbd
00000360: 67ad 29bd 23e9 43bc b3d9 a5bd c658 8e3d
00000370: 8eda 7ebd 00f1 35bd 2fda 66bd 969b e3bc
00000380: 26a3 95bd be78 f3bc 52e9 e8bc 430f 95bd
00000390: 1a46 b7bc a993 a3bb 0d03 28bc 3b39 f0bc
000003a0: 5617 74bc 2408 88bd 1114 91bd b839 95bd
000003b0: 1f2c 433d 3806 9a3b 0b88 08bd 2a79 5abd
000003c0: bf59 f2bc c3a4 9fbc 480e eabb 5c6b a4bd
000003d0: 915f 60bd 8ffa a63d 4060 27bd 1bf4 24bc
000003e0: db84 2f3d f9db b03d 9eab 20bd 5f1a c4bb
000003f0: 58c5 473d 740a ac3c 0dc3 463d af6b 063d

output_net.0.bias f4 [64]
0.29116476 0.037013877 0.256749 0.3714651 0.17012905 0.22028159 0.18983305 0.21972826
-0.09177164 0.39429414 0.03910312 0.029288562 0.22956729 0.39268672 -0.0042435657 0.34570765
0.34941846 -0.055743303 -0.0080848895 -0.079615526 0.050155744 0.33173442 0.21279642 -0.1200551
-0.039424077 0.23499501 -0.13085063 -0.024160918 0.32153684 0.16692066 0.374327 0.012709617
0.26141727 0.35932595 0.4537845 0.25571206 0.3343564 0.21103947 0.30432805 -0.010881302
0.037286703 0.33345693 0.3697375 -0.01078313 0.10277552 0.28229553 0.03418159 0.1829674
0.048698276 0.2859959 0.058168113 0.23993482 0.33670375 0.4525845 0.055772644 0.2761918
0.001490465 0.3230046 0.07225871 0.30329084 0.4787768 -0.042913105 0.36737967 0.34761828
00000000: 8c13 953e dd9b 173d 9b74 833e ac30 be3e
00000010: 4f36 2e3e 7f91 613e 9863 423e 7200 613e
00000020: c5f2 bbbd ece0 c93e 982a 203d 91ee ef3c
00000030: b013 6b3e 3c0e c93e 9c0d 8bbb 9800 b13e
00000040: fae6 b23e 1753 64bd 7c76 04bc 770d a3bd
00000050: 1c70 4d3d 18d9 a93e 4ee7 593e 73df f5bd
00000060: 247b 21bd 88a2 703e b5fd 05be 1eed c5bc
00000070: 7aa0 a43e 40ed 2a3e caa7 bf3e ff3b 503c
00000080: 7cd8 853e 92f9 b73e 7156 e83e b1ec 823e
00000090: c330 ab3e bb1a 583e e3d0 9b3e 7d47 32bc
000000a0: f1b9 183d deba aa3e 3c4e bd3e baab 30bc
000000b0: f97b d23d 0a89 903e ff01 0c3d ce5b 3b3e
000000c0: d877 473d 0e6e 923e b041 6e3d 79b1 753e
000000d0: 6f64 ac3e 28b9 e73e db71 643d 0369 8d3e
000000e0: b55b c33a dc60 a53e 60fc 933d f048 9b3e
000000f0: 3c22 f53e a7c5 2fbd 3019 bc3e 06fb b13e

output_net.2.weight f4 [1, 64]
-0.68642795 0.11558345 -0.74466574 -0.63082546 -0.70618075 -0.7547812 1.983409 -0.6615847
1.6294762 2.8182173 0.10071038 2.3528192 -0.766687 7.3225846 1.3379633 -0.7311913
-0.7533501 0.09477776 0.046737116 0.07438771 0.08654483 -0.67643213 1.5107278 2.5845149
0.047913976 -0.6842053 1.343497 0.02878387 -0.69381243 2.9626358 -0.6754344 0.028422605
-0.72499967 -0.6959784 -0.7456005 -0.7708747 2.2991767 -0.75911885 -0.64776874 2.1642375
0.08306331 -0.7613633 -0.6415076 1.732576 2.951178 1.836805 0.104658596 1.6250198
1.6644883 -0.7448809 0.04497828 -0.73733294 -0.70728153 -0.69441986 0.06301441 -0.7185131
0.058497306 -0.63045573 0.042867225 -0.759106 11.026494 0.08357521 -0.7235867 -0.7847846
00000000: beb9 2fbf 04b7 ec3d 6aa2 3ebf c77d 21bf
00000010: 43c8 34bf 5739 41bf 59e0 fd3f 9d5d 29bf
00000020: ad92 d03f ac5d 3440 3e41 ce3d 9794 1640
00000030: 9945 44bf 9d52 ea40 6242 ab3f 5a2f 3bbf
00000040: 8ddb 40bf d81a c23d 6b6f 3f3d 9558 983d
00000050: 6a3e b13d a82a 2dbf 875f c13f b168 2540
00000060: 7241 443d 1428 2fbf b6f7 ab3f 27cc eb3c
00000070: b19d 31bf d39b 3d40 45e9 2cbf 86d6 e83c
00000080: 9499 39bf a42b 32bf addf 3ebf 0b58 45bf
00000090: b625 1340 9d55 42bf 2cd4 25bf de82 0a40
000000a0: 191d aa3d b5e8 42bf d839 24bf 0dc5 dd3f
000000b0: 1ae0 3c40 6d1c eb3f 3f57 d63d a600 d03f
000000c0: f40d d53f 84b0 3ebf 253b 383d dac1 3cbf
000000d0: 6710 35bf 80c5 31bf b30d 813d 79f0 37bf
000000e0: df9a 6f3d 8c65 21bf 8b95 2f3d c554 42bf
000000f0: 856c 3041 7b29 ab3d fa3c 39bf a5e7 48bf
