Q1/ckpt/critic1_ep200.pth (torch, 38344 bytes, 7 tensors)

state_net.0.weight f4 [64, 3]
0	0xbf219057	-0.6311087
1	0x3fb96779	1.4484702
2	0x3ead0582	0.33793265
3	0xbe9f495a	-0.3111065
4	0x3f747d23	0.95503443
5	0xbe7c811d	-0.24658628
6	0xbed28756	-0.41118878
7	0xbc2d886c	-0.010591608
8	0xbe347da1	-0.17626049
9	0x3e0f9aeb	0.1402394
10	0x3e9df534	0.30851138
11	0x3f48b3e2	0.7839948
12	0xbeae3415	-0.3402411
13	0x3f3510ee	0.7072896
14	0xbeea7eab	-0.45799765
15	0xbf22f2b0	-0.6365156
16	0xbfa7c8b2	-1.3108122
17	0xbe9c28c6	-0.30499858
18	0xbf718ea0	-0.94358253
19	0xbeea443b	-0.4575518
20	0xbeacecd0	-0.33774424
21	0xbf8776d9	-1.0583144
22	0x3e5e233d	0.2169313
23	0xbe26ca13	-0.16288023
24	0xbf89cd59	-1.0765792
25	0xbfb2a88b	-1.3957685
26	0xbe5adfec	-0.21374482
27	0xbee55dd9	-0.44798163
28	0x3d7ccc57	0.06171831
29	0xbe48a761	-0.195951
30	0xbf2b00cc	-0.6679809
31	0xbfa37d20	-1.277256
32	0xbe9c5501	-0.30533603
33	0xbf4a411f	-0.79005617
34	0x3e0ea031	0.13928296
35	0x3e901b0c	0.28145635
36	0xbf4ca780	-0.79943085
37	0xbf3efc69	-0.746039
38	0x3e353e84	0.17699629
39	0xbe6755d6	-0.22591338
40	0xbf9d703e	-1.2299879
41	0x3e7b9b86	0.24571046
42	0xbf9b76cf	-1.2145633
43	0x3fdb7018	1.7143583
44	0x3e8f8014	0.28027403
45	0xbf44110d	-0.7658852
46	0xbf3e9967	-0.74452823
47	0xbf34fc40	-0.706974
48	0xbf06bf61	-0.5263577
49	0xbfb4fa53	-1.4138893
50	0xbf1caa0a	-0.6119696
51	0x3dcc46bc	0.09974429
52	0xbf3fe874	-0.7496407
53	0x3e9d894c	0.30768812
54	0xbe81a3d1	-0.25320294
55	0x3e85abad	0.2610754
56	0xbf371eca	-0.71531355
57	0xbf902d55	-1.1263834
58	0x3f87580e	1.0573747
59	0x3ebff1b9	0.37489107
60	0xbf648199	-0.8926025
61	0x3f4089b1	0.752101
62	0x3e92e4e7	0.28690264
63	0xbf684039	-0.90722996
64	0x3fc57139	1.5425178
65	0x3ecd236f	0.40066096
66	0x3f1e081c	0.61731124
67	0x3f599930	0.8499937
68	0x3ba6bbb6	0.005088295
69	0xbf311c12	-0.69183457
70	0x3e55ea49	0.20890154
71	0x3eeb3da7	0.45945475
72	0xbeb8bad4	-0.3608004
73	0xbca96982	-0.020680193
74	0x3e687656	0.22701392
75	0x3f179c06	0.5922245
76	0x3f90fc9a	1.1327088
77	0x3ee3641f	0.44412324
78	0x3f3bd6f9	0.733749
79	0x40002764	2.0024042
80	0x3ee58bc0	0.44833183
81	0xbe0b71ce	-0.13617632
82	0x400f1aa7	2.2360017
83	0x3ee7d93f	0.45282933
84	0x3f82d7de	1.0222127
85	0x3f0ad7e1	0.54235655
86	0x3dc367e3	0.09541299
87	0x3fa0a3ec	1.2550025
88	0xbf1c8afb	-0.6114957
89	0xbeba2ced	-0.363624
90	0xbf62ccff	-0.8859405
91	0xbf02b991	-0.510644
92	0xbe839cd1	-0.2570558
93	0xbf141b01	-0.57853705
94	0x3dc010fa	0.09378238
95	0x3e6e94a4	0.2329889
96	0xbf3cfd4d	-0.73824006
97	0x3fa8cd51	1.3187658
98	0xbe0b1709	-0.13583006
99	0xbef49eae	-0.47777313
100	0xbe65d5bd	-0.22444816
101	0xbe451881	-0.19247629
102	0xbd89d28a	-0.0672961
103	0xbe206a7b	-0.15665619
104	0x3e2c9397	0.16853176
105	0xbf95ae96	-1.1693904
106	0x3f965794	1.1745477
107	0x3ecc10a6	0.39856452
108	0xbed7334e	-0.4203133
109	0x3e9d8d57	0.30771896
110	0xbeef0abf	-0.46687886
111	0xbf7554f6	-0.95832765
112	0x3f8e01c8	1.1094294
113	0x3eb1cfb4	0.34728777
114	0x3fbbd3f5	1.4674059
115	0xbf1163f4	-0.5679314
116	0xbe1b707f	-0.15179633
117	0xbf60701b	-0.8767106
118	0xbfb4cd76	-1.4125202
119	0x3e182d54	0.14861041
120	0xbe7d140e	-0.24714682
121	0xbdf6bd5b	-0.120478354
122	0xbec36b5b	-0.38167843
123	0xbf0a0cb5	-0.5392564
124	0xbe3e10b0	-0.18561053
125	0xbe863557	-0.2621257
126	0xbf451800	-0.76989746
127	0x3f76f8c4	0.96473336
128	0x3f3d652e	0.7398251
129	0xbf071fd0	-0.5278292
130	0xbf32fee7	-0.699202
131	0x3e287840	0.16452122
132	0x3f5c231c	0.8599107
133	0xc01035b7	-2.2532785
134	0xbf044e56	-0.5168203
135	0xbf800a7e	-1.0003202
136	0x3facce87	1.3500527
137	0x3ec6818a	0.38770705
138	0xbd5fe0fb	-0.054657917
139	0x3f17d53d	0.5930975
140	0xbf003db0	-0.5009413
141	0xbeb39853	-0.35077152
142	0xbf5cc49d	-0.8623751
143	0x3ecc06ff	0.39849088
144	0x3e9ef181	0.31043628
145	0x3f06990f	0.525773
146	0x3f21e8fa	0.6324612
147	0xbe50f44e	-0.20405695
148	0xc00bfbee	-2.1872516
149	0xbee3332b	-0.44374976
150	0xbf66ad2f	-0.9010801
151	0xbfae2f81	-1.3608247
152	0xbeb8e161	-0.3610945
153	0xbe0ef709	-0.13961424
154	0xbe33f79f	-0.17574929
155	0x3ecc1248	0.39857697
156	0xbf0d6bc7	-0.5524258
157	0xbe1076c9	-0.14107813
158	0xbe822eaf	-0.25426242
159	0xbf11a27b	-0.5688855
160	0x3da00b8a	0.07814701
161	0x3e70d282	0.23517802
162	0x3e0afb51	0.13572432
163	0x3f00fbdd	0.5038431
164	0x3d58cf20	0.052931905
165	0xbf1037f3	-0.5633537
166	0xbe6c5f08	-0.23083127
167	0xbe6fd7fd	-0.23422237
168	0xbf429ee4	-0.760237
169	0x3f63efb3	0.89037627
170	0xbe706f3c	-0.23479933
171	0xbfa6cc55	-1.3031107
172	0x3fe205e1	1.7658044
173	0x3ee812e4	0.45326912
174	0xbef4cf0a	-0.47814208
175	0xc007c778	-2.1215496
176	0xbeca9c85	-0.3957254
177	0x3f86f2a2	1.0542796
178	0x3f8481a9	1.0352069
179	0x3eafe7c6	0.34356517
180	0x3e52f658	0.20601785
181	0xbf094a7a	-0.5362927
182	0xbcebb63f	-0.028773425
183	0xbed0f8c4	-0.40814793
184	0xbf5d4811	-0.8643809
185	0x3eacf604	0.33781445
186	0xbf737885	-0.95105773
187	0x3d3d94e2	0.046284564
188	0xbbf0b9c1	-0.0073463623
189	0x3efc747e	0.49307626
190	0xc009263c	-2.1429586
191	0xbeee8167	-0.465831

state_net.0.bias f4 [64]
0	0x3f17f401	0.59356695
1	0x3f8925c6	1.0714653
2	0x3f82daf1	1.0223066
3	0x3eec4013	0.46142635
4	0xbee7d031	-0.45276025
5	0x3f1b5535	0.6067689
6	0x3fc5903f	1.5434645
7	0x3e5123d9	0.20423831
8	0xbd936c92	-0.071984425
9	0x3f981309	1.1880809
10	0x3f243e09	0.6415716
11	0x3f9ce80a	1.2258313
12	0x3f4d94fb	0.8030545
13	0x3f8ec708	1.115449
14	0x3f0fd669	0.5618654
15	0xbf096d7d	-0.5368269
16	0xbe6e2ee4	-0.23260075
17	0x3fe8d60a	1.819032
18	0x3f57eed3	0.8434879
19	0x3f8d7a81	1.105301
20	0x3f613081	0.87964636
21	0x3f5c938d	0.86162645
22	0x3f7b3189	0.9812246
23	0xbf01da08	-0.50723314
24	0x3f9e8b8e	1.2386339
25	0x3eaeacf1	0.3411632
26	0xbf333d8f	-0.70015806
27	0x3df145a3	0.1178086
28	0x3f66323c	0.899204
29	0xbfa26e30	-1.2689877
30	0x3f87ca38	1.0608587
31	0x3f898feb	1.0747045
32	0x3f3600de	0.71095073
33	0x3f69b2a9	0.9128824
34	0x3f933f91	1.1503774
35	0x3f91f635	1.1403261
36	0xbeda6bac	-0.42660272
37	0x3f6dbbfe	0.9286498
38	0x3efc479b	0.4927338
39	0x3f2e51ca	0.6809355
40	0xbe1eafbf	-0.1549673
41	0x3fb11786	1.3835304
42	0xbf28a554	-0.6587727
43	0x3f1f4455	0.6221364
44	0xbf4fd460	-0.81183434
45	0x3f7584c3	0.95905703
46	0x3f2584fb	0.6465604
47	0xbe99f954	-0.30073035
48	0x3e882ef9	0.26598337
49	0x3e41905f	0.1890273
50	0x3f64b1b3	0.8933365
51	0xbea53414	-0.32266295
52	0x3fae80cd	1.3633057
53	0x3f8cc4af	1.0997523
54	0x3f6d4771	0.92687136
55	0x3f934bf1	1.150755
56	0x3f41d207	0.757111
57	0x3e256408	0.1615144
58	0xbf0c1262	-0.5471555
59	0xbf899322	-1.0748026
60	0x3f64b081	0.89331824
61	0xbf2a15bd	-0.6643942
62	0xbf084490	-0.5322962
63	0xbeeba720	-0.46025944

action_net.0.weight f4 [64, 1]
0	0xbf99a27b	-1.200271
1	0xbf8d9b19	-1.1062957
2	0x3ddb5480	0.107094765
3	0xbd32ca76	-0.043650113
4	0xbeb9b746	-0.3627264
5	0xbf22b028	-0.63550043
6	0x3f2209ba	0.6329609
7	0x3f044f80	0.5168381
8	0xbebe4e8c	-0.37169302
9	0xbd21ec56	-0.03953203
10	0x3f7bd842	0.9837686
11	0x3ee84be7	0.4537041
12	0xbeb6590e	-0.35614818
13	0xbe393bca	-0.18089214
14	0x3f6a66cc	0.91563106
15	0xbf31f5df	-0.69515795
16	0xbd7745e0	-0.060369372
17	0x3ee66d68	0.45005345
18	0x3ee12500	0.4397354
19	0x3eab04ad	0.33402005
20	0x3d96e970	0.073687434
21	0xbec35ee7	-0.38158342
22	0x3f0560da	0.5210091
23	0x3edf4a88	0.4361155
24	0x3f55e0d7	0.83546203
25	0xbf50729c	-0.8142488
26	0x3f241c27	0.6410546
27	0xbea93f08	-0.33055902
28	0x3f3fa830	0.7486601
29	0xbf469a50	-0.7757921
30	0xbf88982c	-1.0671439
31	0x3f6cfe14	0.9257519
32	0xbf9c81e2	-1.2227137
33	0xbe8b6e1c	-0.27232444
34	0x3dc4b5c6	0.09604983
35	0xbee1fc01	-0.44137576
36	0xbeda9430	-0.42691183
37	0xbefb0135	-0.49024358
38	0x3e98fde5	0.29881206
39	0x3ec89c09	0.39181545
40	0x3ee7c31a	0.45266038
41	0x3d45de60	0.048307776
42	0xbf3fefa2	-0.74975026
43	0x3f31d75f	0.69469255
44	0x3f0ec74d	0.5577286
45	0xbf589edc	-0.846174
46	0xbf5c0428	-0.8594384
47	0xbf2b897e	-0.6700667
48	0x3db1da6e	0.0868424
49	0xbf51fa46	-0.8202251
50	0xbf69f973	-0.91396254
51	0xbf40d480	-0.7532425
52	0x3ec4acf7	0.38413212
53	0x3f075260	0.5286007
54	0x3eb806b8	0.35942626
55	0x3d613588	0.054982692
56	0xbf40e327	-0.75346607
57	0x3f7ef43f	0.9959144
58	0x3f2723d1	0.65289026
59	0x3f73f398	0.9529357
60	0x3f45067c	0.7696302
61	0xbed2ba0b	-0.41157565
62	0xbee464bf	-0.44608113
63	0x3f856b05	1.0423285

action_net.0.bias f4 [64]
0	0xbdcc2846	-0.09968619
1	0xbe539241	-0.2066126
2	0xbedfbef0	-0.4370036
3	0x3f905313	1.1275352
4	0x3f27138f	0.6526422
5	0xbf7a44f8	-0.9776149
6	0xbde813e3	-0.11331918
7	0x3f8e318e	1.1108873
8	0xbf0d6aa0	-0.5524082
9	0x3f99fda7	1.2030534
10	0x3f20f008	0.6286626
11	0xbeaa0755	-0.3320872
12	0x3f1d7d04	0.61518884
13	0x3f050123	0.5195486
14	0x3f4257be	0.75915134
15	0x3f62a392	0.8853084
16	0xbeb1bbd4	-0.34713614
17	0x3f881087	1.0630044
18	0xbf5ef3a2	-0.87090504
19	0x3ec506fd	0.38481894
20	0xbf3b1b02	-0.73088086
21	0x3f2ae9d4	0.66763043
22	0x3fb91a76	1.44612
23	0xbeeb068c	-0.45903432
24	0x3f675b32	0.9037353
25	0x3f99927d	1.199783
26	0xbef4b413	-0.47793636
27	0xbe8885dd	-0.2666463
28	0x3f596567	0.8492035
29	0x3db84f35	0.089994825
30	0xbf11ee53	-0.5700428
31	0xbed7f229	-0.4217694
32	0xbf328b67	-0.6974396
33	0x3fac95fc	1.3483272
34	0x3f97618f	1.1826648
35	0x3f9e7950	1.2380772
36	0x3f882cc8	1.0638666
37	0x3f54783e	0.82995975
38	0x3e865f7c	0.26244724
39	0x3f248618	0.6426711
40	0x3f85b277	1.0445088
41	0xbf2ddfa8	-0.679194
42	0x3f878f76	1.0590656
43	0x3f59fe13	0.8515331
44	0x3f43e0ff	0.7651519
45	0x3fa40604	1.2814336
46	0xbf65dc66	-0.89789426
47	0xbf43b5aa	-0.7644907
48	0x3f7ed6ab	0.9954631
49	0x3fad75e4	1.3551602
50	0xbda73b47	-0.08165603
51	0xbf6dd306	-0.9290012
52	0x3f1cb594	0.61214566
53	0x3f7069cc	0.93911433
54	0xbf1c4220	-0.610384
55	0x3f82b6dd	1.0212055
56	0x3f421ae6	0.75822294
57	0x3e0ec944	0.13943964
58	0x3fa3d7cf	1.2800235
59	0x3dbf2640	0.093334675
60	0xbf710d80	-0.94161224
61	0x3f44d2ef	0.7688436
62	0x3fa53884	1.2907872
63	0x3dca822b	0.09888109

output_net.0.weight f4 [64, 128]
0	0x3d3debf1	0.04636759
1	0xbdb5b0ad	-0.08871589
2	0xbd7d65f4	-0.06186481
3	0x3d57b9d3	0.05266745
4	0x3d7261bd	0.05917524
5	0x3d4c326d	0.049852777
6	0x3d0d9bd6	0.034572445
7	0xbc2bfb79	-0.0104969675
8	0xbb6d0472	-0.003616598
9	0xbd3ce5fd	-0.04611777
10	0x3d925662	0.071453825
11	0xbd9e5796	-0.077315494
12	0x3d39d022	0.045364507
13	0x3cbaf302	0.022820953
14	0x3c8c02d8	0.0170912
15	0x3d8f03af	0.069831245
16	0xbc918f6d	-0.017768586
17	0xbd84bb97	-0.064810924
18	0xbc05fbd9	-0.008177721
19	0x39da0f40	0.00041591562
20	0x3d3f33c3	0.046680223
21	0xbcecdeb1	-0.028914781
22	0xbd1f873d	-0.038947333
23	0xbda89e8c	-0.082333654
24	0xbc5a7086	-0.013332492
25	0xbcd2985e	-0.02570742
26	0x3c4a62bb	0.012352641
27	0x3d27e048	0.040985376
28	0x3d1856ef	0.03719228
29	0x3cf2ea61	0.029652776
30	0xbda19353	-0.07889428
31	0x3d005d81	0.031339172
32	0xbd40e9ef	-0.047098096
33	0x3d7d7702	0.061881073
34	0xbda7b7b8	-0.081893384
35	0x3b9e67c7	0.0048341486
36	0xbcea7a8e	-0.028622892
37	0xbd4c0a66	-0.049814604
38	0xbd82e719	-0.06391735
39	0x3d8c2696	0.06843297
40	0xbd0d3a4b	-0.03447942
41	0xbd300f88	-0.04298356
42	0x3d9bdcf8	0.07610506
43	0xbcd9fb63	-0.026609128
44	0x3d1515c7	0.03639772
45	0xbda23f26	-0.07922201
46	0x3d4b2c24	0.049602643
47	0xbd8d6dfe	-0.06905745
48	0x3d113360	0.035449386
49	0xbdb91931	-0.09038008
50	0x3c9d9363	0.019235319
51	0xba1353a9	-0.00056200713
52	0xbcd06ec6	-0.025443446
53	0xbc59a8c9	-0.01328487
54	0x3d11c7c8	0.035590917
55	0x3c5a2c51	0.01331623
56	0xbd470fcb	-0.048599046
57	0xbda63425	-0.081154145
58	0xbd81d849	-0.06340081
59	0xbdad8ade	-0.084737524
60	0x3c98d04f	0.018654017
61	0xbd44a5ba	-0.04800961
62	0x3d04218c	0.032258555
63	0xbd97154a	-0.073771074
64	0xbd5fcb5b	-0.054637294
65	0xbce03b7d	-0.027372116
66	0x3d8f25a2	0.069896
67	0x3ca65fdd	0.020309383
68	0xbd9b9e01	-0.07598496
69	0xbd44bbb9	-0.04803059
70	0x3d90492e	0.07045208
71	0x3d412fc2	0.047164686
72	0x3dac1458	0.08402318
73	0xbda10f38	-0.07864231
74	0xbd024172	-0.031800695
75	0x3d9e7cb0	0.07738626
76	0xbd9f9588	-0.07792193
77	0x3b71142f	0.0036785712
78	0xbd4efdcb	-0.050535005
79	0xbd5bc744	-0.05365683
80	0x3d850bb7	0.06496375
81	0x3964d10c	0.0002182165
82	0x3bdec80d	0.0067987503
83	0xbd21f353	-0.039538693
84	0x3d9047fd	0.07044981
85	0xbbaadff4	-0.0052146856
86	0x3c672cb3	0.014109778
87	0x3d822742	0.06355144
88	0x3b4f9b86	0.0031678393
89	0xbd7af945	-0.06127288
90	0xbd55cf86	-0.052199863
91	0x3d78f21b	0.060777765
92	0x3d11ab35	0.035563666
93	0xbdb70a03	-0.089374565
94	0xbca265bc	-0.019823901
95	0xbd2575e2	-0.040395625
96	0xbd2803cd	-0.04101925
97	0xbd8dc729	-0.069227524
98	0xbc05624b	-0.008141111
99	0x3b6536fd	0.0034975403
100	0x3cee6420	0.029100478
101	0xbda8e04b	-0.082459055
102	0xbc9eaabe	-0.019368526
103	0x3d616b9b	0.05503426
104	0x3d3efbba	0.046626784
105	0x3d247c0e	0.04015737
106	0xbd4b62c1	-0.049654726
107	0xbd87d205	-0.06631855
108	0xbcd30991	-0.025761398
109	0xba0c58a7	-0.00053537864
110	0x3d06224f	0.032747563
111	0xbd3d126b	-0.046160143
112	0x3d999d89	0.075007506
113	0x3d4635fc	0.048391327
114	0x3d84f1d3	0.06491437
115	0x3db33a61	0.08751369
116	0x3d988213	0.07446685
117	0xbd7aaa07	-0.061197307
118	0xbc945f7a	-0.018111933
119	0x3d2de1e5	0.042451758
120	0x3d64f392	0.05589635
121	0xbd3febf3	-0.046855878
122	0xbda59960	-0.080858946
123	0xbdb94039	-0.090454526
124	0xbd997cf5	-0.07494537
125	0x3bc366fb	0.005963204
126	0x3c857b14	0.01629404
127	0xbd9d6435	-0.076851286
128	0x3ed14c86	0.40878695
129	0x3f1a62b5	0.60306865
130	0x3ef299fe	0.47383112
131	0xbda21cfb	-0.07915684
132	0xbec200e1	-0.37891296
133	0x3eb45f2a	0.35228854
134	0x3eaa9121	0.3331385
135	0x3f468f6d	0.775626
136	0xbecb38c6	-0.39691752
137	0x3f06b697	0.5262236
138	0x3ee48e43	0.44639787
139	0x3eb51dca	0.3537429
140	0x3f174991	0.5909663
141	0x3f232b2e	0.6373776
142	0xbea120c4	-0.3147031
143	0xbe4bbb2f	-0.19895624
144	0xbe5c41b1	-0.21509434
145	0x3e65ae1c	0.22429699
146	0xbd6d178f	-0.057883795
147	0x3e15cacb	0.1462814
148	0x3f038c4e	0.5138596
149	0x3eb98962	0.36237627
150	0x3edecdfd	0.43516532
151	0xbdc26e49	-0.094936915
152	0x3ee84feb	0.45373473
153	0xbe191382	-0.14948848
154	0x3f1b9bed	0.607848
155	0x3e8e46f1	0.277885
156	0x3f0681c1	0.5254174
157	0x3fc1a6b4	1.5128999
158	0x3edbf4a2	0.42960078
159	0x3f0bf2e8	0.5466752
160	0x3f0d31ad	0.55153924
161	0x3ed52dfd	0.4163665
162	0x3f0ba183	0.5454332
163	0x3e93ae42	0.28843886
164	0xbe48fb27	-0.19627057
165	0x3e9cefa6	0.30651587
166	0x3ed07afe	0.40718836
167	0x3f05ae6e	0.52219284
168	0xbe4ca111	-0.19983317
169	0x3e45d519	0.19319572
170	0xbe76fcda	-0.24119893
171	0x3f0c4d16	0.54805124
172	0x3f059153	0.5217487
173	0x3e4fdae0	0.20298338
174	0xbe145bc5	-0.14488132
175	0xbeb868b1	-0.36017373
176	0xbde6277b	-0.11237999
177	0x3eb62442	0.35574538
178	0x3f0094da	0.5022713
179	0xbe905d7e	-0.2819633
180	0x3ecc6d34	0.39927065
181	0x3f0b2768	0.54357004
182	0x3eb0d73e	0.34539217
183	0x3f079a61	0.5296994
184	0x3ee5cae2	0.4488135
185	0xbede981c	-0.43475425
186	0xbf445903	-0.7669832
187	0x3f9228ed	1.141874
188	0x3e88cdf4	0.2671963
189	0xbf082e00	-0.5319519
190	0x3f6b1872	0.91834176
191	0x3ef0525b	0.46937832
192	0xbd197f62	-0.037474997
193	0xbe4b103a	-0.19830409
194	0xbcef5bee	-0.02921864
195	0x3eab0e6c	0.3340944
196	0x3ea3db8f	0.32003447
197	0x3d72b63c	0.059255823
198	0x3cf6bfd0	0.03012076
199	0x3eb83615	0.3597876
200	0x3cb5f0c5	0.022209534
201	0x3ea8ca02	0.3296662
202	0x3e2c91bd	0.1685247
203	0xbc148a86	-0.00906623
204	0x3ebc6f36	0.36803597
205	0x3ec2d20e	0.38050884
206	0x3e53e2c4	0.20691973
207	0x3e908ab8	0.28230834
208	0xbd85862d	-0.065197326
209	0x3ee1c1ab	0.4409307
210	0xbd2d54da	-0.04231725
211	0x3e803ece	0.25047916
212	0x3c5fd99d	0.013662723
213	0x3e8972cc	0.26845396
214	0x3ee8a193	0.4543577
215	0xbd71d5b2	-0.059041686
216	0x3e9e3e41	0.3090687
217	0x3eaf9e7b	0.34300599
218	0xbda972ac	-0.08273825
219	0x3ddbd233	0.10733452
220	0x3e93c61a	0.28862077
221	0xbc8fee7a	-0.01756977
222	0xbdfe17a6	-0.12406854
223	0xbcb9ee8a	-0.022696752
224	0xbe65d00c	-0.22442645
225	0x3ee24246	0.44191188
226	0x3eb2b9ca	0.3490737
227	0x3ecc0a06	0.39851397
228	0x3e97d3ab	0.29653677
229	0x3ed711c9	0.42005756
230	0x3d5b0f9f	0.053481694
231	0x3e9319ee	0.2873072
232	0x3ec1368e	0.37736934
233	0xbd8b9567	-0.068156056
234	0x3e82c65e	0.25541967
235	0x3eb277a5	0.34856907
236	0x3ebfdf28	0.37474942
237	0x3e98e996	0.29865712
238	0x3d3938e1	0.04522026
239	0xbda18970	-0.07887542
240	0x3eccc85a	0.39996606
241	0x3ec98f91	0.39367345
242	0xbd73e7ad	-0.059547115
243	0x3c2ec18a	0.0106662605
244	0x3ec4f6d8	0.38469577
245	0x3eacd7f2	0.33758503
246	0xbd290d25	-0.0412723
247	0x3ea40bc0	0.32040215
248	0x3e8f6b9d	0.2801179
249	0xbd1674a0	-0.036732316
250	0x3ed34022	0.41259867
251	0x3d957e4a	0.07299478
252	0x3d12e74c	0.035865113
253	0x3eca08ca	0.3945983
254	0x3ec45160	0.38343334
255	0x3c07ea76	0.008295646

output_net.0.bias f4 [64]
0	0xbd54b086	-0.05192616
1	0x3ed7e363	0.4216567
2	0x3d05539e	0.032550447
3	0x3ecef614	0.40422118
4	0x3e9070bb	0.28211007
5	0x3e930e72	0.28721958
6	0x3e91851f	0.28421876
7	0x3ce077e4	0.027400918
8	0x3e612ed0	0.21990514
9	0xbd42c5c4	-0.047551885
10	0x3eacc3f0	0.33743238
11	0x3e03d3ed	0.12873812
12	0xbcc8f37d	-0.024530167
13	0x3ebfc755	0.37456766
14	0x3e1aa0b5	0.15100367
15	0x3e6fb877	0.23410212
16	0xbc9b799e	-0.01897889
17	0x3e88dad3	0.2672945
18	0xbda54324	-0.08069447
19	0x3e91c523	0.28470716
20	0xbc5754bd	-0.013142762
21	0xbca651b9	-0.02030264
22	0x3e8a634c	0.27028883
23	0x3ea9856d	0.33109608
24	0x3e824d2d	0.25449505
25	0x3ec5e279	0.38649347
26	0xbdc78475	-0.09742061
27	0x3d0ac575	0.033879716
28	0x3eb03edf	0.34422967
29	0xbd0997c1	-0.03359199
30	0x3e59bafe	0.21262738
31	0x3ea06923	0.31330213
32	0x3e855c53	0.26047
33	0x3e9f2773	0.31084785
34	0x3e95449e	0.29153913
35	0x3eb08411	0.3447576
36	0x3e9d7b59	0.3075817
37	0x3cff8c05	0.031194696
38	0x3e9c41f3	0.30519065
39	0x3e891158	0.26771045
40	0x3ead132d	0.33803692
41	0x3eb6af82	0.35680777
42	0x3e79470b	0.24343507
43	0x3ea90330	0.33010244
44	0x3e990579	0.29886988
45	0xbd38a0df	-0.045075294
46	0x3c193fec	0.009353619
47	0xbcd97c7b	-0.026548615
48	0x3ec21580	0.37907028
49	0x3ebaeb06	0.36507434
50	0x3e886786	0.26641482
51	0x3ea3d117	0.3199546
52	0x3e897e6b	0.26854262
53	0x3eb674d0	0.35635996
54	0x3e6b3754	0.22970325
55	0x3e681a52	0.2266629
56	0x3eab8585	0.33500305
57	0x3ec6dc3f	0.3883991
58	0xbd5b6cf6	-0.05357071
59	0x3e89db9b	0.26925358
60	0xbd67a52d	-0.05655401
61	0xbd85ccdd	-0.06533215
62	0x3ea543d2	0.32278305
63	0x3d4d20e2	0.050080188

output_net.2.weight f4 [1, 64]
0	0x3dd0e994	0.102008015
1	0xbf0dd82d	-0.55407983
2	0x3fc4e3b6	1.5381992
3	0xbf17b3fc	-0.5925901
4	0xbf19dfae	-0.60106933
5	0xbf12cb3d	-0.57341367
6	0xbf0b00d6	-0.5429815
7	0x3dd5eb7b	0.10445305
8	0xbf2f8032	-0.68554986
9	0x3cfa4bec	0.03055378
10	0xbf0b2862	-0.54358494
11	0x3fdd60f6	1.7295215
12	0x3fdf63b9	1.7452308
13	0xbf1ee77d	-0.62071973
14	0x400b1561	2.1731799
15	0xbf325d37	-0.69673485
16	0x3ff51605	1.9147345
17	0xbf1f155a	-0.62141955
18	0x3c96d051	0.01840988
19	0xbf18a542	-0.59627163
20	0x3d75acd7	0.059979286
21	0x3de42355	0.111395516
22	0x3fda2d59	1.7045089
23	0xbf25b015	-0.64721805
24	0x401e8cd2	2.477345
25	0xbf3f40c0	-0.74708176
26	0xbd80f640	-0.062969685
27	0x3de50816	0.11183183
28	0xbf10b5a7	-0.5652718
29	0x3d8a6f44	0.067595035
30	0xbf2ccdf6	-0.6750177
31	0xbf1ef4bd	-0.6209219
32	0xbf208bfe	-0.6271361
33	0x3fec8232	1.8477232
34	0xbf34c954	-0.706197
35	0xbf1437c6	-0.57897604
36	0xbf2eddcd	-0.6830719
37	0x3de25c0e	0.11052714
38	0xbf29e3ef	-0.66363424
39	0xbf219a21	-0.6312581
40	0xbf584d1c	-0.8449266
41	0xbf132bbe	-0.5748862
42	0xbf24c022	-0.6435567
43	0xbf20825c	-0.6269891
44	0xbf33d5a3	-0.7024786
45	0xbda8615a	-0.08221693
46	0x3d54bb82	0.051936634
47	0xbd8d5602	-0.0690117
48	0xbf19ee89	-0.601296
49	0xbf299ba2	-0.662531
50	0xbf2269a5	-0.6344245
51	0xbf1b5055	-0.6066945
52	0x4000e13b	2.013747
53	0xbf1147e8	-0.56750345
54	0xbf1e0ac0	-0.61735153
55	0xbf303f2b	-0.68846387
56	0xbf3403f1	-0.70318514
57	0xbf365dc0	-0.712368
58	0x3fab540d	1.3385025
59	0xbf103bde	-0.5634135
60	0x3f9c67f2	1.2219222
61	0x3d192bce	0.03739529
62	0x3fa367ae	1.2766016
63	0x3d0f67fc	0.035011277
